Code Submission/DRL_models/snapshot-score-2.pth (torch, 17045 bytes, 4 tensors)

linear1.weight f4 [256, 11]
00000000: 2acc 633e a1bc 32bd f63b 073e 82e8 953e
00000010: 163b 7dbe 6b35 f83d cade 22be 452b 90be
00000020: 09b1 983e d44c 09bd d9ff 8b3d 33cb bebd
00000030: ee0e 16be aacc f3bc 74d9 9cbd 1d5b a3bc
00000040: d217 c0bd 7ecb 1c3e 507c 963c 5914 cd3d
00000050: 269a 8fbd fe34 2dbe 8469 2d3e ca16 89be
00000060: 082f 1c3e eb1e a2bd f3cd b6bc 3ca2 ad3e
00000070: b213 953e 5fd2 e0bd b611 613e 541c 89be
00000080: 322c 783d e6b9 12be 4485 1a3e 3d45 b8bc
00000090: c2e0 9b3e 19ff c9bd 8ba5 5e3e bd9a 313d
000000a0: 233e 1ebe a917 a73b 330b 293e 758d 193e
000000b0: 2fc0 383e 829e a3be 9266 7c3e 7627 8ebe
000000c0: 4c47 01be 5240 7a3e c22e 7dbe d34d 543e
000000d0: 2f34 67be 6fd4 a3bc 88dd 0ebe 6511 843e
000000e0: 4243 bebd 4fcd 6b3e 5885 56be a90c 45be
000000f0: 3358 5fbe b2de 323d 6816 883d 506f c0bd
00000100: 5959 8dbe a9f1 1dbe 388b 9d3e 0f09 e83d
00000110: 5114 f3bd 1ed9 5e3d 8d6b 23be fa7b 6d3e
00000120: fbde bcbd 6a3c 3e3e 796b aebd 1cab 89be
00000130: a772 7bbe 6fe0 67be c4a2 f93d 00f0 1a39
00000140: 8aeb 163e 37ec 94be a063 ef3c cea0 3b3e
00000150: 66fc 67be f08f 7cbd 1a88 423e 8b62 33be
00000160: e441 78be 57a3 51be ff59 a8bd dcdc 75be
00000170: 23b0 8b3e 20dd 5b3d 3fcc 84be e66c 12be
00000180: 6052 8cbe 31dc 343e e09d e2bd 4c6b a13d
00000190: 81a1 0bbc 6451 d8bc 7eb4 aa3d ecf4 763e
000001a0: 7efb 7c3e 17a1 9cbd 2659 48bd ef9f 4d3e
000001b0: ba61 16be f74d a23d d259 73be 0bea 313e
000001c0: 7f04 d73c 09d8 233e 318d 1bbe 7fff 4cbe
000001d0: a701 7a3d fbdf 67bd 47f7 06bc 58f4 893d
000001e0: 7e0b 2ebe 3c8b 60be 88a3 803d c608 963e
000001f0: 482c 72be ef92 7abe efc7 d73d 96c3 18be
00000200: ef37 1ebd c027 65be 7a5e 163c 7ace 7e3e
00000210: 359d 653e 3451 163e 61f4 6dbd aefb f73c
00000220: ff72 063e 456c 3e3e a54a 0f3e 398b 8f3d
00000230: 2aaa cf3e 9fb8 893e cfe8 9b3e 0e16 b0bd
00000240: 5e65 93bb d8a3 8bbe 5e71 a83d bf55 92bc
00000250: 3b1a 09be 45ed 8abe 4fc5 9f3d 9453 d3bd
00000260: 0387 23be 35f1 1a3d c970 cdbd f64a 5ebe
00000270: 38d9 043e edbf 743e e804 8ebe cecd 2b3e
00000280: d4ce 693e adc8 34be 2f8e 2f3e 70c5 2cbe
00000290: c9e2 0bbd 8e4e 18be 1d7d de3d 1734 27be
000002a0: c287 843e 9f4d f3bd 0fc0 01be 95b6 cf3c
000002b0: 7681 a2be dc31 78be ed57 ae3e c1be 5bbe
000002c0: 5ec4 5cbe c84b 8fbd 532a eabc 00f0 1b3e
000002d0: 94cc f13d 2b22 b2bd febf 99be cd3c 143e
000002e0: b2e1 d93d 794f 9bbd 4324 af3c e8fd 7c3d
000002f0: 09cc 713e 113f 6fbe 4976 5abe a663 7dbd
00000300: 007b 0e3e 0640 2b3e 9248 3fbe f8d2 833d
00000310: f60a a53e 1c12 823e 14f0 79be 43c0 863e
00000320: 4d36 32be 3552 063d 0768 533e 78f9 9c3e
00000330: bd09 343e 84c5 823e c5f0 263e 45f9 9d3e
00000340: 0a8b 953e bbad fd3d d43b ffbd 47fd 04be
00000350: b25c 6ebe 7cf4 8ebe 7f8a cd3c 4e6b a6bd
00000360: 91b6 18be a03f 7b3d 8c1f 6fbd 5868 5cbe
00000370: 4d38 57be 312f 9d3e e714 de3d 52b6 943e
00000380: cdb7 8d3e 4d6b 9e3e e9c0 8ebe cc13 1ebe
00000390: 7d50 e7bd 35e7 00be e529 d9bc 5504 80be
000003a0: be7e 53be 31e3 36be c1f6 f63d 9286 a5bd
000003b0: fe35 903e 6b04 3abe e51c 7ebe 30e9 b33d
000003c0: 1bcb 35be 574d 20bd 4eb1 4cbe b439 60be
000003d0: 1424 933d e0fe ad3d 2e6f e3bd 506a 873c
000003e0: 6db2 8bbe 10e0 4e3d 68c1 583d 80fa 8cbb
000003f0: ec99 7abd dfcb 573e b6ee a5b9 a403 84bd
0.22245851 -0.04363692 0.13206467 0.29278952 -0.24729571 0.12119564 -0.159053 -0.28158012
0.29822567 -0.033520535 0.068359084 -0.09316101 -0.14654133 -0.029760677 -0.076586634 -0.019940907
-0.09379543 0.15312001 0.018369824 0.10013647 -0.07011823 -0.16914746 0.16934782 -0.267752
0.15252316 -0.079160534 -0.022315001 0.33912838 0.2911659 -0.10977625 0.21979412 -0.26779425
0.060589023 -0.14328727 0.150899 -0.022493953 0.30444914 -0.09863109 0.21742837 0.04336046
-0.15453391 0.005099256 0.16508178 0.14995368 0.18042062 -0.3195687 0.24648502 -0.2776448
-0.12624854 0.24438599 -0.24724868 0.20732813 -0.225785 -0.019998757 -0.13951695 0.2579452
-0.09290172 0.23027538 -0.20949304 -0.1924311 -0.21810989 0.04366941 0.06644899 -0.09396231
-0.2760723 -0.15424217 0.30770278 0.11329853 -0.118691094 0.054406278 -0.15958996 0.23191825
-0.09222218 0.18577734 -0.085165925 -0.2688836 -0.24555455 -0.22644208 0.12189248 0.00014775991
0.14738289 -0.29086468 0.02922231 0.18323061 -0.22654876 -0.061660707 0.18997231 -0.1751806
-0.24243885 -0.20472465 -0.082202904 -0.24010032 0.2728282 0.053677678 -0.25937077 -0.14299354
-0.27406597 0.17662121 -0.110652685 0.078817934 -0.008522392 -0.026405998 0.083352074 0.24116868
0.24705312 -0.07647913 -0.048913144 0.20080541 -0.14685717 0.07925027 -0.23764732 0.17374437
0.026247261 0.1600038 -0.15190579 -0.20019339 0.061036732 -0.05661009 -0.008237666 0.06736058
-0.16996571 -0.21928114 0.06281191 0.2930357 -0.23649704 -0.24470113 0.10536181 -0.1491836
-0.03862756 -0.22378445 0.009177798 0.24883452 0.22423251 0.14679414 -0.058094386 0.030271377
0.13129805 0.18595989 0.13993318 0.070089765 0.40559512 0.26898667 0.30451056 -0.085979566
-0.004498168 -0.2727344 0.08224748 -0.017863153 -0.13388912 -0.27134147 0.078013055 -0.10318676
-0.15969472 0.03782769 -0.10031278 -0.21708283 0.12973487 0.23901339 -0.27738118 0.16777727
0.22832805 -0.17654677 0.17144082 -0.16872191 -0.034151826 -0.14873716 0.10863707 -0.16328464
0.25884825 -0.118800394 -0.12670921 0.025355617 -0.31739396 -0.2423777 0.34051457 -0.21459486
-0.21559283 -0.06996876 -0.028584635 0.15228271 0.11806598 -0.08697923 -0.3002929 0.14476319
0.10638751 -0.075835176 0.021379596 0.06176558 0.2361299 -0.23363902 -0.21334185 -0.06186261
0.13914108 0.16723642 -0.18680027 0.064367235 0.32234925 0.2540444 -0.24407989 0.2631856
-0.17403527 0.032793242 0.20645152 0.3065908 0.1758184 0.25541317 0.16302784 0.3085424
0.2920764 0.12386652 -0.12462583 -0.12987243 -0.23277548 -0.27920902 0.025090454 -0.081259355
-0.14913394 0.061339974 -0.058379695 -0.21524179 -0.21017571 0.30700067 0.108438306 0.2904535
0.2767929 0.3094124 -0.27881554 -0.1543724 -0.11294649 -0.12588198 -0.026509235 -0.25003305
-0.20653817 -0.17860104 0.12058783 -0.08082308 0.28166193 -0.18165748 -0.2481571 0.08784711
-0.1775326 -0.039136257 -0.19989511 -0.21897012 0.07184616 0.08495879 -0.1110519 0.016530186
-0.27284566 0.05050665 0.05291882 -0.004302323 -0.061181948 0.21073864 -0.00031649106 -0.06446007

linear1.bias f4 [256]
00000000: 8c50 a13e 1ed1 35be b3bd cabd 353f 2ebd
00000010: 0e4f 7e3e d978 34be 13cc 5d3e 8c83 8abe
00000020: be39 b23d 8f58 6abd 3fe1 aa3c 5c25 87be
00000030: 4f85 93bc 767f 5a3e 4789 20be 56cd 933e
00000040: 1d27 313e 0e10 22bd cc02 3b3e bd27 7e3d
00000050: 99dd 983e efce 0f3d a590 91be 7e54 9a3e
00000060: fddd 8bbd 22bd 073e 03f8 9d3d 4d92 4e3e
00000070: 96aa 0ebe 7641 693e 3014 2bbe 89b5 933e
00000080: 0694 093d 0369 503d 61d5 503e d128 173e
00000090: 3299 5f3e cffc eebd dcbf 5b3e 9c80 92be
000000a0: fcfb 503e a3c5 89be 0c35 d83d a00e 283d
000000b0: a571 68be 2a67 523e aefd 8cbd c082 88bd
000000c0: 4337 863e 6116 0c3e 46a0 3fbe 9e89 96be
000000d0: 5743 723e 3971 48be 3cae 753e aef6 793e
000000e0: a1cb 12bd 3022 72be 4bb0 69be 34da ad3d
000000f0: baf8 2d3e 38e6 96be 8bcb b13e 6ada 7cbe
00000100: 09b9 9c3e c289 0c3e 7ee7 0dbe 5334 f0bd
00000110: b997 863d 3d75 88be b59f 91bd ad67 11be
00000120: 1afb 82bd 2896 e5bd 383e 11be 3b9e 3f3d
00000130: a4b6 c4bd c764 6ebd c149 193e e960 9ebe
00000140: 9c88 963c 8f13 5fbe 4561 3dbd 9964 95be
00000150: c9f6 c9bd bc61 a73c 8651 d23d 5a85 88be
00000160: 2b2d 60be 353d d7bd 3abf 93be 3446 96be
00000170: 2533 94be f80d 16be c8b5 3a3d f7b3 2f3d
00000180: 312e 313d 81d0 81be f33e 0d3d a207 4a3e
00000190: cea9 483e 3793 913e cc55 1f3e 9563 8c3e
000001a0: 4cbd 66be 0f39 cabd 48c0 74bd e546 66be
000001b0: 0481 003e 93d0 993d 4007 453e a22b 3b3e
000001c0: 339a 513e a26d b7bc ee2f 3cbd 0fbd 47be
000001d0: e4ec 82be ab0b 1f3e 189a 0fbe a55f c338
000001e0: e929 91be 4c22 5b3e e3d0 833d 2227 85be
000001f0: b41e 2abe 704a d6bd 5bba e43d 11b9 2abe
00000200: 8e27 17be 130e cc3d 52ae 5d3c 88dc 583e
00000210: ddf2 d6bd 6440 f5bc 8460 c5bd 8ab6 3cbe
00000220: fa43 93be c43a 553d c881 97be 4a6e 33be
00000230: a57f 16be 552b 51be 9c06 123e af91 793c
00000240: 87de 95be 8733 87be 929b 123e 8f5d 7bbe
00000250: c0c1 8abe 3434 2cbe 6522 ffbd ecb6 73be
00000260: d6d6 2f3e 1ec6 a8bc 145a 563e 7ac1 bcbd
00000270: cd31 24bd fdb4 1c3e ced0 82be 8919 e1bd
00000280: e844 633e ab29 94be a8a2 17be ee21 a13e
00000290: a9d3 503d 44b7 823d c9e4 8c3c 8d59 523e
000002a0: 55b6 9abd 8235 04be c3a1 cc3d ecda 7bbd
000002b0: cbde debd 92ca b13d 9fd9 563d 000e 2ebe
000002c0: 604e a53e 50be 0dbe 4198 5fbe c2d5 bcbb
000002d0: 30c0 073e 9e9d a93e c6ff 49be deec 7a3e
000002e0: 2615 1f3e d0a4 a83d 6930 50be 3203 a93c
000002f0: ce80 863e 5705 e0bd 0802 8d3e 03cf 24bd
00000300: 6236 9b3e a485 a1bd c66b 173e ea67 f8bd
00000310: 638f 35be c97d 973e 81e3 0fbe a776 d23d
00000320: 2844 67be ee8e ee3d 516f 99be b44d 2cbe
00000330: 4821 d83d 5c31 98be de6f 613e d11a 04be
00000340: 9878 cb3d 2027 bd3e 8d19 bc3d fd8e 9abe
00000350: f4e3 c23d 34fe 943e d462 81be 254c 77bd
00000360: 9ad8 bd3d 5536 0e3d 456e c23d 430e 203e
00000370: 75e6 a93e dd25 603e 3b49 403e f323 313e
00000380: 5a5a 02be 2f85 5e3e 6e19 023e 67e3 86be
00000390: ea42 51be b549 b33e 4846 5ebe 75d7 173e
000003a0: 51dc 743e 2af4 313e d846 a1bd 25e0 35bd
000003b0: 08b1 52be 8e11 97be 3c7f 573d 8aa4 55be
000003c0: 211f a33e 721f 85be 6c0a 8bbe 0c7e 863e
000003d0: ed1a 14be 3ae2 b63e 4fde 8ebe 6ca3 93be
000003e0: 6961 7a3e fe75 b0bd b72e b13d 6dd9 06be
000003f0: 694e 823d 28e7 5e3e e230 833e 5259 fb3d
0.31506765 -0.17755553 -0.098994635 -0.042540748 0.24834844 -0.17624225 0.2165988 -0.27053487
0.0870242 -0.057213362 0.020859359 -0.2639569 -0.018007902 0.21337685 -0.15677367 0.28867596
0.17300077 -0.039566092 0.18262786 0.062049616 0.29856566 0.035109457 -0.28430668 0.30142587
-0.0682945 0.13255742 0.0771332 0.20172997 -0.13932261 0.22778878 -0.1670692 0.28849438
0.03358843 0.050881397 0.20393898 0.14761664 0.21835783 -0.11669313 0.21459907 -0.28613746
0.20408624 -0.26908597 0.10556993 0.041029572 -0.22699602 0.20547166 -0.06884323 -0.066655636
0.26214036 0.13680412 -0.18713483 -0.2940187 0.236585 -0.19574441 0.23992246 0.24410507
-0.035838727 -0.23645854 -0.22821157 0.084888846 0.16989413 -0.29472518 0.34725603 -0.24692693
0.3060992 0.13724425 -0.13857839 -0.1172873 0.065719076 -0.26651946 -0.0711054 -0.14199705
-0.0639555 -0.11210281 -0.14183891 0.04678176 -0.096051484 -0.058201578 0.14969541 -0.30933312
0.018375687 -0.21784805 -0.04623534 -0.29178312 -0.09861524 0.020432346 0.102694556 -0.2666424
-0.2189223 -0.10509721 -0.28856832 -0.29350436 -0.2894527 -0.14653766 0.045583516 0.042896237
0.043256942 -0.25354388 0.03448386 0.19729474 0.19596025 0.2843263 0.15560073 0.27419725
-0.22533149 -0.09874164 -0.059753686 -0.22487982 0.12549216 0.075104855 0.19241047 0.18278363
0.20468979 -0.022391144 -0.045944147 -0.19505714 -0.25571358 0.15531795 -0.14023626 9.31614e-05
-0.28352287 0.21399802 0.06436326 -0.26006418 -0.16613275 -0.104634166 0.11168357 -0.1667216
-0.14761183 0.09963622 0.013530331 0.21177876 -0.10495541 -0.02993793 -0.096375495 -0.18429008
-0.287628 0.052057996 -0.29591203 -0.1752254 -0.1469713 -0.20426686 0.14260334 0.015232488
-0.29271337 -0.264065 0.14317158 -0.24547409 -0.27100945 -0.16816789 -0.12457732 -0.23800248
0.17171797 -0.020602282 0.209328 -0.0921659 -0.040086556 0.15303417 -0.2554993 -0.109911986
0.22194254 -0.2893804 -0.14808142 0.314712 0.050983105 0.063826114 0.017198937 0.20541973
-0.07554308 -0.12911037 0.09991791 -0.061488077 -0.10882338 0.08681215 0.052453633 -0.16997528
0.32286358 -0.1384213 -0.21835424 -0.0057627866 0.13256907 0.33128065 -0.19726476 0.2450442
0.15535411 0.082345605 -0.20330967 0.020631406 0.26270145 -0.109385185 0.27540612 -0.040236484
0.30314928 -0.07886818 0.14787206 -0.12129195 -0.17730479 0.29588154 -0.1405163 0.102765374
-0.22584593 0.116483554 -0.2996774 -0.16826516 0.10553223 -0.29725158 0.2201533 -0.12900855
0.09935111 0.36943913 0.09184561 -0.30187216 0.09516135 0.29100192 -0.25270712 -0.06037535
0.09269829 0.034719784 0.094936885 0.1563044 0.33183637 0.21889444 0.18777935 0.1729887
-0.12729779 0.21730493 0.12705013 -0.2634537 -0.20435682 0.35017172 -0.21706498 0.14828284
0.23912169 0.17378297 -0.078748405 -0.044403214 -0.20575345 -0.2950558 0.052611575 -0.20863548
0.31859687 -0.26000553 -0.2715639 0.2626804 -0.14463396 0.35719472 -0.27903983 -0.28835618
0.24451222 -0.08616255 0.08651488 -0.13168879 0.06362612 0.21767867 0.25623232 0.12272896

linear2.weight f4 [3, 256]
00000000: dba6 d5bc 7275 96ba 8f8a cfbd 2413 4bbd
00000010: 328f 613c 173b 4b3d d120 b9bc e0f1 98bb
00000020: d0c1 593d fe8b a8bc 99e6 333c ff82 193d
00000030: 1c19 17be 405d 843d 5fad 763c 01c9 a5bc
00000040: ea1e 9fbc e000 90bd 4453 ccbd facd 26bd
00000050: ebcf 25bd d7f1 af3c e823 4a3c e4b6 25bd
00000060: c50c 6bbb f266 99bd 0f01 00be 171b 17be
00000070: 14da afbc 4b7c 483d e0c4 24bd ae02 85bd
00000080: 855c 5bbd 94c9 07bd 0ee4 63bd 0012 38bd
00000090: 33c3 5c3d e841 bb3c 5604 1a3d 94ee f03c
000000a0: 5816 833b e639 d8bc 24f7 48bd 84bc 063a
000000b0: 2b7c dabd c8d5 59bd c4fa 633d ebdb 69bd
000000c0: 23ae 81bd 7c14 243d 128c 18bd 3824 22bd
000000d0: 5d72 e2bc 2192 643c 48bf 523d d915 1f3d
000000e0: 6e87 cebd 2d64 8bbd 9b66 df3b 8aab 1cbd
000000f0: 75b7 18be f4a9 46bd 8805 ccbd 99ea 8abd
00000100: 21f9 bdbd b9e7 b3bd a602 173d 0014 73bd
00000110: 953c 0abd c1c5 dcbc 71bd 07bc 1b97 0cbd
00000120: 30f5 b5bc a966 c53d b04f aabd 2152 75bd
00000130: e87f a3bd ea1d 993d 95df d7bd df1d a53c
00000140: bf35 3abd 03d3 603d c105 4f3d 3427 f83c
00000150: 9978 95bd e04d 4dbd 8549 883c ffd9 133d
00000160: b0f9 49bc 937d f4bd 3cda 1b3d 805e 873a
00000170: f042 883c 463d 1d3c b285 1fbd 89b3 bdbd
00000180: 05a9 d7bd ac62 783d a4ed f03b 4fbc d2bd
00000190: 29c6 92bd 0d6f cd3c d69c 15bd 19a7 c0bd
000001a0: ce87 22bc bd9f 44bc b753 8fbc 615c 57bd
000001b0: 649d 09be ce84 783c d1e2 58bd e314 99bd
000001c0: 92ab ac3c 14f3 babd 7fef 95bd be24 413d
000001d0: 4dcc 993d c2e2 1abd 9008 8abd 03c6 2d3d
000001e0: 7112 33bc 4611 bebd 055f 08be a78f 98bd
000001f0: 62de 0c3d 62f0 113e ca9c 0a3b 00be 5abd
00000200: bb1e a9bd 67d2 68bd 2cc4 f1bc ceab 22bd
00000210: cbe2 f03d c908 f2bd 5b5e 62bd a66c 163c
00000220: c6b2 e8bb 5131 39bd d71e 4ebd 0160 abbd
00000230: 62d3 42bb b856 91bc 5f15 abbd dee5 c5bd
00000240: 4f8b b0bc 1072 0ebd fa80 fcbd 9c93 043c
00000250: baa7 1abb 2035 09bd f2c1 e13c 484b efbd
00000260: 29b5 043c 3a48 cf3c 3b4b fbbc e780 36bd
00000270: e96e 1a3d 038d 1ebd 0c21 9538 5e78 87bd
00000280: 95ce bcbc c787 12bc 235e 82bd 3c6b bbbd
00000290: 4c32 87bc 9dd2 bdbc c9b1 7e3d 3c76 afb9
000002a0: cace 87bd 870d 81bd 8be1 4fbd fb78 41bc
000002b0: 9042 64bb 38e2 b1bd 7b24 d93c 18f5 79bd
000002c0: 3668 fcbc 1d4e 2b3c 2ab7 d6bd 8e12 01be
000002d0: 1154 3b3d db06 c1bd 707c ca3c a59f f2bb
000002e0: 0692 c0bd bd50 7dbc 6a56 353c e88a 5ebc
000002f0: 21f4 b0bc 930d d2bd b4e6 d6bd a09f f23d
00000300: e110 cdbd 40ee 793c 2abe 08be 1083 7f3d
00000310: a455 d5bc 6cf5 69bc d6ae acbd 7524 30bd
00000320: 117c 6bbd 2f97 79bd b589 0a3d a30f fe3a
00000330: 09b2 83bd d83d 1a3d e693 a93c dbcb 48bd
00000340: 626b bf3c ff9c 5ebd 68af c3bd 9ecf d1ba
00000350: 6461 c2bd 6684 ebbd 14a0 523c e7da 073d
00000360: 0f6d 1ebc 5484 3abd 0d08 40bd 88e4 753c
00000370: f0a9 0ebd 575a 3f3b d664 743c e537 f5bc
00000380: 9f27 43bd 7b0f d9bb 354b 09be 8c61 dd3c
00000390: df95 57b9 6b35 36bd a55c caba ea7f af3d
000003a0: 4b8f eabc f5b9 e9bd d1ad e63c e630 0a3d
000003b0: 0e29 7fbd 1c86 4bbc 95a5 01be 370f 913d
000003c0: e081 b8bd a801 8f3c 700c 043d 8f9c 2dbd
000003d0: a626 70bc 688b c7bd a4e1 ec3c 5bbc a03c
000003e0: 79df c9bd 0fe3 edbd db78 babc a3fe a13d
000003f0: 35d4 9cbb 08ce e9bd e151 7fbd 139e e3bd
-0.02608054 -0.0011479093 -0.1013385 -0.0495788 0.013767051 0.0496169 -0.022598656 -0.0046675056
0.05316335 -0.020574566 0.010980272 0.037478443 -0.14755672 0.064630985 0.015055983 -0.020237448
-0.01942392 -0.07031417 -0.09976819 -0.04072378 -0.04048149 0.021477623 0.012337662 -0.04045762
-0.0035865766 -0.074903384 -0.12500404 -0.14756428 -0.021466292 0.04894666 -0.040226817 -0.06494652
-0.05355503 -0.033151224 -0.05563741 -0.04493904 0.053897094 0.022858575 0.03760179 0.029410638
0.0040004663 -0.026394796 -0.049063817 0.00051397854 -0.106682144 -0.053182393 0.05565907 -0.057094496
-0.06332042 0.040058598 -0.037242956 -0.039585322 -0.027642423 0.0139508555 0.05145195 0.038839195
-0.10084425 -0.068062164 0.0068176514 -0.03824953 -0.14913733 -0.048501924 -0.099619925 -0.06783027
-0.09276033 -0.08784432 0.03686776 -0.059345245 -0.03374918 -0.026949765 -0.008284912 -0.034323793
-0.022211641 0.096387215 -0.083159804 -0.059892777 -0.079833806 0.07476409 -0.10540692 0.020155845
-0.045461413 0.054888736 0.050542597 0.030292131 -0.07298393 -0.050123096 0.01663662 0.03609657
-0.012327597 -0.11938014 0.03804992 0.0010327846 0.01663348 0.009597128 -0.03894586 -0.09262759
-0.10530285 0.060640976 0.0073525477 -0.10289823 -0.07166702 0.025077367 -0.036526524 -0.09406871
-0.009920074 -0.012000975 -0.017495973 -0.052578334 -0.13438946 0.015168382 -0.052950684 -0.07474687
0.021077905 -0.09128395 -0.07321071 0.04715418 0.075096704 -0.03781391 -0.067399144 0.042425167
-0.01092969 -0.092806384 -0.13317497 -0.074492745 0.03439177 0.14251855 0.0021150582 -0.053403854
-0.082578145 -0.05684128 -0.029512487 -0.039714627 0.11762007 -0.11818082 -0.055265766 0.009181177
-0.0071013896 -0.045213047 -0.05032238 -0.08367921 -0.0029728045 -0.017741546 -0.083536856 -0.09662984
-0.021550803 -0.034776747 -0.12329288 0.008091833 -0.0023598508 -0.03349793 0.0275583 -0.11684281
0.008099833 0.025302995 -0.030675521 -0.044556525 0.03770343 -0.038708698 7.111029e-05 -0.06614755
-0.023047725 -0.008943505 -0.063656114 -0.09151313 -0.016503476 -0.023171717 0.062181268 -0.00033466693
-0.06631239 -0.06301408 -0.050752204 -0.011808629 -0.0034829713 -0.08685726 0.026506653 -0.061024755
-0.03081141 0.010455635 -0.104841545 -0.12604734 0.04573447 -0.09425136 0.02471754 -0.007404285
-0.09402852 -0.015461144 0.011067966 -0.0135829225 -0.021600785 -0.10256495 -0.10493222 0.11846852
-0.10012985 0.015254557 -0.13353792 0.06238085 -0.026041813 -0.014279705 -0.08431785 -0.043003518
-0.057491366 -0.060935196 0.033822734 0.0019383322 -0.06430442 0.037656635 0.020700406 -0.049022537
0.023366634 -0.054348942 -0.095549405 -0.0016007309 -0.09491232 -0.114998624 0.012855548 0.033167746
-0.009669556 -0.045536354 -0.046882678 0.015008099 -0.034830034 0.0029198134 0.014916619 -0.02993388
-0.047645207 -0.00662416 -0.13407595 0.027024053 -0.00020559829 -0.044484537 -0.0015438987 0.085693195
-0.02863278 -0.114124216 0.028159054 0.03373804 -0.062295012 -0.012422111 -0.12660821 0.0708298
-0.09009147 0.017456844 0.032238424 -0.042385634 -0.014657652 -0.097433865 0.028916188 0.019621065
-0.09857077 -0.116155736 -0.022762707 0.07909896 -0.0047860392 -0.114162505 -0.062333945 -0.11114135

linear2.bias f4 [3]
00000000: b60b b1bd a5a1 19bd d6c7 24bd
-0.08644812 -0.037507672 -0.04022964
