Code Submission/DRL_models/snapshot-score-52.pth (torch, 17051 bytes, 4 tensors)

linear1.weight f4 [256, 11]
000000 4c 40 36 3e 98 e1 9d bf 24 f4 be be ac e2 1e 3d
       0.17797965 -1.2334471 -0.3729564 0.03879039
000010 02 d9 49 bf d2 d5 39 bf 9b 88 13 bf 72 8c 2a bf
       -0.7884675 -0.7259189 -0.5763032 -0.6662055
000020 b0 a4 8a 3f fa 34 43 bc 8b 9b 8b bf 71 93 e1 3d
       1.0831509 -0.011914486 -1.0906843 0.1101445
000030 ec 93 e2 be 44 d8 46 be 8a 92 f0 3d 9f fd 9a bd
       -0.4425348 -0.19418436 0.117467 -0.07567906
000040 b8 d4 b7 3d cf f9 8a bd c4 98 11 be 4b 5d b0 3e
       0.0897612 -0.067859285 -0.14218432 0.34446177
000050 e9 4d a3 be bc 2a 19 bf 99 b7 90 bf 90 9a 3d c0
       -0.31895378 -0.5983083 -1.130603 -2.9625587
000060 46 09 63 bf 7b 3f ff bf 15 50 bd bf ad 09 40 bf
       -0.88686025 -1.9941248 -1.4790064 -0.75014764
000070 39 8a 96 bf f1 10 34 bf 2f 2f 08 c0 43 5d 58 3f
       -1.1760932 -0.7033835 -2.1278799 0.84517306
000080 38 da 45 40 64 af 87 3e ff a1 ee bc c2 0a 15 be
       3.091444 0.26501 -0.02912998 -0.14554885
000090 f5 9f 2e be 67 e8 b7 bc 97 16 3b be 52 81 9c 3e
       -0.17053206 -0.022449685 -0.18270336 0.30567414
0000a0 db 55 45 3e d5 25 10 bf 68 99 a1 3e ec 3c e9 3d
       0.19271033 -0.5630773 0.31562352 0.11388573
0000b0 30 e5 6b 3f 1d 44 32 3f 54 b9 39 3f 78 1a 03 3f
       0.9214659 0.6963518 0.72548413 0.51212263
0000c0 81 12 a1 3d 02 ba fd 3e 67 3b db 3e 2f 6d 89 3d
       0.078648575 0.49555975 0.42818758 0.06710278
0000d0 49 a8 6d bd 59 ff 47 be 77 1e 80 be 40 d4 b4 3e
       -0.058021817 -0.19531001 -0.25023243 0.35318184
0000e0 99 98 3e bf 2c 24 31 bf 1e 90 10 be 55 5e b0 3e
       -0.74451596 -0.6919582 -0.14117476 0.3444697
0000f0 1d 9a b0 3e c2 9b 8c 3e b5 01 05 3f 56 9b fa 3f
       0.3449258 0.27462584 0.5195573 1.9578655
000100 35 86 69 3f d8 f0 0a c0 d6 24 d7 3e cd 4b 78 be
       0.9122041 -2.17095 0.4202029 -0.24247666
000110 42 9a 89 3e 9a 3d b4 3e 49 90 80 be 14 e9 9c be
       0.26875502 0.35203248 -0.2511008 -0.30646574
000120 13 db 07 be c0 6b 0b bd 08 40 97 3e 22 df 29 bf
       -0.13267164 -0.034038305 0.2954104 -0.663561
000130 8b 29 2d 3e bc 2b 93 bf 6c f3 7f bf be ac 09 bf
       0.16910379 -1.1497722 -0.9998081 -0.5377921
000140 f0 8f a1 bf 41 77 4b 3d f8 c3 98 3e db 96 27 3e
       -1.2622051 0.049674276 0.29837012 0.1636614
000150 0b 33 bc 3e 5a a9 8b 3f c3 a8 22 bf 38 60 a5 3f
       0.36757693 1.0911057 -0.6353876 1.2919989
000160 96 80 b7 be 40 e1 d7 be d9 82 c7 be e9 04 fc be
       -0.3584029 -0.4216404 -0.38967016 -0.49222496
000170 6d 6b e1 bd c5 a1 2f be e5 96 b0 be cb c4 1d bd
       -0.11006818 -0.17151554 -0.34490123 -0.038517755
000180 38 2b ba 3e f7 93 37 bf 47 97 cc 3e 9f 62 a5 bd
       0.36361098 -0.7171015 0.39959165 -0.08075451
000190 2d 8b aa be 55 a5 49 3e 30 2e 36 bf 94 1b 83 3d
       -0.33309308 0.19691975 -0.71164227 0.064017445
0001a0 6d ce 8f bc 68 d8 d7 be 29 90 a8 bd 49 3f eb bd
       -0.017554486 -0.42157292 -0.08230621 -0.1148668
0001b0 d0 57 45 bf 2b 13 19 3f 5d 8b 2b bf 23 58 cc bd
       -0.77087116 0.59794873 -0.67009526 -0.09977748
0001c0 36 5d 13 bf 53 de b6 3d 64 43 4c be 9d 28 1e 3e
       -0.57564104 0.08929124 -0.19947582 0.1544518
0001d0 1a 51 39 3e 4a 66 2a be e0 f9 6e bf e6 2d 52 3e
       0.18097344 -0.16640583 -0.9335003 0.20525321
0001e0 5b e2 8a 3e 91 82 51 bf fb 63 4b 3f 6b de 4b bf
       0.2712582 -0.81839854 0.79449433 -0.7963626
0001f0 f9 17 2e 3f 33 1b d1 3e c9 6d b5 be 42 58 2b bd
       0.6800533 0.40841064 -0.35435322 -0.041832216
000200 e8 65 c2 be 1d 30 09 bf bb 36 ed 3c 17 f7 4b 3f
       -0.37968373 -0.5358904 0.028956762 0.79673904
000210 87 71 b7 bc bd 44 09 be a4 8c 0e be eb ba 1d bd
       -0.022393001 -0.13405128 -0.13920838 -0.038508337
000220 03 fe 40 be 6b 14 37 be 88 f8 ac bd ec 44 2b be
       -0.18846898 -0.17878883 -0.08445841 -0.1672551
000230 46 48 84 3a 53 80 7b 3c 0a 51 b9 bc b1 0a 28 3d
       0.001009234 0.015350419 -0.02262165 0.04102582
000240 48 8a 96 be 4b e5 07 bd 79 c8 e6 bc 91 80 83 be
       -0.29402375 -0.033177655 -0.028171765 -0.25684026
000250 6f 19 71 be 34 88 a3 be 21 9a eb 3c 59 1f 9f bd
       -0.23544858 -0.31939852 0.028760018 -0.07769651
000260 f3 e0 b6 3d 0b b0 0d 3e ad f1 4d be 76 5d e1 be
       0.089296244 0.13836686 -0.20111723 -0.44016618
000270 08 a7 23 bd 40 bc 17 bf 2f d0 97 be 3c 2b 36 be
       -0.039954215 -0.5927162 -0.2965102 -0.1778993
000280 82 b1 08 be b3 b1 60 be 64 3d 7c 3d 07 76 93 bf
       -0.13348964 -0.21942787 0.061581984 -1.1520394
000290 69 72 0c 3f cd cd a5 bd ef 30 15 bd 6d f1 13 bf
       0.54862076 -0.08095894 -0.03642362 -0.5779026
0002a0 76 08 4d be 7f 3f 2a bd 80 69 b7 be e5 bb 21 3e
       -0.20022759 -0.04156446 -0.35822678 0.15794332
0002b0 8b dd 88 be 9c fe 27 bf a3 6b c6 3e bb c8 0c be
       -0.26731524 -0.6562288 0.38753995 -0.13748448
0002c0 24 f0 ae bd 49 44 41 bf 95 9d aa be f5 a8 20 bf
       -0.08541897 -0.7549482 -0.3332335 -0.6275781
0002d0 1a f7 d9 bd df 23 e3 bc 5b 5b 55 be 0f e1 1b 3e
       -0.10642834 -0.027727066 -0.2083563 0.15222572
0002e0 2f a0 00 3e ca ac 47 bf ae eb 1f 3f ca 1f 82 bd
       0.12561105 -0.7799803 0.62468994 -0.063537195
0002f0 54 b4 b1 be 1d a5 24 bd 74 89 70 be f7 e4 28 be
       -0.34707892 -0.040196527 -0.23489934 -0.16493593
000300 a7 95 c8 be 73 93 f0 bd 91 f8 12 3e 82 3e b7 3d
       -0.39176676 -0.11746874 0.14352633 0.08947469
000310 22 92 ec 3d 80 39 a8 3e 55 1f e7 be c8 e9 75 3d
       0.1155131 0.3285637 -0.45141092 0.060037404
000320 93 fd 3b bc 40 57 8f be 55 75 27 bd 1c 5f 2f bc
       -0.011474031 -0.27996254 -0.04088338 -0.010703828
000330 a4 1c 60 3c 85 46 21 be fe 38 ac 3e 46 3f bc 3e
       0.013678703 -0.15749557 0.33637232 0.36767024
000340 9c 63 c4 3e 27 a7 6b 3f e1 bc 92 bf 9c 9d 3d bf
       0.38357246 0.9205193 -1.1463891 -0.7406862
000350 3c 73 06 be 87 55 05 3f 53 21 e6 3e bd 67 35 3f
       -0.13129896 0.5208363 0.449473 0.7086142
000360 35 fe af 3e 13 29 b9 3f 5a c6 89 be 93 bb 1d 3d
       0.34373632 1.446566 -0.26909143 0.038508963
000370 e2 3e 1e 3f 31 33 85 be c1 e6 80 be b9 43 80 3e
       0.618147 -0.26015618 -0.2517605 0.25051668
000380 40 e6 81 be 35 a8 17 bf 14 8a 76 bb a7 09 15 bf
       -0.2537098 -0.5924104 -0.0037618922 -0.58217853
000390 a4 c7 89 bf 98 77 0b 3e cd 76 81 bc 8c 63 08 3d
       -1.076405 0.1361984 -0.015803719 0.03329806
0003a0 28 7a fd be c1 a0 c8 3d 9c 9b 81 be cc 92 b1 bd
       -0.4950726 0.097962864 -0.25314033 -0.086705774
0003b0 ff 5e 83 3d 97 9c d9 bb 1e dd 45 3e 05 fc 66 3d
       0.064146034 -0.0066409814 0.19322631 0.05639269
0003c0 3a bf ef 3e 1d 21 95 bd b7 fa 29 bf 3d 57 7e bf
       0.46825582 -0.072817065 -0.66398185 -0.99351865
0003d0 6d 9d cd be fd d0 57 bf 0c 34 d3 be 66 fc 13 be
       -0.4015917 -0.84303266 -0.41250646 -0.14451751
0003e0 97 18 b5 be 4b 71 ce be 63 b8 b5 3e 9a a9 5e bf
       -0.35370323 -0.4032081 0.35492238 -0.8697754
0003f0 79 84 11 3f 1b ee 72 be 39 53 d1 bc 6d 54 5a be
       0.5684276 -0.23723643 -0.025552379 -0.21321268

linear1.bias f4 [256]
000000 23 dd f5 be 63 3a 04 bf 85 33 36 3e 5f 4e 8e bf
       -0.48020276 -0.5165159 0.1779309 -1.1117667
000010 21 7d c2 bf 3a e7 e6 bf 53 5a 76 bf b5 af 5d bf
       -1.5194436 -1.8039315 -0.96231574 -0.8659623
000020 51 66 d8 be 7b 5e 4d bf d0 e0 19 bf 3a 4c 07 c0
       -0.4226556 -0.8022229 -0.6010866 -2.1140275
000030 20 d4 ae bd 0f 3a 8e be eb 9a 1e bf e6 8f fe be
       -0.085365534 -0.2777867 -0.61955136 -0.4971916
000040 a0 de 66 bf ea cc 00 bf 68 21 9e bf bf 27 19 c0
       -0.9018345 -0.50312674 -1.2353945 -2.393051
000050 93 77 69 bf 62 77 62 bf 26 e5 17 bf bc 43 98 be
       -0.9119808 -0.88463414 -0.5933403 -0.29739177
000060 8e 9a 10 bf 20 a6 a1 bc f1 e1 c0 bf 8d 0c a3 be
       -0.5648583 -0.019732535 -1.5068952 -0.31845513
000070 b8 05 00 bf d9 7e 31 bf bd 92 42 bf 39 45 07 bf
       -0.50008726 -0.6933418 -0.76005155 -0.5284
000080 3c 9f 39 bf f5 bc e2 be 9a 05 1a be df 02 82 be
       -0.725086 -0.44284788 -0.150412 -0.25392815
000090 fd a3 db be 05 90 6b be bb f5 8d bf db 7c fe be
       -0.4289855 -0.23004158 -1.1090616 -0.49704632
0000a0 6e 25 4e be 0e 53 ef be 44 ae 21 c0 b1 b8 19 bf
       -0.20131466 -0.46743053 -2.5262613 -0.6004744
0000b0 b1 13 2c bf 35 27 94 be 15 7b 9b bf fd 31 9b be
       -0.67217547 -0.28936163 -1.2146937 -0.30311576
0000c0 51 e6 93 bf c4 79 4c bf 2e eb eb be a8 2a ac be
       -1.1554662 -0.798733 -0.46077865 -0.33626294
0000d0 8a 41 b5 be c9 77 0f bf 33 90 14 bf f9 38 08 c0
       -0.35401565 -0.5604215 -0.5803253 -2.1284773
0000e0 a5 91 b3 be 1a 3c 1e bf ad 10 2d bf f1 f9 5d bf
       -0.35072055 -0.6181046 -0.6760357 -0.86709505
0000f0 ed b3 1a bd 53 27 b0 be 94 e8 42 bf 00 c6 93 bf
       -0.037769247 -0.34405002 -0.76136136 -1.15448
000100 6c f4 56 bf b1 67 49 bf 48 69 c6 be d3 67 35 bf
       -0.8396671 -0.78673846 -0.38752198 -0.7086155
000110 58 b8 21 bf 3f 0c 2c bf 38 58 08 bf 59 d4 16 bf
       -0.6317191 -0.67206186 -0.5325961 -0.58917767
000120 a6 0a ab be e8 c2 21 bf b1 f3 22 bf bc 6b bb bf
       -0.33406562 -0.6318803 -0.63653094 -1.4642253
000130 5b 01 e0 bf 6a 6e 20 bf db cd 81 3d 11 05 28 c0
       -1.7500414 -0.6266848 0.06338092 -2.6253092
000140 4a 5c 08 be d9 5d 78 bf e2 c0 ec be 43 ca 50 bf
       -0.13316455 -0.970182 -0.46240908 -0.81558627
000150 49 f6 85 be 66 2c a6 be f6 db 39 be 6f d5 99 bf
       -0.26164463 -0.32455748 -0.18150315 -1.201826
000160 93 a8 e0 bf 5c aa bc bf a1 93 7a be 4e 37 00 bf
       -1.7551445 -1.473949 -0.24470378 -0.5008439
000170 cc 84 47 bf 7e 7d 24 bf 73 ef 7f be fc 98 29 bf
       -0.77937007 -0.64253986 -0.24993686 -0.6624906
000180 31 54 d0 be d7 4b 2a bf 2d 08 82 be ea 7e 12 bf
       -0.40689233 -0.6652197 -0.25396863 -0.57224905
000190 04 69 2b bf 85 ce 86 be 06 b5 56 bf 59 f0 f1 be
       -0.66957116 -0.26329437 -0.8386997 -0.47253683
0001a0 9c 47 18 bf c0 ca f2 be 8f 08 1a be 32 21 8b bf
       -0.5948427 -0.4742031 -0.15042327 -1.0869505
0001b0 83 9e f9 be ac 83 6d bf 19 bf 8b be 82 99 37 bf
       -0.48753747 -0.9277904 -0.27294233 -0.7171861
0001c0 40 ca c3 be fa aa 68 bf 7c 66 b8 3c bd 2f e0 be
       -0.38240242 -0.9088589 0.022509806 -0.4378642
0001d0 30 05 8f bd 8d 4d 70 be 61 68 18 bf bc 28 9d bf
       -0.06983411 -0.23467083 -0.5953427 -1.2278056
0001e0 99 ef c4 be 17 81 ea be 24 07 30 be 22 c4 9c bf
       -0.38464049 -0.45801613 -0.17190224 -1.2247355
0001f0 e4 60 6b be e1 ab 9b bf 14 20 57 bf b4 aa e2 be
       -0.2298618 -1.2161828 -0.8403332 -0.4427086
000200 4b d8 d9 be ec 6f c3 bf f8 99 df be 73 74 56 bf
       -0.4254783 -1.5268531 -0.43672156 -0.8377144
000210 e9 9c a5 bf 8e 53 1e bf b7 43 ba bf 80 a2 3a c0
       -1.293851 -0.61846244 -1.4551915 -2.9161682
000220 d8 33 7e bf 52 13 1b bf 5c 48 de bf f5 5d 21 bd
       -0.9929786 -0.60576355 -1.7365832 -0.039396245
000230 1c 35 4d bf 02 3c 3a bf 01 e2 ee be 33 0a 88 bf
       -0.80159163 -0.72747815 -0.46656802 -1.0628113
000240 7b fe af 3e 9c 43 31 bf e9 5e 22 bf a2 78 07 bf
       0.3437384 -0.6924379 -0.6342607 -0.52918446
000250 bc 57 f9 bf 91 12 84 be 0b a4 22 bb ba 4d b7 be
       -1.94799 -0.25795415 -0.0024817016 -0.35801488
000260 9f 6d 30 bf 57 8e 76 bf 84 de 1e c0 f9 df 02 bf
       -0.6891727 -0.96310943 -2.4823313 -0.51123005
000270 de 05 2f bf 21 64 64 bf cd 31 6a bf 90 a1 0a c0
       -0.6836833 -0.89215285 -0.9148224 -2.166111
000280 7f 8b 17 bf 06 3b 18 bf 9c cb a7 be 24 8d 32 bf
       -0.5919723 -0.5946506 -0.3277253 -0.69746614
000290 65 51 b4 be 17 21 46 bf 7e 46 00 bf bf 80 1b bf
       -0.3521835 -0.7739424 -0.5010756 -0.60743326
0002a0 e1 fe 69 bf 70 0d a1 bf a4 fa 8f bf 9c 55 1b c0
       -0.9140454 -1.2582226 -1.1248364 -2.4271002
0002b0 a4 1f 0b be 89 0c 0e be e9 f4 95 be dd cb bf be
       -0.13586289 -0.1387197 -0.29288414 -0.37460223
0002c0 b6 59 1c bf e0 b1 21 bf ba ef 5f c0 41 a1 ed bf
       -0.6107439 -0.6316204 -3.4990067 -1.8564836
0002d0 03 ca 73 bf 7b ae e4 be 23 d1 ec be 28 6f a9 be
       -0.9523012 -0.44664368 -0.4625331 -0.33092618
0002e0 03 4f ab 3d 0c 98 2d bf 54 a2 12 c0 b0 9a 5b bf
       0.0836468 -0.6781013 -2.2911577 -0.8578291
0002f0 eb dd ec bf 35 40 1e bf ad 7b 46 bf 57 5c 91 be
       -1.8505224 -0.6181672 -0.77532464 -0.28390762
000300 b1 27 35 be 9f dc 34 bd 01 31 86 be 15 44 c9 bf
       -0.17690922 -0.044155713 -0.26209262 -1.5723902
000310 47 09 c3 bf dd 70 df be cd 7b ff be 76 73 39 be
       -1.5237206 -0.43640795 -0.4989914 -0.18110451
000320 da 48 97 be 28 30 e5 be d6 67 36 bf 1d 9b 65 be
       -0.2954777 -0.44763303 -0.7125219 -0.22422452
000330 f7 49 90 bd 05 d8 cb be c2 2a 2a bf 18 56 c1 be
       -0.07045358 -0.39813247 -0.66471493 -0.37760997
000340 5e 9d d5 bf 0c 4e 66 be 9e cc ab be d7 33 b5 bf
       -1.668865 -0.2249071 -0.33554548 -1.4156445
000350 82 af a2 bf 40 af 13 bf ef e9 34 be 6a 1c 1e bf
       -1.2709811 -0.57689285 -0.17667364 -0.61762106
000360 c2 14 08 bf 52 79 9c be 9f fd 35 be 47 2d 2d c0
       -0.53156674 -0.3056131 -0.1777253 -2.7058885
000370 c0 03 81 bf 80 6f c4 be 70 58 17 bf 36 e8 3b bf
       -1.007927 -0.38366318 -0.5911932 -0.734012
000380 18 34 f6 be 9b 70 43 be 9e ab f4 be ae 02 73 be
       -0.4808662 -0.19085924 -0.47787184 -0.23731491
000390 d6 08 95 bf e6 ae 0e bf db 3c a6 bf 4b b7 41 bf
       -1.1643322 -0.55735624 -1.2987322 -0.7567031
0003a0 c0 4c a8 bf 0b 4e 83 be b3 71 08 bf f1 c3 45 be
       -1.3148422 -0.2564548 -0.5329849 -0.19313027
0003b0 83 78 1d bf 12 b5 b8 be a5 4b 16 c0 24 43 80 bf
       -0.6151201 -0.36075646 -2.348367 -1.002049
0003c0 75 d7 a0 be 74 6a fb be d8 2a 12 bf 50 9b cc bf
       -0.3141438 -0.49104655 -0.57096624 -1.5984898
0003d0 ed f8 05 bf f3 92 dc be a7 cf 0e c0 21 87 d9 bf
       -0.52332956 -0.43080863 -2.231424 -1.6994363
0003e0 5d a5 a7 bf 3e f5 04 bf 58 3d 6b bf f2 7f 79 be
       -1.309734 -0.5193671 -0.9189048 -0.24365214
0003f0 5e 14 e0 bf b9 61 3b c0 42 3b 58 bf 4b 93 6e be
       -1.7506216 -2.9278395 -0.8446542 -0.23298375

linear2.weight f4 [3, 256]
000000 0f 02 1b c0 5c a8 0f bf 49 c6 2b bd 68 7c be 3d
       -2.4220006 -0.5611627 -0.041937146 0.09301072
000010 2a 89 b8 3e ec 0e 85 be 12 bb be bc e8 fb 08 3f
       0.36042148 -0.25987947 -0.023282561 0.5350938
000020 31 4c 2b 3f 84 9a e5 3d f8 59 20 3e 5b f7 29 3f
       0.66913134 0.11211112 0.1565932 0.6639306
000030 4f 9c 93 3c 73 8b bb bc 7f 9f 61 3e 6a e8 2e 3e
       0.01801887 -0.022893643 0.22033499 0.17080846
000040 1c 0b c5 3d dd 1e 33 be f2 4f 64 bf 34 75 2a c0
       0.096212596 -0.17492242 -0.89184487 -2.6634035
000050 b8 26 5e 3d 67 5c 45 3e b5 4b e6 bc 27 e5 68 3b
       0.054236144 0.1927353 -0.028112272 0.0035536976
000060 a3 3c 32 3e 74 2e e0 bc 90 dd fe bf b3 92 6e 3d
       0.17405944 -0.0273659 -1.9911366 0.058245372
000070 73 c2 28 be 68 db ff bf d8 14 27 3d 45 8f 82 3d
       -0.16480426 -1.9988832 0.040791363 0.06374983
000080 b4 b0 ba be 3a 9e 0d bd 60 d8 32 bd b0 72 f7 3c
       -0.3646294 -0.034574725 -0.043663383 0.030206054
000090 4c db 23 3d 94 d2 cc bc 66 1b 91 3f c0 5a 84 bd
       0.04000406 -0.025002755 1.1336486 -0.06462622
0000a0 50 03 f3 bc e6 ae 58 3d 4f 9c 8e bf 3e 5b ca bd
       -0.029664665 0.05290117 -1.1141452 -0.09880684
0000b0 fa ff a8 bf eb 7e 6b bd 48 41 2a c0 10 f7 a9 3c
       -1.3203118 -0.057494085 -2.6602345 0.020747691
0000c0 12 78 25 3e 5f ad 1b bc 1d ed 3b 3d e3 aa 2c bd
       0.16159084 -0.009501784 0.045880426 -0.042155158
0000d0 29 2f 3e bd c7 52 2b be db c3 2e 3e 35 48 bb be
       -0.046431694 -0.16730796 0.170669 -0.36578527
0000e0 0f e8 cd 3c 89 1b 82 be e2 c3 bd 3d c5 0a cc 3d
       0.025135068 -0.25411633 0.09265877 0.099629916
0000f0 e8 18 eb bc 12 66 c5 3d 2f c9 ab 3e 20 39 89 3e
       -0.0286984 0.09638609 0.33551928 0.26801395
000100 7f 5b a6 bf 39 ae 95 3e f7 27 de bd 0f ec 5b bd
       -1.2996672 0.29234484 -0.108474664 -0.05369192
000110 67 bc 30 3e 56 43 f1 3d e0 47 82 be 16 71 c5 bd
       0.1725937 0.117804214 -0.2544546 -0.0964071
000120 f5 88 98 bd 08 06 0e bf 67 fb 2c 3e c7 95 50 bd
       -0.074479975 -0.5547795 0.16892777 -0.05092409
000130 da d2 15 3f 27 82 74 3e 3a 13 95 be 86 5b a7 be
       0.5852486 0.23877774 -0.2911623 -0.32687014
000140 ac d9 7f bd 80 7f ef be 06 0f ba 3c 1a ca e1 3d
       -0.062463447 -0.46776962 0.022712242 0.11024876
000150 45 68 c1 bd 8e 28 8b 3d db 68 be 3c 6b c3 3c 3c
       -0.09443716 0.067948446 0.023243358 0.011521201
000160 dd 9a ef 3e cc 42 96 3e 3b bb 05 3c 2f 1e bb bd
       0.4679784 0.29347837 0.008162315 -0.091366164
000170 88 ea 52 3e f9 e7 fd 3c 1e 27 5d 3e b3 f7 3d 3e
       0.20597279 0.030994402 0.21596953 0.18551521
000180 e8 cc 91 bf 45 89 63 3d 7f 49 44 bd 23 80 4c 3d
       -1.1390657 0.055550832 -0.047921654 0.04992689
000190 e4 c6 cb be 13 db 20 bf 99 b1 1f bf 2b c6 2c 3d
       -0.3980018 -0.6283428 -0.6238037 0.042181175
0001a0 3f b7 e2 3c ce a6 57 be 55 cc 65 3d b8 77 9c 3d
       0.02767527 -0.21059725 0.05610307 0.07640022
0001b0 88 82 19 be c2 b7 87 3e 80 9b 60 3b 92 62 24 bf
       -0.149912 0.26507384 0.0034272373 -0.64212906
0001c0 9f 16 a6 bd d2 1a 56 bc d9 59 96 bb c6 19 0e 3d
       -0.081097834 -0.013067918 -0.0045883474 0.03469255
0001d0 e0 63 62 bc 7b 27 af bd 81 d0 70 3d 20 e7 e6 3c
       -0.013817757 -0.08552452 0.058792595 0.02818638
0001e0 13 74 4f bd a0 13 40 3e 4e 95 c8 3c 1d 80 63 be
       -0.050647806 0.18757486 0.024485257 -0.2221684
0001f0 a6 c0 0b be 52 b7 e4 bd f3 fe f7 be 83 b5 3e 3f
       -0.13647708 -0.11167778 -0.48436698 0.74495715
000200 5f 82 e2 3d 97 e6 f8 bd 1b 87 02 be 8f 57 0d 3f
       0.110600226 -0.121533565 -0.12746851 0.5521173
000210 c5 79 bc 3c 7c b2 89 bf dd 7e 29 3f e2 30 14 bf
       0.023007283 -1.0757594 0.66209203 -0.5788709
000220 f0 e5 0e bf fb cd b4 3e be 46 7b bf 8f 4a 0a 3f
       -0.55819607 0.353134 -0.9815482 0.5402002
000230 e1 49 17 3e e9 6a 07 3f cb 76 d0 3d 55 2a 62 3f
       0.14774276 0.52897507 0.10178908 0.88345844
000240 5f c2 b7 3f 76 47 12 3b 5b 8b d1 ba 9f c8 50 3d
       1.4356192 0.0022320426 -0.0015986966 0.050972577
000250 9d 72 0a c0 58 44 39 3c 75 35 b1 3c f3 63 bd be
       -2.1632454 0.011307798 0.021631936 -0.36990318
000260 a2 ab 68 3d 00 49 3c 3d 66 9b 0b 3f ad b8 22 3f
       0.056804307 0.045968056 0.54533994 0.6356304
000270 52 1d a0 3f d0 6b a9 3e c1 cb c7 be 66 b4 06 be
       1.2508948 0.33090067 -0.3902264 -0.13154754
000280 d4 74 c2 bd ce e2 62 be c6 a3 e1 3d e1 1f 60 3f
       -0.094949394 -0.22156832 0.110175654 0.87548643
000290 c3 6b 55 3c 06 45 97 be aa 94 6a 3d 93 f8 bc 3d
       0.013026181 -0.29544848 0.057270683 0.09227099
0002a0 2f 11 62 3e 8f 40 74 3e 9a 18 e0 3d 9d 4b fd 3e
       0.22076868 0.23852752 0.109421924 0.4947175
0002b0 40 db 4c bd 04 55 dd bb dc 8b 5f 3d 81 0f eb bd
       -0.05001378 -0.0067545194 0.05457674 -0.114775665
0002c0 e6 05 82 3f 21 d4 86 be 28 6b 1b bf 8b a8 8d 3f
       1.015805 -0.26333717 -0.6071038 1.106706
0002d0 9b d2 f3 3c 24 5e 12 bd 91 20 4d 3d 04 b1 e2 3c
       0.02976351 -0.03573431 0.050079886 0.027672298
0002e0 f3 20 d2 bc c7 8d a7 3e 77 7f be 3d fe 97 9a 3e
       -0.025650477 0.32725355 0.09301656 0.30194086
0002f0 7e d4 69 3f 6f 5d 45 3e 91 a9 a4 3d 16 4a 38 be
       0.9133986 0.19273923 0.08040155 -0.17997012
000300 27 63 fc bc 36 9e 60 bc 53 46 01 3d ab 69 bd 3e
       -0.030808998 -0.013709595 0.031561207 0.3699468
000310 37 55 3f 3f 15 36 18 bc 52 ea e0 bd fa ae 2b bd
       0.747394 -0.009290238 -0.10982193 -0.041914918
000320 6b a1 8c be 59 54 c2 bb 1f d7 c9 3e 27 a7 c9 bc
       -0.27466902 -0.005930465 0.39421937 -0.024615837
000330 c6 d9 f0 bb 58 3d 9c 3d bc ee e8 be f2 0b 31 3e
       -0.0073501794 0.07628888 -0.4549464 0.17289713
000340 61 4c 5d 40 5f 97 48 be 55 00 ad 3c 77 ec ce be
       3.4577868 -0.19588993 0.021118322 -0.40414783
000350 40 8f ec bd 54 0e 0a be c2 65 1c bd eb 40 9f bf
       -0.1155076 -0.13482028 -0.03818298 -1.2441686
000360 b5 7d 63 be df bd 2d 3e c9 b6 0a 39 cf 37 11 3e
       -0.22215922 0.16966961 0.00013228798 0.14181446
000370 da ae 39 3e 47 31 99 bd 2b 54 ab be 87 a7 06 3f
       0.18133107 -0.07480102 -0.33462653 0.52599376
000380 12 a8 54 3e 12 d5 0f be ce 3a 62 bf 8e 26 c0 3d
       0.20767239 -0.14046124 -0.8837098 0.09382354
000390 74 9f 3a be 2f d5 b7 3e ff 9b 57 c0 bf 76 58 3e
       -0.18224889 0.35904834 -3.3688962 0.21139048
0003a0 06 02 63 3d b9 53 15 3c 81 8a 1a 3d c3 2d cb 3b
       0.05542185 0.009114199 0.037729744 0.0062005236
0003b0 c7 1a 8e be 39 a7 84 bc 13 a5 f7 3d 89 5e 1b 3e
       -0.27754804 -0.01619302 0.12092032 0.15172781
0003c0 5e 97 87 3e 32 b4 9f 3c 6d 31 97 be 2d 11 54 3f
       0.26482671 0.019495104 -0.29529896 0.8283871
0003d0 88 13 1d 3d af 97 a2 bc 8b c5 ef 3d c2 cd c9 be
       0.038348705 -0.019847719 0.117076 -0.39414793
0003e0 a1 a1 c8 be 64 d2 1d be f2 c6 87 3c e0 72 76 bd
       -0.39185813 -0.15412289 0.016574357 -0.060168147
0003f0 11 f5 9d 3e b8 39 5a be b1 83 9e 3f 71 13 94 bc
       0.30851033 -0.2131108 1.2383939 -0.018075677

linear2.bias f4 [3]
000000 b4 01 88 3f f7 55 6a be c2 33 a3 be
       1.062552 -0.22884355 -0.31875426
