Code Submission/DRL_models/snapshot-score-37.pth (torch, 17051 bytes, 4 tensors)

linear1.weight f4 [256, 11]
000000 5f e8 d5 be 92 5f dd bd 39 94 0a be 7d 0e c1 3d
       -0.41778848 -0.10809244 -0.13533105 0.094265915
000010 33 5b 63 be bf 45 0d be ed c1 93 3d c5 c2 52 be
       -0.22202758 -0.13796137 0.07214723 -0.20582111
000020 4c 4d ae be e6 2a 3e 3e 51 02 6b 3e 04 a1 fa be
       -0.34043348 0.18571052 0.22950102 -0.4895097
000030 54 93 2b be 7f fc 07 bf b3 2d 22 be 5f 8a a4 be
       -0.1675542 -0.53119653 -0.15837745 -0.3213682
000040 13 f3 65 3d 28 43 c2 be 96 2c 88 be ab a3 4a 3d
       0.056140017 -0.3794186 -0.26596516 0.049472492
000050 aa ca ac 3e 47 2b 5a bf 78 b1 2c 3e bc c9 89 be
       0.3374837 -0.85222286 0.16864574 -0.26911724
000060 54 c0 84 be 7a dd 47 3e 5c c5 9c be 13 a5 00 3d
       -0.25927985 0.1951808 -0.30619323 0.031407427
000070 01 ed 4b 3e 8f 48 66 bd e0 27 73 be 13 9f 17 3c
       0.19914629 -0.05622154 -0.2374568 0.009254235
000080 47 e8 87 bc 79 34 0b bf ce d9 4f 3e 4a e6 ad bd
       -0.01659025 -0.5437694 0.2029793 -0.0849119
000090 f4 73 16 bf b6 25 94 bc 4a 58 3a bb 96 f7 04 be
       -0.5877068 -0.018084388 -0.0028433972 -0.12985072
0000a0 36 d1 5e 3e 50 11 c7 3e 63 b4 b0 3e 6f b2 9a 3e
       0.21759495 0.38880396 0.34512624 0.3021426
0000b0 11 53 70 3d 4d 13 9c be 3c 6f 71 3d 64 34 a8 be
       0.05867297 -0.30483475 0.058943972 -0.3285247
0000c0 b6 fa 8c be 48 74 96 be ab bc 77 be b1 8d 98 3d
       -0.27535027 -0.2938559 -0.24193065 0.074489005
0000d0 d8 b5 3f be b6 52 db 3e 47 0a 04 bf 0a ff 0a bf
       -0.18721712 0.4283654 -0.5157818 -0.5429541
0000e0 0f 5d 7c bc c6 0f fe be 5a 96 0f 3d 61 b0 f9 bd
       -0.015403046 -0.4962141 0.035055496 -0.12191845
0000f0 9c c8 d1 bd f6 59 db be 38 5d 2a 3e 73 c9 55 3e
       -0.10243341 -0.42842072 0.16637123 0.20877628
000100 53 d4 e8 3e e5 62 85 bf 3c 22 9a bc 16 66 68 3d
       0.4547449 -1.0420805 -0.018815152 0.05673798
000110 23 a8 bc bd 7b 05 72 3d 8f 27 48 be 82 ea 39 be
       -0.09211757 0.059087258 -0.1954634 -0.18155864
000120 6c 14 bf be b8 db cb bd 41 23 13 3d 23 69 02 3e
       -0.37320268 -0.099540174 0.035922293 0.12735419
000130 b5 39 66 be 77 42 84 be b4 b9 58 bd 1d 3f 20 bf
       -0.22482951 -0.2583196 -0.052911475 -0.62596303
000140 a4 ec 53 bc c9 f6 a4 be c6 03 a7 bb 6d 94 d2 3d
       -0.0129348375 -0.32219532 -0.0050968854 0.10282216
000150 af 9e 14 3d 19 22 d1 3e a1 b8 0c bf 42 45 c3 3e
       0.036284145 0.40846327 -0.5496922 0.38138777
000160 1f 82 8b bf ca de f6 3d 54 e1 86 bf 42 76 c7 3e
       -1.0899085 0.120542124 -1.0537515 0.3895741
000170 85 d8 7e be 8f 47 1c 3e b9 85 19 bf e1 3f b7 bd
       -0.24887283 0.15261672 -0.5996967 -0.08947731
000180 ae f3 cd 3e cc 36 a2 3f dd e0 f4 bd 00 5e 88 bf
       0.40224975 1.2672973 -0.11956952 -1.0653687
000190 9d 4c 94 bf e1 cb f3 3d 33 ef 60 bf c1 b5 d0 bf
       -1.158588 0.11904121 -0.8786499 -1.6305467
0001a0 97 65 03 bf 83 7a d9 bf e1 6f b7 be a3 e5 08 40
       -0.5132689 -1.6990513 -0.35827544 2.139016
0001b0 1e ab 7b 3f 77 51 b7 3f c8 9d 3f 3a c1 52 9d 3e
       0.9830798 1.4321736 0.0007309583 0.307272
0001c0 44 3d da bd 5a ac 73 3e 9c 91 15 be a2 a2 84 be
       -0.10656217 0.23796216 -0.14606327 -0.2590533
0001d0 98 89 ef be e5 e6 ab be b5 ce bb be 34 9f 01 3e
       -0.46784663 -0.33574596 -0.36681142 0.12658387
0001e0 6e cf 94 3d d3 5e ad bb b7 1f a7 be eb f9 55 be
       0.072661266 -0.005290845 -0.32641384 -0.20896117
0001f0 cb 37 a9 be 24 03 93 bd b2 86 5d 3d 08 2b e4 be
       -0.3305038 -0.071783334 0.054083534 -0.4456408
000200 2d d7 05 bf 41 82 32 3d 15 1f b9 be 1b d9 5a 3c
       -0.5228146 0.04358125 -0.36156526 0.013357426
000210 fe f0 0a be f1 65 69 be af 45 ed be 69 3d fb bc
       -0.13568494 -0.22792794 -0.46342227 -0.030668931
000220 c4 26 42 bd 45 54 ca bd 78 6b f5 be 25 f1 ea be
       -0.04740025 -0.098793544 -0.47933555 -0.45887104
000230 d9 5b 8d 3e 65 ca 50 bc 87 71 e0 bd 5a 5c 34 3e
       0.27609137 -0.012743567 -0.109591536 0.17613354
000240 f3 bb 87 3d ae de 65 3d 9a 40 d9 bc 56 46 81 bb
       0.06627645 0.056120567 -0.026520062 -0.0039451523
000250 94 b7 63 be 34 93 b6 3b ef ca 34 be 19 25 1e bd
       -0.22237998 0.005571747 -0.17655538 -0.038609598
000260 f0 c5 6c be 32 e0 83 be c6 ad c9 be 11 24 28 3e
       -0.23122382 -0.25756985 -0.3939039 0.16420008
000270 f3 9b 41 3e 65 85 01 bf 50 f2 1b be 3c 0e 80 be
       0.18907146 -0.5059417 -0.15229154 -0.2501086
000280 f7 95 4a 3e 58 88 00 3e f5 c9 b9 3e 76 88 f4 3e
       0.1978377 0.12552011 0.36286893 0.4776036
000290 96 6f b4 3e ac b0 47 be 4e 2c c0 be 60 bf 8d be
       0.35241383 -0.19500989 -0.37533802 -0.2768507
0002a0 4e 51 d8 be 6a 71 0f be 2a ad 63 be 83 33 68 be
       -0.4224953 -0.14008108 -0.22234026 -0.226759
0002b0 26 96 a2 bd 80 8b 63 3e 91 a7 04 bf fa 53 95 3e
       -0.07938795 0.22221184 -0.51818186 0.29165632
0002c0 e2 29 01 bf 43 54 52 bf d4 3a 47 bd 0a 3d ba bf
       -0.50454533 -0.82159823 -0.048640087 -1.4549878
0002d0 5b 2d 9c 3e 01 a5 66 3f 30 6b 93 3e 64 ef 42 3f
       0.30503353 0.90095526 0.28792715 0.7614653
0002e0 97 b4 a0 3f b3 52 d1 bf 46 fa 88 3f 90 b7 90 3d
       1.2555112 -1.6353363 1.0701377 0.07066262
0002f0 50 c9 ca 3c e7 e9 4d 3e fd 7e 4b be 52 aa 32 3e
       0.024754196 0.20108758 -0.19872661 0.17447785
000300 fd be 35 be 8a da 57 be f0 f5 4a 3d 47 c5 c5 bb
       -0.17748637 -0.2107946 0.04955095 -0.00603548
000310 ac f4 97 be 2e da 6a 3b 68 d2 1b be 99 0a c5 bd
       -0.29678857 0.0035835612 -0.15216982 -0.09621162
000320 e6 20 27 be 37 02 0f bd 67 0b ca be 08 ad 17 be
       -0.16321144 -0.03491422 -0.39461824 -0.148121
000330 57 e1 46 bd eb c1 44 be 32 9d 0d ba 63 90 00 3e
       -0.048554745 -0.19214599 -0.0005402147 0.12555079
000340 9a 19 90 be 76 3f 4a bf 57 33 62 be 2b b6 54 bf
       -0.28144532 -0.79003084 -0.22089897 -0.83090466
000350 90 3a 44 be a2 e4 91 be 36 a4 6f be 59 5c 4e 3d
       -0.19162965 -0.28494745 -0.23402485 0.05038104
000360 41 94 bf bd 98 34 4b bd 10 9e 12 3f f6 5a 5b bf
       -0.09354449 -0.049610704 0.57272434 -0.8568567
000370 8b 07 d2 be b7 87 8e be ac 07 04 3d a6 63 66 3d
       -0.4102138 -0.27837917 0.03223388 0.056247376
000380 31 aa a4 be c1 da ea bd 3c 21 a8 be 83 13 a5 3c
       -0.32161096 -0.11467505 -0.32837856 0.020150905
000390 8c 8e c3 be e1 91 fa 3c 0c 03 08 be af cc 96 bc
       -0.38194692 0.030587139 -0.13282412 -0.018408148
0003a0 36 e4 5a bf 4d 18 30 bf 97 46 d4 be b9 8c 47 be
       -0.8550447 -0.6878708 -0.41460106 -0.19487275
0003b0 2a ac d8 be c1 a8 cd be e3 27 8d be 01 6e 87 3e
       -0.4231885 -0.40167812 -0.27569494 0.26451114
0003c0 74 4d 0b bd 8d 68 05 3f 34 f4 e3 bd ae a7 f4 be
       -0.034009412 0.52112657 -0.111305624 -0.4778418
0003d0 df ce 1c be ca e0 0e bf 56 24 6f bc 81 5c 58 be
       -0.1531329 -0.5581175 -0.0145960655 -0.21129037
0003e0 4c 34 9d 3d a4 41 b9 bc d3 6f 97 3e 21 2e 0a 3e
       0.076759905 -0.022614308 0.29577503 0.1349416
0003f0 d7 d3 d3 be b9 52 93 3d b2 52 c5 bd d4 57 ee bd
       -0.41372558 0.071935125 -0.096349135 -0.11637846

linear1.bias f4 [256]
000000 e6 21 04 bf d8 53 c3 be c7 2a 7b be 99 27 d2 bf
       -0.51614225 -0.38149905 -0.24528037 -1.6418334
000010 90 00 03 bf 1e 1b 51 bf 66 90 6d be c3 2f 56 bf
       -0.51172733 -0.81682 -0.23199615 -0.8366663
000020 35 f9 7c bf d1 56 85 3f bc f2 02 bf 72 d0 4c be
       -0.9881776 1.0417119 -0.51151633 -0.2000139
000030 c0 3d b2 be 6a 05 6f be 47 fe be bf e0 7d c4 be
       -0.34812737 -0.23341909 -1.4921349 -0.38377285
000040 20 6e 55 bf 2f 87 b6 be c2 ad 59 be 57 ec c5 be
       -0.8337116 -0.35650012 -0.2125769 -0.38656875
000050 83 c4 2b be ce 86 45 bf ce d2 05 bf a4 93 d2 be
       -0.16774182 -0.7715882 -0.5227479 -0.41128266
000060 85 f5 f8 bd 83 20 6e bf 1c 2f 95 be 05 25 56 be
       -0.12156204 -0.9301836 -0.29137504 -0.2091256
000070 7e 37 66 be b3 62 22 bd af 38 cd be 60 df 08 bf
       -0.22482106 -0.03964491 -0.4008231 -0.53465843
000080 d6 5b 4f bf 5d 1f 2e bf c1 a8 dd bf 96 cb 92 bf
       -0.80999506 -0.68016607 -1.7317125 -1.146838
000090 83 bd a8 be f3 05 75 bf e1 5a 69 bf 3d 11 f5 be
       -0.32957086 -0.957122 -0.91154295 -0.47864714
0000a0 46 ad 71 bf d4 8a dc bf bf 05 41 bf c3 f3 fd be
       -0.9440502 -1.7229867 -0.7539939 -0.49600038
0000b0 30 83 81 bf a2 b8 d3 be 55 31 1f be f0 2a b6 bf
       -1.011816 -0.413518 -0.15546162 -1.4231853
0000c0 a3 c3 02 bf 4d 1a c2 be 36 b8 32 bf 5b 36 bb be
       -0.5107977 -0.3791069 -0.69812334 -0.36564907
0000d0 d7 e9 ab be e1 0e 70 bf 7b d9 35 bf 6d a0 4d bf
       -0.33576843 -0.93772703 -0.71034974 -0.80322915
0000e0 df 56 dd be 76 ad 7a bf fb 90 86 bf 0f 87 f4 be
       -0.4323034 -0.9792093 -1.0512995 -0.47759292
0000f0 86 ba bb be 0f 6b b7 be e1 5a d8 be fc cc 1c bf
       -0.36665744 -0.35823867 -0.42256835 -0.6125028
000100 5b ee 7e bf e0 c7 7a bf 59 51 77 be 8f ec 0d be
       -0.9958245 -0.97961235 -0.24152125 -0.13859771
000110 74 a6 ef be c4 fb 04 be eb 83 55 bf f2 46 b7 be
       -0.4680668 -0.12986666 -0.83404416 -0.35796314
000120 99 0d 52 be 27 96 9e bf 29 3d aa bf 18 22 aa be
       -0.20513 -1.2389573 -1.3299915 -0.33229136
000130 d8 a1 5a be 50 19 a9 bd 7e 77 45 bd 44 e5 8c be
       -0.21350801 -0.08256781 -0.04820966 -0.27518666
000140 81 1e 1d bf 49 e5 08 bf c0 e3 58 be a6 c3 82 bf
       -0.6137467 -0.5347486 -0.2118063 -1.0215957
000150 75 b9 1a bf 68 99 e4 bd 5f b3 a7 be 9a 2f ce be
       -0.60439235 -0.111620724 -0.32754037 -0.40270692
000160 9a 12 08 bf 5a df 1c bf 1e be 85 3f 38 b7 2c bf
       -0.53153384 -0.6127831 1.0448644 -0.6746707
000170 55 b6 6e bf 5f 7c 99 bf 96 d1 8b be 17 ac a1 be
       -0.93246967 -1.199108 -0.2730834 -0.31576607
000180 68 bd 46 bd fa db 44 be e3 58 9c bf cc 5d b5 be
       -0.048520476 -0.1922454 -1.2214626 -0.35423124
000190 96 1a 4e bf 3d 5f 0f bf 6d c4 33 bf b3 43 2d bf
       -0.80509317 -0.560047 -0.70221597 -0.67681426
0001a0 b3 0d 49 bf 6a 71 eb bf 4d cf f6 be 1a 4d 27 be
       -0.7853653 -1.8393986 -0.48205033 -0.16338006
0001b0 91 5f 18 bf 7f 3e a6 bf f2 fc 2f bf 5e d4 a2 be
       -0.5952082 -1.2987822 -0.6874534 -0.31802648
0001c0 48 42 de be b7 fa 32 bf 9b d0 99 be b1 a0 7c bf
       -0.43409944 -0.6991381 -0.30041966 -0.98682696
0001d0 7a a4 02 bf 81 84 f6 be 02 02 54 bf 93 ae 81 be
       -0.5103222 -0.48147967 -0.82815564 -0.25328502
0001e0 6b bb ac bf 55 41 17 be 0a 09 96 bf b5 2f 1e bf
       -1.3494695 -0.14771016 -1.1721509 -0.61791545
0001f0 0a 80 d4 be b4 34 12 bf e6 64 26 bf 78 0f 1a c0
       -0.41503936 -0.5711167 -0.6499771 -2.4071941
000200 16 44 5c bf cb 06 86 be 19 50 8a be 67 2c 0d bf
       -0.8604139 -0.26177058 -0.27014235 -0.5514588
000210 aa 79 f3 be 4d 16 7d be 63 a5 63 be ad f0 53 bf
       -0.4755376 -0.24715538 -0.22231059 -0.8278912
000220 be ed 17 bf 65 73 c6 be 1c 42 f4 3c 81 26 3b bf
       -0.5934714 -0.38759914 0.02981668 -0.7310563
000230 a2 9f 8d be 4b 1c bd bf 76 ad 8d be 0d 5f 41 bf
       -0.27660853 -1.4774259 -0.27671403 -0.7553566
000240 18 b1 11 bf 25 07 2c bf b3 b7 5c be 5c 5b f0 be
       -0.5691085 -0.671984 -0.2155445 -0.46944702
000250 12 78 b4 bf d9 3a 66 bf 55 5a 85 bf b6 7f da be
       -1.4099143 -0.89933544 -1.0418192 -0.4267556
000260 8f e5 a5 be 8f 5d 66 bf a4 56 92 bf cf 2d 6c bf
       -0.32401702 -0.8998651 -1.1432691 -0.922574
000270 ff 17 7c bf 32 42 a1 bf d4 63 19 bf d3 b6 76 bf
       -0.98474115 -1.2598326 -0.5991795 -0.9637272
000280 e0 17 32 bf 5e 02 4c bf d7 bf ee be 46 96 0c bf
       -0.6956768 -0.7969111 -0.46630737 -0.549168
000290 4c d4 23 bf a1 22 89 be b4 03 96 bf 41 00 18 bf
       -0.63995814 -0.26784232 -1.171988 -0.5937539
0002a0 e6 41 92 be f9 13 a0 be 98 49 d0 bf 14 a5 a1 bf
       -0.28565902 -0.31265238 -1.6272459 -1.2628503
0002b0 0d 62 fe be aa b9 c2 be 82 a0 ce be ed 85 3f be
       -0.49684182 -0.38032275 -0.40356833 -0.18703432
0002c0 df c4 c0 be 4d 93 de be 9b f4 e2 be d5 ab 27 bf
       -0.376502 -0.43471757 -0.44327244 -0.6549657
0002d0 8c 22 8b bf 56 8f 25 3f 5a 31 88 bf ff 71 37 bf
       -1.0869918 0.6467184 -1.0640061 -0.7165832
0002e0 43 f0 23 be f3 39 e3 be 38 da a6 be de 1c 36 bf
       -0.16009621 -0.4438015 -0.32588363 -0.711378
0002f0 df e8 82 bf 70 f7 86 bf 2b 3a a4 bf d7 1b 10 be
       -1.0227317 -1.0544262 -1.2830251 -0.1407312
000300 46 b1 18 bf 30 23 8b 3d 93 bf a4 be 88 ad c9 be
       -0.596455 0.06793821 -0.3217741 -0.39390206
000310 b7 f9 a1 be c9 3d a8 bf 0d 38 07 bf 0a 74 8c bd
       -0.3163583 -1.3143855 -0.528199 -0.0685807
000320 0f 43 a5 be 78 a9 1c bf e7 f4 a7 be 39 e4 fd bf
       -0.32277724 -0.6119609 -0.32804033 -1.9835273
000330 57 f2 5c be a7 e0 e9 be e0 63 8f bf 26 5c 98 bd
       -0.2157682 -0.4567921 -1.1202354 -0.07439451
000340 f5 c0 43 be 02 ae 64 be 0a 6b 8c bf e1 da 23 bf
       -0.19116576 -0.22332004 -1.0970166 -0.6400586
000350 23 99 c5 be 29 fe fe bd 1d 91 3c bf 50 b6 78 be
       -0.38593397 -0.12450821 -0.73658925 -0.24288297
000360 83 f7 8e be 05 9e 32 bf d3 7f 7a be db b0 bd bf
       -0.2792321 -0.6977237 -0.24462824 -1.4819597
000370 4b b0 ec be fe 15 c6 bf 07 8c 65 bf 8f e5 19 be
       -0.4622825 -1.5475461 -0.8966679 -0.15028976
000380 0f 62 53 bf be 70 50 bf 8f 8c 94 bf bb 9a 14 be
       -0.825715 -0.8142203 -1.1605395 -0.1451215
000390 88 4d 97 be b9 0d d8 be 92 1e 01 bf 35 54 23 bf
       -0.2955134 -0.4219797 -0.5043727 -0.63800365
0003a0 d4 ac e8 be d2 5f 01 c0 45 82 19 bf 73 9e 63 be
       -0.45444357 -2.0214734 -0.599644 -0.22228412
0003b0 8e cb e2 be 89 cf b8 be 6a c8 6b bf a7 bd 9d be
       -0.44295925 -0.36095837 -0.9210268 -0.30808756
0003c0 75 5f 6b bf 1e 53 4e 3d e9 3c 79 bf 53 19 13 bf
       -0.9194253 0.050372235 -0.97358567 -0.57460517
0003d0 91 6a 41 bf a3 ea d2 be 2c 4c b3 bb fa 90 34 3f
       -0.7555323 -0.4119464 -0.005471727 0.70533717
0003e0 69 0e c1 be 60 b6 c4 be 49 45 9a bf 8a 74 df be
       -0.37706307 -0.3842039 -1.2052394 -0.436436
0003f0 43 28 40 bf 07 d8 95 bf 35 4f b7 bd c4 aa 53 bf
       -0.75061435 -1.1706551 -0.089506544 -0.8268244

linear2.weight f4 [3, 256]
000000 cb 80 b7 bd 0c 6d 52 3d 9b 87 a0 3c fa 54 a8 bf
       -0.08960112 0.051373526 0.019595912 -1.3150933
000010 7b 86 8e 3e da d1 5c 3d 82 0f 1a bc c3 9c 05 3f
       0.27836975 0.053911068 -0.009403111 0.52192324
000020 bd 31 31 3e 87 23 5e be cf 7a b9 3f bf 7a 85 3f
       0.1730413 -0.2169324 1.4490603 1.0428084
000030 2c 74 ac bd aa 28 0a bc 4f 6e d6 bf ed 2e 9b be
       -0.084205955 -0.008432547 -1.6752414 -0.3030924
000040 91 28 9f 3c 63 ee 11 bc 7a df 8c 3d 2c 0b a2 bd
       0.019428523 -0.0089069335 0.06878562 -0.07912287
000050 31 93 2c ba fa 62 0b bf 61 aa ab 3d 9e 68 2d bd
       -0.00065832125 -0.544479 0.083821066 -0.0423361
000060 f3 04 1b 3d 91 2a 63 3b 9f 22 38 3e a0 f9 22 3b
       0.037846517 0.0034662823 0.17981957 0.0024868026
000070 af 3b 1a bd 72 40 aa bc 33 c2 91 3e f6 d0 10 c0
       -0.037654575 -0.020782683 0.28468475 -2.262754
000080 43 81 e2 3e 72 78 87 3d bc be 09 be c2 99 89 3f
       0.44239244 0.0661477 -0.13451666 1.0750048
000090 13 3f 84 bd ae bc 4a 3e 1a 18 a4 3e 34 f3 f1 3d
       -0.06457343 0.19798538 0.32049638 0.118139654
0000a0 ae 98 62 bf db 4e eb 3f 62 76 d2 3e 69 e5 44 c0
       -0.8851422 1.838344 0.41105944 -3.076502
0000b0 05 d9 d5 bf 77 16 b6 bc df 12 49 3c c5 c2 bb be
       -1.6706854 -0.022227509 0.012272566 -0.36672035
0000c0 f5 21 81 3e cd 21 cc 3b 17 82 15 3e 6b 93 88 3d
       0.2522122 0.0062296153 0.14600407 0.06668743
0000d0 70 22 27 be c5 09 83 be 70 23 20 bd 7e 52 46 3e
       -0.1632173 -0.2559339 -0.039096296 0.19367406
0000e0 72 4b 83 bc 69 12 96 3f 05 4a 58 3f 80 1f c3 bd
       -0.016027186 1.1724368 0.84487945 -0.095274925
0000f0 c4 c8 8a bd 89 18 1b bc b8 1e 07 be 0d eb 51 3c
       -0.06776574 -0.009466299 -0.13195312 0.012812388
000100 e1 a0 f3 be 6d 41 d5 3e 89 eb 17 3c a2 f6 1a 3c
       -0.47583678 0.41651478 0.009272465 0.009458216
000110 84 66 b9 bc 48 c8 67 bc 6f 21 16 c0 1f 81 d0 3d
       -0.022631891 -0.014146872 -2.3457906 0.10180878
000120 f6 9c 4d 3d 67 25 d9 bd e6 d8 58 c0 6d 61 11 3e
       0.050198518 -0.10602837 -3.3882384 0.14197321
000130 40 5f e7 3b 88 67 0f 3f bf 7c 9c 3b c1 00 9a 3d
       0.007060915 0.5601735 0.004775613 0.07519675
000140 05 fa 6a 3d 02 ba ec bd 15 f2 4c bd 85 ce 60 bd
       0.057367343 -0.11558916 -0.050035555 -0.054884452
000150 ea 51 dc 3d b5 95 66 be 42 ee 88 bc 72 91 3c bd
       0.10757811 -0.22518046 -0.016715173 -0.046037145
000160 ff 78 99 3e fa 35 69 be d8 6c 88 be 3e aa 99 3d
       0.29975125 -0.22774497 -0.2664554 0.07503174
000170 5c 7a 9b 3f 9a 5f b9 bf f2 d4 d6 3d c6 45 22 3d
       1.2146716 -1.44823 0.10489835 0.039617322
000180 44 cf c3 be c2 b9 36 3d 43 29 11 bf d3 aa cc bc
       -0.3824407 0.044610746 -0.56703585 -0.0249838
000190 47 18 8e 3e a9 b7 1c bd 29 58 0b 3f 8c 2d 63 3d
       0.27752897 -0.03826109 0.54431397 0.05546336
0001a0 43 e1 9c bd 44 8c e5 be 28 b4 31 3d 1c f3 38 bc
       -0.07660153 -0.44833577 0.0433847 -0.011288431
0001b0 d9 5a b4 3e b5 2a 48 3f 5c 6a e5 3e cc 1b d8 bb
       0.3522556 0.78190166 0.44807708 -0.0065951105
0001c0 c4 1f 7c bd 61 9e cc be 37 e3 77 3d 34 a8 95 3e
       -0.06155373 -0.39964584 0.060519423 0.2922989
0001d0 e8 b1 da 3c 35 f9 88 3a b9 90 a5 3d be 9e a0 bd
       0.02669616 0.0010450246 0.08084244 -0.07842778
0001e0 85 31 b6 be 4d af 3a bc 23 37 1d 3c 2e 1d 8f 3d
       -0.35584655 -0.011394334 0.009595665 0.069879875
0001f0 5b e4 47 3e db 4c 43 bf 4a 64 b1 3c 93 51 22 bf
       0.19520704 -0.7628915 0.021654267 -0.6340572
000200 b8 f4 25 3f ae d6 3a 3d ba 15 9b bb ca 31 45 bf
       0.64826536 0.04561489 -0.0047328146 -0.770291
000210 15 1c a2 3d 3b 14 1b be 4d b3 33 3e 3f 14 5d bd
       0.079155125 -0.15144436 0.17548867 -0.053974386
000220 fd 73 f0 bd 91 69 23 3d 0f a3 69 bd ad 0c 5c 3c
       -0.11740873 0.039895598 -0.05704027 0.0134307565
000230 c0 bc 17 bd 9a 9f 3b 3f e8 36 11 3d 1a 01 f4 3e
       -0.03704524 0.7329041 0.035452753 0.4765709
000240 86 11 c2 3e 66 c3 4b bf 8d e1 73 be 15 c7 3a bf
       0.37903994 -0.7959503 -0.2381651 -0.72960025
000250 47 c7 94 3f e8 29 86 3f e1 e3 7e be d7 48 3e 3d
       1.1623315 1.0481539 -0.24891616 0.046456184
000260 49 de cb 3c d1 2a 26 3f e6 10 56 3e 6e d2 4c be
       0.024886267 0.6490908 0.20904884 -0.20002148
000270 16 fa 05 3f e8 ba 76 3d f4 2c 3f be e2 62 e8 3d
       0.52334726 0.06023684 -0.18669492 0.113469854
000280 98 85 38 bf f6 9c b7 3e a1 0b c1 3a 44 5a 8a 3e
       -0.7207885 0.3586194 0.0014728197 0.27021992
000290 b9 95 42 3e 4a 48 4a 3d e7 57 52 c0 3b be 27 3d
       0.19002427 0.049385346 -3.2866151 0.040952902
0002a0 16 06 73 3d 9e ed 6a bf d6 cd d9 bf 7b 99 96 3d
       0.059331976 -0.91768825 -1.7015941 0.07353493
0002b0 5a b8 61 be bf e7 10 3c c9 b0 d0 bc 7f 5f 78 3e
       -0.22042981 0.008844315 -0.025474923 0.24255179
0002c0 02 22 bd 3e 74 72 ce be ae c0 b2 bd 88 1c 12 3f
       0.36940008 -0.40321696 -0.08728157 0.57074785
0002d0 ac 33 9f 3f aa 20 69 be 61 c2 43 3e f3 1a 91 3c
       1.2437644 -0.22766367 0.19117118 0.017713046
0002e0 3c 51 f3 3c c4 75 04 3f 1a 92 0d 3f 6b 6e e7 bd
       0.029701822 0.51742196 0.5530106 -0.113003574
0002f0 54 97 ba 3d aa c9 02 bf 66 18 74 3e ed 1c 7c bd
       0.09110895 -0.51088965 0.23837432 -0.061551023
000300 33 1c fd 3d 81 63 cd 3c 3b f2 6c ba 4a 3e f2 3e
       0.12358894 0.025071861 -0.00090387807 0.47313148
000310 fe c5 14 be 87 20 15 3f fa a9 23 40 b2 a2 05 3c
       -0.14528653 0.5825276 2.5572495 0.008156465
000320 34 ca 2d 3c 89 5d 8b 3e db 2f 09 3d 96 d2 de bd
       0.010607291 0.272198 0.033492904 -0.1088001
000330 74 c7 6e bc 15 b9 27 bf 1e 0b 0d bf 6e 3e 02 bd
       -0.0145739205 -0.6551679 -0.5509509 -0.03179782
000340 b4 44 2f bc 77 8b 0a 3f 1e 64 14 3f 22 5a a6 3d
       -0.010697532 0.54119056 0.57965267 0.0812266
000350 a2 70 5c bb 1c 9b 39 bc 3c 40 22 3e e4 ae 97 bc
       -0.003363647 -0.011328485 0.15844816 -0.018516012
000360 98 dc 98 bd 87 91 51 3f 97 98 47 3e 2c 97 61 3f
       -0.0746395 0.8186268 0.19491802 0.88121295
000370 d4 02 ad bd b7 8f bc bf 41 89 9a bb 16 89 54 bb
       -0.08447805 -1.4731358 -0.004716069 -0.0032430342
000380 67 62 1c 3d c9 e4 48 3e fd 9d d4 bd 41 11 ad 3d
       0.03817978 0.19618525 -0.103816964 0.084505565
000390 64 cb 07 bc 28 c4 43 bb d0 0f 37 3f 8e 5f 56 be
       -0.008288238 -0.0029871557 0.715085 -0.20934889
0003a0 37 b9 54 be 72 dc af be ef 4d 37 3f 99 3f 68 3e
       -0.20773779 -0.34347874 0.7160329 0.2268051
0003b0 35 fd 34 be 64 71 22 bc e0 4d e1 bc 90 20 6a 3e
       -0.17674716 -0.00991473 -0.027502954 0.22863984
0003c0 fb 4c 9e bd 68 57 1c 3d 0f 6a d4 bf 7c 04 fd bc
       -0.077295266 0.038169295 -1.6594867 -0.030885927
0003d0 44 dd 6a bf 0f 88 69 bd 3d d9 81 3d 6e 1c 6f 3f
       -0.91743875 -0.05701452 0.06340263 0.93402755
0003e0 ce ec 5b bd b3 ec ef bc c0 58 0f c0 7e d7 b6 bd
       -0.05369263 -0.029287672 -2.2397919 -0.089278206
0003f0 c2 0a 29 bd 7c 6a 2c 3f 3f c2 7b bc f7 36 04 c0
       -0.041270025 0.6734998 -0.015366136 -2.0658548

linear2.bias f4 [3]
000000 33 30 1e 3f ea e2 45 bf 20 b3 67 bf
       0.61792296 -0.7729937 -0.905077
