DRL_models/snapshot-score-6.pth (torch, 17045 bytes, 4 tensors)

linear1.weight f4 [256, 11]
0	0xbed5e85f	-0.41778848
1	0xbddd5f92	-0.10809244
2	0xbdd41a0e	-0.10356532
3	0x3e0b788f	0.13620208
4	0xbe3140da	-0.17309895
5	0xbe0d45bf	-0.13796137
6	0x3df7f6a1	0.121075876
7	0xbe52c2c5	-0.20582111
8	0xbeae4d4c	-0.34043348
9	0x3e589cf0	0.21153617
10	0x3e8a4e25	0.27012745
11	0xbefaa104	-0.4895097
12	0xbdf92576	-0.12165348
13	0xbf07fc7f	-0.53119653
14	0xbe038b58	-0.12846124
15	0xbea48a5f	-0.3213682
16	0x3d65f313	0.056140017
17	0xbec24328	-0.3794186
18	0xbe882c96	-0.26596516
19	0x3e004be1	0.12528946
20	0x3ed39c1b	0.41330037
21	0xbf5a2b47	-0.85222286
22	0x3e2cb178	0.16864574
23	0xbe89c9bc	-0.26911724
24	0xbe84c054	-0.25927985
25	0x3e47dd7a	0.1951808
26	0xbe9cc55c	-0.30619323
27	0x3d00a513	0.031407427
28	0x3e4bed01	0.19914629
29	0xbd66488f	-0.05622154
30	0xbe7327e0	-0.2374568
31	0x3c179f13	0.009254235
32	0xbc87e847	-0.01659025
33	0xbede27ea	-0.43389827
34	0x3de11031	0.109894164
35	0xbd02f43d	-0.031971205
36	0xbf04835f	-0.51762956
37	0x3b1fcce3	0.0024383597
38	0xbd589ef6	-0.052885972
39	0xbddfe788	-0.10932833
40	0x3e2b93f2	0.16755655
41	0x3e00533f	0.12531756
42	0x3f1e9439	0.6194492
43	0x3f088729	0.5333124
44	0x3d705311	0.05867297
45	0xbe9c134d	-0.30483475
46	0x3d716f3c	0.058943972
47	0xbea83464	-0.3285247
48	0xbe8cfab6	-0.27535027
49	0xbe967448	-0.2938559
50	0xbe77bcab	-0.24193065
51	0x3d988db1	0.074489005
52	0xbe3fb5d8	-0.18721712
53	0x3edb52b6	0.4283654
54	0xbf040a47	-0.5157818
55	0xbf04ad35	-0.5182679
56	0x3d9fca45	0.07802252
57	0xbeaad4bb	-0.33365425
58	0x3e4f95a4	0.20271927
59	0xbe145db2	-0.14488867
60	0x3be828c0	0.007084936
61	0xbee71cc3	-0.4513913
62	0x3e8d4152	0.27588898
63	0x3dafd906	0.08586316
64	0x3f1853c6	0.5950283
65	0xbf6b071c	-0.91807723
66	0xbc9a223c	-0.018815152
67	0x3d686616	0.05673798
68	0xbdbca823	-0.09211757
69	0x3d72057b	0.059087258
70	0xbe48278f	-0.1954634
71	0xbe39ea82	-0.18155864
72	0xbebf146c	-0.37320268
73	0xbdcbdbb8	-0.099540174
74	0x3d132341	0.035922293
75	0x3e026923	0.12735419
76	0xbe6639b5	-0.22482951
77	0xbe844277	-0.2583196
78	0xbdc0ed15	-0.0942022
79	0xbf203f1d	-0.62596303
80	0x3d07a951	0.033120457
81	0xbea4f6c9	-0.32219532
82	0x3956adc9	0.0002047337
83	0x3dd2946d	0.10282216
84	0x3d2a55f4	0.041585878
85	0x3ee36915	0.4441611
86	0xbf0cb8a1	-0.5496922
87	0x3ed58c41	0.41708568
88	0xbf3e0bcd	-0.74236757
89	0x3e370db6	0.17876324
90	0xbf1d95be	-0.61556613
91	0x3e4c615a	0.19959012
92	0x3d93cc55	0.072167076
93	0x3ce1b3a0	0.027551472
94	0xbe8eaca3	-0.27866086
95	0xbe5bafc4	-0.21453768
96	0xbeb950fd	-0.36194602
97	0x3f74957f	0.9554061
98	0xbf167ddd	-0.587858
99	0xbe129302	-0.14313892
100	0x3e750edc	0.2393145
101	0xbd44d382	-0.048053272
102	0xbc48d848	-0.012258597
103	0xbda70c21	-0.0815661
104	0xbe615dc7	-0.2200843
105	0xbe19aaa6	-0.15006503
106	0xbd854f15	-0.06509224
107	0x3f32f876	0.6991037
108	0x3f1d8b22	0.61540425
109	0x3f4a8eab	0.79123944
110	0x3a3f9dc8	0.0007309583
111	0x3eef93f5	0.4679257
112	0xbdb906e7	-0.0903452
113	0x3eba67a5	0.364072
114	0xbe077551	-0.13228346
115	0xbe84a2a2	-0.2590533
116	0xbee87b72	-0.4540668
117	0xbeabe6e5	-0.33574596
118	0xbe73b488	-0.23799336
119	0xbc117100	-0.008877039
120	0xbd7b8bf0	-0.06141275
121	0x3e5fa9a7	0.21842061
122	0xbea71fb7	-0.32641384
123	0xbe55f9eb	-0.20896117
124	0xbea937cb	-0.3305038
125	0xbd930324	-0.071783334
126	0x3d5d86b2	0.054083534
127	0xbee42b08	-0.4456408
128	0xbf05d72d	-0.5228146
129	0xbd84d7f7	-0.064865045
130	0xbea45ceb	-0.3210214
131	0x3e13a446	0.14418134
132	0xbe0af0fe	-0.13568494
133	0xbe6965f1	-0.22792794
134	0xbeed45af	-0.46342227
135	0x3a8ede96	0.0010900076
136	0xbd4226c4	-0.04740025
137	0xbdca5445	-0.098793544
138	0xbef56b78	-0.47933555
139	0xbeeaf125	-0.45887104
140	0x3e9d9e8b	0.3078502
141	0x3c9bc622	0.019015376
142	0xbde07187	-0.109591536
143	0x3e345c5a	0.17613354
144	0x3d87bbf3	0.06627645
145	0x3d65deae	0.056120567
146	0xbcd9409a	-0.026520062
147	0xbb814656	-0.0039451523
148	0xbe63b794	-0.22237998
149	0x3bb69334	0.005571747
150	0xbe34caef	-0.17655538
151	0xbd1e2519	-0.038609598
152	0xbe6cc5f0	-0.23122382
153	0xbe83e032	-0.25756985
154	0xbe72f2f9	-0.23725499
155	0x3d8f3d09	0.069940634
156	0x3d99d69b	0.07511636
157	0xbef82e8b	-0.4847301
158	0xbe1091da	-0.14118138
159	0xbde149dc	-0.11000416
160	0x3e55f6ae	0.20894882
161	0x3e88007a	0.26562864
162	0x3e1e75b1	0.15474583
163	0x3f0f37de	0.5594462
164	0x3f04ac04	0.51824975
165	0xbe47b0ac	-0.19500989
166	0xbec02c4e	-0.37533802
167	0xbe8dbf60	-0.2768507
168	0xbed8514e	-0.4224953
169	0xbe0f716a	-0.14008108
170	0xbe63ad2a	-0.22234026
171	0xbe683383	-0.226759
172	0xbda29626	-0.07938795
173	0x3e638b80	0.22221184
174	0xbf04a791	-0.51818186
175	0x3e9553fa	0.29165632
176	0xbe276c2f	-0.16349863
177	0xbea77dc0	-0.32713127
178	0xbe03c61f	-0.12868546
179	0xbe80a389	-0.25124767
180	0x3dd8b6c2	0.10581733
181	0x3e0d1426	0.13777217
182	0x3db5ae0c	0.088710874
183	0xbae2a2fb	-0.0017291004
184	0x3d22a73c	0.03971027
185	0xbf7686e8	-0.962996
186	0x3f64a8ca	0.8932005
187	0x3d90b790	0.07066262
188	0x3ccac950	0.024754196
189	0x3e4de9e7	0.20108758
190	0xbe4b7efd	-0.19872661
191	0x3e32aa52	0.17447785
192	0xbe35befd	-0.17748637
193	0xbe57da8a	-0.2107946
194	0x3d4af5f0	0.04955095
195	0xbbc5c547	-0.00603548
196	0xbe97f4ac	-0.29678857
197	0x3b6ada2e	0.0035835612
198	0xbe1bd268	-0.15216982
199	0xbdc50a99	-0.09621162
200	0xbe2720e6	-0.16321144
201	0xbd0f0237	-0.03491422
202	0xbeca0b67	-0.39461824
203	0xbe17ad08	-0.148121
204	0xbd46e157	-0.048554745
205	0xbe44c1eb	-0.19214599
206	0xba0d9d32	-0.0005402147
207	0x3e009063	0.12555079
208	0xbe90199a	-0.28144532
209	0xbf3f97bf	-0.7484092
210	0xbde0ba30	-0.109730124
211	0xbf54b62b	-0.83090466
212	0xbd8fa771	-0.07014359
213	0xbe7250c7	-0.23663627
214	0xbc2020d8	-0.009773456
215	0x3dca1eae	0.09869133
216	0x3e05d800	0.13070679
217	0x3d644081	0.05572558
218	0x3f3c28ea	0.7349993
219	0xbf5b5af6	-0.8568567
220	0xbed2078b	-0.4102138
221	0xbe8e87b7	-0.27837917
222	0x3d0407ac	0.03223388
223	0x3d6663a6	0.056247376
224	0xbea4aa31	-0.32161096
225	0xbdeadac1	-0.11467505
226	0xbea8213c	-0.32837856
227	0x3ca51383	0.020150905
228	0xbec38e8c	-0.38194692
229	0x3cfa91e1	0.030587139
230	0xbe08030c	-0.13282412
231	0x3de9cbe0	0.11415839
232	0xbf23b25f	-0.6394405
233	0xbecc1111	-0.3985677
234	0xbe89f5cc	-0.2694534
235	0x3dfd41fd	0.12366102
236	0xbdcbc77a	-0.099501565
237	0xbdaa4878	-0.083146036
238	0x3d4493a8	0.04799238
239	0x3f0f43ef	0.55963033
240	0x3d91abd9	0.071128555
241	0x3f590438	0.8477206
242	0xbde3f434	-0.111305624
243	0xbef4a7ae	-0.4778418
244	0xbe1ccedf	-0.1531329
245	0xbf0ee0ca	-0.5581175
246	0xbc6f2456	-0.0145960655
247	0xbe585c81	-0.21129037
248	0x3d9d344c	0.076759905
249	0xbcb941a4	-0.022614308
250	0x3e976fd3	0.29577503
251	0x3e0a2e21	0.1349416
252	0xbed3d3d7	-0.41372558
253	0x3dc8173e	0.09770058
254	0xbdc552b2	-0.096349135
255	0xbdee57d4	-0.11637846

linear1.bias f4 [256]
0	0xbeee7edf	-0.4658117
1	0xbe9c8267	-0.3056824
2	0xbe7b2ac7	-0.24528037
3	0xbf4384fe	-0.76374805
4	0xbf030090	-0.51172733
5	0xbf2fb5e0	-0.68636894
6	0xbe6d9066	-0.23199615
7	0xbf4d0c3a	-0.8009678
8	0xbe947047	-0.2899191
9	0x3e20f7d7	0.15719543
10	0xbe6cb049	-0.23114122
11	0x3cc21f28	0.023696497
12	0xbea1fb0e	-0.31636852
13	0xbe6f056a	-0.23341909
14	0xbf5af527	-0.8553032
15	0xbec47de0	-0.38377285
16	0xbe815481	-0.25259784
17	0xbeb6872f	-0.35650012
18	0xbe59adc2	-0.2125769
19	0xbe65ac4f	-0.22429012
20	0xbe2bc483	-0.16774182
21	0xbe6bcaa0	-0.23026514
22	0xbf05d2ce	-0.5227479
23	0xbec56284	-0.38551724
24	0xbdbeea5e	-0.09322046
25	0xbeea0d77	-0.45713398
26	0xbe3c59ac	-0.18393582
27	0xbe562505	-0.2091256
28	0xbe66377e	-0.22482106
29	0xbd2262b3	-0.03964491
30	0xbe356861	-0.17715599
31	0xbee1d3b1	-0.4410682
32	0xbf310864	-0.6915343
33	0x3e5e81c3	0.21729188
34	0xbef6b192	-0.4818235
35	0xbdf6863f	-0.12037324
36	0xbea8bd83	-0.32957086
37	0xbe8fa23a	-0.28053457
38	0xbe75831f	-0.239758
39	0xbe97afce	-0.29626316
40	0xbf122478	-0.57086897
41	0xbefc148e	-0.49234432
42	0xbe269b31	-0.16270138
43	0xbe04e086	-0.12976274
44	0xbf498554	-0.7871907
45	0xbe9294df	-0.28629205
46	0xbe1f3155	-0.15546162
47	0xbeb2b47b	-0.3490332
48	0xbf02c3a3	-0.5107977
49	0xbec21a4d	-0.3791069
50	0xbe9ff808	-0.3124392
51	0xbebb365b	-0.36564907
52	0xbeabe9d7	-0.33576843
53	0xbea10124	-0.31446183
54	0xbeb1d64c	-0.34733808
55	0xbf1e4a87	-0.6183247
56	0xbedd56df	-0.4323034
57	0xbe8113ab	-0.25210318
58	0xbe526b37	-0.20548712
59	0xbe0eb957	-0.13937889
60	0xbebbba86	-0.36665744
61	0xbeb76b0f	-0.35823867
62	0xbec1191a	-0.37714463
63	0xbef13c0c	-0.47116125
64	0xbf7a72e8	-0.97831583
65	0xbe350a05	-0.17679603
66	0xbe775159	-0.24152125
67	0xbe0dec8f	-0.13859771
68	0xbeefa674	-0.4680668
69	0xbe04fbc4	-0.12986666
70	0xbebe3124	-0.37146866
71	0xbe030928	-0.12796462
72	0xbe520d99	-0.20513
73	0xbf1289b2	-0.57241356
74	0xbea248f9	-0.316963
75	0xbeaa2218	-0.33229136
76	0xbe5aa1d8	-0.21350801
77	0xbe7aba0f	-0.24485038
78	0xbd45777e	-0.04820966
79	0xbe8ce544	-0.27518666
80	0xbeb0e04c	-0.34546125
81	0xbf08e549	-0.5347486
82	0xbe58e3c0	-0.2118063
83	0xbeb3ec47	-0.35141203
84	0xbeb61234	-0.35560763
85	0xbde49968	-0.111620724
86	0xbea7b35f	-0.32754037
87	0xbec9052b	-0.39261755
88	0xbeffcb56	-0.4995982
89	0x3e663549	0.22481264
90	0x3e37b549	0.17940249
91	0xbf165f62	-0.5873929
92	0xbec40cdd	-0.38291064
93	0xbf4bc5d1	-0.7959872
94	0xbe8bd196	-0.2730834
95	0xbea1ac17	-0.31576607
96	0xbd52e547	-0.051488187
97	0xbe44dbfa	-0.1922454
98	0xbf042036	-0.5161165
99	0xbeb55dcc	-0.35423124
100	0xbee896a3	-0.45427427
101	0xbe90f67f	-0.28313062
102	0xbf1a31dd	-0.60232335
103	0xbe96d5ea	-0.29460078
104	0xbf490db3	-0.7853653
105	0xbf329df0	-0.69772243
106	0xbebd22c6	-0.36940593
107	0xbe274d1a	-0.16338006
108	0xbeb1ab96	-0.34701222
109	0xbe8bee45	-0.27330223
110	0xbe86ce8d	-0.2632946
111	0xbea2d45e	-0.31802648
112	0xbec2f391	-0.3807645
113	0xbed18660	-0.40922832
114	0xbe99d09b	-0.30041966
115	0xbf5823d5	-0.84429675
116	0xbf02a47a	-0.5103222
117	0xbeae2a9a	-0.34016877
118	0xbeaa075b	-0.33208737
119	0xbe81ae93	-0.25328502
120	0xbf0d3122	-0.55153096
121	0xbe174155	-0.14771016
122	0xbecbf31d	-0.39833918
123	0xbec7667f	-0.38945386
124	0xbed4800a	-0.41503936
125	0xbf1234b4	-0.5711167
126	0xbec4a925	-0.38410297
127	0xbea9db71	-0.33175233
128	0xbe54b3be	-0.20771691
129	0xbe8606cb	-0.26177058
130	0xbe8a5019	-0.27014235
131	0xbece5532	-0.40299374
132	0xbdab6111	-0.08368123
133	0xbe7d164d	-0.24715538
134	0xbe63a563	-0.22231059
135	0xbf1bcd3f	-0.60860056
136	0xbeb6276e	-0.35576957
137	0xbea1ff21	-0.3163996
138	0x3cf4421c	0.02981668
139	0xbf3b2681	-0.7310563
140	0xbe8d9fa2	-0.27660853
141	0xbe9bad66	-0.3040573
142	0xbe8dad76	-0.27671403
143	0xbf1b71e0	-0.60720634
144	0xbf04a5ff	-0.5181579
145	0xbf2c0725	-0.671984
146	0xbe41e65d	-0.18935533
147	0xbeb775af	-0.35831973
148	0xbf048750	-0.5176897
149	0xbe2b0a44	-0.16703135
150	0xbedf6fd7	-0.43640015
151	0xbec0bc4e	-0.37643665
152	0xbea5e58f	-0.32401702
153	0x3e8f8a92	0.28035408
154	0xbec34b64	-0.38143456
155	0xbe61a8b8	-0.22037017
156	0xbe6c074b	-0.23049657
157	0xbea48e53	-0.32139835
158	0xbe65ae9e	-0.22429892
159	0xbf0c1bd6	-0.54729974
160	0xbe4ad5e8	-0.19808161
161	0xbf1b3e0b	-0.60641545
162	0xbed32ef9	-0.41246775
163	0xbd398580	-0.04529333
164	0xbf23d44c	-0.63995814
165	0xbe8922a1	-0.26784232
166	0xbe865d41	-0.26243022
167	0xbf115258	-0.5676627
168	0xbe9241e6	-0.28565902
169	0xbea013f9	-0.31265238
170	0xbeb08a7e	-0.3448066
171	0xbf0a4b44	-0.54021096
172	0xbeeb266a	-0.45927745
173	0xbec2b9aa	-0.38032275
174	0xbecea082	-0.40356833
175	0xbe3f85ed	-0.18703432
176	0xbec0c4df	-0.376502
177	0xbede934d	-0.43471757
178	0xbee2f49b	-0.44327244
179	0xbf27abd5	-0.6549657
180	0xbe46de68	-0.19420779
181	0x3e9a1726	0.30095786
182	0xbc1c911a	-0.009556079
183	0xbe691915	-0.22763474
184	0xbe23f043	-0.16009621
185	0xbee339f3	-0.4438015
186	0x3ed70e44	0.4200307
187	0xbefbee6c	-0.4920534
188	0xbdba099d	-0.09083865
189	0xbf306ba2	-0.68914235
190	0xbe28665f	-0.16445301
191	0xbe101bd7	-0.1407312
192	0xbd7fece2	-0.06248177
193	0x3d8b2330	0.06793821
194	0xbea4bf93	-0.3217741
195	0xbe8f53a5	-0.27993503
196	0xbea1f9b7	-0.3163583
197	0xbf03667c	-0.51328254
198	0xbd94960b	-0.07255181
199	0xbd8c740a	-0.0685807
200	0xbea5430f	-0.32277724
201	0xbed61dbf	-0.4181957
202	0xbe9d5660	-0.3072996
203	0xbf1f7600	-0.6228943
204	0xbe1e7c5b	-0.15477125
205	0xbec0f218	-0.37684703
206	0xbe16833f	-0.14698504
207	0xbd985c26	-0.07439451
208	0xbe43c0f5	-0.19116576
209	0xbcfb33f9	-0.03066443
210	0xbf056df1	-0.5212088
211	0xbebea2ae	-0.3723349
212	0xbec59923	-0.38593397
213	0xbdfefe29	-0.12450821
214	0xbf129ad7	-0.57267517
215	0xbe78b650	-0.24288297
216	0xbe7e2bdf	-0.24821423
217	0xbd7e8f58	-0.062148422
218	0xbe2bd573	-0.16780643
219	0xbe81abd1	-0.25326398
220	0xbeecb04b	-0.4622825
221	0xbf5a6ca1	-0.85322005
222	0xbebd0cd3	-0.36923847
223	0xbe19e58f	-0.15028976
224	0xbdebaf1f	-0.11508011
225	0xbea89384	-0.32925045
226	0xbebfedbc	-0.37486064
227	0xbe10f3fa	-0.1415557
228	0xbe5cd60b	-0.21566026
229	0xbdc080a3	-0.093995355
230	0xbd5569e8	-0.052102953
231	0xbf235435	-0.63800365
232	0xbede7aa1	-0.43452933
233	0xbf039d05	-0.5141147
234	0xbea777a9	-0.3270848
235	0xbe639e73	-0.22228412
236	0xbee2cb8e	-0.44295925
237	0xbeb8cf89	-0.36095837
238	0xbe844d76	-0.25840348
239	0xbe9dbda7	-0.30808756
240	0xbea2c631	-0.31791833
241	0x3d4e531e	0.050372235
242	0xbe7aa75c	-0.24477905
243	0x3e5d0f6e	0.21587917
244	0xbf416a91	-0.7555323
245	0xbed2eaa3	-0.4119464
246	0xbbb34c2c	-0.005471727
247	0x3de81b51	0.11333335
248	0xbe9abec0	-0.30223656
249	0xbec4b660	-0.3842039
250	0xbe704dd3	-0.23467188
251	0xbedf748a	-0.436436
252	0xbec41af0	-0.38301802
253	0xbe9a4e42	-0.3013783
254	0xbdb74f35	-0.089506544
255	0xbee46155	-0.44605508

linear2.weight f4 [3, 256]
0	0xbe07cc18	-0.1326145
1	0x3d526d0c	0.051373526
2	0x3ca0879b	0.019595912
3	0xbfb3351d	-1.4000584
4	0x3e8e867b	0.27836975
5	0x3da669a9	0.08125622
6	0xbc1a0f82	-0.009403111
7	0x3ef92420	0.48660374
8	0x3a5fab48	0.0008532298
9	0xbeb00197	-0.34376213
10	0x3f8472c7	1.0347527
11	0x3f877d69	1.0585147
12	0xbdac742c	-0.084205955
13	0xbc0a28aa	-0.008432547
14	0xbfda1fa0	-1.7040901
15	0xbe9b2eed	-0.3030924
16	0x3ebe0dc9	0.37119892
17	0xbc11ee63	-0.0089069335
18	0x3d8cdf7a	0.06878562
19	0xbdecce4c	-0.115627855
20	0xba2c9331	-0.00065832125
21	0xbeca912b	-0.3956388
22	0x3dabaa61	0.083821066
23	0xbd2d689e	-0.0423361
24	0x3d1b04f3	0.037846517
25	0x3e7d4097	0.2473167
26	0x3ba5965e	0.0050533256
27	0x3b22f9a0	0.0024868026
28	0xbd1a3baf	-0.037654575
29	0xbcaa4072	-0.020782683
30	0x3e6a439d	0.22877355
31	0xbf9b6553	-1.2140297
32	0x3efa7eed	0.48924962
33	0xbecf7971	-0.4052234
34	0xbe931dad	-0.28733578
35	0x3cdd01e6	0.026978444
36	0xbd843f13	-0.06457343
37	0x3ea21222	0.3165446
38	0x3dc65281	0.09683705
39	0x3cd2068a	0.025637884
40	0xbf3ad43a	-0.7298008
41	0x3fa99b15	1.3250452
42	0x3eeac2e0	0.45851803
43	0xbf85f321	-1.0464822
44	0xbfd327f8	-1.6496572
45	0x3d80ff2b	0.062986694
46	0x3c4912df	0.012272566
47	0xbe91e46c	-0.28494585
48	0x3e8121f5	0.2522122
49	0x3bcc21cd	0.0062296153
50	0xbd9b9110	-0.07596028
51	0x3d88936b	0.06668743
52	0xbe272270	-0.1632173
53	0xbd31fdf5	-0.043455083
54	0x3e67162d	0.22567053
55	0x3eae07bf	0.33990285
56	0xbc834b72	-0.016027186
57	0x3ca529b0	0.02016148
58	0x3e06d041	0.1316538
59	0x3d14a665	0.0362915
60	0xbd8ac8c4	-0.06776574
61	0xbc1b1889	-0.009466299
62	0xbe358b8a	-0.17729011
63	0x3dabef0c	0.08395204
64	0xbef3a0e1	-0.47583678
65	0xbd9f3f7e	-0.07775782
66	0x3c17eb89	0.009272465
67	0x3c1af6a2	0.009458216
68	0xbcb96684	-0.022631891
69	0xbc67c848	-0.014146872
70	0xbfbaf304	-1.4605412
71	0xbe1f9b45	-0.15586574
72	0x3d4d9cf6	0.050198518
73	0xbd30a2fe	-0.04312419
74	0xbfd93042	-1.6967852
75	0x3e11616d	0.14197321
76	0x3be75f40	0.007060915
77	0x3e619a89	0.22031607
78	0x3b9c7cbf	0.004775613
79	0x3d9a00c1	0.07519675
80	0x3e6d3c6a	0.23167577
81	0xbdecba02	-0.11558916
82	0xbd4cf215	-0.050035555
83	0xbe40aaa5	-0.18815096
84	0x3ddb1fbd	0.10699413
85	0xbe6695b5	-0.22518046
86	0xbc88ee42	-0.016715173
87	0xbd9feef1	-0.07809246
88	0x3e9978ff	0.29975125
89	0xbebcbd43	-0.36863145
90	0xbeccb7b1	-0.39983895
91	0x3e24a129	0.16077103
92	0x3ec918e8	0.39276814
93	0xbfaaa621	-1.3331949
94	0x3dd6d4f2	0.10489835
95	0x3d2245c6	0.039617322
96	0x3e2aee35	0.16692431
97	0x3d36b9c2	0.044610746
98	0xbf29fa73	-0.6639778
99	0xbcccaad3	-0.0249838
100	0x3ebae31e	0.36501402
101	0x3d1e155c	0.03859459
102	0x3f213b8b	0.6298148
103	0x3eb2cf97	0.34924003
104	0xbd9ce143	-0.07660153
105	0xbf20d28a	-0.6282126
106	0x3d9a78a5	0.07542542
107	0xbc38f31c	-0.011288431
108	0x3e7620bd	0.24035926
109	0x3e608b75	0.21928199
110	0x3e86af1b	0.2630547
111	0xbbd81bcc	-0.0065951105
112	0xbd1fb95d	-0.038995136
113	0xbed3ca37	-0.41365215
114	0x3d77e337	0.060519423
115	0x3ea7d77e	0.32781595
116	0x3cdab1e8	0.02669616
117	0xbe6ae2cb	-0.22938077
118	0x3dc5ee71	0.0966462
119	0xbda09ebe	-0.07842778
120	0x3e3f07ae	0.18655273
121	0xbc3aaf4d	-0.011394334
122	0x3e326111	0.1741984
123	0x3c966dda	0.018362928
124	0x3e47e45b	0.19520704
125	0xbf434cdb	-0.7628915
126	0x3e2f50e2	0.17120698
127	0xbf4b9e45	-0.79538375
128	0x3eb0ece4	0.34555733
129	0x3d3ad6ae	0.04561489
130	0xbb9b15ba	-0.0047328146
131	0xbf445195	-0.76686984
132	0xbc9613fb	-0.018320074
133	0xbe1b143b	-0.15144436
134	0x3e33b34d	0.17548867
135	0x3d03d38e	0.032184176
136	0xbe4f4af1	-0.20243432
137	0x3d553f6b	0.052062433
138	0xbd69a30f	-0.05704027
139	0x3c5c0cad	0.0134307565
140	0xbd17bcc0	-0.03704524
141	0x3e472452	0.19447449
142	0x3d1136e8	0.035452753
143	0x3f19ce38	0.6008029
144	0x3ecd974c	0.40154493
145	0xbf4bc366	-0.7959503
146	0xbe73e18d	-0.2381651
147	0xbf1e2191	-0.6176997
148	0x3f0a9aa5	0.5414222
149	0x3c199698	0.009374283
150	0xbf053b66	-0.5204376
151	0x3da13ba2	0.07872702
152	0x3ccbde49	0.024886267
153	0x3e90b6d7	0.28264496
154	0x3de30787	0.1108542
155	0x3d024574	0.031804517
156	0x3e3d91e1	0.1851268
157	0x3ea6162e	0.32438797
158	0x3c1667f9	0.009180062
159	0x3efb9612	0.49137932
160	0xbf4ef3f5	-0.80841
161	0x3ec8b286	0.39198703
162	0xbd1b6211	-0.03793532
163	0x3f0f95b5	0.5608781
164	0x3e4295b9	0.19002427
165	0x3d4a484a	0.049385346
166	0xbfdb3069	-1.7124149
167	0x3d27be3b	0.040952902
168	0x3d730616	0.059331976
169	0xbf6aed9e	-0.91768825
170	0xbe37c7df	-0.17947339
171	0xbe950531	-0.29105523
172	0xbe61b85a	-0.22042981
173	0x3c10e7bf	0.008844315
174	0xbcd0b0c9	-0.025474923
175	0x3e785f7f	0.24255179
176	0x3ebd2202	0.36940008
177	0xbece7274	-0.40321696
178	0xbdb2c0ae	-0.08728157
179	0x3f121c88	0.57074785
180	0x3ed62733	0.41826782
181	0xbeddb1f1	-0.4329982
182	0x3ec55480	0.3854103
183	0xbd4c0b59	-0.04981551
184	0x3cf3513c	0.029701822
185	0x3f0475c4	0.51742196
186	0x3e03ed4f	0.12883495
187	0xbe8d4c01	-0.2759705
188	0xbae83ed8	-0.0017718924
189	0x3e80b523	0.25138196
190	0x3f3c78ae	0.7362164
191	0xbd7c1ced	-0.061551023
192	0x3e0a13bd	0.13484092
193	0x3ccd6381	0.025071861
194	0xba6cf23b	-0.00090387807
195	0x3ea8052c	0.32816446
196	0xbe14c5fe	-0.14528653
197	0x3f0804f7	0.53132576
198	0x3e065ca7	0.13121282
199	0x3c05a2b2	0.008156465
200	0x3c2dca34	0.010607291
201	0x3edd7a38	0.43257308
202	0x3b17755c	0.0023110723
203	0xbe1ee8c1	-0.15518476
204	0x3c9d5fd7	0.019210739
205	0xbf27b915	-0.6551679
206	0xbed6389e	-0.4184007
207	0xbd023e6e	-0.03179782
208	0xbc2f44b4	-0.010697532
209	0x3d7ef940	0.062249422
210	0x3f0a75fd	0.54086286
211	0x3d6f9af1	0.058497373
212	0xbb5c70a2	-0.003363647
213	0xbc399b1c	-0.011328485
214	0x3df37f76	0.118895456
215	0xbc97aee4	-0.018516012
216	0xbd98dc98	-0.0746395
217	0x3dc6e993	0.097125195
218	0x3cff3e9c	0.031157784
219	0xbeb9fb56	-0.36324567
220	0xbdad02d4	-0.08447805
221	0xbfc572c5	-1.542565
222	0xbe234d0e	-0.15947363
223	0xbb548916	-0.0032430342
224	0x3ea73e79	0.3266485
225	0x3cdb7627	0.026789738
226	0xbef61503	-0.48062906
227	0x3dad23a9	0.08454067
228	0x3eab0f9f	0.33410355
229	0xbd035130	-0.03205985
230	0x3e837f44	0.25683033
231	0xbe565f8e	-0.20934889
232	0xbe54b937	-0.20773779
233	0x3ecea0ec	0.4035715
234	0x3eba5465	0.36392513
235	0x3e683f99	0.2268051
236	0xbe34fd35	-0.17674716
237	0xbc227164	-0.00991473
238	0x3ec90cea	0.39267665
239	0x3e6a2090	0.22863984
240	0x3e84b79e	0.2592134
241	0x3d1c5768	0.038169295
242	0xbddd93f0	-0.108192325
243	0x3e5f90e8	0.21832621
244	0xbf6add44	-0.91743875
245	0xbd69880f	-0.05701452
246	0x3d81d93d	0.06340263
247	0xbe37ba67	-0.179422
248	0xbdf6b4af	-0.120461814
249	0xbcefecb3	-0.029287672
250	0xbfb05e3f	-1.3778762
251	0xbdb6d77e	-0.089278206
252	0x3e9dad14	0.3079611
253	0xbdf168ee	-0.11787592
254	0xbc7bc23f	-0.015366136
255	0xbf94fadb	-1.1639055

linear2.bias f4 [3]
0	0xba8c1b88	-0.0010689357
1	0xbebc9bb8	-0.36837554
2	0xbf0d0f1c	-0.5510118
