DRL_models/snapshot-score-3.pth (torch, 17045 bytes, 4 tensors)

linear1.weight f4 [256, 11]
00000000: 569e 6a3e bc98 35bd 3a0a 163e f1ec 903e
00000010: 4c56 85be 1591 f33d 3c50 30be 5e54 91be
00000020: 930f 973e 3e26 08bd 91e0 903d 33cb bebd
00000030: ee0e 16be aacc f3bc 74d9 9cbd 1d5b a3bc
00000040: d217 c0bd 7ecb 1c3e 507c 963c 5914 cd3d
00000050: 269a 8fbd fe34 2dbe aa3c 2a3e 1734 89be
00000060: a2ec 103e 36d2 a5bd 0458 c3bc adfa a83e
00000070: 114b 943e c370 f3bd 1d9d 603e 301c 89be
00000080: 4f23 773d 07ba 12be 99ca 063e 1248 b7bc
00000090: cec4 943e a107 f8bd 7f46 553e 6213 ab3c
000000a0: 2f9d 27be 34d0 663b 858e 293e d2b3 1a3e
000000b0: 4b01 3a3e 9534 a5be 4b5f 833e ecef 93be
000000c0: a8f3 04be 9f83 7b3e 8e6d 80be 2091 553e
000000d0: 4034 67be f2d4 a3bc addd 0ebe f38d 833e
000000e0: 4243 bebd 7db3 623e 5885 56be a90c 45be
000000f0: 3358 5fbe b2de 323d 6816 883d 506f c0bd
00000100: 5959 8dbe a9f1 1dbe adb7 a43e 0834 d03d
00000110: 3b64 c9bd d9c7 423d 7cbe 2abe 2af1 663e
00000120: da84 cbbd 9ab1 373e 5b6d aebd 1cab 89be
00000130: 1ed1 7abe 6fe0 67be c4a2 f93d 00f0 1a39
00000140: 8aeb 163e 37ec 94be a063 ef3c cea0 3b3e
00000150: 66fc 67be f08f 7cbd 1a88 423e 8b62 33be
00000160: e441 78be b3a5 49be e9b6 a4bd 12d9 75be
00000170: 9720 8d3e 20dd 5b3d cb5b 83be e66c 12be
00000180: 6052 8cbe 4215 363e e09d e2bd 9f02 9d3d
00000190: d101 8cbc 247f 07bd f2cb b83d cf97 763e
000001a0: d479 743e 535b 9dbd dd5f 6abd 6f50 4f3e
000001b0: 6d96 15be 2c3d a23d d259 73be 5d29 353e
000001c0: bcfe 173d d2a9 1e3e acfa 25be 7fff 4cbe
000001d0: c84b 503d fbdf 67bd 10cd 1abc 52bd 8a3d
000001e0: 7e0b 2ebe 3c8b 60be 88a3 803d 2c5c 933e
000001f0: 482c 72be ef92 7abe 0fe7 e23d 96c3 18be
00000200: bff9 07bd fa27 65be 815b 163c 40ce 7e3e
00000210: e984 633e 54df 0b3e a368 84bd ef77 b93c
00000220: 4ac8 e83d 8633 343e 9077 fa3d 7333 763d
00000230: 9b44 cf3e 9304 8a3e 1489 9c3e 5bf5 aabd
00000240: e577 d4bb d8a3 8bbe 570f 9d3d 2bba b4bc
00000250: e328 0dbe 8813 8dbe fca7 973d 9453 d3bd
00000260: 0387 23be 35f1 1a3d c970 cdbd f64a 5ebe
00000270: 38d9 043e 95a9 713e d57a 8dbe d3fd 2c3e
00000280: ede2 6a3e a898 33be 1a85 2f3e 70c5 2cbe
00000290: c9e2 0bbd e25e 0dbe 0c45 cc3d 9f66 16be
000002a0: 977b 7c3e 1007 11be 1702 27be 72a4 253b
000002b0: 7b22 b5be 039b 81be 5513 ae3e 9b25 5abe
000002c0: 2002 5ebe f95f 89bd 1cf9 03bd 3028 0e3e
000002d0: 5f6a e83d 9bea b5bd 9518 9cbe 9258 123e
000002e0: 220b d83d 2d55 9bbd 7d26 af3c 549a 413d
000002f0: 8bf4 683e db3e 6fbe bc77 5abe ede1 96bd
00000300: 9ae7 0b3e fd27 1f3e f8db 41be ddab 853d
00000310: cf80 a53e 1496 823e 850a 81be 557c 813e
00000320: a7c3 30be c5a6 e93c 68ca 3e3e 4bdf 963e
00000330: 1e6c 1f3e b256 793e c9d6 263e 9161 9e3e
00000340: ae34 963e 6fd9 f93d d43b ffbd 47fd 04be
00000350: b25c 6ebe 7cf4 8ebe 5fc0 a43c 4e6b a6bd
00000360: d7cf 1dbe a03f 7b3d 8c1f 6fbd 5868 5cbe
00000370: 6ac0 4fbe 310f 963e 6a76 f03d f26f 8f3e
00000380: 62aa 833e cbc5 9a3e 54ce 98be bc5e 25be
00000390: 23bf ecbd e3cc 00be eb82 cfbc 5504 80be
000003a0: be7e 53be 31e3 36be b4b7 f83d 9286 a5bd
000003b0: e2c3 883e 6b04 3abe 8c80 86be 30e9 b33d
000003c0: 1bcb 35be 574d 20bd 4eb1 4cbe b439 60be
000003d0: 1424 933d e0fe ad3d 2e6f e3bd 506a 873c
000003e0: 6db2 8bbe 10e0 4e3d 68c1 583d 80fa 8cbb
000003f0: ec99 7abd 5589 653e 4901 47bc 14d7 52bd
0.22911963 -0.044335112 0.14652339 0.28305772 -0.26042402 0.118929066 -0.17218107 -0.2838468
0.2950407 -0.033239596 0.07074083 -0.09316101 -0.14654133 -0.029760677 -0.076586634 -0.019940907
-0.09379543 0.15312001 0.018369824 0.10013647 -0.07011823 -0.16914746 0.16624704 -0.26797554
0.14152768 -0.08096735 -0.02384568 0.3300375 0.2896352 -0.11886742 0.21934934 -0.26779318
0.060336407 -0.14328776 0.13163222 -0.022373233 0.290564 -0.1211083 0.20827673 0.020883266
-0.16368555 0.0035219314 0.16558273 0.15107659 0.18164556 -0.3226668 0.2565864 -0.28893983
-0.12983572 0.24561928 -0.25083584 0.20856142 -0.22578526 -0.019999001 -0.1395175 0.25694236
-0.09290172 0.22138782 -0.20949304 -0.1924311 -0.21810989 0.04366941 0.06644899 -0.09396231
-0.2760723 -0.15424217 0.32171384 0.10166174 -0.098335706 0.04755387 -0.16674227 0.22552934
-0.09937449 0.17938843 -0.08516952 -0.2688836 -0.24493834 -0.22644208 0.12189248 0.00014775991
0.14738289 -0.29086468 0.02922231 0.18323061 -0.22654876 -0.061660707 0.18997231 -0.1751806
-0.24243885 -0.19692115 -0.080427 -0.24008587 0.27563927 0.053677678 -0.2565597 -0.14299354
-0.27406597 0.17781547 -0.110652685 0.076665156 -0.01709071 -0.033080235 0.090232745 0.24081348
0.23874599 -0.07683434 -0.05722033 0.20245527 -0.14608164 0.07921824 -0.23764732 0.1769156
0.037108168 0.15494469 -0.16208905 -0.20019339 0.05085352 -0.05661009 -0.009448305 0.06774391
-0.16996571 -0.21928114 0.06281191 0.2878126 -0.23649704 -0.24470113 0.11079227 -0.1491836
-0.03319716 -0.22378531 0.00917709 0.24883366 0.2221867 0.13659412 -0.0646527 0.022640197
0.11366327 0.1759778 0.12229836 0.06010766 0.4048203 0.26956615 0.30573332 -0.08347579
-0.006484019 -0.2727344 0.076689415 -0.022061428 -0.13785128 -0.27553964 0.07405087 -0.10318676
-0.15969472 0.03782769 -0.10031278 -0.21708283 0.12973487 0.23599847 -0.27632776 0.16893701
0.22938128 -0.17538702 0.17140618 -0.16872191 -0.034151826 -0.13805726 0.09974107 -0.14687584
0.24656521 -0.1416285 -0.16309391 0.002527502 -0.3537787 -0.25313577 0.33999124 -0.21303408
-0.21680498 -0.067077585 -0.03221999 0.13882518 0.11348414 -0.08882638 -0.30487505 0.142916
0.105489984 -0.07584605 0.021380657 0.04726632 0.22749536 -0.23363821 -0.21334738 -0.07367311
0.13662568 0.15542598 -0.18931568 0.06526921 0.32324836 0.25505126 -0.25203338 0.2529017
-0.17262135 0.028521905 0.186319 0.29467234 0.15568587 0.24349478 0.16292872 0.30933812
0.29337066 0.12199675 -0.12462583 -0.12987243 -0.23277548 -0.27920902 0.020111261 -0.081259355
-0.15411316 0.061339974 -0.058379695 -0.21524179 -0.20288244 0.29308465 0.11741336 0.28015095
0.2571593 0.3022903 -0.29844916 -0.1614942 -0.11559894 -0.12578158 -0.025330981 -0.25003305
-0.20653817 -0.17860104 0.121444136 -0.08082308 0.26711947 -0.18165748 -0.26269948 0.08784711
-0.1775326 -0.039136257 -0.19989511 -0.21897012 0.07184616 0.08495879 -0.1110519 0.016530186
-0.27284566 0.05050665 0.05291882 -0.004302323 -0.061181948 0.2241567 -0.0121463025 -0.051474646

linear1.bias f4 [256]
00000000: ac07 a63e 1ed1 35be 7d74 e0bd 7782 84bd
00000010: f573 823e 34df 39be 271d 5c3e 8c83 8abe
00000020: 3700 b73d bee4 83bd 9132 e93c b0ae 89be
00000030: b4d3 0abd 7fbe 563e b2fd 21be 4cdd 943e
00000040: 6763 293e 0914 47bd 264d 2f3e 267f 763d
00000050: 0885 933e a750 133d a590 91be acaf 973e
00000060: 1b8a 89bd f305 fb3d e3a2 843d 4592 403e
00000070: 96aa 0ebe ed5c 6c3e 09a3 2ebe 37c0 8b3e
00000080: f3c7 793c 1e8c 353d a9fd 493e 4936 173e
00000090: 44d3 693e 9fa7 ebbd 233e 703e 2721 97be
000000a0: 382e 563e 6a28 90be 725a ce3d 7057 323d
000000b0: 7289 74be bd80 423e aefd 8cbd b11f 85bd
000000c0: 2dea 7d3e d461 123e 46a0 3fbe 2f9a a5be
000000d0: f5bd 803e 8527 45be 14d6 7c3e 67a5 813e
000000e0: eac8 d3bc 8110 7fbe 4bb0 69be c294 ae3d
000000f0: c234 1f3e c417 94be 7dd1 aa3e e069 80be
00000100: b8af 9a3e a38e 043e e659 19be 6f6f e7bd
00000110: 348b 8a3d 3d75 88be e7e1 95bd ad67 11be
00000120: b5bd 74bd b252 d5bd 2792 1abe fdbd 153d
00000130: 98e8 d9bd 1d01 5ebd b73d 1d3e e960 9ebe
00000140: 59d3 aa3c b26f 57be 5ad9 07bd 9964 95be
00000150: 5314 e4bd e3b8 983c 7f2d da3d 90bc 86be
00000160: fc82 68be ec70 f4bd 3abf 93be 3446 96be
00000170: 7c62 99be 07e4 1ebe ef3f 283d 8d51 2e3d
00000180: ab83 ff3c 81d0 81be d3b5 c33c 09a3 453e
00000190: fd84 4b3e 8317 973e a8be 243e 4e87 883e
000001a0: d3cc 6bbe 0c37 cabd 371b 7ebd 8adb 6dbe
000001b0: ec39 e43d 2fbf a13d a277 323e 2226 333e
000001c0: 3f81 583e ca0e fabc e5c3 68bd 897c 47be
000001d0: 2e19 7bbe 6eb4 0e3e 8992 04be 02ca e5bb
000001e0: eca2 92be 450b 563e 4ea9 453d 998d 86be
000001f0: 9ff8 36be 1339 99bd a014 dd3d 7c6a 28be
00000200: 2205 27be 72af e93d eda8 543b 2bcb 5f3e
00000210: 7d11 c9bd 9174 1cbd ca7b e7bd a406 3bbe
00000220: ef42 85be 7081 363d c881 97be 2d99 2fbe
00000230: 478c 1cbe 552b 51be 447b 073e 410a 50ba
00000240: 4e83 a0be 8733 87be d157 013e a65d 7bbe
00000250: c0c1 8abe d427 33be e1ac 03be d91d 85be
00000260: c22f 2f3e 2608 c6bc 8e5f 473e 7933 d9bd
00000270: d1d4 aebc 3458 183e 3576 8ebe 5ab1 edbd
00000280: 2448 533e ab29 94be eb55 1cbe 6b97 9a3e
00000290: 7e54 463d 6171 9c3d 05ef c73c 3729 433e
000002a0: c2da b6bd 0783 0bbe a0ae ce3d 12ba 7fbd
000002b0: de68 d0bd 28ba 903d 3d23 773d a1fb 45be
000002c0: 8fef a43e 1f63 07be a48f 63be f45d 65bc
000002d0: 159f 0c3e 7dfa a43e 50c8 45be 2ddc 7b3e
000002e0: 3781 193e 1852 9a3d 3bd0 59be 6d33 843c
000002f0: bf22 883e 1c25 f3bd a94f 883e e2a4 1bbd
00000300: 9eda 933e a485 a1bd b10f 0f3e e1d3 ddbd
00000310: 4fae 45be 0bbc 983e 68d8 10be 8d05 ac3d
00000320: 462a 6fbe 3e6b e73d 516f 99be 155f 2cbe
00000330: 12ed c43d 55b7 99be 56b0 5a3e 13c0 0ebe
00000340: d859 b73d 277d ba3e 3d19 983d 1bca 9cbe
00000350: 6640 c83d ad71 903e 66ef 80be b0c2 65bd
00000360: 8593 d83d f32f b03c 0e4d be3d 54e0 1c3e
00000370: 62cc a83e 0b9f 6a3e 1953 433e 1064 213e
00000380: 1c7e 11be 4c51 553e 2009 f23d 67e3 86be
00000390: ea42 51be 90da b53e 6df7 5cbe a7ef 203e
000003a0: 165a 733e 5e92 2e3e b125 a3bd 1b79 3ebd
000003b0: 9bb0 52be b7ea 9abe 7316 343d 364e 4ebe
000003c0: 9c2f a13e 5189 7fbe 6c0a 8bbe 6d78 813e
000003d0: 9de4 07be 3885 b13e 853f 8cbe 6ca3 93be
000003e0: f086 7e3e 82cd d1bd 2390 a93d 0ecd f6bd
000003f0: bf14 403d 52f6 543e a8af 7e3e 7c9a dd3d
0.32427728 -0.17755553 -0.109597184 -0.06470197 0.25479093 -0.18151551 0.21495496 -0.27053487
0.08935588 -0.064401135 0.028466495 -0.26891088 -0.033893302 0.20971106 -0.15819433 0.29075086
0.16541825 -0.04860309 0.17119274 0.060179852 0.28812432 0.035965588 -0.28430668 0.29626215
-0.06715795 0.12256994 0.06476381 0.18805797 -0.13932261 0.23082323 -0.1705438 0.27295086
0.0152454255 0.04432308 0.1972567 0.14766802 0.22834498 -0.115065806 0.23461203 -0.2951748
0.20916069 -0.28155833 0.10075845 0.04354042 -0.23880556 0.18994422 -0.06884323 -0.06500185
0.24796362 0.14295131 -0.18713483 -0.32344195 0.25144926 -0.19253357 0.2469104 0.25321504
-0.02585264 -0.2490864 -0.22821157 0.08524467 0.1554747 -0.28924382 0.33362952 -0.25080776
0.30212188 0.12945037 -0.149757 -0.11300551 0.06764832 -0.26651946 -0.07318478 -0.14199705
-0.05975123 -0.104161635 -0.15094815 0.03655814 -0.10640067 -0.05420028 0.15355574 -0.30933312
0.020852732 -0.21038702 -0.033166267 -0.29178312 -0.11136689 0.018642848 0.10653209 -0.26315737
-0.22706217 -0.11935601 -0.28856832 -0.29350436 -0.2995795 -0.15516673 0.041076597 0.04255824
0.031190714 -0.25354388 0.023890411 0.19300474 0.1987495 0.29510126 0.16088355 0.2666573
-0.23027353 -0.098737806 -0.062037673 -0.23228279 0.1114386 0.078977935 0.17428449 0.17495015
0.21143053 -0.03052463 -0.056827445 -0.194811 -0.24521324 0.13936016 -0.12946524 -0.0070126066
-0.28639925 0.20902736 0.048257165 -0.26279905 -0.17868279 -0.07481589 0.107949495 -0.1644687
-0.16310552 0.11410417 0.003244932 0.21854846 -0.09817789 -0.038197104 -0.11302908 -0.18264252
-0.2602763 0.044557035 -0.29591203 -0.17148276 -0.15287887 -0.20426686 0.13230616 -0.0007936098
-0.31350178 -0.264065 0.12631156 -0.24547443 -0.27100945 -0.17495662 -0.12858917 -0.25999334
0.17108062 -0.024173807 0.19470045 -0.10605521 -0.021341713 0.14877397 -0.2782456 -0.11606093
0.20632988 -0.2893804 -0.1526715 0.30193648 0.04842042 0.07638813 0.024405966 0.19058691
-0.089284435 -0.13624202 0.10091901 -0.06243331 -0.10176252 0.070667565 0.06033634 -0.1933427
0.3221402 -0.13221405 -0.22222763 -0.013999451 0.1373256 0.32222357 -0.19314694 0.24595709
0.14990698 0.075351894 -0.2127084 0.016137803 0.2658901 -0.118723124 0.26623276 -0.03799904
0.2887773 -0.07886818 0.1397083 -0.10831428 -0.19304775 0.29830965 -0.14145052 0.08399496
-0.2335597 0.11299752 -0.2996774 -0.16833146 0.0961553 -0.30022684 0.2135633 -0.13940458
0.08952683 0.3642361 0.07426689 -0.30622944 0.09777908 0.28211728 -0.25182647 -0.05609387
0.10575012 0.021507239 0.09292041 0.1531995 0.32968432 0.22912233 0.19074668 0.15760827
-0.14208263 0.20831794 0.11818147 -0.2634537 -0.20435682 0.35518312 -0.2157876 0.1571642
0.23764834 0.17048022 -0.079661734 -0.046502214 -0.20575182 -0.30257198 0.04396672 -0.20147023
0.31481636 -0.24954726 -0.2715639 0.2528719 -0.13270803 0.3467195 -0.27392212 -0.28835618
0.24856162 -0.10244276 0.08279445 -0.1205083 0.046894785 0.20797089 0.24871695 0.10820481

linear2.weight f4 [3, 256]
00000000: 0336 bbbc 7275 96ba 8ea8 b7bd d776 49bd
00000010: 0a91 c13c 5082 403d c746 1bbc e0f1 98bb
00000020: bdad 5b3d 71fc 7dbc 40d4 613c 5917 203d
00000030: 7ab3 13be 7c22 8f3d 8067 793c 69ab 91bc
00000040: 7705 82bc c58f 8cbd 4311 c0bd 696d 28bd
00000050: 14f5 9abc 03e7 bd3c e823 4a3c bdc7 0ebd
00000060: cfec 02bb 18a2 93bd a7b8 f6bd fb89 0ebe
00000070: 14da afbc 60f2 803d 541d babc 7a76 82bd
00000080: e19a 35bd 0b10 31bd 29db 3fbd a6d0 28bd
00000090: 1905 843d 5532 dc3c f131 173d 89b6 033d
000000a0: 7f2c 233c 1b57 e9bc 84e4 e5bc fc89 d33b
000000b0: cd77 dbbd 1fb5 4cbd c4fa 633d b276 5dbd
000000c0: 985f 52bd 13c4 273d 128c 18bd f6f7 0ebd
000000d0: 94da ddbc 6b38 843c 490c 773d 3c08 423d
000000e0: b4d0 efbd 45e3 74bd 9b66 df3b 9359 05bd
000000f0: 9e91 15be f4a9 46bd 69f0 bcbd 4ab4 87bd
00000100: ff6f adbd f276 a7bd 9f89 5c3d 227e 71bd
00000110: 644d dabc c1c5 dcbc 71a0 b3bb 1b97 0cbd
00000120: c688 75bc 4cab d13d dceb acbd 3a8c 57bd
00000130: 317f a4bd 2977 af3d 83ee dabd df1d a53c
00000140: 6165 28bd 2184 9b3d 2c11 9f3d 3427 f83c
00000150: e6de 77bd ceb1 45bd 9f31 873c b12d 293d
00000160: 57ec 4abc 93c4 ddbd 3cda 1b3d 805e 873a
00000170: 766a e03c 4a8a ac3c f6fd 8bbc 7957 d4bd
00000180: 477e cebd ac62 783d 0b59 0f3d 6316 c8bd
00000190: f118 89bd aa90 2c3d d0f9 0abd 9958 acbd
000001a0: 0a9a 22bc 05cf 55bc 5d52 3dbc 9102 40bd
000001b0: 6b12 04be 2c78 d93c 8679 3ebd dd66 90bd
000001c0: 0d4c e63c 4917 b3bd e8a4 89bd be24 413d
000001d0: 8369 dc3d cbb7 07bd 52ca 86bd 79b8 503d
000001e0: e04b 53bc 4500 acbd c8a8 00be b81a 8ebd
000001f0: a2b0 273d 7ac3 2d3e 931e 913b e001 90bd
00000200: ab8a d1bd 57a0 60bd fd29 d0bc ccab 10bd
00000210: 14b3 f93d 6c22 f2bd d358 c7bc c86c 163c
00000220: 8265 a83c 4345 26bd d71e 4ebd 7b20 a8bd
00000230: 7913 d93c b856 91bc e784 a4bd abe2 b9bd
00000240: 5f03 acbc 1072 0ebd 542a f5bd b990 043c
00000250: baa7 1abb d81b ddbc 70c0 e83c f23a e4bd
00000260: 1b26 a43c 6cd3 153d 15e5 c5bc 1734 32bd
00000270: 44fd 813d 985e 03bd 0f07 923b d1c2 a9bd
00000280: 33a8 e6bb c787 12bc fd51 73bd 1402 a7bd
00000290: 664e 0abd c0e1 bdbc 77bc 8a3d 366e 663b
000002a0: 0159 81bd 9ff2 71bd 65c2 3dbd dccb 25bc
000002b0: 84ba 293c fffa a0bd d7ff 273d 4a7e 5dbd
000002c0: 965a cbbc e0d5 163c 2572 d7bd 39a9 f6bd
000002d0: 707c a53d ef03 a7bd 5ae6 d03c 90df 293b
000002e0: 4f48 abbd 0431 98bb a2be 513c 5a0f b7bb
000002f0: 83cb 85bc 3540 cbbd 973f c7bd da09 173e
00000300: df36 c0bd 40ee 793c d5cd f2bd e4c1 873d
00000310: 53a3 73bc fa89 1dbc cac5 aebd 5229 08bd
00000320: c77a 51bd 218e 57bd b589 0a3d 169e dd3a
00000330: 9cd7 40bd 023e 1a3d 10e8 443d 57ed 2abd
00000340: 392f d53c 74f2 3fbd 03dc b4bd 95bb 32ba
00000350: bdf1 c0bd 50eb d1bd 0983 a23c a24b 7e3d
00000360: 6777 aebb 3147 2fbd 7eac 09bd 1abb a23c
00000370: 8f8f b1bc e0ae 3e3c 99f2 123d 414f e5bc
00000380: 195b 29bc 52e8 203c e8e8 05be 8c61 dd3c
00000390: df95 57b9 60b3 29bd a55c caba 51cf d43d
000003a0: 661b c6bc 1aa2 d2bd b6cf ee3c b431 0a3d
000003b0: 142b 7fbd 20d8 33bc 7f19 fcbd a8c5 953d
000003c0: ee69 a0bd 5289 213d 700c 043d b71e 10bd
000003d0: 0dfe 25bc 0c3a b5bd a4e1 ec3c 5bbc a03c
000003e0: 519a cfbd 05c5 ddbd a58d 63bc 2e5d ae3d
000003f0: 25fa db3b a42e dcbd 5a74 71bd b6b6 d1bd
-0.022852903 -0.0011479093 -0.08967696 -0.0491856 0.02362873 0.046999276 -0.009477324 -0.0046675056
0.053632487 -0.015502081 0.0137835145 0.039084766 -0.14423934 0.06988999 0.01522243 -0.01778193
-0.015871746 -0.06863359 -0.093782924 -0.041119967 -0.01891569 0.023181444 0.012337662 -0.034858454
-0.0019977575 -0.07208651 -0.120469384 -0.13919823 -0.021466292 0.06296229 -0.022719063 -0.06370254
-0.044337157 -0.04322819 -0.046839867 -0.041214608 0.06446285 0.026879469 0.036912862 0.0321565
0.009959339 -0.028483918 -0.028063066 0.006455658 -0.107162096 -0.049977418 0.05565907 -0.054068275
-0.051360697 0.040958475 -0.037242956 -0.034904443 -0.027081765 0.016140183 0.06031445 0.047371134
-0.11709729 -0.059787054 0.0068176514 -0.032556128 -0.1460633 -0.048501924 -0.09225542 -0.06626184
-0.08468627 -0.08176984 0.053842183 -0.05895818 -0.02664823 -0.026949765 -0.0054817726 -0.034323793
-0.014986223 0.102377504 -0.08443424 -0.052623965 -0.08032072 0.0856765 -0.10690024 0.020155845
-0.041112307 0.07593561 0.07766947 0.030292131 -0.060515307 -0.04826527 0.016503153 0.04130334
-0.012385449 -0.10828509 0.03804992 0.0010327846 0.027394515 0.021062035 -0.017088871 -0.103682466
-0.10082679 0.060640976 0.034997027 -0.09769895 -0.0669421 0.04213015 -0.033929646 -0.08415336
-0.009924421 -0.013049846 -0.0115552815 -0.046877448 -0.12897651 0.02654656 -0.046502613 -0.070508696
0.028112436 -0.08744676 -0.067209065 0.04715418 0.10762312 -0.033134263 -0.06581558 0.050957177
-0.012896508 -0.08398489 -0.12564385 -0.0693869 0.040939935 0.169691 0.0044286936 -0.07031608
-0.10231527 -0.054840412 -0.025410647 -0.03532009 0.121923596 -0.11822972 -0.024334347 0.009181209
0.020556215 -0.040593397 -0.05032238 -0.0820932 0.026498543 -0.017741546 -0.080331616 -0.090764366
-0.020997701 -0.034776747 -0.11970964 0.008091145 -0.0023598508 -0.026990816 0.028412074 -0.111440554
0.020037701 0.03657858 -0.024157086 -0.043506708 0.06347135 -0.032072634 0.004456408 -0.082891114
-0.007039094 -0.008943505 -0.059404362 -0.08154693 -0.033766173 -0.023178935 0.06774228 0.0035160906
-0.06315804 -0.059069272 -0.046327967 -0.010119405 0.01035941 -0.07860374 0.041015472 -0.054075517
-0.024823468 0.009206265 -0.10519818 -0.120439954 0.08080375 -0.08155047 0.025500465 0.0025920607
-0.08363401 -0.004644515 0.012801798 -0.005586547 -0.016332394 -0.09924356 -0.09728926 0.14749852
-0.09385466 0.015254557 -0.118556656 0.066287786 -0.0148704825 -0.009615416 -0.08533819 -0.03324253
-0.05114248 -0.05262578 0.033822734 0.0016908075 -0.04708062 0.03765679 0.048072875 -0.04173025
0.026023494 -0.04686208 -0.088310264 -0.0006818113 -0.09421108 -0.102499604 0.019837873 0.062083848
-0.0053242925 -0.042792503 -0.033611767 0.019864608 -0.0216749 0.011638373 0.03587589 -0.027991893
-0.010336661 0.0098210145 -0.13077128 0.027024053 -0.00020559829 -0.04143083 -0.0015438987 0.10391105
-0.024182986 -0.10284825 0.029151779 0.033738807 -0.062296942 -0.010976821 -0.123095505 0.073130906
-0.078327045 0.0394376 0.032238424 -0.035185542 -0.010131371 -0.08848962 0.028916188 0.019621065
-0.101368554 -0.10828594 -0.013888751 0.08513866 0.006713169 -0.107510835 -0.058948852 -0.102399275

linear2.bias f4 [3]
00000000: d843 9cbd 050c 3dbd fdd0 1cbd
-0.07630128 -0.04615404 -0.038285244
