DRL_models/snapshot-score-24.pth (torch, 17051 bytes, 4 tensors)

linear1.weight f4 [256, 11]
-0.41778848 -0.10809244 -0.13533105 0.094265915 -0.22202758 -0.13796137 0.07214723 -0.20582111
-0.34043348 0.18571052 0.22950102 -0.4895097 -0.1675542 -0.53119653 -0.15837745 -0.3213682
0.056140017 -0.3794186 -0.26596516 0.049472492 0.3374837 -0.85222286 0.16864574 -0.26911724
-0.25927985 0.1951808 -0.30619323 0.031407427 0.19914629 -0.05622154 -0.2374568 0.009254235
-0.01659025 -0.5437694 0.2029793 -0.0849119 -0.5877068 -0.018084388 -0.0028433972 -0.12985072
0.21759495 0.38880396 0.34512624 0.3021426 0.05867297 -0.30483475 0.058943972 -0.3285247
-0.27535027 -0.2938559 -0.24193065 0.074489005 -0.18721712 0.4283654 -0.5157818 -0.5429541
-0.015403046 -0.4962141 0.035055496 -0.12191845 -0.10243341 -0.42842072 0.16637123 0.20877628
0.4547449 -1.0420805 -0.018815152 0.05673798 -0.09211757 0.059087258 -0.1954634 -0.18155864
-0.37320268 -0.099540174 0.035922293 0.12735419 -0.22482951 -0.2583196 -0.052911475 -0.62596303
-0.0129348375 -0.32219532 -0.0050968854 0.10282216 0.036284145 0.40846327 -0.5496922 0.38138777
-1.0124767 0.28351027 -0.94074845 0.27270943 -0.32234406 0.403558 -0.673167 0.1614756
-0.13750948 0.81984556 -0.4999889 -0.29471633 -0.46162295 0.29977375 -0.7656086 -1.067193
-0.1886825 -1.1356869 -0.033692732 2.0077302 1.3115243 1.4952387 0.0007309583 0.307272
-0.10656217 0.23796216 -0.14606327 -0.2590533 -0.46784663 -0.33574596 -0.36681142 0.12658387
0.072661266 -0.005290845 -0.32641384 -0.20896117 -0.3305038 -0.071783334 0.054083534 -0.4456408
-0.5228146 0.04358125 -0.36156526 0.013357426 -0.13568494 -0.22792794 -0.46342227 -0.030668931
-0.04740025 -0.098793544 -0.47933555 -0.45887104 0.27609137 -0.012743567 -0.109591536 0.17613354
0.06627645 0.056120567 -0.026520062 -0.0039451523 -0.22237998 0.005571747 -0.17655538 -0.038609598
-0.23122382 -0.25756985 -0.3939039 0.16420008 0.18907146 -0.5059417 -0.15229154 -0.2501086
0.1978377 0.12552011 0.36286893 0.4776036 0.35241383 -0.19500989 -0.37533802 -0.2768507
-0.4224953 -0.14008108 -0.22234026 -0.226759 -0.07938795 0.22221184 -0.51818186 0.29165632
-0.7838893 -0.68845075 -0.3567144 -1.3795922 0.4795319 0.058988426 0.462425 -0.080510154
-0.11351986 -0.95870364 0.86617386 0.07066262 0.024754196 0.20108758 -0.19872661 0.17447785
-0.17748637 -0.2107946 0.04955095 -0.00603548 -0.29678857 0.0035835612 -0.15216982 -0.09621162
-0.16321144 -0.03491422 -0.39461824 -0.148121 -0.048554745 -0.19214599 -0.0005402147 0.12555079
-0.28144532 -0.79003084 -0.22089897 -0.83090466 -0.19162965 -0.28494745 -0.23402485 0.05038104
-0.09354449 -0.049610704 0.57272434 -0.8568567 -0.4102138 -0.27837917 0.03223388 0.056247376
-0.32161096 -0.11467505 -0.32837856 0.020150905 -0.38194692 0.030587139 -0.13282412 -0.018408148
-0.8550447 -0.6878708 -0.41460106 -0.19487275 -0.4231885 -0.40167812 -0.27569494 0.26451114
-0.034009412 0.52112657 -0.111305624 -0.4778418 -0.1531329 -0.5581175 -0.0145960655 -0.21129037
0.076759905 -0.022614308 0.29577503 0.1349416 -0.41372558 0.071935125 -0.096349135 -0.11637846
00000000: 5fe8 d5be 925f ddbd 3994 0abe 7d0e c13d
00000010: 335b 63be bf45 0dbe edc1 933d c5c2 52be
00000020: 4c4d aebe e62a 3e3e 5102 6b3e 04a1 fabe
00000030: 5493 2bbe 7ffc 07bf b32d 22be 5f8a a4be
00000040: 13f3 653d 2843 c2be 962c 88be aba3 4a3d
00000050: aaca ac3e 472b 5abf 78b1 2c3e bcc9 89be
00000060: 54c0 84be 7add 473e 5cc5 9cbe 13a5 003d
00000070: 01ed 4b3e 8f48 66bd e027 73be 139f 173c
00000080: 47e8 87bc 7934 0bbf ced9 4f3e 4ae6 adbd
00000090: f473 16bf b625 94bc 4a58 3abb 96f7 04be
000000a0: 36d1 5e3e 5011 c73e 63b4 b03e 6fb2 9a3e
000000b0: 1153 703d 4d13 9cbe 3c6f 713d 6434 a8be
000000c0: b6fa 8cbe 4874 96be abbc 77be b18d 983d
000000d0: d8b5 3fbe b652 db3e 470a 04bf 0aff 0abf
000000e0: 0f5d 7cbc c60f febe 5a96 0f3d 61b0 f9bd
000000f0: 9cc8 d1bd f659 dbbe 385d 2a3e 73c9 553e
00000100: 53d4 e83e e562 85bf 3c22 9abc 1666 683d
00000110: 23a8 bcbd 7b05 723d 8f27 48be 82ea 39be
00000120: 6c14 bfbe b8db cbbd 4123 133d 2369 023e
00000130: b539 66be 7742 84be b4b9 58bd 1d3f 20bf
00000140: a4ec 53bc c9f6 a4be c603 a7bb 6d94 d23d
00000150: af9e 143d 1922 d13e a1b8 0cbf 4245 c33e
00000160: d698 81bf 4228 913e e4d4 70bf 92a0 8b3e
00000170: 480a a5be 279f ce3e ac54 2cbf dc59 253e
00000180: 49cf 0cbe 66e1 513f 8cfe ffbe 0fe5 96be
00000190: d859 ecbe f27b 993e edfe 43bf c899 88bf
000001a0: fc35 41be 305e 91bf 6401 0abd a77e 0040
000001b0: 07e0 a73f fb63 bf3f c89d 3f3a c152 9d3e
000001c0: 443d dabd 5aac 733e 9c91 15be a2a2 84be
000001d0: 9889 efbe e5e6 abbe b5ce bbbe 349f 013e
000001e0: 6ecf 943d d35e adbb b71f a7be ebf9 55be
000001f0: cb37 a9be 2403 93bd b286 5d3d 082b e4be
00000200: 2dd7 05bf 4182 323d 151f b9be 1bd9 5a3c
00000210: fef0 0abe f165 69be af45 edbe 693d fbbc
00000220: c426 42bd 4554 cabd 786b f5be 25f1 eabe
00000230: d95b 8d3e 65ca 50bc 8771 e0bd 5a5c 343e
00000240: f3bb 873d aede 653d 9a40 d9bc 5646 81bb
00000250: 94b7 63be 3493 b63b efca 34be 1925 1ebd
00000260: f0c5 6cbe 32e0 83be c6ad c9be 1124 283e
00000270: f39b 413e 6585 01bf 50f2 1bbe 3c0e 80be
00000280: f795 4a3e 5888 003e f5c9 b93e 7688 f43e
00000290: 966f b43e acb0 47be 4e2c c0be 60bf 8dbe
000002a0: 4e51 d8be 6a71 0fbe 2aad 63be 8333 68be
000002b0: 2696 a2bd 808b 633e 91a7 04bf fa53 953e
000002c0: f8ac 48bf 4f3e 30bf 45a3 b6be 7a96 b0bf
000002d0: 3585 f53e d99d 713d f8c2 ec3e 82e2 a4bd
000002e0: 1a7d e8bd 9a6d 75bf 92bd 5d3f 90b7 903d
000002f0: 50c9 ca3c e7e9 4d3e fd7e 4bbe 52aa 323e
00000300: fdbe 35be 8ada 57be f0f5 4a3d 47c5 c5bb
00000310: acf4 97be 2eda 6a3b 68d2 1bbe 990a c5bd
00000320: e620 27be 3702 0fbd 670b cabe 08ad 17be
00000330: 57e1 46bd ebc1 44be 329d 0dba 6390 003e
00000340: 9a19 90be 763f 4abf 5733 62be 2bb6 54bf
00000350: 903a 44be a2e4 91be 36a4 6fbe 595c 4e3d
00000360: 4194 bfbd 9834 4bbd 109e 123f f65a 5bbf
00000370: 8b07 d2be b787 8ebe ac07 043d a663 663d
00000380: 31aa a4be c1da eabd 3c21 a8be 8313 a53c
00000390: 8c8e c3be e191 fa3c 0c03 08be afcc 96bc
000003a0: 36e4 5abf 4d18 30bf 9746 d4be b98c 47be
000003b0: 2aac d8be c1a8 cdbe e327 8dbe 016e 873e
000003c0: 744d 0bbd 8d68 053f 34f4 e3bd aea7 f4be
000003d0: dfce 1cbe cae0 0ebf 5624 6fbc 815c 58be
000003e0: 4c34 9d3d a441 b9bc d36f 973e 212e 0a3e
000003f0: d7d3 d3be b952 933d b252 c5bd d457 eebd

linear1.bias f4 [256]
-0.51614225 -0.38149905 -0.24528037 -1.6418334 -0.51172733 -0.81682 -0.23199615 -0.8366663
-0.6026457 0.4500024 -0.51151633 -0.2000139 -0.34812737 -0.23341909 -1.4921349 -0.38377285
-0.44185936 -0.35650012 -0.2125769 -0.38656875 -0.16774182 -0.7715882 -0.5227479 -0.41128266
-0.12156204 -0.9301836 -0.3026391 -0.2091256 -0.22482106 -0.03964491 -0.4008231 -0.67718965
-0.80999506 0.30617812 -1.4050654 -0.817717 -0.32957086 -0.957122 -0.91154295 -0.47864714
-0.9440502 -1.4015009 -0.7539939 -0.24371962 -1.011816 0.12298601 -0.15546162 -0.6126844
-0.5107977 -0.3791069 -0.69812334 -0.36564907 -0.33576843 -0.93772703 -0.71034974 -0.80322915
-0.4323034 -0.5648782 -0.6619071 -0.47759292 -0.36665744 -0.35823867 -0.42256835 -0.6125028
-0.9958245 -0.1062556 -0.24152125 -0.13859771 -0.4680668 -0.12986666 -0.83404416 -0.35796314
-0.20513 -0.79052234 -0.77502793 -0.33229136 -0.21350801 -0.14013217 -0.04820966 -0.27518666
-0.6137467 -0.5347486 -0.2118063 -0.79274493 -0.60439235 -0.111620724 -0.32754037 -0.40270692
-0.53153384 0.3892575 0.34846443 -0.6746707 -0.48176637 -1.199108 -0.2730834 -0.31576607
-0.20946676 -0.1922454 -1.2214626 -0.35423124 -0.80509317 -0.560047 -0.70221597 -0.67681426
-0.7853653 -1.1363757 -0.48205033 -0.16338006 -0.5952082 -1.2373145 -0.0776475 -0.31802648
-0.43409944 -0.6991381 -0.30041966 -0.98682696 -0.5103222 -0.48147967 -0.82815564 -0.25328502
-1.3494695 -0.14771016 -1.119137 -0.61791545 -0.41503936 -0.5711167 -0.6499771 -1.0658641
-0.8604139 -0.26177058 -0.27014235 -0.5514588 -0.4755376 -0.24715538 -0.22231059 -0.8278912
-0.5934714 -0.38759914 0.02981668 -0.7310563 -0.27660853 -1.1924739 -0.27671403 -0.7553566
-0.5691085 -0.671984 -0.2155445 -0.46944702 -1.0584501 -0.64105767 -1.0418192 -0.4267556
-0.32401702 -0.48953384 -1.1432691 -0.922574 -0.98474115 -1.0460941 -0.5991795 -0.9637272
-0.6649836 -0.7969111 -0.46630737 -0.010184972 -0.63995814 -0.26784232 -0.71037525 -0.5937539
-0.28565902 -0.31265238 -0.9552986 -0.9622331 -0.49684182 -0.38032275 -0.40356833 -0.18703432
-0.376502 -0.43471757 -0.44327244 -0.6549657 -0.6766233 0.62538874 -1.0640061 -0.36104667
-0.16009621 -0.4438015 -0.14021643 -0.711378 -0.46770245 -1.0544262 -0.31881413 -0.1407312
-0.26679933 0.06793821 -0.3217741 -0.39390206 -0.3163583 -1.3143855 -0.43551716 -0.0685807
-0.32277724 -0.6119609 -0.32804033 -1.3090178 -0.2157682 -0.4567921 -1.1202354 -0.07439451
-0.19116576 -0.22332004 -1.0970166 -0.41484338 -0.38593397 -0.12450821 -0.73658925 -0.24288297
-0.2792321 -0.52309585 -0.24462824 -1.1393043 -0.4622825 -1.5475461 -0.72952586 -0.15028976
-0.825715 -0.4801362 -1.1605395 0.05998787 -0.2955134 -0.4219797 -0.5043727 -0.63800365
-0.45444357 -0.9151127 -0.599644 -0.22228412 -0.44295925 -0.36095837 -0.47266567 -0.30808756
-0.61445177 0.050372235 -0.87231237 0.093411475 -0.7555323 -0.4119464 -0.005471727 0.38357168
-0.37706307 -0.3842039 -0.716823 -0.436436 -0.37548724 -0.76896685 -0.089506544 -0.59442544
00000000: e621 04bf d853 c3be c72a 7bbe 9927 d2bf
00000010: 9000 03bf 1e1b 51bf 6690 6dbe c32f 56bf
00000020: fd46 1abf b766 e63e bcf2 02bf 72d0 4cbe
00000030: c03d b2be 6a05 6fbe 47fe bebf e07d c4be
00000040: 643b e2be 2f87 b6be c2ad 59be 57ec c5be
00000050: 83c4 2bbe ce86 45bf ced2 05bf a493 d2be
00000060: 85f5 f8bd 8320 6ebf 83f3 9abe 0525 56be
00000070: 7e37 66be b362 22bd af38 cdbe 4d5c 2dbf
00000080: d65b 4fbf 61c3 9c3e 2fd9 b3bf e755 51bf
00000090: 83bd a8be f305 75bf e15a 69bf 3d11 f5be
000000a0: 46ad 71bf 6264 b3bf bf05 41bf a391 79be
000000b0: 3083 81bf 17e0 fb3d 5531 1fbe e3d8 1cbf
000000c0: a3c3 02bf 4d1a c2be 36b8 32bf 5b36 bbbe
000000d0: d7e9 abbe e10e 70bf 7bd9 35bf 6da0 4dbf
000000e0: df56 ddbe dc9b 10bf be72 29bf 0f87 f4be
000000f0: 86ba bbbe 0f6b b7be e15a d8be fccc 1cbf
00000100: 5bee 7ebf 899c d9bd 5951 77be 8fec 0dbe
00000110: 74a6 efbe c4fb 04be eb83 55bf f246 b7be
00000120: 990d 52be ac5f 4abf 3b68 46bf 1822 aabe
00000130: d8a1 5abe cf7e 0fbe 7e77 45bd 44e5 8cbe
00000140: 811e 1dbf 49e5 08bf c0e3 58be 55f1 4abf
00000150: 75b9 1abf 6899 e4bd 5fb3 a7be 9a2f cebe
00000160: 9a12 08bf c24c c73e ee69 b23e 38b7 2cbf
00000170: 15aa f6be 5f7c 99bf 96d1 8bbe 17ac a1be
00000180: 747e 56be fadb 44be e358 9cbf cc5d b5be
00000190: 961a 4ebf 3d5f 0fbf 6dc4 33bf b343 2dbf
000001a0: b30d 49bf c274 91bf 4dcf f6be 1a4d 27be
000001b0: 915f 18bf 5260 9ebf a705 9fbd 5ed4 a2be
000001c0: 4842 debe b7fa 32bf 9bd0 99be b1a0 7cbf
000001d0: 7aa4 02bf 8184 f6be 0202 54bf 93ae 81be
000001e0: 6bbb acbf 5541 17be e23f 8fbf b52f 1ebf
000001f0: 0a80 d4be b434 12bf e664 26bf 3c6e 88bf
00000200: 1644 5cbf cb06 86be 1950 8abe 672c 0dbf
00000210: aa79 f3be 4d16 7dbe 63a5 63be adf0 53bf
00000220: beed 17bf 6573 c6be 1c42 f43c 8126 3bbf
00000230: a29f 8dbe fca2 98bf 76ad 8dbe 0d5f 41bf
00000240: 18b1 11bf 2507 2cbf b3b7 5cbe 5c5b f0be
00000250: 4b7b 87bf 5b1c 24bf 555a 85bf b67f dabe
00000260: 8fe5 a5be 2ea4 fabe a456 92bf cf2d 6cbf
00000270: ff17 7cbf 69e6 85bf d463 19bf d3b6 76bf
00000280: 5d3c 2abf 5e02 4cbf d7bf eebe dede 26bc
00000290: 4cd4 23bf a122 89be 27db 35bf 4100 18bf
000002a0: e641 92be f913 a0be 738e 74bf e954 76bf
000002b0: 0d62 febe aab9 c2be 82a0 cebe ed85 3fbe
000002c0: dfc4 c0be 4d93 debe 9bf4 e2be d5ab 27bf
000002d0: 2f37 2dbf 7a19 203f 5a31 88bf 1cdb b8be
000002e0: 43f0 23be f339 e3be e594 0fbe de1c 36bf
000002f0: b276 efbe 70f7 86bf 9b3b a3be d71b 10be
00000300: ec99 88be 3023 8b3d 93bf a4be 88ad c9be
00000310: b7f9 a1be c93d a8bf 1bfc debe 0a74 8cbd
00000320: 0f43 a5be 78a9 1cbf e7f4 a7be e58d a7bf
00000330: 57f2 5cbe a7e0 e9be e063 8fbf 265c 98bd
00000340: f5c0 43be 02ae 64be 0a6b 8cbf 5a66 d4be
00000350: 2399 c5be 29fe febd 1d91 3cbf 50b6 78be
00000360: 83f7 8ebe 9ce9 05bf d37f 7abe b9d4 91bf
00000370: 4bb0 ecbe fe15 c6bf 35c2 3abf 8fe5 19be
00000380: 0f62 53bf 69d4 f5be 8f8c 94bf d7b5 753d
00000390: 884d 97be b90d d8be 921e 01bf 3554 23bf
000003a0: d4ac e8be d344 6abf 4582 19bf 739e 63be
000003b0: 8ecb e2be 89cf b8be 3c01 f2be a7bd 9dbe
000003c0: b64c 1dbf 1e53 4e3d dd4f 5fbf 844e bf3d
000003d0: 916a 41bf a3ea d2be 2c4c b3bb 8263 c43e
000003e0: 690e c1be 60b6 c4be b681 37bf 8a74 dfbe
000003f0: dd3f c0be 03db 44bf 354f b7bd 442c 18bf

linear2.weight f4 [3, 256]
-0.08960112 0.051373526 0.019595912 -1.3150933 0.27836975 0.053911068 -0.009403111 0.52192324
0.31532744 -0.3243307 1.4490603 1.0428084 -0.084205955 -0.008432547 -1.6752414 -0.3030924
0.13701555 -0.0089069335 0.06878562 -0.07912287 -0.00065832125 -0.544479 0.083821066 -0.0423361
0.037846517 0.0034662823 0.48406458 0.0024868026 -0.037654575 -0.020782683 0.28468475 -1.9955143
0.44239244 -0.31202853 -0.10476385 0.76791894 -0.06457343 0.19798538 0.32049638 0.118139654
-0.8851422 0.9577395 0.41105944 -1.9685347 -1.6706854 0.25026885 0.012272566 -0.44458753
0.2522122 0.0062296153 0.14600407 0.06668743 -0.1632173 -0.2559339 -0.039096296 0.19367406
-0.016027186 0.81564415 0.3226917 -0.095274925 -0.06776574 -0.009466299 -0.13195312 0.012812388
-0.47583678 0.6309149 0.009272465 0.009458216 -0.022631891 -0.014146872 -2.3457906 0.10180878
0.050198518 -0.090960376 -2.6823235 0.14197321 0.007060915 0.47106305 0.004775613 0.07519675
0.057367343 -0.11558916 -0.050035555 -0.021338798 0.10757811 -0.22518046 -0.016715173 -0.046037145
0.29975125 -0.13778684 -0.36820418 0.07503174 1.0922751 -1.44823 0.10489835 0.039617322
-0.1945649 0.044610746 -0.56703585 -0.0249838 0.27752897 -0.03826109 0.54431397 0.05546336
-0.07660153 -0.37903637 0.0433847 -0.011288431 0.3522556 0.6703354 0.35542744 -0.0065951105
-0.06155373 -0.39964584 0.060519423 0.2922989 0.02669616 0.0010450246 0.08084244 -0.07842778
-0.35584655 -0.011394334 0.009595665 0.069879875 0.19520704 -0.7628915 0.021654267 -0.9293673
0.64826536 0.04561489 -0.0047328146 -0.770291 0.079155125 -0.15144436 0.17548867 -0.053974386
-0.11740873 0.039895598 -0.05704027 0.0134307565 -0.03704524 1.2246876 0.035452753 0.4765709
0.37903994 -0.7959503 -0.2381651 -0.72960025 0.77837974 0.7579317 -0.24891616 0.046456184
0.024886267 0.564474 0.20904884 -0.20002148 0.52334726 0.592687 -0.18669492 0.113469854
-0.7207885 0.3586194 0.0014728197 0.25340867 0.19002427 0.049385346 -3.0595365 0.040952902
0.059331976 -0.91768825 -0.6368749 -0.0031604334 -0.22042981 0.008844315 -0.025474923 0.24255179
0.36940008 -0.40321696 -0.08728157 0.57074785 1.1982605 -0.56839234 0.19117118 -0.05399079
0.029701822 0.51742196 0.83421725 -0.113003574 0.059362274 -0.51088965 0.26877254 -0.061551023
0.57974195 0.025071861 -0.00090387807 0.47313148 -0.14528653 0.5825276 1.5121939 0.008156465
0.010607291 0.272198 0.033492904 -0.5607102 -0.0145739205 -0.6551679 -0.5509509 -0.03179782
-0.010697532 0.54119056 0.57965267 0.04030132 -0.003363647 -0.011328485 0.15844816 -0.018516012
-0.0746395 1.1719317 0.19491802 1.0063777 -0.08447805 -1.4731358 0.09608703 -0.0032430342
0.03817978 0.3175978 -0.103816964 -0.09424904 -0.008288238 -0.0029871557 0.715085 -0.20934889
-0.20773779 -0.18348421 0.7160329 0.2268051 -0.17674716 -0.00991473 0.17264241 0.22863984
0.58993334 0.038169295 -1.266437 0.3086091 -0.91743875 -0.05701452 0.06340263 0.52087235
-0.05369263 -0.029287672 -2.461452 -0.089278206 -0.039421443 -0.06678855 -0.015366136 -2.122689
00000000: cb80 b7bd 0c6d 523d 9b87 a03c fa54 a8bf
00000010: 7b86 8e3e dad1 5c3d 820f 1abc c39c 053f
00000020: 9972 a13e ac0e a6be cf7a b93f bf7a 853f
00000030: 2c74 acbd aa28 0abc 4f6e d6bf ed2e 9bbe
00000040: ce4d 0c3e 63ee 11bc 7adf 8c3d 2c0b a2bd
00000050: 3193 2cba fa62 0bbf 61aa ab3d 9e68 2dbd
00000060: f304 1b3d 912a 633b 50d7 f73e a0f9 223b
00000070: af3b 1abd 7240 aabc 33c2 913e 036d ffbf
00000080: 4381 e23e 34c2 9fbe 6e8e d6bd 5696 443f
00000090: 133f 84bd aebc 4a3e 1a18 a43e 34f3 f13d
000000a0: ae98 62bf 6a2e 753f 6276 d23e f2f8 fbbf
000000b0: 05d9 d5bf 3d23 803e df12 493c faa0 e3be
000000c0: f521 813e cd21 cc3b 1782 153e 6b93 883d
000000d0: 7022 27be c509 83be 7023 20bd 7e52 463e
000000e0: 724b 83bc 0ece 503f d937 a53e 801f c3bd
000000f0: c4c8 8abd 8918 1bbc b81e 07be 0deb 513c
00000100: e1a0 f3be a483 213f 89eb 173c a2f6 1a3c
00000110: 8466 b9bc 48c8 67bc 6f21 16c0 1f81 d03d
00000120: f69c 4d3d 6f49 babd 30ab 2bc0 6d61 113e
00000130: 405f e73b 2d2f f13e bf7c 9c3b c100 9a3d
00000140: 05fa 6a3d 02ba ecbd 15f2 4cbd b4ce aebc
00000150: ea51 dc3d b595 66be 42ee 88bc 7291 3cbd
00000160: ff78 993e fe17 0dbe 4285 bcbe 3eaa 993d
00000170: accf 8b3f 9a5f b9bf f2d4 d63d c645 223d
00000180: 053c 47be c2b9 363d 4329 11bf d3aa ccbc
00000190: 4718 8e3e a9b7 1cbd 2958 0b3f 8c2d 633d
000001a0: 43e1 9cbd 0e11 c2be 28b4 313d 1cf3 38bc
000001b0: d95a b43e 1a9b 2b3f 96fa b53e cc1b d8bb
000001c0: c41f 7cbd 619e ccbe 37e3 773d 34a8 953e
000001d0: e8b1 da3c 35f9 883a b990 a53d be9e a0bd
000001e0: 8531 b6be 4daf 3abc 2337 1d3c 2e1d 8f3d
000001f0: 5be4 473e db4c 43bf 4a64 b13c 04eb 6dbf
00000200: b8f4 253f aed6 3a3d ba15 9bbb ca31 45bf
00000210: 151c a23d 3b14 1bbe 4db3 333e 3f14 5dbd
00000220: fd73 f0bd 9169 233d 0fa3 69bd ad0c 5c3c
00000230: c0bc 17bd 90c2 9c3f e836 113d 1a01 f43e
00000240: 8611 c23e 66c3 4bbf 8de1 73be 15c7 3abf
00000250: e543 473f d007 423f e1e3 7ebe d748 3e3d
00000260: 49de cb3c 5e81 103f e610 563e 6ed2 4cbe
00000270: 16fa 053f 56ba 173f f42c 3fbe e262 e83d
00000280: 9885 38bf f69c b73e a10b c13a c8be 813e
00000290: b995 423e 4a48 4a3d 72cf 43c0 3bbe 273d
000002a0: 1606 733d 9eed 6abf 3c0a 23bf 461f 4fbb
000002b0: 5ab8 61be bfe7 103c c9b0 d0bc 7f5f 783e
000002c0: 0222 bd3e 7472 cebe aec0 b2bd 881c 123f
000002d0: 9a60 993f 2982 11bf 61c2 433e 7225 5dbd
000002e0: 3c51 f33c c475 043f 438f 553f 6b6e e7bd
000002f0: db25 733d aac9 02bf 8e9c 893e ed1c 7cbd
00000300: f869 143f 8163 cd3c 3bf2 6cba 4a3e f23e
00000310: fec5 14be 8720 153f 928f c13f b2a2 053c
00000320: 34ca 2d3c 895d 8b3e db2f 093d b48a 0fbf
00000330: 74c7 6ebc 15b9 27bf 1e0b 0dbf 6e3e 02bd
00000340: b444 2fbc 778b 0a3f 1e64 143f ff12 253d
00000350: a270 5cbb 1c9b 39bc 3c40 223e e4ae 97bc
00000360: 98dc 98bd dc01 963f 9798 473e fcd0 803f
00000370: d402 adbd b78f bcbf 47c9 c43d 1689 54bb
00000380: 6762 1c3d 2e9c a23e fd9d d4bd a405 c1bd
00000390: 64cb 07bc 28c4 43bb d00f 373f 8e5f 56be
000003a0: 37b9 54be 49e3 3bbe ef4d 373f 993f 683e
000003b0: 35fd 34be 6471 22bc 2cc9 303e 9020 6a3e
000003c0: df05 173f 6857 1c3d 9c1a a2bf 0302 9e3e
000003d0: 44dd 6abf 0f88 69bd 3dd9 813d e457 053f
000003e0: ceec 5bbd b3ec efbc 6e88 1dc0 7ed7 b6bd
000003f0: 6178 21bd 6fc8 88bd 3fc2 7bbc 23da 07c0

linear2.bias f4 [3]
0.40850097 -0.45733172 -0.8263206
00000000: 0a27 d13e 6227 eabe bf89 53bf
