DDQN_models/model2-snapshot-score-44.pth (torch, 17221 bytes, 4 tensors)

linear1.weight f4 [256, 11]
0	0xbbff17e1	-0.007784829
1	0xbdda473e	-0.106581196
2	0xbee73589	-0.45158032
3	0x3e63ff02	0.22265247
4	0xbc4b6862	-0.0124150235
5	0xbecab5cb	-0.39591822
6	0xbe931517	-0.28727028
7	0xbe105e2f	-0.14098428
8	0xbed98fe8	-0.42492604
9	0xbf3d9887	-0.74060863
10	0x3db55883	0.08854773
11	0x3ead1384	0.33803952
12	0xbf8cb7ae	-1.0993555
13	0x3ee4f69d	0.447194
14	0x3e0a19fa	0.13486472
15	0xbf1963ee	-0.59918106
16	0xbdc28d8c	-0.09499654
17	0xbf2f4930	-0.6847105
18	0xbe789724	-0.24276406
19	0xbecef890	-0.40424013
20	0x3f6e8eff	0.93186945
21	0xbfa5500c	-1.2915053
22	0x3c174a91	0.009234087
23	0x3d80b329	0.06284172
24	0x3d40f96a	0.04711286
25	0xbb2f3224	-0.0026732767
26	0x3da3e11f	0.08001923
27	0x3d42f111	0.04759318
28	0xbdbe1e3d	-0.09283111
29	0xbeba28d0	-0.36359262
30	0xbe854d9e	-0.2603578
31	0xbde4e3d5	-0.11176268
32	0xbe0d3832	-0.13790968
33	0x3ec41989	0.38300732
34	0xbfae008a	-1.3593915
35	0x3eb5e501	0.3552628
36	0xbd78a055	-0.06069978
37	0xbe3190b9	-0.17340364
38	0x3e885736	0.26629037
39	0x3deb229d	0.11481211
40	0x3d1fc599	0.039006803
41	0x3f41726a	0.75565207
42	0xbf8feabd	-1.1243511
43	0x3f5013fb	0.8128049
44	0xbf16be5e	-0.5888423
45	0xbf2057e9	-0.6263414
46	0x3ea1e4c4	0.31619847
47	0xbec20618	-0.37895274
48	0xbe108a4c	-0.14115256
49	0xbf4a0d53	-0.7892658
50	0x3eca4902	0.39508826
51	0xbedfcc5c	-0.437106
52	0xbe7f6233	-0.24939804
53	0x3f8bb4ee	1.091459
54	0xbf05f6ba	-0.523296
55	0xbebb3717	-0.36565468
56	0xbf21efae	-0.6325635
57	0x3efd4979	0.49470118
58	0xbfae1513	-1.3600181
59	0x3dea3078	0.11435026
60	0xbeb818b4	-0.35956347
61	0x3e1fc305	0.15601738
62	0x3baaf5a0	0.005217269
63	0xbf9b1bb2	-1.2117827
64	0x3b255c00	0.0025231838
65	0x3fbc498c	1.4709945
66	0xbf11c882	-0.56946576
67	0xbeef9b3e	-0.46798128
68	0x3df39208	0.118930876
69	0xbf64225c	-0.8911493
70	0xbe3fa4ab	-0.1871516
71	0xbea211f8	-0.31654334
72	0x3ddf9f88	0.109191
73	0xbf4cff45	-0.8007701
74	0x3d9abb47	0.075552516
75	0xbf540dd8	-0.82833624
76	0x3f723b59	0.9462181
77	0xbe8d43c0	-0.27590752
78	0x3ddcb793	0.107772015
79	0x3dc3a27d	0.095524766
80	0xbe9e8e83	-0.30968103
81	0x3d0c733a	0.034289576
82	0xbe9183e2	-0.2842093
83	0xbe879085	-0.26477447
84	0xbc9c9295	-0.019112865
85	0x3db3ec16	0.08785264
86	0xbea2a717	-0.31768104
87	0xbedc4050	-0.43017817
88	0xbe47bde5	-0.19506033
89	0x3dde8eef	0.10867106
90	0xbf0b84fe	-0.54499805
91	0x3dc90c2b	0.09816774
92	0x3e087656	0.13326392
93	0xbd53dacc	-0.051722333
94	0xbe98f139	-0.29871538
95	0x3cbdc567	0.023165418
96	0xbf047500	-0.5174103
97	0xbddb4a91	-0.10707582
98	0x3e775028	0.24151671
99	0xbf005dfe	-0.5014342
100	0xbf000f1f	-0.5002307
101	0xbe260978	-0.1621455
102	0x3e498a13	0.19681577
103	0xbee8acef	-0.45444438
104	0xbf05da7c	-0.52286506
105	0xbe90ab35	-0.2825562
106	0xbeb4c538	-0.35306716
107	0x3ea1c23e	0.31593508
108	0x3e9bb73d	0.30413237
109	0xbeddf935	-0.43354192
110	0xbed86347	-0.42263243
111	0x3e949e49	0.29027012
112	0xbf44861a	-0.7676712
113	0xbf1bda73	-0.608802
114	0x3d4913ab	0.049091022
115	0xbedf2427	-0.4358227
116	0x3d925af9	0.07146258
117	0xbd87f9c0	-0.06639433
118	0x3f3d9154	0.7404988
119	0x3f1b21e6	0.605986
120	0x3e2c5235	0.16828234
121	0x3e062a79	0.1310214
122	0x3f02c771	0.51085573
123	0x3ec597a4	0.38592255
124	0xbf374819	-0.7159439
125	0x3d96da17	0.07365816
126	0x3e45b4d2	0.19307259
127	0x3ed6c0de	0.4194402
128	0x3e1fe808	0.15615857
129	0x3edf92ee	0.43666786
130	0xbfa6b5f2	-1.3024275
131	0xbf74e24e	-0.95657814
132	0x3d6c8189	0.05774072
133	0xbeddfa10	-0.43354845
134	0xbf53ed77	-0.8278422
135	0xbe6242d0	-0.220958
136	0xbe9fb6c5	-0.3119413
137	0xbddcb9ea	-0.10777648
138	0xbe675c4d	-0.22593804
139	0xbedac201	-0.42726138
140	0x3f03cc43	0.51483554
141	0x3d132e9b	0.03593312
142	0x3eef0b8f	0.46688506
143	0xbd389fba	-0.045074202
144	0xbea89999	-0.32929686
145	0xbe85faaa	-0.26167804
146	0xbb42eb06	-0.0029742136
147	0xbe7cbcf5	-0.24681456
148	0xbd114835	-0.035469253
149	0xbe2211d2	-0.1582711
150	0xbefeef39	-0.49791887
151	0x3eac66ab	0.3367208
152	0x3d08034b	0.033206265
153	0x3e19f370	0.1503427
154	0xbe283a3a	-0.16428462
155	0xbe4a92b5	-0.19782527
156	0xbe01545a	-0.12629834
157	0xbd143ff2	-0.036193796
158	0xbe2545ce	-0.1613991
159	0x3d81b2e6	0.0633295
160	0xbda7e105	-0.08197216
161	0xbea8907e	-0.3292274
162	0x3de66a29	0.11250717
163	0x3e82a868	0.2551911
164	0x3d9943bd	0.07483623
165	0xbf40f074	-0.753669
166	0x3e0948eb	0.13406722
167	0xbd8e197c	-0.069384545
168	0xbf3014ea	-0.6878191
169	0xbd2f947d	-0.04286622
170	0xbed281a4	-0.41114533
171	0x3d6a8b9d	0.05726205
172	0xbe065180	-0.13117027
173	0x3ef84dfe	0.48497003
174	0x3e63622b	0.22205417
175	0x3ef51fd9	0.4787586
176	0xbdd83ad7	-0.10558098
177	0xbf322a3c	-0.69595695
178	0x3ddf90a6	0.109162614
179	0xbf214f17	-0.63011307
180	0xbf14a70c	-0.58067393
181	0xbee26c14	-0.44223082
182	0xbeed3ddb	-0.46336254
183	0xbf2cc43e	-0.6748694
184	0xbf682ca8	-0.9069314
185	0xbf07504f	-0.52856916
186	0x3f2305aa	0.6368052
187	0xbf0d9ec8	-0.55320406
188	0xbc493f51	-0.012283162
189	0xbd05cb7d	-0.032664765
190	0xbef403a9	-0.47659042
191	0xbe4e4f9d	-0.20147558
192	0xbde431d9	-0.1114232
193	0x3bb708e3	0.005585776
194	0xbe657d57	-0.22411095
195	0x3f434afb	0.76286286
196	0x3ef5c7c6	0.48003978
197	0x3f059bc2	0.5219079
198	0xbef10785	-0.4707605
199	0xbefd4b91	-0.49471715
200	0x3e6c2b98	0.23063505
201	0x3e914aeb	0.2837747
202	0xbf15802e	-0.5839871
203	0xbeee409c	-0.46533668
204	0xbde474e4	-0.111551076
205	0xbec76915	-0.3894736
206	0xbe540049	-0.20703234
207	0xbe9917fa	-0.29901105
208	0xbea83397	-0.3285186
209	0xbede546c	-0.43423784
210	0xbed53845	-0.41644493
211	0xbdc3164d	-0.09525738
212	0x3ceb1e35	0.028700927
213	0xbe97613f	-0.2956638
214	0xbcc0e4e8	-0.023546651
215	0xbd45f3ba	-0.04832814
216	0x3d148fd2	0.03626997
217	0x3d4a65fa	0.04941366
218	0x3e03bd44	0.12865168
219	0xbed846ef	-0.42241618
220	0xbbb00cc6	-0.0053726165
221	0x3e8b2605	0.27177444
222	0x3c92e7be	0.017932769
223	0xbe9ff034	-0.31237948
224	0xbe887270	-0.2664981
225	0xbe2c87b5	-0.16848643
226	0xbef0660b	-0.46952853
227	0xbeb21479	-0.34781244
228	0x3ece7aef	0.40328166
229	0x3e857c1c	0.2607125
230	0xbe9699a8	-0.29414105
231	0x3d03d3f1	0.032184545
232	0x3e9b0101	0.30274203
233	0x3ebdcb48	0.37069154
234	0x3d923a3d	0.07140014
235	0x3e9ceee1	0.30651
236	0x3e6a6b08	0.22892392
237	0x3e9701de	0.29493612
238	0x3c4fc0e0	0.012680262
239	0x3cbbb631	0.022914024
240	0xbfae1e16	-1.3602931
241	0xbfcc45ef	-1.5958842
242	0x3edb013c	0.4277438
243	0xbf0b98a7	-0.54529804
244	0xbc14d605	-0.009084229
245	0xbe1f11f6	-0.15534195
246	0x3d2ca6d2	0.04215128
247	0xbee1e6fd	-0.44121543
248	0xbe5dfcc1	-0.21678449
249	0xbf1035bc	-0.5633199
250	0x3e9a8b99	0.3018463
251	0xbf349738	-0.7054324
252	0xbf07448e	-0.5283898
253	0x3ede3bd3	0.43405017
254	0xbf2494c2	-0.64289486
255	0x3f1e1ed0	0.61765766

linear1.bias f4 [256]
0	0xbeaf8cf2	-0.3428722
1	0x3eabdef1	0.33568528
2	0xbd83aa7c	-0.06429002
3	0xbea005f5	-0.31254545
4	0x3eecf698	0.46281886
5	0xbe7a497f	-0.24442099
6	0xbd83a988	-0.0642882
7	0xbe58490f	-0.2112162
8	0xbec7228a	-0.3889354
9	0xbf0f2f02	-0.55931103
10	0xbf36a2d0	-0.7134218
11	0xbc9fa9a2	-0.019490067
12	0xbf22463a	-0.6338841
13	0xbf0a3069	-0.5398012
14	0xbed0c1f5	-0.40772977
15	0xbf58fdc6	-0.8476223
16	0xbdf62a4e	-0.12019788
17	0xbf534e6a	-0.82541525
18	0x3ed41046	0.41418666
19	0xbe71be29	-0.23607697
20	0xbf460c63	-0.7736265
21	0x3f129462	0.57257664
22	0xbe2b0863	-0.16702418
23	0xbefbe097	-0.49194786
24	0x3e87ffa9	0.2656224
25	0xbe396ca8	-0.18107855
26	0xbe9bf071	-0.3045688
27	0xbe334dc6	-0.17510137
28	0xbf11b7a3	-0.5692083
29	0xbf1df43a	-0.61700785
30	0xbe6f536e	-0.2337167
31	0xbef74d2a	-0.4830106
32	0xbf26b42f	-0.6511869
33	0x3f58ad72	0.84639657
34	0xbe8e0210	-0.2773595
35	0xbe71003b	-0.23535244
36	0xbecdfb8b	-0.40230975
37	0xbf5fc2e5	-0.8740676
38	0xbf136d41	-0.57588583
39	0xbe0f2f0e	-0.13982794
40	0x3f28da24	0.65957856
41	0xbdec21c4	-0.11529878
42	0xbe64af63	-0.2233253
43	0xbec38132	-0.38184506
44	0xbe4b4a68	-0.19852602
45	0xbe956d11	-0.29184774
46	0xbf2373c1	-0.638485
47	0xbeb066ac	-0.34453332
48	0xbf99b4be	-1.2008283
49	0xbc4036b1	-0.011731789
50	0xbc6ef097	-0.014583728
51	0xbf81b90d	-1.0134598
52	0xbf2c2ebe	-0.6725882
53	0xbe90671b	-0.28203663
54	0x3f207188	0.62673235
55	0xbf103331	-0.5632811
56	0xbe9d103c	-0.30676448
57	0xbea2379a	-0.31683046
58	0xbe11ad80	-0.14226341
59	0xbed5d64e	-0.41765064
60	0xbdda27a6	-0.106520936
61	0xbecb8efb	-0.39757523
62	0xbe983921	-0.29731086
63	0xbf17f1de	-0.59353435
64	0xbea8182b	-0.3283094
65	0xbe2e9996	-0.17050776
66	0xbf41eab5	-0.7574876
67	0xbee05865	-0.4381744
68	0xbf2f1ef0	-0.6840658
69	0xbf2b893e	-0.6700629
70	0xbf3965ee	-0.7242116
71	0xbeb5c839	-0.3550432
72	0xbe926372	-0.28591496
73	0xbeace3a2	-0.3376742
74	0xbf3c2a41	-0.73501974
75	0x3d9c01c8	0.07617527
76	0xbf43de93	-0.76511496
77	0x3e487def	0.1957929
78	0xbf1e6596	-0.6187376
79	0xbebc61cb	-0.3679336
80	0xbe6bc6d5	-0.23025067
81	0xbec08e23	-0.37608442
82	0xbf4f83d1	-0.8106051
83	0xbe372dce	-0.17888567
84	0xbde5a336	-0.11212771
85	0xbdd915f4	-0.1059989
86	0xbf770b7f	-0.96501917
87	0xbe10e144	-0.14148432
88	0xbeea3741	-0.4574528
89	0xbf645339	-0.8918949
90	0xbef90599	-0.48637083
91	0xbeadbbd7	-0.33932373
92	0xbe9c0d09	-0.30478695
93	0xbebbc5f3	-0.3667446
94	0xbf8a7e0e	-1.0819719
95	0xbe002af0	-0.1251638
96	0xbe427217	-0.18988834
97	0xbea6774c	-0.3251289
98	0x3e49d1e7	0.19708978
99	0xbe11ee56	-0.14251074
100	0xbe5ae656	-0.21376929
101	0xbe98c93c	-0.2984103
102	0xbe39ee08	-0.18157208
103	0xbeb1c237	-0.34718487
104	0xbe1009fb	-0.14066307
105	0xbe95e361	-0.2927504
106	0xbf31cfe8	-0.69457865
107	0x3f24ff05	0.6445163
108	0xbf8a37bd	-1.079826
109	0xbe4c83f2	-0.19972208
110	0xbecbe31e	-0.39821714
111	0xbed4fa21	-0.41597083
112	0xbeee8d0a	-0.4659198
113	0xbed7de32	-0.4216171
114	0xbe9bb92a	-0.30414706
115	0xbf1b6211	-0.6069651
116	0x3ea073ed	0.31338444
117	0xbf02bcfd	-0.51069623
118	0xbe4bce55	-0.19902928
119	0x3f7a321f	0.9773273
120	0xbe8e3289	-0.2777293
121	0xbee59ed8	-0.4484775
122	0xbe8b35d7	-0.27189514
123	0xbf0d0fd5	-0.5510228
124	0xbe9560a3	-0.2917529
125	0xbe4bbe74	-0.19896871
126	0xbe24f12f	-0.16107629
127	0xbecc23b7	-0.39870998
128	0xbeadefff	-0.33972165
129	0xbf79d840	-0.97595596
130	0x3e3fdff3	0.18737774
131	0xbf188fbc	-0.5959432
132	0xbe903026	-0.28161734
133	0xbde7ab0c	-0.113119215
134	0x3e05740b	0.13032548
135	0xbe8e4012	-0.27783257
136	0xbee38db7	-0.44444057
137	0xbeb32db8	-0.34995818
138	0xbe8c97d1	-0.27459577
139	0xbf10e4f8	-0.5659938
140	0xbec0edd4	-0.37681448
141	0xbeb9fb2e	-0.36324447
142	0xbdbd972b	-0.092573486
143	0xbf84797b	-1.0349573
144	0xbeffaab2	-0.49934918
145	0xbd689987	-0.05678704
146	0xbe51ca4d	-0.20487328
147	0xbe9197d5	-0.2843615
148	0xbe992840	-0.2991352
149	0xbf033375	-0.5125039
150	0xbba760f0	-0.0051079914
151	0xbca05f00	-0.01957655
152	0xbeca5f89	-0.39526013
153	0xbedfddb1	-0.43723825
154	0xbe980cc4	-0.2969724
155	0xbe260f12	-0.16216686
156	0xbee8c318	-0.45461345
157	0x3ed42eb5	0.41441885
158	0xbe0e2617	-0.13881718
159	0xbf3b42f8	-0.7314906
160	0x3e7fc350	0.2497685
161	0xbe4464af	-0.19179033
162	0xbf05d95e	-0.522848
163	0xbf04acaf	-0.51825994
164	0xbf1d8a02	-0.6153871
165	0xbe73f58e	-0.2382414
166	0xbe4cb4ad	-0.19990797
167	0xbe92c86a	-0.2866853
168	0xbeefe192	-0.46851784
169	0xbead60ea	-0.33863002
170	0xbec6e843	-0.38849077
171	0xbe664243	-0.22486214
172	0xbebb3be7	-0.3656914
173	0xbeb34918	-0.35016704
174	0xbd7ea47e	-0.06216859
175	0xbe415775	-0.18881018
176	0xbf071968	-0.5277314
177	0xbf203594	-0.62581754
178	0xbf0bdd9c	-0.54635024
179	0x3ede6410	0.43435717
180	0xbebaa8d4	-0.3645693
181	0xbe6b14ad	-0.22957106
182	0xbf47c7cc	-0.7803924
183	0xbe476f89	-0.19476141
184	0xbeef9cfe	-0.46799463
185	0xbdd45184	-0.1036711
186	0xbf831036	-1.0239322
187	0xbef9c231	-0.4878097
188	0xbe6f3482	-0.23359874
189	0xbdb9f123	-0.09079196
190	0xbf0b365c	-0.5437982
191	0xbe68970e	-0.22713873
192	0xbe74c50f	-0.23903297
193	0xbf3b5250	-0.73172474
194	0xbea47b44	-0.32125294
195	0xbf19264c	-0.5982406
196	0xbe90cb05	-0.28279892
197	0xbebb5095	-0.36584917
198	0xbcd23b15	-0.025662938
199	0xbf0d557b	-0.5520856
200	0xbea3356b	-0.31876692
201	0xbe729f51	-0.23693587
202	0xbe3db10f	-0.18524574
203	0xbee9c519	-0.45658186
204	0xbdbdbbe8	-0.09264356
205	0xbec8b498	-0.39200282
206	0xbf180ccb	-0.5939452
207	0xbeb40edd	-0.3516759
208	0xbebd2021	-0.36938575
209	0xbe6e031d	-0.23243375
210	0xbe967b4d	-0.29390946
211	0xbf33f4cb	-0.702954
212	0x3f2a8785	0.66613036
213	0xbf0b29f6	-0.543609
214	0xbf0dfe36	-0.5546602
215	0xbe4f7094	-0.20257789
216	0xbd9249c7	-0.07142978
217	0xbeeb2a01	-0.45930484
218	0xbdcfbeae	-0.10143791
219	0xbe86b851	-0.26312497
220	0xbf2cce65	-0.67502433
221	0xbf225ccf	-0.63422865
222	0xbf2709e3	-0.6524946
223	0xbd82049a	-0.06348534
224	0xbf000609	-0.5000921
225	0xbe40e734	-0.18838197
226	0xbe9cadd2	-0.30601364
227	0xbf320268	-0.6953492
228	0xbdc5e9cd	-0.096637346
229	0xbe7953e8	-0.24348414
230	0x3de04340	0.10950327
231	0xbec7d8d4	-0.39032614
232	0xbee10504	-0.4394914
233	0x3d8ac8fa	0.067766145
234	0xbe020099	-0.1269554
235	0xbec38013	-0.3818365
236	0xbf05f930	-0.52333355
237	0x3f049593	0.5179073
238	0xbeff7738	-0.49895644
239	0xbe90a239	-0.28248766
240	0xbeddf54a	-0.43351203
241	0x3e325e5a	0.17418805
242	0xbe9aab01	-0.3020859
243	0xbd4b3ff6	-0.049621545
244	0x3d81b334	0.063330084
245	0xbe11d1c6	-0.14240178
246	0xbebede40	-0.37278938
247	0xbedb89d2	-0.42878586
248	0xb93369ce	-0.00017110186
249	0xbef7ae79	-0.483753
250	0xbe57c156	-0.21069846
251	0xbf073c61	-0.52826506
252	0x3e669371	0.22517182
253	0xbea551e6	-0.32289046
254	0xbeaa7e77	-0.3329961
255	0xbea270ec	-0.31726778

linear2.weight f4 [3, 256]
0	0xbdeeb137	-0.11654895
1	0x3e27ef4a	0.16399875
2	0x3bd170b9	0.0063916114
3	0xbe919d10	-0.28440142
4	0x3dd008ea	0.1015795
5	0x3f033d5c	0.512655
6	0xbe806679	-0.2507818
7	0x3d86d1bc	0.065829724
8	0x3ae452ea	0.001741973
9	0xbebbf4ae	-0.36710113
10	0xbee6dbcf	-0.45089576
11	0x3e32c6a0	0.17458582
12	0xbe6e0d5b	-0.23247282
13	0xbebc4ded	-0.36778203
14	0xbda8a9fe	-0.082355484
15	0xbede98db	-0.43475994
16	0xbdd10dd8	-0.102077186
17	0xbf44b4c4	-0.76838326
18	0x3e065ecb	0.13122098
19	0x3c86a73c	0.016437165
20	0xbd935070	-0.071930766
21	0x3e80c7c3	0.25152406
22	0xbe8fd010	-0.28088427
23	0xbe3b73cf	-0.18305896
24	0xbda304d6	-0.07959907
25	0x3e428f2b	0.18999927
26	0xbd630cfe	-0.055432312
27	0xbd476429	-0.048679505
28	0xbd4f8980	-0.05066824
29	0xbdea9988	-0.11455065
30	0x3b99649d	0.0046811835
31	0x3e7a8aa3	0.24466948
32	0x3c89e4ff	0.016832827
33	0x3e9c1cc5	0.304907
34	0x3d249bae	0.04018753
35	0xbe799183	-0.24371915
36	0xbe11de7f	-0.14245032
37	0xbf2abcae	-0.6669415
38	0x3f6c1115	0.92213565
39	0x3df37441	0.11887408
40	0x3ee321e6	0.443618
41	0xbe074231	-0.13208844
42	0x3ce33e11	0.027739557
43	0xbc011ed5	-0.007880886
44	0x3e8a3ea5	0.2700092
45	0xbcd7074f	-0.026248602
46	0xbe5c9a5f	-0.21543263
47	0xbd4d62cb	-0.050143044
48	0xbf8b89d2	-1.0901434
49	0x3d5e4f1f	0.054274675
50	0xbef06374	-0.46950877
51	0xbee3e90a	-0.44513732
52	0x3df43153	0.1192347
53	0xbf47c445	-0.7803386
54	0x3f5f88d1	0.8731814
55	0x3e0a8bef	0.13529943
56	0x3ce02544	0.02736152
57	0xbe489ea0	-0.1959176
58	0x3e11f33b	0.14252941
59	0xbed1fce2	-0.41013247
60	0xbf2f5e9f	-0.68503755
61	0xbe317a31	-0.17331769
62	0x3cca0fe7	0.024665786
63	0x3e2d57ef	0.16928075
64	0xbca38570	-0.019961089
65	0x3ae82fc7	0.0017714434
66	0xbe9a973f	-0.30193517
67	0xbe13aa5c	-0.14420456
68	0x3e0202c9	0.12696375
69	0xbe2f3720	-0.17110872
70	0xbe7a86b6	-0.2446545
71	0xbde81bcb	-0.11333426
72	0xbe36fb4f	-0.17869304
73	0xbd91ed63	-0.07125356
74	0x3dbd606e	0.09246908
75	0x3e8378d6	0.25678128
76	0x3f068939	0.52553135
77	0x3eb26b13	0.34847316
78	0xbe00ca92	-0.12577274
79	0xbd99aafe	-0.07503317
80	0xbed456d1	-0.41472486
81	0xbe73c085	-0.23803909
82	0xbdb5c94d	-0.08876286
83	0xbefa91a9	-0.48939255
84	0x3dcf516f	0.10122954
85	0xbf4fab64	-0.81120896
86	0xbdc5af46	-0.096525714
87	0x3eb7723c	0.3582934
88	0xbd77c343	-0.06048895
89	0xbf3227d2	-0.6959201
90	0x3e104a77	0.14090906
91	0xbda4f3e7	-0.08054333
92	0xbdc9486b	-0.09828266
93	0xbc90a089	-0.017654674
94	0xbf350a17	-0.7071852
95	0xbe71af55	-0.2360204
96	0xbdfaaefa	-0.122404054
97	0x3aa0852e	0.0012246722
98	0xbf1bee02	-0.60910046
99	0xbf58c669	-0.8467775
100	0xbcae0d16	-0.021246474
101	0xbe71505c	-0.23565811
102	0x3d3f7f5b	0.046752315
103	0x3dc1a69f	0.094556086
104	0xbd322d8c	-0.043500468
105	0x3d917402	0.07102205
106	0xbd8b6d7c	-0.06807992
107	0x3f1e7572	0.6189796
108	0xbed57527	-0.41690943
109	0xbc8e3a6d	-0.017361844
110	0xbd98fa8b	-0.07469662
111	0xbe366736	-0.1781281
112	0xbdc8cf97	-0.098052196
113	0x3efdd662	0.49577624
114	0x3d4b4481	0.049625877
115	0xbd790176	-0.06079241
116	0x3eb8f2a1	0.3612261
117	0x3bd9b57b	0.0066439486
118	0xbc30e388	-0.010796435
119	0x3f01d544	0.5071604
120	0xbc1b5641	-0.009481014
121	0xbe5d1791	-0.21591021
122	0xbca38b1e	-0.019963797
123	0x3c674117	0.01411464
124	0xbc8712dc	-0.016488485
125	0x3c21344a	0.009839127
126	0xbbb97f24	-0.0056609083
127	0x3c346fad	0.011012954
128	0xbc0d99ac	-0.008642595
129	0xbf40b13b	-0.7527043
130	0x3ee2777b	0.4423178
131	0xbebb5a9d	-0.3659257
132	0xbdb00b83	-0.08595946
133	0xbc1964a5	-0.009362374
134	0x3e0c1280	0.13678932
135	0xbe442ccd	-0.19157715
136	0x3b143441	0.0022614154
137	0xbc87ab23	-0.016561097
138	0xbe9b545a	-0.30337793
139	0xbe32caf9	-0.1746024
140	0xbe697d72	-0.2280176
141	0xbc95db58	-0.018293068
142	0x3b3fb524	0.0029252255
143	0xbe9d0954	-0.3067118
144	0xbd0faec0	-0.035078764
145	0xbc8b1791	-0.01697901
146	0x3d7e70bb	0.062119227
147	0xbf55a0fe	-0.8344878
148	0x3da73fac	0.08166441
149	0xbd986c3b	-0.07442518
150	0xbdb40e73	-0.087918185
151	0xbca90ce8	-0.020636037
152	0xbd88a3ab	-0.06671842
153	0xbe466cf1	-0.19377495
154	0xbea96c6e	-0.33090538
155	0xbc8ffd5a	-0.017576862
156	0xbe709863	-0.23495631
157	0x3f01ca08	0.506989
158	0x3bd69847	0.0065489146
159	0xbd811cb4	-0.06304303
160	0x3e917a05	0.28413406
161	0x3ddc76bb	0.107648335
162	0x3d8c34f3	0.06846037
163	0x3ebe3989	0.3715327
164	0x3e5bb145	0.21454342
165	0x3cbccd54	0.023047127
166	0xbedf0bbf	-0.4356365
167	0xbd923b42	-0.07140209
168	0xbd266a37	-0.040628638
169	0xbd83bd7f	-0.06432628
170	0x3b8767c8	0.0041322447
171	0xbca41809	-0.020030992
172	0x3d811d7a	0.0630445
173	0xbde65b81	-0.11247922
174	0xbb3f6bd0	-0.0029208548
175	0x3ebcb2b3	0.36855087
176	0x3cd34e9a	0.025794316
177	0xbdaf626a	-0.08563693
178	0x3cd30d27	0.025763107
179	0x3e803baf	0.25045535
180	0xbd2fe945	-0.042947073
181	0x3b6607c0	0.0035099834
182	0xbbaf31a4	-0.005346494
183	0xbe1c71bc	-0.15277761
184	0xbd322282	-0.04348994
185	0x3cc55aeb	0.024091205
186	0xbf37f694	-0.71860623
187	0xbf897640	-1.0739212
188	0xbf31b8ac	-0.6942241
189	0xbe9275ef	-0.286056
190	0xbd74195b	-0.059594493
191	0x3c8d033d	0.017213458
192	0xbed09773	-0.40740547
193	0x3e06c3fe	0.13160703
194	0xbd7b35f7	-0.06133076
195	0xbf0ff2eb	-0.5623004
196	0xbe2cd943	-0.16879754
197	0xbd2ee783	-0.042701256
198	0x3ca61808	0.02027513
199	0xbe960139	-0.29297808
200	0xbd7894db	-0.060688835
201	0x3c5db4ae	0.013531847
202	0xbd4029a9	-0.04691473
203	0x3a8df637	0.0010830824
204	0xbd2af9c3	-0.041742098
205	0xbd4657c7	-0.048423555
206	0xbd9a60dd	-0.075380065
207	0xbc0fa7f9	-0.008768075
208	0xbda1f512	-0.079080716
209	0xbec17f2b	-0.37792334
210	0xbea03a38	-0.31294417
211	0xbe198dd4	-0.1499551
212	0x3ec174ef	0.37784526
213	0x3b343a6d	0.0027500645
214	0x3d67ff08	0.0566397
215	0x3c8de678	0.01732181
216	0x3c97cdf6	0.018530827
217	0x3df6c003	0.12048342
218	0x3ee7bcf0	0.45261335
219	0xbe39003d	-0.18066497
220	0xbe810664	-0.25200188
221	0xbf0c3fa9	-0.5478464
222	0x3ed9b675	0.42522016
223	0x3eb28462	0.34866625
224	0xbeb2f50f	-0.3495259
225	0xbdd883ae	-0.10571991
226	0xbcfbd08e	-0.030739095
227	0x3e699fc6	0.22814855
228	0x3c73196a	0.014837602
229	0x3d698786	0.05701401
230	0x3eeeb85d	0.46625033
231	0x3cdbefaf	0.026847688
232	0x3cb4aeda	0.022056032
233	0xbe1f1634	-0.15535814
234	0xbd84504e	-0.064606294
235	0xbe90152d	-0.28141156
236	0xbd6af55e	-0.057362907
237	0x3f2917ca	0.66051924
238	0xbea0f491	-0.3143659
239	0x3d105470	0.035236776
240	0x3e9021f8	0.28150916
241	0x3eaba386	0.33523196
242	0xbdf5f21a	-0.12009068
243	0xbf65f907	-0.8983311
244	0x3d23832b	0.039920013
245	0x3c63f059	0.013912284
246	0x3db8be99	0.090207286
247	0x3e3e58f7	0.18588625
248	0x3b96de09	0.0046041054
249	0xbd3f059e	-0.046636216
250	0xbdd305df	-0.10303854
251	0xbd9823c5	-0.074286975
252	0x3e84b84b	0.25921854
253	0xbefe4537	-0.49662182
254	0xbf4a092c	-0.78920245
255	0xbe7e0438	-0.24806297

linear2.bias f4 [3]
0	0x3efd211e	0.4943933
1	0xbe2547dd	-0.16140695
2	0xbd84182c	-0.06449923
