DDQN_models/model1-snapshot-score-18.pth (torch, 17221 bytes, 4 tensors)

linear1.weight f4 [256, 11]
0	0xbec051d3	-0.37562427
1	0xbe024a7c	-0.12723726
2	0xbcf6f450	-0.030145794
3	0x3e38a31a	0.18030968
4	0x3e23d68e	0.15999815
5	0xbe74283c	-0.23843473
6	0xbdeb3c0b	-0.11486062
7	0x3c872143	0.016495353
8	0xbf1bfa52	-0.60928833
9	0xbf0dd2f1	-0.55399996
10	0x3e4d3c74	0.20042592
11	0x3e7ba557	0.24574791
12	0xbec3a19d	-0.3820924
13	0x3e94401d	0.28955165
14	0xbea0709a	-0.31335908
15	0xbea6389f	-0.32465073
16	0xbe98475b	-0.2974194
17	0xbed202d3	-0.4101778
18	0xbee3ef4b	-0.44518504
19	0xbefc2768	-0.49248815
20	0x3ddd7d0e	0.10814868
21	0xbf042fe4	-0.51635575
22	0xbea34c36	-0.31894082
23	0x3dac46db	0.08411952
24	0xbe7ccb3b	-0.24686901
25	0xbec3e6ed	-0.3826212
26	0x3c97ec9d	0.018545443
27	0x3e8c812f	0.2744231
28	0xbe1e0336	-0.15430912
29	0xbe0c0c5e	-0.13676593
30	0x3ea92443	0.33035478
31	0x3ea5179e	0.3224458
32	0x3ed7012f	0.4199309
33	0x3e6cac5f	0.2311263
34	0xbf5bc09d	-0.8584078
35	0xbf197048	-0.5993695
36	0xbe2addd2	-0.1668618
37	0xbe3dd033	-0.18536453
38	0xbe83f78d	-0.25774804
39	0x3dd2a32f	0.10285031
40	0xbef856d1	-0.48503736
41	0x3f39e564	0.7261565
42	0xbe16c8e5	-0.14725073
43	0x3f4f1fe8	0.8090806
44	0xbed90d9a	-0.4239319
45	0xbed0ffcd	-0.4082016
46	0xbc261c0b	-0.010138522
47	0x3d88e7a7	0.06684809
48	0xbe029f8a	-0.12756172
49	0xbefdd6c4	-0.49577916
50	0x3ed13d57	0.4086711
51	0xbe131050	-0.14361691
52	0x3eb57e38	0.3544786
53	0x3f2d2a89	0.6764303
54	0xbf06397f	-0.5243148
55	0x3e1790e9	0.14801373
56	0xbf05dd83	-0.52291125
57	0x3e2b2544	0.16713434
58	0xbe9d66b3	-0.30742416
59	0xbe4fdd77	-0.20299326
60	0xbe94acef	-0.29038188
61	0xbe253255	-0.16132481
62	0x3d985b38	0.074392736
63	0xbf1ddae5	-0.6166213
64	0xbe85291e	-0.26007932
65	0x3e9c7dcf	0.30564734
66	0xbec0c463	-0.3764983
67	0xbec7610e	-0.38941234
68	0xbe7f3b28	-0.2492491
69	0xbf34693a	-0.70473063
70	0xbe486def	-0.19573186
71	0x3e42b804	0.19015509
72	0x3dce0d98	0.100611866
73	0xbe969121	-0.294076
74	0xbe51ac30	-0.2047584
75	0xbe80df72	-0.25170475
76	0x3ef19777	0.4718587
77	0x3deedfc7	0.11663776
78	0x3d1142a9	0.035463963
79	0x3e11e1e2	0.14246324
80	0xbe49ef48	-0.19720185
81	0x3e1e885e	0.15481707
82	0xbe82a375	-0.25515333
83	0xbe13b5ac	-0.14424771
84	0x3c22e999	0.009943389
85	0xbdf75f4f	-0.120787255
86	0xbd8fad1f	-0.07015442
87	0xbee87837	-0.45404217
88	0xbe6937cb	-0.2277519
89	0x3de11a9f	0.10991406
90	0xbcdefd02	-0.027220253
91	0x3d210265	0.039308924
92	0x3e8c6959	0.27424124
93	0xbc5a970d	-0.013341677
94	0xbe218507	-0.15773402
95	0x3d7c18ec	0.061547205
96	0xbf3492a4	-0.70536256
97	0xbef24a59	-0.47322348
98	0x3e59d328	0.21271956
99	0xbf1b08fa	-0.6056057
100	0xbec2a8b7	-0.38019344
101	0x3d3e1463	0.04640616
102	0x3eadf33d	0.3397464
103	0xbde5ae7f	-0.11214923
104	0xbef77c85	-0.48337188
105	0x3d74b167	0.059739497
106	0xbea08cb0	-0.31357336
107	0x3dc443e5	0.09583262
108	0x3f046aca	0.5172545
109	0xbe9981b4	-0.29981768
110	0x3eaa6bfd	0.33285514
111	0xbec8ddc8	-0.39231706
112	0xbf773f3b	-0.9658086
113	0xbeaa73e4	-0.33291543
114	0xbd77a925	-0.060464043
115	0xbf050c75	-0.5197213
116	0xbd1c0665	-0.038092036
117	0xbe19e6d4	-0.1502946
118	0x3f46d86e	0.77673995
119	0x3cf99a58	0.030469105
120	0x3dd67f7f	0.10473537
121	0x3e9ff9aa	0.31245166
122	0x3ed35813	0.41278133
123	0x3f41c207	0.7568669
124	0x3f15e1b3	0.58547515
125	0xbeb1be39	-0.3471544
126	0xbd50b03b	-0.050949316
127	0xbab392c6	-0.0013700358
128	0xbdb3f108	-0.087862074
129	0x3cc687b8	0.024234638
130	0xbef89b21	-0.48555854
131	0xbf2b5071	-0.6691962
132	0x3d499fc2	0.049224623
133	0xbf0d5004	-0.5520022
134	0xbf35b9fe	-0.70986927
135	0xbeec4a34	-0.46150362
136	0x3e207239	0.15668572
137	0x3d9b19f3	0.07573309
138	0x3e78829b	0.24268572
139	0xbe7999f2	-0.24375132
140	0x3f54943f	0.83038706
141	0xbe950cf5	-0.29111448
142	0x3dbfedfb	0.09371563
143	0x3dc1a1d1	0.09454692
144	0xbd0993ad	-0.0335881
145	0xbeebd390	-0.46059847
146	0xbda594b9	-0.08085007
147	0xbd904556	-0.07044475
148	0xbd096140	-0.03354001
149	0x3c9443a8	0.018098667
150	0xbefdf2a9	-0.49599198
151	0x3e3a072c	0.18166798
152	0xbe8277f0	-0.2548213
153	0x3eae2132	0.340097
154	0xbdaec785	-0.08534149
155	0xbd9f88d3	-0.07789769
156	0xbdd8bbf8	-0.10582727
157	0xbd320f7d	-0.043471802
158	0xbe1880cf	-0.14892887
159	0x3d0b03a8	0.033939034
160	0xbd8e561d	-0.069500186
161	0xbeb79d43	-0.3586217
162	0x3dca90a1	0.09890867
163	0x3e3c0bd4	0.18363887
164	0x3cd27294	0.0256894
165	0xbeac0552	-0.3359781
166	0xbd307097	-0.043076124
167	0xbf054484	-0.5205767
168	0xbefd1da5	-0.4943668
169	0xbd644687	-0.055731323
170	0xbee1fe19	-0.44139174
171	0x3d35d9fe	0.044397347
172	0xbe254d07	-0.16142665
173	0x3e398c40	0.18119907
174	0x3dd899fb	0.105762444
175	0x3c8e2247	0.01735033
176	0x3d931704	0.07182124
177	0xbf0cca48	-0.54996157
178	0xbdce7321	-0.10080553
179	0xbf730af7	-0.94938606
180	0xbeea43d4	-0.45754874
181	0x3db9f3de	0.09079717
182	0xbeae33e0	-0.34023952
183	0xbe113f40	-0.14184284
184	0x3dd52764	0.10407904
185	0xbf3e30ec	-0.742934
186	0x3f8669bf	1.0501021
187	0x3ceb2009	0.028701799
188	0xbb0afe64	-0.0021208758
189	0xbe60fe67	-0.21972047
190	0xbf50d5b7	-0.815761
191	0xbdbdbb01	-0.09264184
192	0x3d9a7391	0.07541574
193	0x3dea5383	0.1144171
194	0xbd18a697	-0.037268247
195	0x3ed69153	0.4190775
196	0x3dea146f	0.11429679
197	0x3e902359	0.28151968
198	0xbe31991d	-0.17343564
199	0xbcaa8101	-0.020813467
200	0xbeef7677	-0.4677007
201	0xbd6b959f	-0.057515737
202	0xbe5b78f0	-0.21432853
203	0xbe5a3337	-0.213086
204	0x3e8427db	0.25811657
205	0xbe0c859d	-0.13722844
206	0xbee9ebc6	-0.45687693
207	0xbe8d9e3a	-0.2765978
208	0xbed9794a	-0.4247535
209	0xbee7ca95	-0.45271745
210	0xbe5b7c77	-0.21434198
211	0x3eb3e907	0.35138723
212	0x3ee37d92	0.4443174
213	0xbf32f1c9	-0.69900185
214	0xbef70431	-0.48245385
215	0xbee740d6	-0.45166653
216	0xbed8643b	-0.4226397
217	0xbeb8c10a	-0.36084777
218	0xbeae91d9	-0.34095648
219	0x3df55274	0.11978617
220	0xbe5f01a8	-0.21777976
221	0x3da414a7	0.080117516
222	0x3e6f6926	0.23379955
223	0xbe82dc2a	-0.25558597
224	0x3d7f9951	0.062402073
225	0xbddc5aef	-0.10759532
226	0xbe100174	-0.14063054
227	0xbe92e7cb	-0.2869247
228	0x3eb411fc	0.3516997
229	0xbeac07a4	-0.3359958
230	0xbd21293e	-0.039345972
231	0xbd76da85	-0.06026699
232	0xbe28bb75	-0.16477759
233	0x3d5f219c	0.05447541
234	0x3d15ca11	0.03656966
235	0xbe0c8582	-0.13722804
236	0x3c8de05f	0.017318903
237	0xbe185fce	-0.14880297
238	0xbe4bb1ed	-0.19892092
239	0x3d08f6ab	0.033438366
240	0xbf3cf349	-0.73808724
241	0xbf17e726	-0.5933708
242	0x3eae6865	0.34064022
243	0xbdffa409	-0.12482459
244	0xbdc9473d	-0.09828041
245	0xbdcba9e7	-0.09944516
246	0xbe3111cf	-0.1729195
247	0xbdcee418	-0.10102099
248	0xbedd1bbb	-0.4318522
249	0xbe647b59	-0.22312678
250	0xbeb38610	-0.3506322
251	0xbebf0f45	-0.37316337
252	0xbed63f82	-0.41845328
253	0xbe4f5105	-0.2024575
254	0x3c6c469c	0.014421131
255	0x3d71f618	0.059072584

linear1.bias f4 [256]
0	0xbedd4031	-0.43213037
1	0x3d863bb5	0.06554357
2	0xbf229c2d	-0.63519555
3	0xbdf28823	-0.11842372
4	0xbe04f8ec	-0.12985581
5	0xbf082d2d	-0.5319393
6	0xbe892951	-0.26789334
7	0xbe339075	-0.17535575
8	0xbef0ad3a	-0.4700716
9	0xbdee4155	-0.11633555
10	0xbe4b05d9	-0.1982645
11	0x3d27fffe	0.041015618
12	0xbed5ee18	-0.41783214
13	0xbf202b23	-0.6256582
14	0xbe8cb85e	-0.2748441
15	0xbe871cbe	-0.26389116
16	0xbe339f8f	-0.17541336
17	0xbf6035bf	-0.8758201
18	0xbd22d835	-0.039756972
19	0x3e512c4e	0.20427057
20	0xbf236c05	-0.638367
21	0xbdbfb1f9	-0.093601175
22	0xbd2436ec	-0.04009144
23	0xbee1f25e	-0.44130224
24	0xbe821cc5	-0.25412574
25	0xbeaec2e9	-0.3413308
26	0x3d3db2b9	0.04631302
27	0x3cd22162	0.025650684
28	0xbefc4857	-0.4927394
29	0xbe236118	-0.15955007
30	0xbe3db998	-0.1852783
31	0xbf132464	-0.574774
32	0xbefb4aa8	-0.49080396
33	0x3cf24e12	0.029578242
34	0xbeaf4762	-0.34234148
35	0xbe5ce4f8	-0.2157172
36	0xbee58a77	-0.44832203
37	0xbf2e1a76	-0.68009126
38	0xbeca3ee6	-0.39501113
39	0xbe89e9f7	-0.26936314
40	0x3e8dbe88	0.27684426
41	0x3df89bdf	0.12139105
42	0xbe5e70d7	-0.21722732
43	0xbebca2bd	-0.3684291
44	0xbef15c1d	-0.4714059
45	0xbebb79dd	-0.36616412
46	0xbea263bd	-0.3171672
47	0xbe93b000	-0.28845215
48	0xbf7ed37b	-0.99541444
49	0x3df8d96b	0.12150844
50	0x3bfa33b2	0.007635557
51	0xbe2494db	-0.16072409
52	0xbe98bb78	-0.29830527
53	0xbea07046	-0.31335658
54	0x3ecb8c28	0.39755368
55	0xbf02d3c5	-0.51104385
56	0xbf306196	-0.68898904
57	0x3d4e0a3f	0.05030274
58	0xbeeeb8ac	-0.46625268
59	0xbf06ec2e	-0.5270413
60	0xbe9f2128	-0.31079984
61	0xbece6698	-0.40312648
62	0xbe4715d5	-0.19441922
63	0xbf141ce5	-0.5785659
64	0xbe405981	-0.18784143
65	0xbe4bad29	-0.19890274
66	0xbefff693	-0.4999281
67	0xbe9bf33c	-0.3045901
68	0x3e7d4e46	0.2473689
69	0xbec4c195	-0.3842894
70	0xbee47314	-0.44619048
71	0xbecde957	-0.40217087
72	0xbf02ddea	-0.51119864
73	0xbe60528a	-0.21906486
74	0xbeb7dfbf	-0.35912892
75	0xbda43df5	-0.0801963
76	0xbf13cb85	-0.5773242
77	0x3eee1942	0.46503645
78	0xbe96bb7f	-0.29439923
79	0xbdb2e94c	-0.08735904
80	0xbdc52dd5	-0.096278824
81	0xbe561d08	-0.20909512
82	0xbed217d0	-0.41033792
83	0xbdbf1ebd	-0.09332035
84	0xbde06dc6	-0.109584376
85	0xbea47aac	-0.3212484
86	0xbf16806d	-0.5878971
87	0xbd76b8e9	-0.060234938
88	0xbe462aa6	-0.19352207
89	0xbded45d1	-0.11585582
90	0xbea97c94	-0.33102858
91	0xbed0fd77	-0.40818378
92	0xbf0b2e9d	-0.54368
93	0x3eece059	0.46264914
94	0xbf623b46	-0.88371694
95	0xbdabd9bb	-0.08391138
96	0xbda8656a	-0.08222468
97	0xbe707345	-0.23481472
98	0xbe3d7143	-0.18500237
99	0xbe5b5622	-0.21419576
100	0xbeee53c8	-0.46548295
101	0xbeaea310	-0.34108782
102	0xbec1a7fe	-0.3782348
103	0xbecfa85a	-0.4055813
104	0xbeb9e3a3	-0.36306486
105	0xbee77823	-0.45208845
106	0xbee9619f	-0.4558229
107	0xbeaa406b	-0.33252272
108	0xbf1f7c69	-0.6229921
109	0xbe532381	-0.20619012
110	0xbedbc974	-0.42927134
111	0xbeea1a8f	-0.45723388
112	0xbe5e95d4	-0.21736842
113	0x3de05a03	0.109546684
114	0xbeab8bda	-0.33505136
115	0xbf14db31	-0.5814696
116	0xbe6ff901	-0.23434831
117	0x3da8cfa2	0.08242728
118	0xbe6895b9	-0.22713365
119	0x3f0f1344	0.5588877
120	0xbc74fe9f	-0.0149532845
121	0xbe294d8c	-0.16533488
122	0xbe6b03e4	-0.22950703
123	0xbebbfff7	-0.36718723
124	0xbe9560a3	-0.2917529
125	0x3e607da3	0.21922927
126	0xbe0f041e	-0.13966414
127	0xbe4221a6	-0.18958148
128	0x3d071c91	0.032986227
129	0xbedff051	-0.43738034
130	0x3eac6681	0.33671954
131	0xbe5c9bd6	-0.21543822
132	0x3d184b23	0.03718103
133	0xbe2df37d	-0.16987415
134	0xbf02e919	-0.5113693
135	0xbe9aa352	-0.3020273
136	0xbea52f0f	-0.32262465
137	0xbf0a685c	-0.5406549
138	0xbecd721e	-0.40126127
139	0xbe807626	-0.2509014
140	0xbf05ad6a	-0.52217734
141	0xbf1fa653	-0.62363166
142	0xbe5131df	-0.2042918
143	0xbf7050cf	-0.93873304
144	0xbdf1c1f3	-0.11804571
145	0xbe249a85	-0.1607457
146	0xbe2a59f5	-0.16635878
147	0xbf150bd7	-0.5822119
148	0xbeca4da6	-0.39512366
149	0xbf1d6786	-0.6148609
150	0xbe174d2c	-0.14775532
151	0xbca05f00	-0.01957655
152	0xbe900e1e	-0.2813577
153	0xbea66aa3	-0.32503232
154	0xbee06703	-0.43828592
155	0xbe9be90b	-0.30451235
156	0xbe6b0fab	-0.22955196
157	0x3ee1c079	0.44092157
158	0xbe152b14	-0.14567214
159	0xbe430437	-0.19044577
160	0xbea6fc79	-0.32614496
161	0xbee8ab6a	-0.4544328
162	0x3ed95d7b	0.42454132
163	0xbf099557	-0.537435
164	0xbec6b8e5	-0.38812938
165	0xbe73f58e	-0.2382414
166	0xbeb0869f	-0.34477708
167	0xbf054099	-0.52051693
168	0xbf1ca696	-0.6119169
169	0x3e27f577	0.16402231
170	0xbece9225	-0.40345874
171	0xbe7f15a8	-0.24910605
172	0x3e01343d	0.12617584
173	0x3d81c81e	0.063369974
174	0xbce02cd3	-0.027365124
175	0xbdd686aa	-0.10474904
176	0xbecf650a	-0.40506774
177	0xbdb05ec4	-0.08611825
178	0xbe136a94	-0.14396125
179	0xbe9adf13	-0.30248317
180	0xbea22efd	-0.31676474
181	0xbe6b14ad	-0.22957106
182	0xbef8e4cf	-0.48612067
183	0xbea3bb63	-0.31978902
184	0xbef8bd2d	-0.4858183
185	0xbec7f7ff	-0.39056394
186	0xbf661304	-0.89872766
187	0xbf214eab	-0.6301066
188	0xbeae3572	-0.3402515
189	0xbd56ed47	-0.05247238
190	0x3efeaab8	0.49739623
191	0xbe729119	-0.23688163
192	0xbe3f53ba	-0.18684283
193	0xbe4d7f87	-0.20068179
194	0xbe913a45	-0.2836477
195	0xbe221b63	-0.1583076
196	0xbe71d495	-0.2361625
197	0xbde87a82	-0.113514915
198	0xbe97b22a	-0.29628116
199	0xbf0b40f7	-0.54396003
200	0xbdfeba53	-0.12437882
201	0xbdc86054	-0.09783998
202	0xbe607d9c	-0.21922916
203	0xbede8dd4	-0.4346758
204	0x3e1f8eb4	0.1558178
205	0xbefd8b17	-0.4952018
206	0xbf0517a1	-0.5198918
207	0xbeba65f2	-0.36405903
208	0xbe87679f	-0.26446244
209	0xbe528ba3	-0.2056108
210	0x3e12b65e	0.1432738
211	0xbf000447	-0.50006527
212	0x3f28bf8a	0.65917265
213	0xbe75acff	-0.23991774
214	0xbe9b5ee1	-0.30345824
215	0xbe5928fc	-0.2120704
216	0xbe9b9c85	-0.30392852
217	0xbe9d21c9	-0.3068984
218	0xbef3b1f0	-0.47596693
219	0xbe96c95c	-0.294505
220	0xbec3ca5b	-0.38240322
221	0xbedf2899	-0.4358566
222	0xbf10f554	-0.5662434
223	0xbea9100a	-0.3302005
224	0xbe8c367a	-0.27385312
225	0xbec04c77	-0.37558338
226	0xbe9eac19	-0.30990675
227	0xbdf2fe84	-0.11864951
228	0xbe10718e	-0.14105818
229	0xbe7953e8	-0.24348414
230	0xbe20e24a	-0.15711322
231	0xbea10a93	-0.3145338
232	0xbe9dbc45	-0.308077
233	0xbebf9b34	-0.37423098
234	0xbdf86a89	-0.12129695
235	0xbf017ecd	-0.5058411
236	0xbeed6e40	-0.46373177
237	0x3d289eef	0.041167196
238	0xbe609f1d	-0.21935697
239	0xbe908dcb	-0.2823318
240	0xbe9883eb	-0.29788145
241	0xbeb62dd4	-0.3558184
242	0xbda1a246	-0.07892279
243	0xbe9792a6	-0.2960407
244	0xbe51f08c	-0.20501918
245	0x3c701e67	0.014655686
246	0xbd6381b2	-0.05554361
247	0xbe0fc7bf	-0.14041041
248	0x3ea5059f	0.3223085
249	0xbeb892af	-0.3604941
250	0xbe956bce	-0.2918381
251	0xbdea44ad	-0.1143888
252	0xbe4110d1	-0.18854071
253	0xbf1b5345	-0.60673934
254	0xbee7d5e8	-0.45280385
255	0xbf0db86b	-0.55359524

linear2.weight f4 [3, 256]
0	0x3e8a7d35	0.2704865
1	0x3e40b79b	0.1882004
2	0xbf3d1ff1	-0.73876864
3	0xbee93327	-0.4554684
4	0xbdeedee7	-0.11663609
5	0xbc05844a	-0.008149216
6	0x3c0f01a3	0.008728418
7	0xbc4fdb15	-0.012686511
8	0xbcca8ecd	-0.024726296
9	0xbec44be6	-0.38339156
10	0xbe986294	-0.2976271
11	0x3e86cb8d	0.26327172
12	0xbf2c51d0	-0.67312336
13	0xbec65676	-0.3873784
14	0xbc56ab14	-0.013102312
15	0xbeb7aff8	-0.3587644
16	0xbe2c939f	-0.16853188
17	0xbf1ad189	-0.60475975
18	0x3d40c6b7	0.04706451
19	0xbf3fe0ee	-0.7495259
20	0x3e0d67b9	0.13809098
21	0xbd2eba5c	-0.042658195
22	0x3dd1d235	0.10245172
23	0x3cde316c	0.027123176
24	0x3dfa874b	0.12232836
25	0xbdc1d99c	-0.09465334
26	0x3d036b96	0.032085024
27	0xbf0fd4cf	-0.56184095
28	0x3e3ecd3c	0.18632978
29	0x3de2a267	0.11066132
30	0x3d76abf2	0.060222574
31	0x3d104c00	0.03522873
32	0x3e1b593d	0.1517076
33	0x3cb8ac81	0.022543194
34	0xbe3956ca	-0.18099514
35	0xbe5a9467	-0.21345674
36	0xbe03f158	-0.12885034
37	0x3f16488d	0.58704454
38	0x3c8ae91f	0.016956864
39	0xbd60f837	-0.054924216
40	0x3eb5da30	0.35518026
41	0x3bfd3982	0.0077278027
42	0x3a6594e8	0.00087578455
43	0xbcc51871	-0.024059506
44	0xbbbd9cf5	-0.005786533
45	0xbd1f0a94	-0.038828447
46	0xbdd55425	-0.1041644
47	0xbe12afac	-0.14324826
48	0xbf9db931	-1.2322141
49	0x3e500be7	0.2031704
50	0xbedfab7f	-0.4368553
51	0xba53479b	-0.0008059681
52	0x3e4d4834	0.20047075
53	0xbe97b43d	-0.29629698
54	0x3f1b2d5a	0.60616076
55	0x3995b119	0.00028551443
56	0x3df2b51d	0.11850951
57	0x3e8ed0ee	0.27893776
58	0xbe786627	-0.24257718
59	0xbd90c1b1	-0.07068194
60	0x3b77e0a4	0.0037823105
61	0xbdcdc57c	-0.10047433
62	0xbe604364	-0.21900707
63	0xbf127255	-0.57205707
64	0xbbf03a17	-0.0073311436
65	0x3cf53d94	0.02993659
66	0xbd413169	-0.04716626
67	0x3cb82ec4	0.022483237
68	0xbf1703c9	-0.5899015
69	0xbebfa980	-0.37434006
70	0xbe82fd28	-0.25583768
71	0xbe31ea6e	-0.17374584
72	0x3ab52b30	0.0013822075
73	0x3efe24d0	0.4963746
74	0x3bf697d6	0.0075254245
75	0x3bb27127	0.0054456177
76	0xbdac1610	-0.084026456
77	0x3ef74c7c	0.4830054
78	0x3e4e5419	0.20149268
79	0x3ed63041	0.4183369
80	0x3c848270	0.016175479
81	0xbe60b0e3	-0.21942477
82	0xbea21480	-0.31656265
83	0x3ddda19a	0.10821839
84	0x3bcdd22d	0.0062811584
85	0x3c4d0566	0.012513494
86	0xbe493923	-0.19650702
87	0x3e9afe6f	0.30272242
88	0xbd7ccc49	-0.06171826
89	0x3db4f7b1	0.08836306
90	0xbd27bb84	-0.040950313
91	0x3e2d84ac	0.16945142
92	0x3ab1105b	0.0013508903
93	0x3eb0951b	0.34488758
94	0xbf36e364	-0.7144072
95	0xbec319bf	-0.3810558
96	0xbf38aafb	-0.72135895
97	0xbdb7289c	-0.089432925
98	0x3d7ae56f	0.06125396
99	0x3d484246	0.04889133
100	0xbcfb43b1	-0.030671926
101	0xbf98a78a	-1.1926129
102	0xbd9acc59	-0.075585075
103	0xbe3cb6a0	-0.18429041
104	0x3e2455e3	0.16048388
105	0xbdd10103	-0.10205271
106	0xbb9640b4	-0.00458535
107	0xbe36f401	-0.17866518
108	0xbf12d54c	-0.57356715
109	0xbc74d0ca	-0.014942357
110	0x3f193a12	0.59854233
111	0x3cc95571	0.024576874
112	0xbe7978b8	-0.24362457
113	0xbde9a91d	-0.11409209
114	0x3c9a0a28	0.018803671
115	0xbf04cf3c	-0.51878715
116	0x3d800f83	0.062529586
117	0xbcef406e	-0.029205527
118	0xbea633a3	-0.3246127
119	0x3eb7188f	0.35760924
120	0x3e8157e3	0.25262365
121	0x3de81df2	0.113338366
122	0x3c7279fd	0.014799592
123	0x3e71a4be	0.23598
124	0xbc8712dc	-0.016488485
125	0x3e8377dc	0.25677383
126	0x3d6e87ef	0.058235105
127	0x3d7319c5	0.059350748
128	0xbf2a2003	-0.66455096
129	0xbe1608d4	-0.14651805
130	0x3ef707f0	0.48248243
131	0x3d8dacbc	0.06917712
132	0xbedcdb6f	-0.43136165
133	0xbe88c2b8	-0.2671106
134	0xbea9a3e3	-0.33132848
135	0xbe23d9a9	-0.16001
136	0xbd47d738	-0.048789233
137	0x3da3942a	0.079872444
138	0xbe99e5ec	-0.3005823
139	0xbead520b	-0.33851656
140	0x3cb487c3	0.022037392
141	0x3e475894	0.19467384
142	0x3ce26ac8	0.027638808
143	0xbf24f6f1	-0.644393
144	0x3de26a14	0.11055389
145	0x3de2fc4e	0.110832796
146	0x3ddad456	0.10685031
147	0xbe389191	-0.18024279
148	0xbd58b7d8	-0.052909702
149	0x3d99e256	0.07513873
150	0xbe17b84d	-0.14816399
151	0xbca90ce8	-0.020636037
152	0xbdc20e1e	-0.09475349
153	0xbf2f4c79	-0.68476063
154	0xbd8aa07c	-0.06768891
155	0xbc07718c	-0.008266818
156	0xbe4e1b2a	-0.2012755
157	0x3f24df68	0.6440339
158	0x3cc2eb71	0.023793908
159	0xbe41b264	-0.18915707
160	0xbe1b8798	-0.15188444
161	0xbbfee680	-0.0077789426
162	0x3f2e3e04	0.6806338
163	0x3cf1d891	0.029522212
164	0x3bab62bc	0.005230276
165	0x3cbccd54	0.023047127
166	0x3c984fe2	0.018592779
167	0xbe6183b4	-0.22022897
168	0x3e99d10c	0.30042303
169	0x3cb216aa	0.021739323
170	0x3e375b46	0.17905912
171	0x3ca0733c	0.019586198
172	0xbe79cc25	-0.24394281
173	0x3e5a05d0	0.2129128
174	0xbc6cf579	-0.014462822
175	0x3f339202	0.70144665
176	0x3d814da6	0.063136384
177	0x3ebae207	0.3650057
178	0xbb4603aa	-0.0030214586
179	0x3ea82c29	0.32846192
180	0x3d2c6066	0.04208412
181	0x3b6607c0	0.0035099834
182	0xbb5015fd	-0.0031751387
183	0xbe370c92	-0.17875889
184	0xbe88e1cb	-0.26734766
185	0x3d8129f3	0.06306829
186	0xbf5bd2f7	-0.8586878
187	0x3f4ea810	0.80725193
188	0xbe8fb65b	-0.28068814
189	0xbf0f8d03	-0.5607454
190	0x3f0c86a5	0.5489295
191	0xbe332b67	-0.17497025
192	0xbadcf545	-0.0016857764
193	0xbe170a95	-0.1475013
194	0xbbc70b36	-0.0060743345
195	0x3bc459eb	0.0059921644
196	0xbf2dc3fb	-0.6787717
197	0xbea90e5c	-0.33018768
198	0xbd776b91	-0.060405318
199	0x3e8c50d4	0.27405417
200	0x3da3cc3e	0.079979405
201	0x3ce9cb72	0.028539393
202	0xbcf4894a	-0.02985062
203	0x3e93a571	0.2883716
204	0xbd7702b8	-0.060305327
205	0xbd2ea72a	-0.04263989
206	0xbf6abbcc	-0.91692805
207	0x3e0a8586	0.13527498
208	0xbcc67144	-0.024223931
209	0xbeb41c94	-0.35178053
210	0xbe62a568	-0.2213341
211	0x3ba76cf1	0.0051094224
212	0x3f25ac9c	0.64716506
213	0x3e8170a1	0.25281242
214	0x3d65e5be	0.056127302
215	0x3ce7997a	0.028271426
216	0x3d8ba417	0.06818407
217	0xbdf9020d	-0.12158594
218	0xbd8c4dd9	-0.06850786
219	0xbe74d668	-0.23909914
220	0x3ec9ba15	0.39399782
221	0xbbcdfa30	-0.006285928
222	0x3e892cf2	0.26792103
223	0x3d6413fd	0.055683125
224	0xbe8739cf	-0.26411292
225	0x3e0ad92a	0.13559404
226	0xbe622ca3	-0.2208734
227	0x3da68f27	0.08132773
228	0x3bf0b0f4	0.007345313
229	0x3d698786	0.05701401
230	0x3bae99b2	0.0053283805
231	0xbca8c364	-0.020600982
232	0xbf498887	-0.7872395
233	0xbe93531e	-0.2877435
234	0xbce9c474	-0.028536059
235	0xbf103d44	-0.56343484
236	0xbebc6708	-0.36797357
237	0x3ea72c44	0.3265096
238	0xbe3d9549	-0.18513979
239	0x3d105470	0.035236776
240	0x3ec1df6b	0.37865767
241	0x3e09256d	0.13393183
242	0xbeac3ed2	-0.33641678
243	0x3e9cc85e	0.30621618
244	0xbdb4867b	-0.088147126
245	0xbe4ca4be	-0.19984719
246	0x3e0ec8f6	0.13943848
247	0x3f451343	0.76982516
248	0x3e89ae95	0.26891008
249	0x3b49032d	0.003067206
250	0xbda08d2f	-0.07839429
251	0x3e45fd7c	0.19334978
252	0xbf85610e	-1.0420244
253	0xbe0f1380	-0.13972282
254	0xbf55c865	-0.835089
255	0xbdf5ce52	-0.12002243

linear2.bias f4 [3]
0	0x3e9981f8	0.2998197
1	0xbdaa5140	-0.083162785
2	0xbe39372f	-0.18087457
