DDQN_models/model2-snapshot-score-23.pth (torch, 17221 bytes, 4 tensors)

linear1.weight f4 [256, 11]
000000 e1 17 ff bb 3e 47 da bd 89 35 e7 be 0d ec 8e 3e
       -0.007784829 -0.106581196 -0.45158032 0.27914467
000010 62 68 4b bc cb b5 ca be 17 15 93 be 2f 5e 10 be
       -0.0124150235 -0.39591822 -0.28727028 -0.14098428
000020 e8 8f d9 be 87 98 3d bf 47 d8 1d 3e 31 23 8f 3e
       -0.42492604 -0.74060863 0.15414535 0.27956536
000030 1c fb 56 bf 89 68 00 3d d7 d2 82 bd 70 f5 0e bf
       -0.8397691 0.031349692 -0.06387871 -0.5584326
000040 d7 7b fb 3c a4 da 24 bf b8 c2 ef bd ac 63 10 bf
       0.0306987 -0.6439612 -0.117070615 -0.5640209
000050 95 25 25 3f 91 88 8d bf 91 4a 17 3c 29 b3 80 3d
       0.6451047 -1.1057302 0.009234087 0.06284172
000060 6a f9 40 3d 24 32 2f bb 1f e1 a3 3d 11 f1 42 3d
       0.04711286 -0.0026732767 0.08001923 0.04759318
000070 3d 1e be bd d0 28 ba be 9e 4d 85 be d5 e3 e4 bd
       -0.09283111 -0.36359262 -0.2603578 -0.11176268
000080 32 38 0d be f1 c3 d4 3e 78 41 a6 bf 71 c6 07 3d
       -0.13790968 0.4155574 -1.298873 0.033148233
000090 78 9c 04 bc 02 34 56 be f8 a5 b8 3d 0c dc a1 3d
       -0.008093946 -0.20918277 0.09016031 0.07903299
0000a0 aa 6a 0c be 8d 22 15 3f 5f 46 5e bf 00 2b 33 3f
       -0.13712564 0.58255845 -0.8682613 0.6998749
0000b0 f3 44 e5 be bb 54 32 bf da 81 5a be 7a 19 1b be
       -0.44779167 -0.6966054 -0.21338597 -0.15146437
0000c0 77 6d 71 bd 77 dc 31 bf c5 60 f4 3e 05 6b af be
       -0.058942284 -0.6947703 0.4773008 -0.34261337
0000d0 4d f2 0a be 21 91 87 3f f7 30 f1 bd 08 51 39 be
       -0.13568993 1.0591165 -0.117769174 -0.18097317
0000e0 fe 3a 00 bf 31 ba fb 3e ad 74 9d bf f8 da 05 3e
       -0.50090015 0.4916549 -1.2301232 0.13071811
0000f0 21 75 ed be 62 85 30 3e 3e c2 ca bd 68 65 76 bf
       -0.46378425 0.17238382 -0.0990033 -0.96248484
000100 25 72 71 bd ec 9c aa 3f d1 82 97 be 23 15 3a bf
       -0.058946747 1.3329139 -0.29591992 -0.726885
000110 71 59 73 3e 59 30 65 bf d1 6a 9c be bb 05 bc bd
       0.23764588 -0.895269 -0.30550244 -0.091807805
000120 2e 15 16 bc df 76 13 bf 73 ba e3 bb 20 95 29 bf
       -0.009160323 -0.5760326 -0.0069497167 -0.6624317
000130 3f 49 61 3f c0 43 8d be 93 b7 dc 3d 7d a2 c3 3d
       0.8800239 -0.27590752 0.107772015 0.095524766
000140 83 8e 9e be 3a 73 0c 3d e2 83 91 be 85 90 87 be
       -0.30968103 0.034289576 -0.2842093 -0.26477447
000150 95 92 9c bc 16 ec b3 3d 17 a7 a2 be 50 40 dc be
       -0.019112865 0.08785264 -0.31768104 -0.43017817
000160 e5 bd 47 be ef 8e de 3d fe 84 0b bf 2b 0c c9 3d
       -0.19506033 0.10867106 -0.54499805 0.09816774
000170 56 76 08 3e cc da 53 bd 39 f1 98 be 67 c5 bd 3c
       0.13326392 -0.051722333 -0.29871538 0.023165418
000180 00 75 04 bf 91 4a db bd 28 50 77 3e fe 5d 00 bf
       -0.5174103 -0.10707582 0.24151671 -0.5014342
000190 1f 0f 00 bf 2e 46 9e bd 26 11 57 3e 5c 69 d8 be
       -0.5002307 -0.077282295 0.21002635 -0.42267883
0001a0 7c da 05 bf a2 67 80 be 38 c5 b4 be f6 30 44 3e
       -0.52286506 -0.25079066 -0.35306716 0.19159302
0001b0 b5 5d 9d 3e 35 f9 dd be f1 55 e8 bd f2 25 31 3e
       0.30735555 -0.43354192 -0.11344517 0.17299631
0001c0 53 e5 4a bf 33 a4 1c bf c4 ab 35 bd 85 21 82 be
       -0.7925617 -0.6118805 -0.04435326 -0.25416198
0001d0 df 12 b4 bc 6c 10 ec 3d ad e0 08 3f de 26 09 3f
       -0.021981655 0.1152657 0.5346783 0.5357493
0001e0 46 45 cf 3d b7 44 68 3e e5 62 89 3e e8 1f 6f 3e
       0.10120635 0.22682463 0.26833263 0.23352015
0001f0 39 4b 05 bf 2c 31 ec 3b 94 45 80 3e 22 bb b4 3e
       -0.52067906 0.00720801 0.25053084 0.3529902
000200 a7 be 5a 3e 87 7a 08 3f 20 89 6a bf 15 de 6e bf
       0.2136179 0.5331196 -0.91615486 -0.9330762
000210 e9 55 37 3e 99 67 97 be 77 ed 53 bf ec 37 cc bb
       0.17903866 -0.29571226 -0.8278422 -0.0062322523
000220 42 a8 47 be 80 a6 10 bd 0e 2e df bd 7e a8 b5 be
       -0.19497779 -0.035315037 -0.10897456 -0.35480112
000230 24 d1 29 3f 34 fe f6 3d 86 ff 99 3e ba 9f 38 bd
       0.6633475 0.12060204 0.3007776 -0.045074202
000240 99 99 a8 be aa fa 85 be 06 eb 42 bb f5 bc 7c be
       -0.32929686 -0.26167804 -0.0029742136 -0.24681456
000250 35 48 11 bd d2 11 22 be 39 ef fe be ab 66 ac 3e
       -0.035469253 -0.1582711 -0.49791887 0.3367208
000260 4b 03 08 3d 70 f3 19 3e 3a 3a 28 be b5 92 4a be
       0.033206265 0.1503427 -0.16428462 -0.19782527
000270 5a 54 01 be f2 3f 14 bd ce 45 25 be e6 b2 81 3d
       -0.12629834 -0.036193796 -0.1613991 0.0633295
000280 05 e1 a7 bd 7e 90 a8 be 29 6a e6 3d 68 a8 82 3e
       -0.08197216 -0.3292274 0.11250717 0.2551911
000290 bd 43 99 3d 5f 86 23 bf 9e ce a7 3d 05 5e 82 bd
       0.07483623 -0.6387691 0.08193706 -0.06365589
0002a0 86 21 23 bf 84 1d 4f be 67 5b 61 be a0 2a d1 bd
       -0.6372303 -0.20226103 -0.22007523 -0.10213208
0002b0 fb 57 75 3d 5e 5a f6 3e a9 77 a2 3e bc d8 ee 3e
       0.059898358 0.4811582 0.31731918 0.4664973
0002c0 43 f5 72 3d 5f 44 3c bf 5f e9 0c 3e b8 65 3b bf
       0.05931593 -0.73541826 0.13760899 -0.73202085
0002d0 74 5d fa be 7a 6e ae 3d 42 4d be be a4 01 17 be
       -0.48899424 0.085171655 -0.37168318 -0.1474672
0002e0 f9 a9 6c bf 1b da ed be f2 92 4a 3f 5a f8 09 be
       -0.9244686 -0.46455464 0.7913047 -0.13473645
0002f0 e0 fe ee 3d 8f 32 54 be fb 30 1f bf bc e1 e4 bd
       0.11669707 -0.20722412 -0.62184113 -0.11175868
000300 d9 2e b0 bd f0 2d c3 3d ba 7b 4b be 84 8b 04 3f
       -0.086026855 0.09530246 -0.19871417 0.51775384
000310 12 bd af 3e e6 2d db 3e 6e cf 32 be 20 75 76 be
       0.34323937 0.42808455 -0.1746194 -0.24068117
000320 5c 40 a3 3c dc 1d a4 3e 04 b5 f0 bd ad b7 41 be
       0.01992815 0.3205403 -0.11753276 -0.18917723
000330 34 b6 b5 3e e6 11 e8 bd 22 20 88 be 2d f5 87 be
       0.35490572 -0.11331539 -0.26587015 -0.26554242
000340 8b 85 df be 6c 54 de be 45 38 d5 be 4d 16 c3 bd
       -0.43656573 -0.43423784 -0.41644493 -0.09525738
000350 35 1e eb 3c 3f 61 97 be e8 e4 c0 bc ba f3 45 bd
       0.028700927 -0.2956638 -0.023546651 -0.04832814
000360 d2 8f 14 3d fa 65 4a 3d 44 bd 03 3e ef 46 d8 be
       0.03626997 0.04941366 0.12865168 -0.42241618
000370 f6 d5 16 3e 7e 2e c1 3e 24 73 85 bd 5f 4c c0 be
       0.14730057 0.37730783 -0.06516102 -0.37558267
000380 4e 8a 08 be 7d 93 58 be df 38 ac be 9f 1a c8 be
       -0.13334009 -0.21150012 -0.3363714 -0.3908281
000390 8e 47 e7 3e c0 88 95 3e a1 1b b0 be 52 13 0c 3d
       0.4517178 0.29205894 -0.3439608 0.034198113
0003a0 24 ee 16 3d 89 73 84 3e fd 43 82 bd c9 ba 6f 3e
       0.036848202 0.25869396 -0.06360624 0.23411097
0003b0 38 01 d2 3d be e0 63 3e 68 db e8 bd de 90 7f 3d
       0.10254139 0.22253701 -0.113699734 0.062394015
0003c0 ba 8b a0 bf 3d fb a3 bf cb f3 91 3e a7 98 0b bf
       -1.2542641 -1.2811047 0.28506312 -0.54529804
0003d0 62 26 4c 3e d2 5e 28 be 92 ec 50 bd fe 8e a2 bd
       0.19936517 -0.16442421 -0.05100686 -0.0793743
0003e0 be b0 9e be d9 50 4e be 1b 30 0f 3f 76 76 36 bf
       -0.3099422 -0.20148028 0.5593278 -0.7127451
0003f0 98 0d 2d bf 5e da 01 3f c2 94 24 bf 4e 8b 04 3f
       -0.6759887 0.50723827 -0.64289486 0.5177506

linear1.bias f4 [256]
000000 e9 a0 92 be 40 52 81 bd 7c aa 83 bd 9d a4 78 be
       -0.2863839 -0.06314516 -0.06429002 -0.24281545
000010 ec 32 cf bd bd 34 6f be b3 5a 44 bc 0f 49 58 be
       -0.101171345 -0.23359962 -0.011984515 -0.2112162
000020 8a 22 c7 be 7d da fe be 26 70 3a bf b6 24 78 be
       -0.3889354 -0.49776068 -0.72827375 -0.24232754
000030 8e 8e 06 bf 69 30 0a bf f5 c1 d0 be e1 83 23 bf
       -0.5256127 -0.5398012 -0.40772977 -0.63873106
000040 ff b8 3d be f4 57 5c bf 1e 48 04 3e 29 be 71 be
       -0.18527602 -0.86071706 0.12918136 -0.23607697
000050 40 f0 e0 be b4 fd 4d 3e ec bc 89 bd a6 39 06 bf
       -0.43933296 0.20116311 -0.06725487 -0.52431715
000060 84 53 a5 3d c0 d8 1a be 71 f0 9b be cc 50 3f be
       0.0807257 -0.15121746 -0.3045688 -0.18683165
000070 a3 b7 11 bf 87 39 0d bf 6e 53 6f be 03 09 13 bf
       -0.5692083 -0.55165905 -0.2337167 -0.57435626
000080 8c aa 06 bf 15 10 c0 3e 10 02 8e be ea 3a 34 be
       -0.52603984 0.3751227 -0.2773595 -0.17600599
000090 16 f0 56 be 08 27 6b bf 70 87 05 bf 81 27 50 be
       -0.20990023 -0.9185643 -0.52159786 -0.2032757
0000a0 ea ab e6 3e 1f a3 80 bd 63 af 64 be 32 81 c3 be
       0.45053035 -0.06281113 -0.2233253 -0.38184506
0000b0 ce 07 65 be 11 6d 95 be 5f 17 14 bf 53 49 b0 be
       -0.22366259 -0.29184774 -0.5784816 -0.34430942
0000c0 03 f5 89 bf 76 0f 8f 3d f3 a2 fa 3d 8d 7b 4a bf
       -1.0777897 0.06985371 0.12238111 -0.79094774
0000d0 27 b0 1d bf 6f 9e 48 be 5c dd eb 3e 31 33 10 bf
       -0.6159691 -0.19591688 0.4606732 -0.5632811
0000e0 3c 10 9d be e6 42 c9 bd 71 27 66 be 7c 8f b5 be
       -0.30676448 -0.09827213 -0.22475983 -0.35461032
0000f0 0a 60 dc bd 60 aa 03 be 21 39 98 be 16 5a 29 bf
       -0.107605055 -0.12857962 -0.29731086 -0.66153085
000100 2b 18 a8 be 96 99 2e be 3e 39 38 bf 65 58 e0 be
       -0.3283094 -0.17050776 -0.71962345 -0.4381744
000110 0d fc 0c bf 3e 89 2b bf 7b a6 c9 be 39 c8 b5 be
       -0.550721 -0.6700629 -0.39384827 -0.3550432
000120 af e3 fb bd a2 e3 ac be 8c 22 12 bf 27 ad c6 3d
       -0.122992866 -0.3376742 -0.57083964 0.09700995
000130 2c 41 ff be 94 f1 08 3e 96 65 1e bf cb 61 bc be
       -0.4985441 0.13373405 -0.6187376 -0.3679336
000140 4d 77 82 be 2c 4d e2 be 60 bf 10 bf 16 00 e0 bd
       -0.25481644 -0.44199502 -0.56542015 -0.109375164
000150 0d e8 91 bc 46 97 fe bd fa 76 38 bf 8c b0 2a be
       -0.017810846 -0.12431197 -0.72056544 -0.1666891
000160 28 36 9e be 0b 81 32 bf 99 05 f9 be 47 22 af be
       -0.30900693 -0.69728154 -0.48637083 -0.3420584
000170 c0 0f 91 be 39 13 70 be bb c5 5e bf b7 03 1c be
       -0.2833233 -0.23444833 -0.8702046 -0.15235792
000180 21 15 60 be 4c 77 a6 be f6 69 2e bc 26 6b ce bc
       -0.2188306 -0.3251289 -0.01064538 -0.025197577
000190 56 e6 5a be d1 1b c7 be b1 0d 3d 3d 37 c2 b1 be
       -0.21376929 -0.3888841 0.046155635 -0.34718487
0001a0 a5 23 b2 bd 61 e3 95 be 71 3f 04 bf 43 f6 bd 3e
       -0.08698205 -0.2927504 -0.51659304 0.37101945
0001b0 77 93 79 bf f2 83 4c be fb 95 ce be fd 17 84 be
       -0.9749064 -0.19972208 -0.403488 -0.25799552
0001c0 0a 8d ee be 32 de d7 be 2a b9 9b be 11 62 1b bf
       -0.4659198 -0.4216171 -0.30414706 -0.6069651
0001d0 06 fc 96 3c e3 3d 9a bd 55 ce 4b be aa 2a 19 3f
       0.018430721 -0.07531335 -0.19902928 0.59830725
0001e0 89 32 8e be f4 52 b1 be 16 c9 46 be 67 f6 bb be
       -0.2777293 -0.346336 -0.19412646 -0.36711428
0001f0 a3 60 95 be 74 be 4b be 2f f1 24 be b7 23 cc be
       -0.2917529 -0.19896871 -0.16107629 -0.39870998
000200 ff ef ad be 38 47 55 bf 71 3a 27 3e a9 be d9 be
       -0.33972165 -0.83311796 0.16330887 -0.42528275
000210 f0 5e d5 bd 0e 90 ed bd ac 23 00 3e 66 f7 67 be
       -0.104184985 -0.11599742 0.12513608 -0.22652969
000220 cd 8c a4 be b8 2d b3 be 3a 54 ba be f8 e4 10 bf
       -0.32138672 -0.34995818 -0.36392385 -0.5659938
000230 2d 3e 45 bd 65 86 ec be 2b 97 bd bd 0c 8e 5a bf
       -0.048155 -0.46196285 -0.092573486 -0.85372996
000240 ad d8 d0 be 63 17 25 be ae 25 03 be 96 24 27 be
       -0.4079031 -0.16122203 -0.12807342 -0.1632255
000250 40 28 99 be 16 e4 ea be f0 60 a7 bb 00 5f a0 bc
       -0.2991352 -0.4587714 -0.0051079914 -0.01957655
000260 89 5f ca be b0 7b 85 be 9b 3d 4d bc 12 0f 26 be
       -0.39526013 -0.2607093 -0.012526895 -0.16216686
000270 18 c3 e8 be 6f d2 89 3e 17 26 0e be d2 9f 13 bf
       -0.45461345 0.2691836 -0.13881718 -0.5766574
000280 ec 20 fc 3c fd 0c 29 be 5d c8 a1 be 10 0a 8f be
       0.030777417 -0.16508861 -0.31598178 -0.27937365
000290 dc 0a 0e bf 8e f5 73 be 63 f9 f9 be 5e 56 5d be
       -0.5548532 -0.2382414 -0.4882308 -0.21614978
0002a0 19 d8 a3 be cb df 62 be ff ab e4 bd 43 42 66 be
       -0.32000807 -0.22155683 -0.11165618 -0.22486214
0002b0 e7 3b bb be e3 f5 01 bd 45 1a 49 bd f0 26 b9 bd
       -0.3656914 -0.031728636 -0.04909732 -0.0904063
0002c0 68 19 07 bf 0b 97 1d bf e6 ce b8 be 77 ab 22 3e
       -0.5277314 -0.615586 -0.3609535 0.15885721
0002d0 f0 5f 47 be ad 14 6b be 70 dd 2e bf 07 a6 69 be
       -0.19470191 -0.22957106 -0.68306637 -0.2281724
0002e0 fe 9c ef be 84 51 d4 bd 36 10 83 bf d8 ca e5 be
       -0.46799463 -0.1036711 -1.0239322 -0.4488132
0002f0 44 fb 90 be d4 1e 23 be e8 26 bd be 5c 33 20 be
       -0.283167 -0.15929729 -0.36943746 -0.15644592
000300 28 80 0d be 50 52 3b bf dc 7f d1 bd 4c 26 19 bf
       -0.13818419 -0.73172474 -0.10229465 -0.5982406
000310 d2 87 67 be 95 50 bb be 15 3b d2 bc 7b 55 0d bf
       -0.22610405 -0.36584917 -0.025662938 -0.5520856
000320 25 92 a8 be 51 9f 72 be 0f b1 3d be 19 c5 e9 be
       -0.32924 -0.23693587 -0.18524574 -0.45658186
000330 aa a8 04 3e 98 b4 c8 be 46 40 05 bf 7b 43 b3 be
       0.12954965 -0.39200282 -0.520512 -0.3501242
000340 21 20 bd be 6e 72 12 be 78 f4 1c be da b9 03 bf
       -0.36938575 -0.14301464 -0.15327632 -0.5145546
000350 cd 55 ce 3e f6 29 0b bf 0a e4 bb be 94 70 4f be
       0.40299836 -0.543609 -0.36697417 -0.20257789
000360 ff f1 ab bc 01 2a eb be 69 50 d2 be 9e a0 7b be
       -0.020989416 -0.45930484 -0.41076973 -0.2457299
000370 ca c1 b1 be db 85 41 bf e3 09 27 bf cf dc 8b be
       -0.34718162 -0.7559487 -0.6524946 -0.273169
000380 cb 81 f4 be 34 4b ac be d2 ad 9c be 1b c4 a9 be
       -0.47755274 -0.33651125 -0.30601364 -0.3315743
000390 cd e9 c5 bd e8 53 79 be 1e a9 ba 3b d4 d8 c7 be
       -0.096637346 -0.24348414 0.00569643 -0.39032614
0003a0 04 05 e1 be 2e b7 33 3e 99 00 02 be 3b ed b1 be
       -0.4394914 0.17550346 -0.1269554 -0.34751305
0003b0 07 26 e6 be 8f df b1 3e 91 79 c0 be 39 a2 90 be
       -0.44950888 0.34740874 -0.37592748 -0.28248766
0003c0 4a f5 dd be fd 8b a9 bc f8 03 31 3d 86 56 18 bc
       -0.43351203 -0.020696634 0.043216676 -0.009297973
0003d0 7b c6 ba 3d c6 d1 11 be 9a ab c3 be d2 89 db be
       0.091198884 -0.14240178 -0.3821686 -0.42878586
0003e0 ce 69 33 b9 79 ae f7 be ef 4a ae be 03 66 f0 be
       -0.00017110186 -0.483753 -0.34041545 -0.4695283
0003f0 61 17 21 be 49 78 e1 be 1f c3 96 be b4 fa b8 be
       -0.15731575 -0.44037083 -0.2944574 -0.3612877

linear2.weight f4 [3, 256]
000000 37 b1 ee bd e9 55 ff 3d b9 70 d1 3b 99 a9 a2 be
       -0.11654895 0.12467558 0.0063916114 -0.31770018
000010 a8 0b 41 3e 28 67 69 3e 50 44 f5 bc bc d1 86 3d
       0.18852103 0.22793257 -0.0299398 0.065829724
000020 ea 52 e4 3a c2 04 8a be 65 12 eb be f4 1e b0 3c
       0.001741973 -0.26956755 -0.4591247 0.021499135
000030 b6 ed 99 be ed 4d bc be fe a9 a8 bd ff 09 f1 be
       -0.30064172 -0.36778203 -0.082355484 -0.4707794
000040 a4 bc 61 3b 02 8c 12 bf 35 e8 2a bc 3c a7 86 3c
       0.0034444714 -0.57244885 -0.010431339 0.016437165
000050 dc 02 86 bd 82 ae 0b bc fb 34 8c be 9a 7b 88 be
       -0.06543514 -0.008525493 -0.2738417 -0.266568
000060 c8 f2 a1 3c d7 ad 9a 3e fe 0c 63 bd 3a 1a b0 bd
       0.019769087 0.30210754 -0.055432312 -0.08598752
000070 80 89 4f bd 49 38 63 bd 9d 64 99 3b 80 5c 87 bd
       -0.05066824 -0.0554736 0.0046811835 -0.0660944
000080 db 2f 28 3d 48 9a 4d 3d ae 9b 24 3d 55 f1 37 be
       0.041061264 0.050195962 0.04018753 -0.17963155
000090 ae e7 a6 be 44 dd 19 bf fc ad 61 3f c7 02 0c 3e
       -0.32598633 -0.6010325 0.88156104 0.13672934
0000a0 80 79 92 3e 53 c1 db be 11 3e e3 3c d5 1e 01 bc
       0.28608322 -0.42920932 0.027739557 -0.007880886
0000b0 c1 c6 b7 3e 4f 07 d7 bc 0c 2e 7e be cb 62 4d bd
       0.35893825 -0.026248602 -0.24822253 -0.050143044
0000c0 d7 7d 8b bf 04 9d 88 be c6 ca 5f bf 3b f5 e3 be
       -1.0897778 -0.26682293 -0.8741878 -0.44523033
0000d0 53 31 f4 3d 6a 8c 4b bf ad f2 37 3f ef 8b 0a 3e
       0.1192347 -0.7951113 0.7185467 0.13529943
0000e0 44 25 e0 3c 65 9d 93 be c7 9a 00 3e 1d 2a f6 bd
       0.02736152 -0.2883102 0.12559043 -0.12019751
0000f0 01 3f 1b bf 2c df 8f be e7 0f ca 3c 5a 6a dd bd
       -0.6064301 -0.28099954 0.024665786 -0.108113006
000100 70 85 a3 bc c7 2f e8 3a 9f a3 b6 be 5c aa 13 be
       -0.019961089 0.0017714434 -0.35671708 -0.14420456
000110 23 0a 46 3e 20 37 2f be 68 f7 9a be cb 1b e8 bd
       0.19339804 -0.17110872 -0.3026688 -0.11333426
000120 83 3d 85 be 63 ed 91 bd 51 0d 76 3e 25 2b d8 bc
       -0.26023492 -0.07125356 0.24028517 -0.02638776
000130 a2 73 27 3f cd d2 a4 3e 92 ca 00 be fe aa 99 bd
       0.65410817 0.32192078 -0.12577274 -0.07503317
000140 0f 18 b4 be 03 16 6e bc 7f 17 6b be cd 61 12 bf
       -0.35174605 -0.014531615 -0.22958182 -0.5718048
000150 5c 8d 44 3e 9c cd 5e bf 05 51 0e be 23 a0 ad 3e
       0.1919455 -0.87032485 -0.13898094 0.33911237
000160 0e b5 d2 3c 76 16 46 bf 77 4a 10 3e 53 1b a8 bd
       0.0257211 -0.7737802 0.14090906 -0.08208337
000170 72 ba 13 be ca 04 ce bd f6 22 34 bf 7b 98 98 be
       -0.14426592 -0.10059507 -0.70365846 -0.29803833
000180 04 a9 39 be 2e 85 a0 3a f0 2c 1b bf 36 60 80 bf
       -0.1813088 0.0012246722 -0.60615444 -1.0029361
000190 16 0d ae bc 52 06 e0 be 7c b5 42 3c 9f a6 c1 3d
       -0.021246474 -0.43754822 0.01188409 0.094556086
0001a0 8e 34 54 3e 02 74 91 3d dd 34 f1 bd d2 bd cf 3e
       0.20723173 0.07102205 -0.11777661 0.4057451
0001b0 0c bf 94 be 6d 3a 8e bc 4a f3 a7 3d 7e 61 36 be
       -0.29052007 -0.017361844 0.082007006 -0.17810628
0001c0 97 cf c8 bd 62 d6 fd 3e 81 44 4b 3d 76 01 79 bd
       -0.098052196 0.49577624 0.049625877 -0.06079241
0001d0 10 cb 80 3e 63 9b 8b bd 88 e3 30 bc 34 65 89 3e
       0.25154924 -0.06816747 -0.010796435 0.26835024
0001e0 41 56 1b bc 94 fb 7e be f4 f2 7a 3d dc 95 e2 bd
       -0.009481014 -0.24900657 0.061266854 -0.1106374
0001f0 dc 12 87 bc 4a 34 21 3c 24 7f b9 bb ad 6f 34 3c
       -0.016488485 0.009839127 -0.0056609083 0.011012954
000200 ac 99 0d bc 75 e8 28 bf c4 f0 b1 3e 6f cb 4b bd
       -0.008642595 -0.659797 0.34754002 -0.049754556
000210 4f 6f 8e bd e5 66 64 bd c0 10 be 3d c6 d7 52 bd
       -0.06954824 -0.05576219 0.092805386 -0.05147531
000220 b7 97 f2 bc 23 ab 87 bc cd f5 44 be f9 ca 32 be
       -0.029613359 -0.016561097 -0.1923439 -0.1746024
000230 aa 83 ce be 88 35 d8 bb 24 b5 3f 3b fe 03 2f be
       -0.40334827 -0.0065981783 0.0029252255 -0.17091367
000240 12 03 c4 3d 73 36 ac bd bb 70 7e 3d dd 4f 71 bf
       0.09570898 -0.08408823 0.062119227 -0.94262487
000250 ac 3f a7 3d 42 46 0f 3c 73 0e b4 bd e8 0c a9 bc
       0.08166441 0.008744778 -0.087918185 -0.020636037
000260 ab a3 88 bd 9e 38 ca be 3f bc 0f bf 5a fd 8f bc
       -0.06671842 -0.3949632 -0.56146616 -0.017576862
000270 63 98 70 be 55 1c cc 3e 47 98 d6 3b da 41 12 3d
       -0.23495631 0.39865366 0.0065489146 0.035707332
000280 a5 cd 24 3e 32 7d 20 3d 9c 5e 04 3d 73 21 df 3e
       0.16094072 0.039181896 0.03231679 0.43580207
000290 3b 49 48 3e 54 cd bc 3c 0a 71 50 bd 83 50 7e bc
       0.19559185 0.023047127 -0.050889052 -0.015522125
0002a0 e2 25 f4 3c 70 56 91 bd 02 f7 40 be 09 18 a4 bc
       0.02980322 -0.07096565 -0.18844226 -0.020030992
0002b0 7a 1d 81 3d c9 80 93 be 84 48 63 3d 49 ce f5 3e
       0.0630445 -0.28809193 0.05548908 0.48008946
0002c0 9a 4e d3 3c 3a a4 70 be 45 e6 cb 3c 0d dd fb 3d
       0.025794316 -0.23500147 0.024890075 0.122980215
0002d0 4b d1 a1 3d c0 07 66 3b 60 f4 01 be 96 ef 3c be
       0.079012476 0.0035099834 -0.12690878 -0.1845077
0002e0 82 22 32 bd eb 5a c5 3c 94 f6 37 bf ac 87 80 bf
       -0.04348994 0.024091205 -0.71860623 -1.0041404
0002f0 13 53 04 bf 6b 24 4e be f0 e4 cc 3c 2a 0f 89 bd
       -0.5168926 -0.2013108 0.02501151 -0.066923454
000300 06 29 09 bf fe c3 06 3e b0 60 d3 bd eb f2 0f bf
       -0.5357822 0.13160703 -0.10321176 -0.5623004
000310 bb db f1 bd 83 e7 2e bd 08 18 a6 3c 39 01 96 be
       -0.118094884 -0.042701256 0.02027513 -0.29297808
000320 c5 0d 2a 3c ae b4 5d 3c a9 29 40 bd 37 f6 8d 3a
       0.0103792595 0.013531847 -0.04691473 0.0010830824
000330 ac de ec bd c7 57 46 bd 41 79 14 be fa 68 59 bc
       -0.11565909 -0.048423555 -0.1449938 -0.013269657
000340 12 f5 a1 bd ee 37 f0 be af 15 8d be e7 2f 60 bd
       -0.079080716 -0.4691767 -0.27555606 -0.054733183
000350 73 13 86 3e 6d 3a 34 3b 7f 03 3c bd 78 e6 8d 3c
       0.26186714 0.0027500645 -0.04590177 0.01732181
000360 ab 4a 9b bc 03 c0 f6 3d 16 41 00 3f 34 db 35 be
       -0.018956503 0.12048342 0.50099313 -0.177594
000370 70 92 f3 bd 13 fe 8a be 75 b6 d9 3e 9c 84 13 3e
       -0.11893165 -0.27146968 0.42522016 0.14406055
000380 78 4a 29 be ae fe 76 3c 8e d0 fb bc c3 90 02 3f
       -0.16532314 0.015075369 -0.030739095 0.5100214
000390 6a 19 73 3c 86 87 69 3d dd c7 c6 3e af ef db 3c
       0.014837602 0.05701401 0.3882436 0.026847688
0003a0 da ae b4 3c 7b f6 c7 be 4e 50 84 bd 1a b8 82 be
       0.022056032 -0.39055237 -0.064606294 -0.25531083
0003b0 5b 30 f0 bc 29 2b 08 3f 8b ea 1f be 70 54 10 3d
       -0.029319933 0.5319086 -0.15616815 0.035236776
0003c0 f8 21 90 3e 55 47 60 3e cf 0f 5f bd bf 03 74 bf
       0.28150916 0.21902211 -0.054458436 -0.95318216
0003d0 91 ce 02 3e 59 f0 63 3c 1e 8d 82 3d f7 58 3e 3e
       0.12774111 0.013912284 0.06374572 0.18588625
0003e0 09 de 96 3b 9e 05 3f bd 26 26 89 be 28 87 f5 bd
       0.0046041054 -0.046636216 -0.26786917 -0.1198867
0003f0 7c 24 57 3b d7 13 c5 be 86 1d 70 bf 43 7a b3 be
       0.0032828143 -0.384917 -0.9379505 -0.35054216

linear2.bias f4 [3]
000000 37 14 87 3e 27 fa 59 be 62 28 89 be
       0.2638261 -0.21286832 -0.26788622
