DDQN_models/model1-snapshot-score-39.pth (torch, 17221 bytes, 4 tensors)

linear1.weight f4 [256, 11]
0	0xbec051d3	-0.37562427
1	0xbe024a7c	-0.12723726
2	0xbcf6f450	-0.030145794
3	0x3e38a31a	0.18030968
4	0x3e23d68e	0.15999815
5	0xbe74283c	-0.23843473
6	0xbdeb3c0b	-0.11486062
7	0x3c872143	0.016495353
8	0xbf1bfa52	-0.60928833
9	0xbf0dd2f1	-0.55399996
10	0x3e4d3c74	0.20042592
11	0x3ddd6d04	0.10811809
12	0xbec3a19d	-0.3820924
13	0x3cb75886	0.022381078
14	0xbea0709a	-0.31335908
15	0xbea6389f	-0.32465073
16	0xbe98475b	-0.2974194
17	0xbed202d3	-0.4101778
18	0xbee3ef4b	-0.44518504
19	0xbefc2768	-0.49248815
20	0x3d8e6acf	0.06953966
21	0xbf042fe4	-0.51635575
22	0xbed20f05	-0.41027084
23	0x3dd8aaf9	0.105794854
24	0xbd7bbaea	-0.061457552
25	0xbecc8801	-0.39947513
26	0xbc1c1bef	-0.009528144
27	0x3ed646fd	0.41851035
28	0xbe3ac2e6	-0.1823841
29	0x3beff7ef	0.007323257
30	0x3ec09537	0.37613842
31	0x3e3de73f	0.18545245
32	0x3ec53fca	0.3852523
33	0x3e7004b7	0.23439299
34	0xbfa5101e	-1.2895544
35	0xbf5956c7	-0.84898037
36	0xbf509cea	-0.8148943
37	0xbed3b64a	-0.41350013
38	0xbe86c3c8	-0.26321244
39	0xbe004c21	-0.12529041
40	0xbefb22a2	-0.4904986
41	0x3f8acbad	1.0843407
42	0x3e9434d4	0.28946555
43	0x3f3aaf47	0.729237
44	0xbefbdde7	-0.49192736
45	0xbf5e177d	-0.8675459
46	0x3dd2a0fc	0.102846116
47	0xbed5dc2e	-0.41769546
48	0xbf36df2c	-0.71434283
49	0xbf3127eb	-0.69201535
50	0xbe36623a	-0.17810908
51	0xbeae00cd	-0.33984986
52	0x3e3cbc0c	0.18431109
53	0x3f41a132	0.7563659
54	0xbee55241	-0.44789317
55	0x3e1790e9	0.14801373
56	0xbf05dd83	-0.52291125
57	0x3e2b2544	0.16713434
58	0xbe9d66b3	-0.30742416
59	0xbe4fdd77	-0.20299326
60	0xbe94acef	-0.29038188
61	0xbe253255	-0.16132481
62	0x3d985b38	0.074392736
63	0xbf1ddae5	-0.6166213
64	0xbe85291e	-0.26007932
65	0x3e9c7dcf	0.30564734
66	0xbec0c463	-0.3764983
67	0xbec7610e	-0.38941234
68	0xbe7f3b28	-0.2492491
69	0xbf34693a	-0.70473063
70	0xbe486def	-0.19573186
71	0x3e42b804	0.19015509
72	0x3dce0d98	0.100611866
73	0xbe969121	-0.294076
74	0xbe51ac30	-0.2047584
75	0xbe80df72	-0.25170475
76	0x3ef19777	0.4718587
77	0x3deedfc7	0.11663776
78	0x3d1142a9	0.035463963
79	0x3e11e1e2	0.14246324
80	0xbe49ef48	-0.19720185
81	0x3e1e885e	0.15481707
82	0xbe82a375	-0.25515333
83	0xbe13b5ac	-0.14424771
84	0x3c22e999	0.009943389
85	0xbdf75f4f	-0.120787255
86	0xbd8fad1f	-0.07015442
87	0xbee87837	-0.45404217
88	0xbe6937cb	-0.2277519
89	0x3de11a9f	0.10991406
90	0xbcdefd02	-0.027220253
91	0x3d210265	0.039308924
92	0x3e8c6959	0.27424124
93	0xbc5a970d	-0.013341677
94	0xbe218507	-0.15773402
95	0x3d7c18ec	0.061547205
96	0xbf3492a4	-0.70536256
97	0xbef24a59	-0.47322348
98	0x3e59d328	0.21271956
99	0xbec8220e	-0.39088482
100	0xbeadaff9	-0.3392332
101	0xbe12a574	-0.14320928
102	0x3d12ca11	0.035837237
103	0xbdde9857	-0.108689
104	0xbf2b7301	-0.6697236
105	0x3d816efd	0.063199975
106	0xbefff5be	-0.49992174
107	0x3e8f6bbc	0.28011882
108	0x3e9484a2	0.2900744
109	0xbd58cb53	-0.05292828
110	0x3dd820ed	0.10553155
111	0xbf2572a6	-0.64628065
112	0xbf773f3b	-0.9658086
113	0x3e3ffafc	0.18748087
114	0xbdf5ed70	-0.12008178
115	0xbed55393	-0.41665325
116	0xbdc81ca7	-0.0977109
117	0xbd4165f5	-0.047216374
118	0x3f50857a	0.8145367
119	0x3e480e06	0.195366
120	0x3e14e37a	0.145399
121	0x3d3f6f06	0.04673674
122	0x3dc4a8b5	0.09602491
123	0x3f26a226	0.6509117
124	0x3ee5aeef	0.44860026
125	0xbf0cdbfe	-0.5502318
126	0xbece43a0	-0.4028597
127	0xbe515afa	-0.20444861
128	0xbee129c1	-0.43977168
129	0x3d7513f4	0.059833482
130	0xbf0f527b	-0.5598523
131	0xbf26dd92	-0.6518184
132	0x3d9a1e35	0.07525293
133	0xbf78b65b	-0.9715325
134	0xbf12ae91	-0.5729762
135	0xbf3be921	-0.734026
136	0x3c4830a9	0.012218633
137	0x3e664b33	0.22489624
138	0x3dc9274f	0.09821951
139	0xbdc1b62e	-0.09458576
140	0x3fa9e96c	1.327436
141	0xbe6d68bb	-0.23184483
142	0x3eb48c62	0.35263354
143	0x3dc1a1d1	0.09454692
144	0xbd0993ad	-0.0335881
145	0xbeebd390	-0.46059847
146	0xbda594b9	-0.08085007
147	0xbd904556	-0.07044475
148	0xbd096140	-0.03354001
149	0x3c9443a8	0.018098667
150	0xbefdf2a9	-0.49599198
151	0x3e3a072c	0.18166798
152	0xbe8277f0	-0.2548213
153	0x3eae2132	0.340097
154	0xbdaec785	-0.08534149
155	0xbd9f88d3	-0.07789769
156	0xbdd8bbf8	-0.10582727
157	0xbd320f7d	-0.043471802
158	0xbe1880cf	-0.14892887
159	0x3d0b03a8	0.033939034
160	0xbd8e561d	-0.069500186
161	0xbeb79d43	-0.3586217
162	0x3dca90a1	0.09890867
163	0x3e3c0bd4	0.18363887
164	0x3cd27294	0.0256894
165	0xbeac0552	-0.3359781
166	0xbd307097	-0.043076124
167	0xbf054484	-0.5205767
168	0xbefd1da5	-0.4943668
169	0xbd644687	-0.055731323
170	0xbee1fe19	-0.44139174
171	0x3d35d9fe	0.044397347
172	0xbe254d07	-0.16142665
173	0x3e398c40	0.18119907
174	0x3dd899fb	0.105762444
175	0x3c8e2247	0.01735033
176	0xbdd10723	-0.10206439
177	0xbf75c9ec	-0.96011233
178	0x3d9f382b	0.07774385
179	0xbf744e9d	-0.95432454
180	0xbf09803b	-0.5371129
181	0x3e23d308	0.15998471
182	0xbed6f0ba	-0.41980535
183	0xbd94cba9	-0.072654076
184	0xbe416558	-0.18886316
185	0xbf55e065	-0.83545524
186	0x3f74a627	0.9556603
187	0xbca00c02	-0.019536976
188	0x3def101f	0.11672997
189	0xbec4f1f5	-0.3846585
190	0xbf58fd20	-0.8476124
191	0xbe4760a2	-0.19470456
192	0x3e1c4b58	0.15263116
193	0x3c4a6af4	0.012354601
194	0x3d23a03d	0.039947737
195	0x3eb9c307	0.36281607
196	0xbd0ec312	-0.034854002
197	0x3e7141c1	0.2356024
198	0xbe31991d	-0.17343564
199	0xbcaa8101	-0.020813467
200	0xbeef7677	-0.4677007
201	0xbd6b959f	-0.057515737
202	0xbe5b78f0	-0.21432853
203	0xbe5a3337	-0.213086
204	0x3e8427db	0.25811657
205	0xbe0c859d	-0.13722844
206	0xbee9ebc6	-0.45687693
207	0xbe8d9e3a	-0.2765978
208	0xbed9794a	-0.4247535
209	0xbef0ae68	-0.4700806
210	0xbe4177e0	-0.18893385
211	0x3ec5d127	0.38636133
212	0x3ef3d7ef	0.47625682
213	0xbf32f1c9	-0.69900185
214	0xbf0cd167	-0.5500702
215	0xbee740d6	-0.45166653
216	0xbefb02c5	-0.4902555
217	0xbeaf9c0c	-0.34298742
218	0xbe1c95e5	-0.15291555
219	0x3e37a6ad	0.17934676
220	0xbe5f01a8	-0.21777976
221	0x3da414a7	0.080117516
222	0x3e6f6926	0.23379955
223	0xbe82dc2a	-0.25558597
224	0x3d7f9951	0.062402073
225	0xbddc5aef	-0.10759532
226	0xbe100174	-0.14063054
227	0xbe92e7cb	-0.2869247
228	0x3eb411fc	0.3516997
229	0xbeac07a4	-0.3359958
230	0xbd21293e	-0.039345972
231	0xbd76da85	-0.06026699
232	0xbe28bb75	-0.16477759
233	0x3d5f219c	0.05447541
234	0x3d15ca11	0.03656966
235	0xbe0c8582	-0.13722804
236	0x3c8de05f	0.017318903
237	0xbe185fce	-0.14880297
238	0xbe4bb1ed	-0.19892092
239	0x3d08f6ab	0.033438366
240	0xbf3cf349	-0.73808724
241	0xbf17e726	-0.5933708
242	0x3e3fd9ba	0.187354
243	0xbdffa409	-0.12482459
244	0xbdc9473d	-0.09828041
245	0xbdcba9e7	-0.09944516
246	0xbe3111cf	-0.1729195
247	0xbe00cda1	-0.12578441
248	0xbedd1bbb	-0.4318522
249	0xbe7dd6ee	-0.2478902
250	0xbec31406	-0.38101214
251	0xbebf0f45	-0.37316337
252	0xbed63f82	-0.41845328
253	0xbe4f5105	-0.2024575
254	0x3c6c469c	0.014421131
255	0x3d71f618	0.059072584

linear1.bias f4 [256]
0	0xbedd4031	-0.43213037
1	0xbe4c6b81	-0.19962884
2	0xbf664f9b	-0.8996522
3	0xbe2d0d09	-0.16899504
4	0xbe84e9fc	-0.25959766
5	0xbf082d2d	-0.5319393
6	0xbe892951	-0.26789334
7	0xbe339075	-0.17535575
8	0xbef0ad3a	-0.4700716
9	0xbf0053c7	-0.50127834
10	0xbef11c21	-0.47091773
11	0xbe18a79b	-0.14907686
12	0xbc29a523	-0.010354313
13	0xbf202b23	-0.6256582
14	0xbe8cb85e	-0.2748441
15	0xbe871cbe	-0.26389116
16	0xbe9bd0ed	-0.30432835
17	0xbf81f09a	-1.0151551
18	0xbd22d835	-0.039756972
19	0x3d99e2a6	0.07513933
20	0xbf236c05	-0.638367
21	0xbdbfb1f9	-0.093601175
22	0xbe4604fe	-0.19337842
23	0xbee1f25e	-0.44130224
24	0xbf107a6d	-0.56436807
25	0xbeef191f	-0.46698853
26	0x3c8d1f79	0.017226921
27	0x3e1eaf81	0.15496637
28	0xbf291e72	-0.6606208
29	0xbe83e307	-0.25759146
30	0xbe3db998	-0.1852783
31	0xbf132464	-0.574774
32	0xbefb4aa8	-0.49080396
33	0x3cf24e12	0.029578242
34	0xbeaf4762	-0.34234148
35	0xbe5ce4f8	-0.2157172
36	0xbf2e2f71	-0.6804114
37	0xbf2e1a76	-0.68009126
38	0xbeca3ee6	-0.39501113
39	0xbe52cb0f	-0.20585273
40	0x3dbd2fab	0.092376076
41	0xbeaba143	-0.3352147
42	0xbe5e70d7	-0.21722732
43	0xbebca2bd	-0.3684291
44	0xbef15c1d	-0.4714059
45	0xbecbb5ce	-0.39787143
46	0xbf22b953	-0.6356403
47	0xbe93b000	-0.28845215
48	0xbfa6f656	-1.3043926
49	0x3e85c28a	0.26124984
50	0xbccdca4c	-0.025120877
51	0xbea22d34	-0.31675112
52	0xbe79ad72	-0.2438257
53	0xbed6d905	-0.41962448
54	0x3ef873d5	0.48525873
55	0xbf02d3c5	-0.51104385
56	0xbf306196	-0.68898904
57	0x3eb8490c	0.3599323
58	0xbefef95b	-0.49799618
59	0xbf06ec2e	-0.5270413
60	0xbe9f2128	-0.31079984
61	0xbf1e1535	-0.6175111
62	0xbd3d93f6	-0.046283685
63	0xbf651ef2	-0.89500344
64	0xbe87cd26	-0.26523703
65	0xbe4bad29	-0.19890274
66	0xbed69d9a	-0.41917115
67	0xbe9bf33c	-0.3045901
68	0x3e49d474	0.1970995
69	0xbee7a16c	-0.45240343
70	0xbe942d28	-0.289407
71	0xbecde957	-0.40217087
72	0xbf1d3dc1	-0.61422354
73	0xbf10d36e	-0.56572616
74	0xbeb7dfbf	-0.35912892
75	0xbda43df5	-0.0801963
76	0xbf13cb85	-0.5773242
77	0x3f204b01	0.62614447
78	0xbed3a3d1	-0.4133592
79	0xbead4b91	-0.33846715
80	0xbdc52dd5	-0.096278824
81	0xbea95300	-0.33071136
82	0xbefc568e	-0.49284786
83	0xbe12664c	-0.14296836
84	0xbec1b9e1	-0.37837127
85	0xbea47aac	-0.3212484
86	0xbf0741d3	-0.52834815
87	0x3bbdb493	0.0057893484
88	0xbeb15f22	-0.34642893
89	0xbd8c9888	-0.068650305
90	0xbea97c94	-0.33102858
91	0xbee14101	-0.43994907
92	0xbf1e6d1d	-0.61885244
93	0x3efeed72	0.4979053
94	0xbf8a3920	-1.0798683
95	0xbeadd5c8	-0.33952165
96	0xbdf0bf94	-0.11755291
97	0xbeb44897	-0.35211632
98	0xbbf47009	-0.0074596447
99	0xbe212d02	-0.15739825
100	0xbf019539	-0.5061832
101	0xbeea5371	-0.45766786
102	0xbec1a7fe	-0.3782348
103	0xbf0bdc9f	-0.54633516
104	0xbee82b09	-0.45345333
105	0xbee77823	-0.45208845
106	0xbef99f1c	-0.48754203
107	0xbeaa406b	-0.33252272
108	0xbf728c6a	-0.94745505
109	0xbe532381	-0.20619012
110	0xbf0ae3b8	-0.5425372
111	0xbf0eab3a	-0.5573002
112	0xbe9f4750	-0.31109095
113	0xbed296bf	-0.41130635
114	0xbeab8bda	-0.33505136
115	0xbf390045	-0.72266036
116	0xbef4c0f4	-0.47803462
117	0x3cdd6d3a	0.027029622
118	0xbe61a3c8	-0.22035134
119	0x3f46f105	0.77711517
120	0xbe56b149	-0.20966066
121	0x3e06b9cf	0.13156818
122	0xbe6b03e4	-0.22950703
123	0xbf232847	-0.63733333
124	0xbe9560a3	-0.2917529
125	0x3e8f4bbe	0.27987474
126	0xbeee55e4	-0.46549904
127	0xbe813168	-0.25233006
128	0xbde03194	-0.10946956
129	0xbedff051	-0.43738034
130	0x3eb4f546	0.3534338
131	0xbee6d713	-0.45085964
132	0x3c16df82	0.009208562
133	0xbea9f01b	-0.33190998
134	0xbec0ce44	-0.37657368
135	0xbe9aa352	-0.3020273
136	0xbef3070a	-0.47466308
137	0xbf0a685c	-0.5406549
138	0xbee70b2c	-0.4512571
139	0xbe39c42e	-0.18141243
140	0xbf25fa0b	-0.6483466
141	0xbf1fa653	-0.62363166
142	0xbe5131df	-0.2042918
143	0xbf8520c9	-1.040063
144	0xbe42baee	-0.1901662
145	0xbe249a85	-0.1607457
146	0xbea81c1b	-0.32833943
147	0xbf1cc847	-0.612431
148	0xbed8e8a5	-0.42364994
149	0xbf3256fd	-0.69663984
150	0xbe174d2c	-0.14775532
151	0xbca05f00	-0.01957655
152	0xbe900e1e	-0.2813577
153	0xbe859ff1	-0.26098588
154	0xbee06703	-0.43828592
155	0xbe9be90b	-0.30451235
156	0x3dd29747	0.1028276
157	0x3ecd3ec7	0.40086958
158	0xbedc1f78	-0.4299276
159	0xbeb300d8	-0.3496158
160	0xbf12fc1d	-0.57415944
161	0xbeff1649	-0.4982169
162	0x3f16d7be	0.58922946
163	0xbf18862d	-0.59579736
164	0xbf526a24	-0.8219321
165	0xbe73f58e	-0.2382414
166	0xbeb0869f	-0.34477708
167	0xbed2120f	-0.41029403
168	0xbe8daf04	-0.2767259
169	0x3df2ff84	0.11865142
170	0xbe8cbdae	-0.27488464
171	0xbe7f15a8	-0.24910605
172	0xbe61a0dd	-0.2203402
173	0xbe771508	-0.24129117
174	0xbbf32d74	-0.00742119
175	0xbed55390	-0.41665316
176	0xbecf650a	-0.40506774
177	0xbeac75fc	-0.33683765
178	0xbe136a94	-0.14396125
179	0xbf0a4ae2	-0.5402051
180	0xbea22efd	-0.31676474
181	0xbe6b14ad	-0.22957106
182	0xbef8e4cf	-0.48612067
183	0xbf19dbfb	-0.6010129
184	0xbf1f5d35	-0.622516
185	0xbec7f7ff	-0.39056394
186	0xbf9450f4	-1.1587205
187	0xbef1e3a2	-0.47243983
188	0xbf067701	-0.52525336
189	0xbe2d8dc1	-0.16948606
190	0x3eda4394	0.42629683
191	0xbe729119	-0.23688163
192	0xbe3f53ba	-0.18684283
193	0xbf01bdd6	-0.5068029
194	0xbe913a45	-0.2836477
195	0xbe221b63	-0.1583076
196	0xbe3f6e16	-0.18694338
197	0xbe62f355	-0.22163136
198	0xbeb83ca5	-0.35983768
199	0xbebf80af	-0.37402865
200	0xbcefa0c7	-0.02925147
201	0xbd2aa76c	-0.041663572
202	0xbe607d9c	-0.21922916
203	0xbede8dd4	-0.4346758
204	0x3dccb272	0.09994973
205	0xbefd8b17	-0.4952018
206	0xbf5927c8	-0.84826326
207	0xbf291413	-0.66046256
208	0xbe317f0d	-0.17333622
209	0xbf28ca82	-0.65934
210	0x3e2c103b	0.16803066
211	0xbf0953b8	-0.5364337
212	0x3f2c61de	0.67336833
213	0xbe3916a8	-0.18075049
214	0xbeab9f23	-0.3351985
215	0xbe5928fc	-0.2120704
216	0xbea70b01	-0.32625583
217	0xbea4b643	-0.32170305
218	0xbef3b1f0	-0.47596693
219	0xbf0d6771	-0.55235964
220	0xbf16875c	-0.5880029
221	0xbe96879b	-0.29400334
222	0xbf10f554	-0.5662434
223	0xbf19e90b	-0.6012122
224	0xbe701aba	-0.23447695
225	0xbf19125a	-0.5979363
226	0xbeb38e5f	-0.35069558
227	0x3e1a3649	0.1505977
228	0xbe10718e	-0.14105818
229	0xbe7953e8	-0.24348414
230	0xbe94b0ab	-0.29041037
231	0xbed27a1d	-0.4110879
232	0xbeb12b34	-0.34603274
233	0xbebf9b34	-0.37423098
234	0xbdf86a89	-0.12129695
235	0xbf5f5bb7	-0.8724932
236	0xbeed6e40	-0.46373177
237	0x3dd98b5a	0.10622282
238	0xbe82b38d	-0.2552761
239	0xbe908dcb	-0.2823318
240	0xbeb62493	-0.3557478
241	0x3c9e5a84	0.01933027
242	0xbd43a5fe	-0.047765724
243	0xbf10df23	-0.5659048
244	0xbe51f08c	-0.20501918
245	0xbed27e59	-0.4111202
246	0xbe6daa06	-0.2320939
247	0xbcf9f5a8	-0.030512646
248	0x3ea0c6ac	0.31401575
249	0xbf20c2cd	-0.6279724
250	0xbe956bce	-0.2918381
251	0x3cfc1b1d	0.030774647
252	0xbe8d4034	-0.27588046
253	0xbf1b5345	-0.60673934
254	0xbebdff40	-0.37108803
255	0xbf0db86b	-0.55359524

linear2.weight f4 [3, 256]
0	0x3e8a7d35	0.2704865
1	0x3d30b6fa	0.04314325
2	0xbee8bad3	-0.45455036
3	0xbe131fb2	-0.1436756
4	0xbd34bce1	-0.04412544
5	0xbc05844a	-0.008149216
6	0x3c0f01a3	0.008728418
7	0xbc4fdb15	-0.012686511
8	0xbcca8ecd	-0.024726296
9	0xbd8af994	-0.067858845
10	0xbe52522f	-0.20539163
11	0x3d9eb682	0.07749654
12	0xbf843f95	-1.0331904
13	0xbec65676	-0.3873784
14	0xbc56ab14	-0.013102312
15	0xbeb7aff8	-0.3587644
16	0x3dc47aa0	0.09593701
17	0xbf4100d5	-0.75391895
18	0x3d40c6b7	0.04706451
19	0xbf414ee6	-0.75511014
20	0x3e0d67b9	0.13809098
21	0xbd2eba5c	-0.042658195
22	0x3baf4799	0.0053491113
23	0x3cde316c	0.027123176
24	0x3db135c0	0.0865283
25	0x3cd63543	0.026148444
26	0x3e30b18d	0.1725523
27	0xbedc6306	-0.430443
28	0x3daaa0ff	0.08331489
29	0xbdfe11fb	-0.12405773
30	0x3d76abf2	0.060222574
31	0x3d104c00	0.03522873
32	0x3e1b593d	0.1517076
33	0x3cb8ac81	0.022543194
34	0xbe3956ca	-0.18099514
35	0xbe5a9467	-0.21345674
36	0x3bdbf7ee	0.006712905
37	0x3f16488d	0.58704454
38	0x3c8ae91f	0.016956864
39	0xbe7a3d20	-0.2443738
40	0x3e6f2a1a	0.23355904
41	0xbe0019e0	-0.1250987
42	0x3a6594e8	0.00087578455
43	0xbcc51871	-0.024059506
44	0xbbbd9cf5	-0.005786533
45	0xbd1f0a94	-0.038828447
46	0x3e125604	0.14290625
47	0xbe12afac	-0.14324826
48	0xbf8c468c	-1.0959029
49	0x3ea60906	0.3242876
50	0xbef57264	-0.47938836
51	0xbdb22724	-0.08698872
52	0x3e43532d	0.19074698
53	0xbdf6f9a6	-0.120593354
54	0x3f2709a2	0.65249074
55	0x3995b119	0.00028551443
56	0x3df2b51d	0.11850951
57	0x3e98af1c	0.29821098
58	0xbe57f5a0	-0.21089792
59	0xbd90c1b1	-0.07068194
60	0x3b77e0a4	0.0037823105
61	0xbd895da5	-0.067073144
62	0xbc9c4ef0	-0.01908061
63	0xbe09f85b	-0.13473646
64	0x3d244ef7	0.04011437
65	0x3cf53d94	0.02993659
66	0x3e980189	0.2968867
67	0x3cb82ec4	0.022483237
68	0xbf29bcba	-0.663036
69	0xbf0d6722	-0.55235493
70	0xbec6da17	-0.38838264
71	0xbe31ea6e	-0.17374584
72	0xba4c5a46	-0.0007795434
73	0x3e93e5f0	0.28886366
74	0x3bf697d6	0.0075254245
75	0x3bb27127	0.0054456177
76	0xbdac1610	-0.084026456
77	0x3f063f6c	0.52440524
78	0xbe1ff200	-0.1561966
79	0x3e9d48cc	0.30719602
80	0x3c848270	0.016175479
81	0xbe5fd818	-0.21859777
82	0x3d8bf22a	0.068332985
83	0x3e35a4f3	0.17738704
84	0x3ede6ea7	0.43443796
85	0x3c4d0566	0.012513494
86	0xbb975ed4	-0.0046194587
87	0x3ece12eb	0.40248808
88	0x3ea59a2c	0.32344186
89	0xbdee49c1	-0.11635161
90	0xbd27bb84	-0.040950313
91	0x3e2d84ac	0.16945142
92	0xbe0fe4cc	-0.14052123
93	0x3eb42c42	0.35190016
94	0xbf3dd66b	-0.741553
95	0xbdf02c3d	-0.11727188
96	0xbf3c049c	-0.73444533
97	0x3ef86bb3	0.48519668
98	0x3e65b748	0.22433197
99	0x3eb9c47b	0.36282715
100	0xbd2df587	-0.04247048
101	0xbf91c1bd	-1.1387249
102	0xbd9acc59	-0.075585075
103	0xbe60772d	-0.21920462
104	0x3e03c205	0.12866981
105	0xbdd10103	-0.10205271
106	0xbb9640b4	-0.00458535
107	0xbe36f401	-0.17866518
108	0xbe38c92a	-0.18045488
109	0xbc74d0ca	-0.014942357
110	0x3f5c9377	0.86162513
111	0xbcb69c63	-0.022291368
112	0xbdcc0be9	-0.09963209
113	0x3d9b021c	0.07568762
114	0x3c9a0a28	0.018803671
115	0xbf09c87c	-0.5382154
116	0xbe22bffe	-0.15893552
117	0xbd96a935	-0.073564924
118	0xbef63c6b	-0.4809297
119	0x3ef03c97	0.46921226
120	0x3e7d7949	0.24753298
121	0x3db0be90	0.08630097
122	0x3c7279fd	0.014799592
123	0x3e51f498	0.20503461
124	0xbc8712dc	-0.016488485
125	0x3ecf87a1	0.40533164
126	0x3d545988	0.051843196
127	0x3cb2258f	0.021746425
128	0xbf0d2ea8	-0.55149317
129	0xbe1608d4	-0.14651805
130	0x3f0a43ca	0.5400969
131	0x3e4e45eb	0.20143859
132	0xbede963d	-0.43473998
133	0xbd23f689	-0.040030036
134	0xbef8450f	-0.48490188
135	0xbe23d9a9	-0.16001
136	0xbda1fe8f	-0.07909881
137	0x3da3942a	0.079872444
138	0xbe1c52d0	-0.15265965
139	0xbdfc445d	-0.12317727
140	0x3d174c70	0.03693813
141	0x3e475894	0.19467384
142	0x3ce26ac8	0.027638808
143	0xbf1e6605	-0.6187442
144	0xbd8bc4b0	-0.068246245
145	0x3de2fc4e	0.110832796
146	0x3b967101	0.004591108
147	0xbe389191	-0.18024279
148	0xbd58b7d8	-0.052909702
149	0x3cb5f877	0.022213204
150	0xbe17b84d	-0.14816399
151	0xbca90ce8	-0.020636037
152	0xbdc20e1e	-0.09475349
153	0xbf84640b	-1.0343031
154	0xbd8aa07c	-0.06768891
155	0xbc07718c	-0.008266818
156	0xbebfc25e	-0.37452978
157	0x3f273b31	0.65324694
158	0xbdd87a21	-0.10570169
159	0xbe6256e8	-0.22103465
160	0xbeb546ab	-0.35405478
161	0xba59c740	-0.00083075836
162	0x3f56d608	0.83920336
163	0xbca474a9	-0.02007516
164	0x3edbedd9	0.429549
165	0x3cbccd54	0.023047127
166	0x3c984fe2	0.018592779
167	0xbedc76a2	-0.4305926
168	0xbd3e8774	-0.046515897
169	0xbc938fcb	-0.018012902
170	0x3e155af8	0.14585483
171	0x3ca0733c	0.019586198
172	0xbeee95a7	-0.4659855
173	0x3e32d289	0.17463125
174	0x3d8f025a	0.069828704
175	0x3f5e6eb5	0.86887676
176	0x3d814da6	0.063136384
177	0x3e13d9e6	0.1443859
178	0xbb4603aa	-0.0030214586
179	0x3e7a0477	0.24415766
180	0x3d2c6066	0.04208412
181	0x3b6607c0	0.0035099834
182	0xbb5015fd	-0.0031751387
183	0xbd3df183	-0.0463729
184	0xbe6aee91	-0.22942568
185	0x3d8129f3	0.06306829
186	0xbf1a7824	-0.6033957
187	0x3f41318e	0.7546624
188	0xbecea452	-0.4035974
189	0xbf03aaeb	-0.51432675
190	0x3f069743	0.5257456
191	0xbe332b67	-0.17497025
192	0xbadcf545	-0.0016857764
193	0xbdf87142	-0.12130977
194	0xbbc70b36	-0.0060743345
195	0x3bc459eb	0.0059921644
196	0xbe32c223	-0.1745687
197	0xbd9b0c5b	-0.07570716
198	0xbd776b91	-0.060405318
199	0x3e7397c2	0.2378836
200	0x3e51e05a	0.2049574
201	0x3d723d79	0.059140656
202	0xbcf4894a	-0.02985062
203	0x3e93a571	0.2883716
204	0xbd972504	-0.07380107
205	0xbd2ea72a	-0.04263989
206	0xbf7b709f	-0.9821872
207	0xbccb6dc9	-0.024832623
208	0xbe8059c2	-0.2506848
209	0xbdf0ca50	-0.11757338
210	0xbd1e58db	-0.038658958
211	0xbcdd9928	-0.02705057
212	0x3f2f8bad	0.68572503
213	0x3e1aa549	0.15102114
214	0x3d65e5be	0.056127302
215	0x3ce7997a	0.028271426
216	0x3eab7bd3	0.33492908
217	0xbe1e37ef	-0.15451024
218	0xbd8c4dd9	-0.06850786
219	0xbece0199	-0.40235594
220	0x3e105f5e	0.1409888
221	0x3e095ab2	0.13413504
222	0x3e892cf2	0.26792103
223	0x3d6fee09	0.058576617
224	0xbd4f8016	-0.05065926
225	0x3c6a25f9	0.01429128
226	0x3dc969f2	0.098346606
227	0x3ead239f	0.3381624
228	0x3bf0b0f4	0.007345313
229	0x3d698786	0.05701401
230	0xbe1abc8b	-0.15110986
231	0x3b989e6c	0.0046575572
232	0xbf2e1a8b	-0.6800925
233	0xbe93531e	-0.2877435
234	0xbce9c474	-0.028536059
235	0xbf1d4910	-0.6143961
236	0xbebc6708	-0.36797357
237	0x3eae4488	0.3403666
238	0xbe3d9549	-0.18513979
239	0x3d105470	0.035236776
240	0x3eda1d39	0.4260042
241	0x3e376071	0.17907883
242	0xbd93d6bc	-0.07218692
243	0x3ef6c530	0.48197317
244	0xbdb4867b	-0.088147126
245	0xbebcb73c	-0.36858547
246	0x3cc373be	0.023858901
247	0x3f869051	1.0512792
248	0x3e794981	0.24344446
249	0x3e520eff	0.20513533
250	0xbda08d2f	-0.07839429
251	0x3e2f4ee1	0.17119934
252	0xbf771db1	-0.9652968
253	0xbe0f1380	-0.13972282
254	0xbf63a821	-0.8892842
255	0xbdf5ce52	-0.12002243

linear2.bias f4 [3]
0	0x3ec646a7	0.38725778
1	0xbd2a821d	-0.041627992
2	0xbe4d427d	-0.20044895
