DDQN_models/noisy-model1-snapshot-score-30.pth (torch, 33781 bytes, 8 tensors)

layer1.weight_mu f4 [256, 11]
0.2931982 -0.33976427 0.083081104 -0.046674073 -0.21403211 -0.6839686 -0.55123043 -0.66089433
-1.0192531 0.4180283 -0.99881613 0.09211663 0.5964508 -0.6353279 -0.1709689 -0.8627055
-0.9207268 -0.537339 -0.94598603 -0.77085507 -0.051509406 0.35736552 0.17989863 0.15847756
-0.5712967 -0.45830512 -0.70626396 -0.79084814 -0.71268797 -0.8944626 -0.7335272 0.3946587
0.05562837 0.28070635 -0.13938053 -0.5206264 -0.37194067 -0.43810737 -0.8104777 -0.32732505
-0.35236788 0.80313605 0.112789415 0.21073823 -0.7859842 -0.78266656 -0.97081524 -0.9759695
0.032949205 -0.11536317 0.027000034 0.23398589 0.12447888 -0.07801575 1.8350147 0.07829081
-0.053952217 -0.8390869 -0.42708898 -0.7433261 -0.6128318 -0.35798174 -0.9510396 -1.2858678
-0.12733528 0.4249929 0.07829461 -0.12759477 -0.018021462 0.023697602 -0.09282709 -0.0063554915
0.07081748 -0.040704966 -0.17780273 0.10126499 -0.27457798 -0.18953016 -0.105870545 0.049255665
-0.44006374 -0.5219361 -0.6182455 -0.19852816 -0.20126338 -0.09059525 -0.24513097 -0.49103194
-0.055746544 -0.2071799 -0.28985715 0.042024713 -0.5420319 -0.37538713 -0.20116208 -0.34571478
-0.032921217 -0.4305246 0.10350597 0.043933634 -0.062073305 -0.18243116 -0.28528586 -0.19146237
-0.18780524 -0.262451 -0.084207684 -0.01812808 0.061899193 0.040990163 -0.4484659 -0.43043402
0.74186164 1.013784 -1.1265397 -1.1480948 -0.9877128 -0.9016478 -0.08390473 0.20612738
0.09307351 -0.18833369 -0.26732463 -0.18677957 -0.020652525 0.14594047 0.016737694 -0.051278085
0.011742568 -0.08705202 -0.061955366 -0.06451418 0.30232102 0.2425163 -0.4528694 -0.10841195
-0.6212108 -0.89181393 -0.99496 -0.85246855 -1.0825317 0.33533582 0.079377614 0.45059085
-1.5712119 -1.5331827 0.2879481 -0.8285294 0.431951 -0.60047334 -0.09590505 -1.1157473
0.11851211 -0.25733653 0.08841714 0.15256374 -0.63480407 -0.7339159 -0.7883684 -0.39903992
-0.6878085 -0.33392918 -1.1558125 -1.327328 -1.4416425 0.26913673 0.43610993 -0.10275503
-0.7840634 -0.5372414 -0.69607 -0.6523826 -0.71640927 -1.0133482 0.4091666 -0.41809654
0.5157486 0.44989303 -0.5220334 -0.26108772 -1.0177884 -1.4560817 -1.3370848 -1.4638766
-0.89046276 -0.16518767 -0.030424535 0.17256108 0.19106367 -0.17316677 -0.523235 -0.7135395
-0.48685217 -0.67442226 -0.7031256 -0.7865257 0.29076856 -0.1441266 -0.4374697 0.30302358
-0.54865265 0.01274967 -0.4231432 -0.2743968 -0.53715634 -0.27720022 0.20032533 -0.16472858
0.54408634 -0.029387765 0.535869 -0.746207 0.4897527 -1.0197908 0.011210023 -0.9236789
-0.4718738 -1.5445284 -0.11859124 0.23069888 0.3819297 0.45400718 -0.022331951 -0.34129965
-0.37085623 -0.59772635 -0.35260278 -0.40334007 0.17482892 -0.34355408 -0.5895403 0.09334052
0.067657925 -0.33093145 0.008812355 -0.729965 -0.5520799 -0.31266856 -0.4133026 -0.8435681
-0.08525323 -0.15533848 0.15743749 0.5718866 -0.66373974 -0.07178056 -0.36957788 -0.3868501
-0.648658 -0.5929437 -0.70064884 0.15277246 0.03356298 -0.20895115 -0.20626281 0.0660217
00000000: 131e 963e 95f5 adbe 6d26 aa3d 502d 3fbd
00000010: 3c2b 5bbe 9118 2fbf 701d 0dbf 5f30 29bf
00000020: e376 82bf ce07 d63e 6ab2 7fbf a5a7 bc3d
00000030: 00b1 183f d9a4 22bf 7912 2fbe 45da 5cbf
00000040: c0b4 6bbf 0c8f 09bf 242c 72bf c256 45bf
00000050: 87fb 52bd 9df8 b63e 5937 383e f147 223e
00000060: 8040 12bf f8a6 eabe b7cd 34bf 0675 4abf
00000070: b872 36bf 80fb 64bf 70c8 3bbf b510 ca3e
00000080: 93da 633d beb8 8f3e c5b9 0ebe c647 05bf
00000090: 026f bebe 9c4f e0be 777b 4fbf 2697 a7be
000000a0: 9069 b4be 539a 4d3f 23fe e63d c3cb 573e
000000b0: 4336 49bf d65c 48bf 5987 78bf 23d9 79bf
000000c0: bff5 063d 8743 ecbd 2d2f dd3c ff99 6f3e
000000d0: c8ee fe3d b9c6 9fbd c3e1 ea3f ef56 a03d
000000e0: 00fd 5cbd 66ce 56bf 68ab dabe 9f4a 3ebf
000000f0: 8be2 1cbf 6249 b7be 5577 73bf 5197 a4bf
00000100: 2e64 02be ab98 d93e ed58 a03d 34a8 02be
00000110: bfa1 93bc 7921 c23c 211c bebd ba41 d0bb
00000120: c108 913d 40ba 26bd eb11 36be 0564 cf3d
00000130: 7c95 8cbe 3214 42be a8d2 d8bd 4fc0 493d
00000140: 0950 e1be 9b9d 05bf 5645 1ebf f74a 4bbe
00000150: fd17 4ebe 018a b9bd 9d03 7bbe 8a68 fbbe
00000160: 7d56 64bd f826 54be 2868 94be 1b22 2c3d
00000170: 9ac2 0abf be32 c0be 6ffd 4dbe 8701 b1be
00000180: 66d8 06bd b86d dcbe f0fa d33d c1f3 333d
00000190: 9440 7ebd 3ccf 3abe fd10 92be b60e 44be
000001a0: 0450 40be fa5f 86be 1475 acbd 5781 94bc
000001b0: 028a 7d3d 4de5 273d 539d e5be d961 dcbe
000001c0: a5ea 3d3f adc3 813f 7432 90bf c5f4 92bf
000001d0: bfda 7cbf 64d2 66bf 3ed6 abbd 0e13 533e
000001e0: 539d be3d 8cda 40be c6de 88be 2543 3fbe
000001f0: 7c2f a9bc 6b71 153e 7d1d 893c f808 52bd
00000200: e663 403c 5448 b2bd e9c4 7dbd 0320 84bd
00000210: d2c9 9a3e 3156 783e 7fde e7be 1607 debd
00000220: ac07 1fbf eb4d 64bf b3b5 7ebf 613b 5abf
00000230: 6690 8abf 23b1 ab3e bb90 a23d d8b3 e63e
00000240: 791d c9bf 553f c4bf ef6d 933e 811a 54bf
00000250: ae28 dd3e 9fb8 19bf de69 c4bd cfd0 8ebf
00000260: 7ab6 f23d 9dc1 83be 0c14 b53d ab39 1c3e
00000270: 8582 22bf eae1 3bbf 83d2 49bf f64e ccbe
00000280: 3814 30bf c4f8 aabe aaf1 93bf e2e5 a9bf
00000290: be87 b8bf 4acc 893e cd49 df3e 3b71 d2bd
000002a0: 61b8 48bf a788 09bf a531 32bf 8c02 27bf
000002b0: 9966 37bf 65b5 81bf 497e d13e c010 d6be
000002c0: 1a08 043f 6158 e63e fba3 05bf 4aad 85be
000002d0: e446 82bf e360 babf 9825 abbf 4f60 bbbf
000002e0: 5ef5 63bf f526 29be e03c f9bc dab3 303e
000002f0: 32a6 433e a152 31be bbf2 05bf 86aa 36bf
00000300: b044 f9be f0a6 2cbf 0a00 34bf c059 49bf
00000310: 9edf 943e ec95 13be 07fc dfbe e825 9b3e
00000320: 8074 0cbf fee3 503c 3aa6 d8be bd7d 8cbe
00000330: 1483 09bf 30ed 8dbe 1522 4d3e 9cae 28be
00000340: 3e49 0b3f 9cbe f0bc b62e 093f 6c07 3fbf
00000350: dec0 fa3e 8188 82bf 3faa 373c 3876 6cbf
00000360: 7199 f1be 1bb3 c5bf f7df f2bd 543c 6c3e
00000370: 4a8c c33e a173 e83e 7ff1 b6bc d4be aebe
00000380: dee0 bdbe 9804 19bf 5a88 b4be 9782 cebe
00000390: 5a06 333e 52e6 afbe 1dec 16bf 5129 bf3d
000003a0: 3d90 8a3d d96f a9be b261 103c fcde 3abf
000003b0: 1c55 0dbf 1816 a0be 669c d3be 14f4 57bf
000003c0: 3f99 aebd 0d11 1fbe 4b37 213e 2967 123f
000003d0: d9ea 29bf b001 93bd 5039 bdbe 3711 c6be
000003e0: 730e 26bf 29cb 17bf b95d 33bf 6270 1c3e
000003f0: 5679 093d 4af7 55be 8f36 53be 6336 873d

layer1.weight_sigma f4 [256, 11]
-0.81135833 -0.7798594 -0.08185884 0.27989736 0.34267086 0.07998078 0.51026505 -0.09147937
-0.09332014 -0.40870705 0.010548481 -0.6222566 0.7979041 -0.22226132 -0.12873714 -0.2306128
-0.00025244325 -0.014915883 -0.1779175 0.08114558 -0.4251562 -0.06999982 0.77546865 -0.791163
0.055720754 0.20787838 0.2143584 0.08354655 -0.46583307 0.36718458 0.050054766 0.31062052
-0.51594144 0.5896936 0.97799075 -0.41056612 0.07417262 0.41795075 -0.051185913 0.107730076
-0.16121493 0.24999018 0.18457548 0.1543081 -0.11974138 -0.2639787 0.11548431 -0.08038618
0.13207147 -0.0033244516 0.10993378 0.057889085 0.06261164 0.008322251 -0.012577425 -0.5431667
0.49978513 -0.015857857 0.07478962 -0.11707172 -0.047461025 -0.19721776 -0.02293004 0.14228861
-0.29387042 0.37439957 -0.039116994 -0.016490245 0.01745429 0.11745852 -0.0083711 -0.035861276
0.026231866 0.012507316 0.016324181 0.02023252 0.03264903 0.24769345 0.17421709 -0.06364825
0.0056375577 0.0917503 -0.14005764 0.073770195 0.005276073 -0.13656518 -0.15440884 -0.28574565
0.048117884 0.02870949 0.0021291107 -0.02500055 -0.056492906 0.15893868 0.096282646 -0.055997964
-0.08438602 -0.061616644 -0.01882177 -0.020285008 0.005125693 0.005125693 0.005125693 0.005125693
0.005125693 0.005125693 0.005125693 -0.02663978 -0.026297743 0.0052010366 0.12549111 -0.423473
-0.08480889 -0.013246821 0.10718714 -0.07291642 -0.0098809255 -0.032339122 0.066958554 -0.17367803
-0.067747384 -0.008536283 0.005125693 -0.024255509 -0.0039432095 0.007607317 -0.0072102533 -0.033751942
0.0365914 0.010132207 -0.029404402 -0.016947584 0.63280666 -0.54492605 0.14708762 -0.0032671115
0.2505301 -0.08574161 0.113615476 0.114666186 0.10693894 0.24863046 0.6530964 0.1397887
-0.015536663 -0.052414574 0.025845734 0.07201363 0.0074147233 0.043508884 -0.058770813 0.05789958
-0.17881851 -0.008018178 0.23282284 -0.15728348 0.007225423 0.05619145 -0.053923048 0.01377352
-0.06265925 0.020808043 0.080182955 -0.04990008 0.035309155 0.95766276 0.6663841 -0.35574275
0.049304206 -0.13847105 0.25040784 0.17208424 0.060099013 -0.11665311 -0.24854065 -0.6372541
-1.1570249 -1.0092891 -0.03423028 0.015199911 -0.16836779 -0.17689453 -0.0021041534 0.1372276
0.05181989 0.017540388 -0.34508392 0.4451275 0.54909766 -0.15946053 0.017750438 0.09409835
0.19386435 -0.019390047 -0.023894463 0.053270735 -0.11645689 -0.45166323 -0.07651254 0.7749587
0.10465752 0.21941094 0.45996597 -0.2737433 0.28978586 -0.30173343 0.040024664 0.2411727
-0.14988317 -0.009190069 0.06795292 -0.19137259 -0.07884572 -0.05068565 -0.011215352 -0.021329023
-0.030209702 -0.03828544 0.005170194 -0.07816617 0.7228103 0.41309237 0.78336686 0.17559494
-0.036837652 0.2930627 0.20675802 -0.31529602 -0.121968314 -0.42043635 -0.0567085 0.5701741
-0.37830952 -0.26171532 0.08961039 0.34513086 0.31734517 -0.12373448 -0.023449179 -0.0591932
-0.55464184 -0.15208589 0.6898721 -0.52957165 -0.104708135 -0.09320993 -0.45428035 0.26570985
-0.0649095 -0.5685825 -0.011970453 0.3189691 -0.7504571 0.09819161 0.07073267 -0.06871648
00000000: 2eb5 4fbf dea4 47bf 9ca5 a7bd b54e 8f3e
00000010: 8e72 af3e f7cc a33d bba0 023f 8959 bbbd
00000020: a11e bfbd 0d42 d1be 89d3 2c3c 354c 1fbf
00000030: 7143 4c3f 7998 63be abd3 03be c325 6cbe
00000040: 5c5a 84b9 bf61 74bc 0130 36be a72f a63d
00000050: 13ae d9be 115c 8fbd 1d85 463f a989 4abf
00000060: 723b 643d 12de 543e c580 5b3e 741a ab3d
00000070: ac81 eebe 9eff bb3e 3a06 4d3d a709 9f3e
00000080: bd14 04bf 29f6 163f 9a5d 7a3f b935 d2be
00000090: d1e7 973d a4fd d53e 52a8 51bd 96a1 dc3d
000000a0: 8715 25be 6dfd 7f3e 5b01 3d3e f102 1e3e
000000b0: f83a f5bd 3728 87be 0a83 ec3d 82a1 a4bd
000000c0: be3d 073e 0bdf 59bb f624 e13d 1b1d 6d3d
000000d0: 883a 803d 0d5a 083c 8b11 4ebc f90c 0bbf
000000e0: d6e3 ff3e 56e8 81bc 4d2b 993d 4cc3 efbd
000000f0: 7e66 42bd 74f3 49be c7d7 bbbc 1bb4 113e
00000100: 2f76 96be 4db1 bf3e 2439 20bd 8d16 87bc
00000110: 4dfc 8e3c 188e f03d f026 09bc 46e3 12bd
00000120: 36e4 d63c 7ceb 4c3c 4aba 853c abbe a53c
00000130: fdba 053d 5aa3 7d3e f765 323e 045a 82bd
00000140: 43bb b83b 95e7 bb3d 456b 0fbe d414 973d
00000150: e8e2 ac3b bed7 0bbe 5a1d 1ebe 414d 92be
00000160: 4217 453d 2a30 eb3c 8d88 0b3b f4cd ccbc
00000170: 1b65 67bd d2c0 223e d62f c53d 1f5e 65bd
00000180: 94d2 acbd bc61 7cbd 1d30 9abc bf2c a6bc
00000190: 6ef5 a73b 6ef5 a73b 6ef5 a73b 6ef5 a73b
000001a0: 6ef5 a73b 6ef5 a73b 6ef5 a73b ab3b dabc
000001b0: 5d6e d7bc 756d aa3b be80 003e 74d1 d8be
000001c0: 49b0 adbd 3209 59bc ee84 db3d 3455 95bd
000001d0: 9be3 21bc 0776 04bd 9121 893d a7d8 31be
000001e0: 24bf 8abd c4db 0bbc 6ef5 a73b 7db3 c6bc
000001f0: 0a36 81bb cd46 f93b fd43 ecbb 7a3f 0abd
00000200: dde0 153d 8e01 263c 80e1 f0bc a9d5 8abc
00000210: 9eff 213f 4680 0bbf 239e 163e 091d 56bb
00000220: 7b45 803e 4c99 afbd 3baf e83d 1bd6 ea3d
00000230: ce02 db3d fc98 7e3e 5331 273f c524 0f3e
00000240: 7d8d 7ebc aab0 56bd 6fba d33c e27b 933d
00000250: 35f7 f23b 5f36 323d aab9 70bd 1c28 6d3d
00000260: 331c 37be ad5e 03bc 1c69 6e3e ec0e 21be
00000270: 3ec3 ec3b 0229 663d 6ade 5cbd 54aa 613c
00000280: 7e53 80bd a175 aa3c f636 a43d 0764 4cbd
00000290: 55a0 103d 6329 753f 2698 2a3f ea23 b6be
000002a0: 35f3 493d 5bcb 0dbe 7535 803e da36 303e
000002b0: 622a 763d d3e7 eebd 7181 7ebe 1623 23bf
000002c0: 6419 94bf 6330 81bf 0d35 0cbd 0c09 793c
000002d0: 9b68 2cbe d723 35be d6e5 09bb 6485 0c3e
000002e0: 1841 543d dcb0 8f3c d7ae b0be c0e7 e33e
000002f0: aa91 0c3f 9f49 23be 5e69 913c a3b6 c03d
00000300: 6084 463e e0d7 9ebc 52be c3bc 6a32 5a3d
00000310: f380 eebd 6740 e7be 9bb2 9cbd b263 463f
00000320: af56 d63d 43ad 603e a980 eb3e 1528 8cbe
00000330: d05e 943e ce7c 9abe e7f0 233d faf5 763e
00000340: f97a 19be f191 16bc e72a 8b3d 2df7 43be
00000350: dd79 a1bd c29b 4fbd 99c0 37bc 34ba aebc
00000360: 567a f7bc 32d1 1cbd bb6a a93b 9615 a0bd
00000370: 190a 393f d880 d33e bb8a 483f 29cf 333e
00000380: 14e3 16bd 500c 963e 60b8 533e 7b6e a1be
00000390: 86ca f9bd 6f43 d7be 2c47 68bd eef6 113f
000003a0: c9b1 c1be 8dff 85be a785 b73d feb4 b03e
000003b0: 117b a23e 8168 fdbd 7e18 c0bc 9274 72bd
000003c0: 02fd 0dbf 67bc 1bbe 759b 303f 0292 07bf
000003d0: 3871 d6bd d9e4 bebd 6f97 e8be 1f0b 883e
000003e0: 46ef 84bd 9f8e 11bf b81f 44bc eb4f a33e
000003f0: f51d 40bf af18 c93d 4adc 903d 3abb 8cbd

layer1.bias_mu f4 [256]
-1.273419 -1.4684727 -1.2353567 -1.0874225 -0.2351326 -0.5903738 -0.6507815 -0.8127354
-0.3885842 -0.37151384 0.043923836 -0.27201054 -1.3095676 0.43144366 0.33129337 -1.2513518
-1.5415268 -0.7640099 -1.0177466 0.64684093 -1.4426122 -0.32590505 -1.3041233 -0.42199445
-0.48439953 -1.3173021 -0.8316307 -1.2904662 -1.4312047 -0.77310145 -0.8942679 -0.7045816
-0.7802334 -0.86895347 -1.2864047 -1.462644 -0.9000093 0.08138276 -0.9973473 -0.87462425
-1.5716254 -0.07666569 -0.95527047 -0.65394694 -0.7755814 -0.7721306 -0.6638772 1.0415275
-1.5231187 -0.93648225 -0.48400733 -0.31131998 -0.99407566 -1.3459263 -0.5229711 -1.2340223
-1.634875 -1.7175802 -0.9788697 -1.4908302 -0.21458465 -0.740797 -1.5438323 0.56542474
-1.5032691 -0.72744346 -0.45718253 -0.8054288 -0.29505983 -0.7077209 -0.3738846 -0.46376768
-0.54419476 -1.4256959 -1.2030764 -0.67481226 -0.8790743 -0.9963871 -0.58018094 -0.16794908
-1.1973912 -0.20779282 -1.0083234 -1.1600101 -1.5945293 -0.42692545 -1.3882607 -1.0458958
-0.7415024 -1.0139765 -1.7520221 -0.02271033 -1.3167384 -0.34987336 -1.1363187 -0.401675
-0.10868099 0.41021386 -1.0122259 -0.81349045 -0.28477606 -1.1415796 -1.2354329 -0.5669773
-0.8888068 -0.24845687 -0.3409662 0.6159079 -0.33946282 -0.5622611 -0.3215744 -0.8817668
-0.6753057 -1.2445942 -0.6506448 -0.9125073 -1.0792131 -1.2713617 -1.5814643 -0.47360498
-0.8351641 -0.8433204 -1.4662501 -0.77828836 -0.6056675 -1.4506247 -1.0038176 -1.5775051
-1.3497378 -0.71469676 -0.8508502 -1.6493934 -0.26578856 -0.32618532 -0.9908591 -1.0643221
-0.88148206 -0.10750286 -1.2810332 -0.9703165 -0.80536693 -0.38249952 -0.5174244 -0.66164434
0.1475582 -0.61059684 -0.96834826 -0.7669691 -0.5941858 -0.2755269 -0.99295217 -1.7149156
-0.4563227 -0.88369817 -0.18646456 -0.3270552 -0.027012117 -1.2109647 -0.2787273 -0.41414973
-0.5494345 -0.89861614 -1.0607975 -1.4821513 -0.7179067 0.9268034 -0.7546406 -1.1682497
-1.3398643 -0.90169924 -1.064177 -1.5327559 -0.89557064 -0.81565744 -0.42414823 -1.0962892
-0.89920586 -1.3005775 -1.303468 -1.084923 -0.20493302 -0.7418835 -0.9107118 -0.6565683
-0.5806946 -0.8731153 -1.7563732 -0.24802741 -1.3863337 -1.0646701 -0.8893542 1.1869555
0.60353994 -1.3778819 -0.70955986 -0.8745317 -0.19213586 -0.67342794 -0.9710794 -1.1923171
-0.873713 0.89507806 -0.17725623 -0.7828523 -1.7358224 -0.84178996 -0.95259136 -1.5403887
-1.0838434 -1.0620368 -1.3723835 -0.9088029 0.9772865 -1.2012434 -1.1138875 -1.448907
0.05134147 -1.067169 -0.14222199 -0.08540956 -1.0215847 -0.9065244 -0.40645447 -1.3361151
-0.5639368 -1.035419 -0.7504367 -1.2811736 -0.36228123 -1.4668831 -1.1707704 -0.36662054
-0.85071665 -1.1752194 -1.435156 -0.08689434 -1.2224581 -1.1462718 -0.91574067 -0.2657586
-0.86673784 -0.18581322 -1.4414017 -0.9217486 -1.3431591 -0.4300736 -1.1575015 -0.6403434
-1.3508936 -1.1003586 -1.0553235 -0.8588667 -0.50837886 -0.43888265 -1.6958534 0.59339505
00000000: 65ff a2bf eaf6 bbbf 2b20 9ebf a930 8bbf
00000010: 9ac6 70be bd22 17bf 9e99 26bf 6d0f 50bf
00000020: 82f4 c6be 1037 bebe 7be9 333d f744 8bbe
00000030: e99f a7bf 2fe6 dc3e 499f a93e 4c2c a0bf
00000040: c050 c5bf 2796 43bf 8545 82bf 5e97 253f
00000050: 84a7 b8bf 07dd a6be 83ed a6bf a80f d8be
00000060: 3703 f8be 5b9d a8bf c0e5 54bf ff2d a5bf
00000070: b731 b7bf fae9 45bf beee 64bf 765f 34bf
00000080: 60bd 47bf bc73 5ebf e9a8 a4bf eb37 bbbf
00000090: 0267 66bf 01ac a63d 2752 7fbf 60e7 5fbf
000000a0: 052b c9bf e702 9dbd 9b8c 74bf 1169 27bf
000000b0: 818c 46bf 5aaa 45bf dbf3 29bf c650 853f
000000c0: 8ef5 c2bf 4dbd 6fbf cfcf f7be 5565 9fbe
000000d0: be7b 7ebf 5047 acbf 6fe1 05bf 71f4 9dbf
000000e0: 9643 d1bf abd9 dbbf 3497 7abf 86d3 bebf
000000f0: 14bc 5bbe dfa4 3dbf 4c9c c5bf adbf 103f
00000100: 1f6b c0bf bc39 3abf d413 eabe 9530 4ebf
00000110: 1512 97be 322d 35bf cd6d bfbe f572 edbe
00000120: 5950 0bbf 347d b6bf 68fe 99bf 7fc0 2cbf
00000130: 030b 61bf 3a13 7fbf bd86 14bf d8fa 2bbe
00000140: 1d44 99bf a4c7 54be be10 81bf 367b 94bf
00000150: 8919 ccbf f995 dabe 87b2 b1bf eadf 85bf
00000160: 1ad3 3dbf fbc9 81bf 4342 e0bf 040b babc
00000170: e28a a8bf 9a22 b3be e472 91bf 58a8 cdbe
00000180: 2494 debd 8d07 d23e 9e90 81bf e940 50bf
00000190: 2bce 91be 481f 92bf aa22 9ebf 6d25 11bf
000001a0: d888 63bf 7a6b 7ebe 1f93 aebe 24ac 1d3f
000001b0: 12ce adbe 58f0 0fbf 66a5 a4be 78bb 61bf
000001c0: d6e0 2cbf dd4e 9fbf a890 26bf 149a 69bf
000001d0: a823 8abf fbbb a2bf 6c6d cabf 5a7c f2be
000001e0: 51cd 55bf d9e3 57bf 15ae bbbf e83d 47bf
000001f0: 060d 1bbf 12ae b9bf 187d 80bf b0eb c9bf
00000200: 35c4 acbf 5ef6 36bf 52d1 59bf 531f d3bf
00000210: 7015 88be c301 a7be f1a8 7dbf b53b 88bf
00000220: cfa8 61bf 762a dcbd e5f8 a3bf aa66 78bf
00000230: 872c 4ebf fad6 c3be ed75 04bf 8661 29bf
00000240: 7f19 173e 1350 1cbf ace5 77bf 1658 44bf
00000250: 901c 18bf dd11 8dbe 1d32 7ebf 5b82 dbbf
00000260: 21a3 e9be 0b3a 62bf 91f0 3ebe c773 a7be
00000270: 8448 ddbc e400 9bbf 58b5 8ebe 6f0b d4be
00000280: bda7 0cbf b50b 66bf 36c8 87bf 22b7 bdbf
00000290: bcc8 37bf fd42 6d3f 2030 41bf 3589 95bf
000002a0: ac80 abbf c3d5 66bf f436 88bf 5831 c4bf
000002b0: 1e44 65bf edce 50bf f529 d9be 3453 8cbf
000002c0: 5b32 66bf 5379 a6bf 0ad8 a6bf c2de 8abf
000002d0: f6d9 51be 14ec 3dbf 6924 69bf dc14 28bf
000002e0: 67a8 14bf 7c84 5fbf d6d0 e0bf e6fa 7dbe
000002f0: 6273 b1bf 1c47 88bf b8ac 63bf 28ee 973f
00000300: 9881 1a3f 6f5e b0bf b7a5 35bf 4fe1 5fbf
00000310: 43bf 44be c665 2cbf a998 78bf d99d 98bf
00000320: a8ab 5fbf d623 653f a882 35be 0269 48bf
00000330: 6e2f debf 8c7f 57bf 07dd 73bf 752b c5bf
00000340: 61bb 8abf d2f0 87bf 43aa afbf 4fa7 68bf
00000350: 732f 7a3f 58c2 99bf de93 8ebf c975 b9bf
00000360: 6f4b 523d fe98 88bf a4a2 11be 35eb aebd
00000370: 4ac3 82bf fc11 68bf cd1a d0be d205 abbf
00000380: 2a5e 10bf 9c88 84bf 9f1c 40bf 7ffd a3bf
00000390: ed7c b9be d3c2 bbbf cedb 95bf b0b5 bbbe
000003a0: 91c8 59bf 976d 96bf 31b3 b7bf a9f5 b1bd
000003b0: 8279 9cbf 09b9 92bf fb6d 6abf 8311 88be
000003c0: 88e2 5dbf d245 3ebe da7f b8bf b7f7 6bbf
000003d0: a3ec abbf 9b32 dcbe 0229 94bf 8ced 23bf
000003e0: 15ea acbf 8dd8 8cbf d714 87bf b0de 5bbf
000003f0: 1e25 02bf 3ab5 e0be b911 d9bf bde8 173f

layer1.bias_sigma f4 [256]
0.08162695 -0.25097138 -0.52610475 -0.3221178 0.027597504 0.3020968 -0.008075857 0.013559459
-0.0030822079 0.0067840624 -0.04144888 0.008067123 -0.18676539 0.09775568 0.0020642527 -0.36571938
-0.33400956 0.49935475 -0.24921294 0.09427235 -0.574627 -0.27267882 -0.28142083 -0.042741016
0.01963762 -0.032477215 -0.40852398 -0.4061609 -0.4232158 -0.38626075 -0.14083283 -0.38260183
-0.50409204 -0.5910218 -0.25765866 0.5066862 0.16342482 0.007986219 -0.781494 -0.56218356
0.3579203 -0.18062276 0.32326123 -0.010283727 0.003805776 0.20765418 -0.47861615 -0.0044957157
-0.19718859 0.24657966 -0.019920515 -0.10051957 0.14583012 0.55299824 -0.43928897 -0.3109052
-0.048031557 0.3351846 0.4950465 0.5285708 0.005125693 -0.2700252 0.46478888 0.102224134
0.46963432 0.05448998 0.24084033 0.13974002 0.005125693 -0.35263067 -0.00886308 -0.040756013
-0.018079966 -0.0956615 0.24893093 0.37075895 0.022101028 -0.056910235 -0.20112848 -0.0014237553
-0.3304861 -0.094399005 -0.08972908 -0.5215577 -0.57898384 -0.055490695 -0.23713812 0.4372757
-0.32763815 -0.13487715 -0.701822 0.04012943 0.6754077 0.0017902523 -0.49006227 -0.02411326
-0.04447004 -0.2806145 -0.036553565 0.1161509 0.3980213 -0.34198868 0.03134776 -0.0040147137
-0.4988457 0.023189133 0.09154755 0.044634007 -0.005336505 -0.08782378 -0.018627064 -0.40137443
0.042933084 -0.811944 0.008582617 0.4510868 0.13790113 0.026046501 -0.1693865 0.011465993
0.5437784 -0.04585173 -0.20718402 -0.27285042 -0.23632744 0.09787545 -0.042720247 0.08454669
-0.34948468 -0.0021691523 0.29619908 -0.5080046 0.023507033 -0.026893454 -0.4213546 0.050973244
0.08274499 0.005125693 -0.18790226 0.08496824 0.36079112 0.030802784 0.030319365 -0.0512212
0.02903555 -0.054997213 -0.1978311 -0.40853316 -0.005853325 0.033677258 -0.2595162 0.31512785
-0.020204272 0.20690732 0.005125693 0.06106982 0.030231426 0.18150799 0.015941864 0.3505989
-0.033977427 -0.012207988 -0.4807169 -0.5762174 -0.111216806 -0.021150213 0.2619214 -0.087974705
-0.14487322 -0.07732305 -0.04661481 0.40526643 0.06713343 -0.055741336 -0.0056306557 -0.2681895
0.2181701 -0.25275576 0.04685659 0.009781483 -0.02818632 0.018267356 -0.46937212 0.007277278
-0.0019372081 -0.24183172 0.15251927 0.005125693 -0.033488024 -0.12812796 -0.038697287 -0.05940967
0.0065385415 -0.5110353 -0.09379054 -0.046856895 -0.0436611 0.5408921 0.12727566 -0.3136317
0.23216179 -0.031618204 -0.015001054 -0.06382197 -0.48838097 0.35052794 0.26053268 -0.28439772
0.1737827 -0.5481174 -0.5304263 -0.58483064 0.064648524 0.533007 -0.2273909 0.6343428
-0.00427242 0.3717322 -0.049860783 0.021759959 -0.23308304 0.18609531 0.29217574 -0.36127844
0.016545352 0.17425731 0.42663416 -0.5151616 0.053521466 0.3835633 0.41178596 -0.009362597
-0.42047402 0.01764219 0.68411916 0.008989178 0.04766007 0.047110677 0.27781683 -0.005937736
-0.0047534057 0.005125693 0.31006783 0.5432947 -0.388883 -0.02461162 -0.38037363 0.20725575
0.22613011 0.040831905 -0.12835562 -0.5149876 -0.37932354 -0.018672872 -0.3219645 0.028839925
00000000: 082c a73d 527f 80be cdae 06bf a0ec a4be
00000010: 2914 e23c 6fac 9a3e 9950 04bc 7e28 5e3c
00000020: defe 49bb d74c de3b 4dc6 29bd f72b 043c
00000030: 6d3f 3fbe 2134 c83d 6a48 073b 923f bbbe
00000040: 4d03 abbe 6dab ff3e ad31 7fbe dd11 c13d
00000050: c11a 13bf 8f9c 8bbe 6416 90be 3411 2fbd
00000060: 13df a03c d406 05bd 0e2a d1be 52f4 cfbe
00000070: beaf d8be f8c3 c5be 7b36 10be 63e4 c3be
00000080: 2d0c 01bf 344d 17bf d6eb 83be 30b6 013f
00000090: d658 273e a1d8 023c fe0f 48bf 43eb 0fbf
000000a0: 5441 b73e 2cf5 38be 7f82 a53e 147d 28bc
000000b0: 536a 793b 4ca3 543e 2d0d f5be cc50 93bb
000000c0: ceeb 49be 617f 7c3e 5930 a3bc 34dd cdbd
000000d0: 7e54 153e 4b91 0d3f 7cea e0be f72e 9fbe
000000e0: bdbc 44bd 519d ab3e bc76 fd3e 6a50 073f
000000f0: 6ef5 a73b be40 8abe cff8 ed3e e35a d13d
00000100: e973 f03e e330 5f3d d99e 763e 0218 0f3e
00000110: 6ef5 a73b 028c b4be 7436 11bc c7ef 26bd
00000120: 701c 94bc 2dea c3bd c0e7 7e3e 1ed4 bd3e
00000130: 370d b53c b51a 69bd a0f4 4dbe 4d9d baba
00000140: 7935 a9be 4454 c1bd e1c3 b7bd ce84 05bf
00000150: 4938 14bf 364a 63bd 56d4 72be 9ae2 df3e
00000160: 30c0 a7be 3c1d 0abe 9baa 33bf c25e 243d
00000170: 85e7 2c3f e6a6 ea3a 71e9 fabe 2c89 c5bc
00000180: 3726 36bd b4ac 8fbe 31b9 15bd 86e0 ed3d
00000190: 73c9 cb3e 2419 afbe 8266 003d dc8d 83bb
000001a0: b468 ffbe 23f7 bd3c 487d bb3d 26d2 363d
000001b0: d9dd aebb f4dc b3bd c997 98bc f380 cdbe
000001c0: 9ada 2f3d 90db 4fbf 1b9e 0c3c d9f4 e63e
000001d0: f435 0d3e 795f d53c a873 2dbe dcdb 3b3c
000001e0: 1035 0b3f 06cf 3bbd 0c28 54be 0db3 8bbe
000001f0: d2ff 71be ed72 c83d 6dfb 2ebd d126 ad3d
00000200: a8ef b2be 5628 0ebb 68a7 973e 970c 02bf
00000210: d291 c03c a94f dcbc cabb d7be 52c9 503d
00000220: 3576 a93d 6ef5 a73b 7369 40be d403 ae3d
00000230: 9db9 b83e 1f56 fc3c 5160 f83c 52cd 51bd
00000240: f6db ed3c c244 61bd 3c94 4abe 422b d1be
00000250: 40cd bfbb 2af1 093d 4fdf 84be 7058 a13e
00000260: 6e83 a5bc 83df 533e 6ef5 a73b 5924 7a3d
00000270: e5a7 f73c 3bdd 393e 8398 823c b381 b33e
00000280: ea2b 0bbd 0304 48bc 8720 f6be fc82 13bf
00000290: a3c5 e3bd 3643 adbc 901a 863e 152c b4bd
000002a0: a559 14be 8c5b 9ebd 2cef 3ebd 157f cf3e
000002b0: 407d 893d 0751 64bd 5d81 b8bb 2250 89be
000002c0: fc67 5f3e 3469 81be b2ec 3f3d 8342 203c
000002d0: ffe6 e6bc 6ca5 953c 8b51 f0be 3c76 ee3b
000002e0: ebe9 fdba bca2 77be 032e 1c3e 6ef5 a73b
000002f0: bd2a 09bd fa33 03be 0c81 1ebd 8e57 73bd
00000300: 4341 d63b 36d3 02bf 4115 c0bd 04ed 3fbd
00000310: fbd5 32bd e877 0a3f 8d54 023e 5694 a0be
00000320: d2bb 6d3e 1782 01bd fbc6 75bc 18b5 82bd
00000330: 120d fabe 6678 b33e 8a64 853e 949c 91be
00000340: 18f4 313e 6c51 0cbf 05ca 07bf 76b7 15bf
00000350: 7266 843d 2673 083f 29d9 68be 4a64 223f
00000360: a8ff 8bbb af53 be3e d23a 4cbd f141 b23c
00000370: 52ad 6ebe c58f 3e3e 0f98 953e 7df9 b8be
00000380: 1e8a 873c 8270 323e cb6f da3e a1e1 03bf
00000390: 5339 5b3d 6962 c43e 9cd5 d23e 9465 19bc
000003a0: 5f48 d7be 5b86 903c 6f22 2f3f 5847 133c
000003b0: 3537 433d 20f7 403d 023e 8e3e 5791 c2bb
000003c0: 75c2 9bbb 6ef5 a73b 36c1 9e3e 5d15 0b3f
000003d0: ac1b c7be 4f9e c9bc 55c0 c2be da3a 543e
000003e0: a78e 673e 5b3f 273d a86f 03be 3ad6 03bf
000003f0: b236 c2be daf7 98bc 88d8 a4be b541 ec3c

layer2.weight_mu f4 [3, 256]
0.060046505 -0.08260235 -0.12785468 -0.100992575 -0.017653424 -0.09160498 0.07638145 0.01665967
0.06799552 0.009233781 -1.1523924 0.031186009 -0.040842917 0.39432314 0.14941177 -0.17496142
-0.011188708 -0.3707922 -0.2001538 0.39237806 -0.07406059 -0.113288686 -0.01522659 -0.116039276
0.004918027 0.058979556 -0.22029997 -0.22136162 -0.06512398 -0.103797905 -0.004421403 -0.22139998
-0.11929886 -0.16948664 -0.07171493 -0.03068686 -0.28905594 0.12550573 -0.08646091 -0.10756789
-0.24073417 -0.22636534 -0.10343559 -0.06577914 -1.7728239 -0.19386777 -0.23539396 0.45833033
-0.041958023 -0.17347987 0.010292594 0.018323917 -0.24430606 -0.07166673 -0.23203143 -0.21077518
-0.037329216 -0.097531945 -0.24877596 -0.04812459 -0.056470357 -0.1277938 -0.109741166 0.4550361
-0.20971686 0.0063939453 -2.5476413 -0.0731945 0.00476785 -0.16123565 -0.014374233 0.024319092
-0.011643996 -0.19946402 -0.1264496 -0.33080584 -0.31796315 -0.0925838 -0.13344626 -0.024108697
-0.06040086 0.0017287311 0.04938953 -0.15332161 -0.078155816 -0.119929485 -0.1537273 -0.043841988
-0.06282287 -0.0775196 -0.13103652 0.033623416 -0.12638558 0.004029572 -0.22827597 -0.082081564
-0.023997324 0.25514677 -0.03944207 -0.091113314 -0.21520239 -0.0721261 -0.06855858 -0.013331383
-0.19259197 0.09492988 -0.14495525 0.5204081 -0.079173826 0.039960857 -0.26834372 -0.07734259
-1.8778983 -0.24373029 -0.034069788 -0.13388634 -0.24055481 -0.12447101 -0.18953384 -0.122310765
-0.058037844 -0.36186993 -0.09515214 -0.03695601 -0.01309788 -0.16108021 -0.05445836 -0.32850617
-0.10833226 -0.06807683 -0.32798973 -0.051734895 0.0029012393 -0.00023551896 -0.22221465 -0.4325439
-0.039744627 -0.023749352 -0.17040843 -0.18107918 -0.43305272 0.02401422 -0.009000925 0.20405933
0.1389547 -0.09730273 -0.09371952 -0.041645013 0.12242159 -0.07598747 -0.16168758 0.014668713
0.043922782 -0.02814183 -0.00055122375 -0.18656196 0.1396262 -0.12195181 -0.01941569 -0.28806484
0.0089431815 0.20380372 -0.18084948 0.055594258 -0.085750595 0.4023102 -0.065544985 -0.04013403
-0.033184864 -0.024968885 -0.2048671 -0.056694597 0.007392695 -0.069794364 -0.08647416 -0.09063573
-0.10813357 -0.16719018 -0.022627616 -0.011360596 0.037965674 -0.2577414 -0.36254242 -0.05977502
0.025887739 -0.10946784 0.050611977 0.040852264 0.03645033 0.013314644 -0.022103399 0.7376423
0.4601793 -0.054755986 0.078847826 -0.01600548 0.019121937 -0.1735181 -0.1664836 -0.3287481
-0.17948535 0.55389357 -0.0578585 0.0026096979 -0.06305785 -0.26708823 -0.21541359 -0.3002373
-0.16985397 -0.12292653 -0.20799284 -0.06355945 0.44119343 -0.09772322 -0.04365629 -0.1823677
0.020280417 -0.106157534 -0.07984807 0.02766734 -0.09341193 -0.1705768 -0.19579268 0.09523688
0.20293477 -0.1457335 -0.13975684 -0.1524662 -0.008582136 0.026620952 -0.3172746 -0.25916794
-0.117607936 -0.011401565 -0.13313875 0.02417627 0.0169627 -0.01895324 -0.2716409 -0.0066109025
-0.06731733 0.04895901 -0.20639518 -0.25907362 -0.11759709 -0.09050865 -0.1612957 -0.27372697
-0.23601916 -0.1681818 -0.2273371 -0.11317731 -0.17583722 0.024069875 -0.13667409 0.25660127
00000000: 53f3 753d 6c2b a9bd 56ec 02be 32d5 cebd
00000010: ea9d 90bc 649b bbbd e16d 9c3d dc79 883c
00000020: 3c41 8b3d 4949 173c 9881 93bf cd79 ff3c
00000030: e74a 27bd b9e4 c93e 66ff 183e 1629 33be
00000040: d850 37bc 7ad8 bdbe 1ef5 4cbe c7e5 c83e
00000050: 14ad 97bd e603 e8bd f378 79bc 00a6 edbd
00000060: 6727 a13b 8c94 713d 5196 61be 9fac 62be
00000070: b95f 85bd ff93 d4bd 6be1 90bb adb6 62be
00000080: f652 f4bd e88d 2dbe 47df 92bd 0363 fbbc
00000090: 24ff 93be 9384 003e 6b12 b1bd 8e4c dcbd
000000a0: 0583 76be 51cc 67be 0ad6 d3bd 37b7 86bd
000000b0: e5eb e2bf 4685 46be 1d0b 71be 46aa ea3e
000000c0: 2ddc 2bbd b5a4 31be 45a2 283c 0a1c 963c
000000d0: 5e2b 7abe 02c6 92bd a699 6dbe 73d5 57be
000000e0: 85e6 18bd d4be c7bd 20bf 7ebe 4a1e 45bd
000000f0: 764d 67bd 61dc 02be fabf e0bd 7efa e83e
00000100: 04c0 56be 4d84 d13b 8e0c 23c0 ffe6 95bd
00000110: a03b 9c3b f51a 25be e781 6bbc d538 c73c
00000120: 76c6 3ebc 4c40 4cbe 017c 01be 625f a9be
00000130: 11cc a2be 939c bdbd 23a6 08be 9a7f c5bc
00000140: e466 77bd 9796 e23a ad4c 4a3d 5700 1dbe
00000150: 2810 a0bd 979d f5bd b06a 1dbe a893 33bd
00000160: 47a9 80bd 99c2 9ebd 702e 06be b5b8 093d
00000170: 396b 01be 800a 843b 2dc1 69be 611a a8bd
00000180: 0996 c4bc 99a2 823e 028e 21bd 9e99 babd
00000190: 045e 5cbe d9b6 93bd 7168 8cbd df6b 5abc
000001a0: d436 45be 996a c23d 266f 14be 7739 053f
000001b0: e325 a2bd ffad 233d 5964 89be cb65 9ebd
000001c0: f95e f0bf 6f94 79be c38c 0bbd 8019 09be
000001d0: 0054 76be a8ea febd 2915 42be 117e fabd
000001e0: 17b9 6dbd 0447 b9be 20df c2bd 2f5f 17bd
000001f0: 7e98 56bc 36f2 24be bb0f 5fbd f631 a8be
00000200: 4edd ddbd dd6b 8bbd 45ee a7be f8e7 53bd
00000210: b822 3e3b a4f5 76b9 3d8c 63be 6576 ddbe
00000220: 43cb 22bd 008e c2bc 8c7f 2ebe d26c 39be
00000230: 16b9 ddbe 78b9 c43c 9e78 13bc eef4 503e
00000240: 244a 0e3e a746 c7bd 05f0 bfbd f693 2abd
00000250: 2cb8 fa3d 529f 9bbd 6e91 25be 0b55 703c
00000260: 60e8 333d b289 e6bc 0080 10ba 190a 3fbe
00000270: 2cfa 0e3e dfc1 f9bd a70d 9fbc 3c7d 93be
00000280: 6c86 123c ecb1 503e 9b30 39be ceb6 633d
00000290: 029e afbd 9afb cd3e 733c 86bd 9563 24bd
000002a0: daec 07bd 8c8b ccbc aec8 51be 9838 68bd
000002b0: 6c3e f23b 59f0 8ebd 5d19 b1bd 3a9f b9bd
000002c0: 2275 ddbd e733 2bbe 8d5d b9bc cb21 3abc
000002d0: e581 1b3d aef6 83be 299f b9be a7d6 74bd
000002e0: 8612 d43c ad30 e0bd 814e 4f3d b454 273d
000002f0: f14c 153d aa25 5a3c 3012 b5bc 20d6 3c3f
00000300: 9f9c eb3e d047 60bd f87a a13d ed1d 83bc
00000310: 9ca5 9c3c bbae 31be ad7a 2abe ac51 a8be
00000320: 02cb 37be f8cb 0d3f 09fd 6cbd 7707 2b3b
00000330: 7924 81bd cabf 88be 6195 5cbe b4b8 99be
00000340: 33ee 2dbe e8c0 fbbd 13fc 54be 752b 82bd
00000350: 1be4 e13e 1d23 c8bd f0d0 32bd 99be 3abe
00000360: 1e23 a63c 1f69 d9bd 6387 a3bd 9ea6 e23c
00000370: c14e bfbd afab 2ebe e07d 48be 8e0b c33d
00000380: 22ce 4f3e 2a3b 15be 6b1c 0fbe 1920 1cbe
00000390: 169c 0cbc 2f14 da3c d171 a2be a9b1 84be
000003a0: 6edc f0bd a1cd 3abc 8655 08be 500d c63c
000003b0: 5cf5 8a3c d343 9bbc 8414 8bbe 45a0 d8bb
000003c0: abdd 89bd 3e89 483d 4259 53be 4ca5 84be
000003d0: bed6 f0bd 995c b9bd b32a 25be f125 8cbe
000003e0: 02af 71be da37 2cbe 0fcb 68be 81c9 e7bd
000003f0: ac0e 34be 302e c53c 4bf4 0bbe 3e61 833e

layer2.weight_sigma f4 [3, 256]
0.061648764 0.09386575 -0.008385604 0.05695967 -0.0017791894 0.07995588 0.06082556 0.058435258
0.0464897 -0.000406756 0.024968771 0.051748984 0.0028599752 -0.015155102 -0.035296805 -0.07420112
0.0029811012 -0.041904133 -0.019344434 0.037901364 0.040923055 -0.12093931 0.04975905 0.08511916
0.026635144 0.022318654 0.038370866 -0.096976206 -0.017656557 -0.00692089 -0.032451436 0.058461387
-0.056512825 0.10218881 -0.010769592 -0.06259657 0.010466274 0.033618867 -0.089640565 0.09903157
0.0035400756 -0.07576616 0.061080623 0.11491775 0.10529621 -0.010227477 0.0754981 0.017710164
-0.09141914 -0.056956995 -0.019498682 0.005988785 0.060870275 -0.043351274 -0.024647694 -0.20468523
0.05745635 -0.06801699 0.06542545 0.16735922 0.0010625 -0.05585677 0.07067668 0.03816653
0.14622556 0.005658819 0.11951976 -0.059308246 0.0010625 0.038477145 0.0068369894 0.007875575
-0.06852002 -0.10742427 0.043030668 0.2170819 -0.053643066 0.29791498 0.0757389 0.054650284
0.061759517 -0.02827444 0.027683293 -0.017695498 0.0132047245 -0.052479856 -0.087366536 0.0022690436
0.065266006 0.029845428 -0.05643052 0.03893745 0.032161765 0.045967903 0.12520473 0.0091134235
0.028826762 0.055896595 0.012038398 -0.007415544 0.05365145 0.084646195 -0.08079025 -0.0127473585
-0.04242588 -0.06516484 -0.0031973456 -0.030427286 0.042170376 0.06318539 0.00061552355 -0.13876474
-0.084084645 -0.07930705 0.0041975025 0.15041792 0.021034755 -0.072303176 0.09482924 -0.099879906
-0.041017566 -0.15646935 0.059200972 0.111464255 0.017247565 -0.02834233 -0.010735514 -0.04933275
0.060266946 -0.017031644 0.092135966 0.04779886 -0.021887952 0.0046828594 0.073411375 0.0030583013
0.024679959 0.0010625 0.04346539 -0.026028857 -0.059569284 -0.06027008 0.0026289895 0.109616704
0.025242556 -0.026381098 -0.20994525 0.15921357 0.108736515 0.08544522 0.008824326 0.023472494
0.062049404 -0.06846406 0.0010625 0.11094925 -0.027801918 -0.049505748 -0.00607233 0.05889313
-0.031497747 -0.013872579 -0.105650164 -0.071215495 -0.013644737 -0.066023216 -0.1164406 -0.020741524
0.14119945 0.13469225 0.025737315 -0.06828738 -0.15498292 -0.031782467 0.034750547 -0.10730492
-0.008944781 0.0471146 0.23870032 -0.021114336 0.04931529 0.093621105 -0.038663425 0.14401269
-0.026346814 0.009192064 0.04444792 0.0010625 0.021313211 -0.08147247 -0.002441151 -0.051377814
0.070190184 0.08997102 0.0011566341 0.03462415 -0.06332263 -0.103773065 -0.18971981 0.09383197
-0.0020386032 -0.0051362724 0.071356006 0.0689916 -0.051011164 0.07225856 0.006203233 0.031038698
0.06398504 0.009713239 -0.05278603 -0.06471615 -0.015228635 0.09146486 0.015935948 -0.07607311
0.046410672 -0.0045627216 0.068223365 -0.030615868 0.09641666 -0.03552774 0.1846086 0.10075992
0.039279256 -0.11145765 0.107563436 0.12084356 0.023500966 -0.03646926 -0.24978386 -0.14577538
0.019931456 -0.0120480675 0.20416439 -0.01666448 -0.030556582 -0.029779682 -0.14473918 0.019899927
0.019454962 0.0010625 -0.0694141 0.18925561 -0.032196976 0.06643486 0.09067147 -0.1518986
0.042470273 0.08708836 0.02792349 -0.13881028 0.06208661 -0.058465626 -0.07535524 -0.021707002
00000000: 6a83 7c3d b03c c03d c663 09bc 8b4e 693d
00000010: b133 e9ba e9bf a33d 3924 793d cf59 6f3d
00000020: fc6b 3e3d de41 d5b9 4f8b cc3c bef6 533d
00000030: 6c6e 3b3b 1b4d 78bc 6293 10bd c2f6 97bd
00000040: 945e 433b aba3 2bbd 3878 9ebc 763e 1b3d
00000050: ef9e 273d 07af f7bd 25d0 4b3d f452 ae3d
00000060: f231 da3c 9cd5 b63c c52a 1d3d 769b c6bd
00000070: 7ca4 90bc a2c8 e2bb cceb 04bd 3575 6f3d
00000080: fe79 67bd 5e48 d13d f172 30bc a132 80bd
00000090: bc7a 2b3c f0b3 093d 7995 b7bd 10d1 ca3d
000000a0: 9d00 683b 4a2b 9bbd ad2f 7a3d ff59 eb3d
000000b0: 8aa5 d73d 2691 27bc bf9e 9a3d e814 913c
000000c0: f539 bbbd bd4b 69bd b3bb 9fbc 923d c43b
000000d0: 1c53 793d 1b91 31bd f6e9 c9bc 0199 51be
000000e0: 5a57 6b3d 7e4c 8bbd c7fd 853d 3760 2b3e
000000f0: 9643 8b3a 12ca 64bd efbe 903d 8254 1c3d
00000100: 27bc 153e 9d6d b93b c7c6 f43d 34ed 72bd
00000110: 9643 8b3a 369a 1d3d d308 e03b 8e08 013c
00000120: 3954 8cbd 4101 dcbd ed40 303d b84a 5e3e
00000130: d5b8 5bbd 5088 983e ff1c 9b3d fad8 5f3d
00000140: 8cf7 7c3d cc9f e7bc 13c8 e23c 26f6 90bc
00000150: a158 583c 1ef5 56bd 3aed b2bd 3cb4 143b
00000160: 2faa 853d 667e f43c b023 67bd e07c 1f3d
00000170: 0ebc 033d d748 3c3d ab35 003e 7850 153c
00000180: 1a26 ec3c d4f3 643d b33c 453c 17fe f2bb
00000190: 9fc1 5b3d fc5a ad3d 5c75 a5bd 4cda 50bc
000001a0: c2c6 2dbd 2575 85bd 8f8a 51bb a542 f9bc
000001b0: d8ba 2c3d 5767 813d 165b 213a 5818 0ebe
000001c0: 9234 acbd bc6b a2bd 348b 893b 2807 1a3e
000001d0: 1451 ac3c b013 94bd d535 c23d d68d ccbd
000001e0: 0902 28bd 8039 20be b87c 723d 5f47 e43d
000001f0: c44a 8d3c 2d2e e8bc 02e4 2fbc 2311 4abd
00000200: 79da 763d f285 8bbc c8b1 bc3d bdc8 433d
00000210: 5d4e b3bc ac72 993b b458 963d c86d 483b
00000220: a02d ca3c 9643 8b3a c408 323d 783a d5bc
00000230: ecfe 73bd c2dd 76bd 204b 2c3b b97e e03d
00000240: 7ac9 ce3c 2c1d d8bc e3fb 56be e208 233e
00000250: 40b1 de3d e7fd ae3d e893 103c 6349 c03c
00000260: 8427 7e3d e336 8cbd 9643 8b3a 5c39 e33d
00000270: d9c0 e3bc 8ac6 4abd 65fa c6bb ec39 713d
00000280: c803 01bd d049 63bc 1d5f d8bd 6ed9 91bd
00000290: 2d8e 5fbc 2e37 87bd 6978 eebd 21ea a9bc
000002a0: 9796 103e c4ec 093e 10d7 d23c 41da 8bbd
000002b0: d8b3 1ebe 552e 02bd 9756 0e3d afc2 dbbd
000002c0: 218d 12bc 3dfb 403d db6d 743e f9f7 acbc
000002d0: d4fe 493d 6cbc bf3d 8a5d 1ebd 1078 133e
000002e0: 46d5 d7bc 509a 163c 060f 363d 9643 8b3a
000002f0: 0b99 ae3c 0adb a6bd b8fb 1fbb 8b71 52bd
00000300: dfbf 8f3d ba42 b83d 339a 973a 0dd2 0d3d
00000310: 4caf 81bd f986 d4bd e945 42be fa2a c03d
00000320: 169a 05bb 2d4e a8bb 1923 923d 784b 8d3d
00000330: 15f1 50bd 4cfc 933d 7d44 cb3b de44 fe3c
00000340: 970a 833d 4724 1f3c 2a36 58bd e789 84bd
00000350: 8681 79bc ee51 bb3d 1b8c 823c 38cc 9bbd
00000360: 1e19 3e3d e282 95bb b1b8 8b3d 21ce fabc
00000370: 1976 c53d 8985 11bd 090a 3d3e 385b ce3d
00000380: 49e3 203d e943 e4bd 384a dc3d d47c f73d
00000390: 1985 c03c ca60 15bd 57c7 7fbe 2446 15be
000003a0: 4b47 a33c 4265 45bc 7810 513e f383 88bc
000003b0: cc51 fabc 85f4 f3bc 8236 14be 2c05 a33c
000003c0: 0360 9f3c 9643 8b3a fb28 8ebd 39cc 413e
000003d0: fae0 03bd 000f 883d f7b1 b93d 4e8b 1bbe
000003e0: 4ff5 2d3d 625b b23d cebf e43c 4824 0ebe
000003f0: 874e 7e3d a779 6fbd d953 9abd e2d2 b1bc

layer2.bias_mu f4 [3]
1.4735204 0.94029206 0.808329
00000000: 519c bc3f fbb6 703f a6ee 4e3f

layer2.bias_sigma f4 [3]
0.0011956362 -0.042347904 0.0059189945
00000000: e5b6 9c3a ff74 2dbd 20f4 c13b
