DDQN_models/noisy-model1-snapshot-score-11.pth (torch, 33781 bytes, 8 tensors)

layer1.weight_mu f4 [256, 11]
0.19165654 -0.2532748 0.24648862 0.28377005 0.22729781 0.11258507 -0.10989898 0.13566127
0.07510324 0.48441383 -0.2922685 -0.292401 0.20967972 -0.4501449 0.2656878 -0.31807026
0.09622108 0.0072992146 0.070959926 0.22640851 -0.024523512 -0.14517182 -0.16727977 -0.007200855
-0.29271325 -0.09828151 -0.118919134 0.01011206 -0.12534213 -0.093504086 0.07755659 -0.17779404
-0.23488605 0.017218743 -0.15474324 -0.020636559 -0.09038858 -0.14979328 -0.32554916 -0.039007228
0.1325766 0.44087762 -0.09971951 0.33370262 0.07140326 -0.11311698 -0.036080588 -0.2682861
0.016849542 -0.21021661 0.010900598 0.13913876 -0.010612529 -0.10117472 0.64080584 0.2594567
0.08325936 0.16572294 0.023952471 -0.25244462 -0.054299843 0.1328892 -0.3925008 -0.3479937
-0.18514316 0.36548826 0.21823075 -0.14737953 0.04078724 0.045908105 0.0012651768 0.076354384
0.16490915 0.042005043 -0.2051134 0.026848065 -0.27911133 -0.441408 0.07329406 0.43822333
-0.18799756 0.007923344 -0.2227758 0.33132967 0.1942092 0.23738497 0.08790491 -0.2626128
0.10232024 0.14114346 0.0039129932 0.13031311 -0.1798782 -0.18728574 0.16099247 -0.15761334
0.05050474 -0.23320839 0.15156288 0.10697109 -0.062073305 -0.18243116 -0.28528586 -0.19146237
-0.18780524 -0.262451 -0.084207684 0.013637543 0.12493664 0.07226201 -0.16937375 -0.060056146
0.5179378 0.35403094 -0.41328707 -0.49864343 -0.27445766 -0.25219616 -0.16161388 -0.20385487
-0.3755058 -0.18833369 -0.26732463 -0.18677957 -0.020652525 0.14594047 0.016737694 -0.051278085
0.011742568 -0.08705202 -0.061955366 -0.06451418 -0.06393023 0.437981 -0.32413787 0.15545182
0.097060055 -0.2874572 -0.27668247 -0.24811095 -0.30752346 -0.011214767 -0.37551787 0.31786194
-0.3869221 -0.27922094 0.19870204 -0.33462176 0.32761332 -0.10656475 -0.20023617 -0.31370306
0.36089474 -0.21365325 0.18859848 0.35896122 0.3577663 0.042790625 -0.02645429 0.026325101
0.0741043 0.091441095 -0.37853315 -0.22013229 -0.49469304 -0.22064297 -0.083377324 -0.07849707
-0.33603564 0.17200582 -0.11694743 0.0568656 -0.13728727 -0.18992376 0.19508442 -0.14749856
0.1424994 -0.11260672 -0.031177707 0.033172935 0.23356386 0.02571949 -0.08573793 0.017924014
0.105317645 -0.19585752 -0.037562694 -0.00043764155 -0.18703496 -0.16939701 -0.36046472 0.0690864
-0.053807005 0.108203724 -0.27008122 -0.3516808 -0.033548508 -0.045390125 -0.1231468 -0.045484427
0.19765306 0.1811682 0.23016532 -0.0066105775 0.11614924 -0.009413479 0.20592888 -0.011245536
-0.4024152 0.20214194 0.23532754 -0.3648345 0.27471614 -0.24371 0.24710836 -0.14760084
-0.23597547 -0.3913811 -0.08542638 0.1577269 0.06628202 0.0061935624 -0.4831965 -0.1502735
0.17496867 0.058346808 0.1932212 0.25273257 0.47522876 -0.20648932 -0.33387625 -0.30921972
0.1162338 0.12703054 -0.1105 -0.21473293 -0.04725539 0.20256515 0.09152267 -0.19474173
-0.1562506 -0.14809255 0.14952922 -0.20203604 0.07631437 -0.17991571 0.061277468 -0.0762892
-0.21779652 -0.28238204 0.12097323 0.18621284 -0.07251884 -0.052740913 -0.1407061 0.16148962
00000000: 9d41 443e 3cad 81be 8367 7c3e 4f4a 913e
00000010: c2c0 683e 0093 e63d b712 e1bd caea 0a3e
00000020: bacf 993d 1705 f83e 38a4 95be 95b5 95be
00000030: 48b6 563e 6479 e6be 3b08 883e 1bda a2be
00000040: 8f0f c53d 402e ef3b 7053 913d a2d7 673e
00000050: 88e5 c8bc eca7 14be 634b 2bbe 26f5 ebbb
00000060: 83de 95be d147 c9bd e08b f3bd 0ead 253c
00000070: b059 00be 127f bfbd fdd5 9e3d a40f 36be
00000080: f885 70be 520e 8d3c 0375 1ebe 000e a9bc
00000090: a61d b9bd 6963 19be 61ae a6be 0bc6 1fbd
000000a0: 29c2 073e b6ba e13e be39 ccbd 12db aa3e
000000b0: df3b 923d e0a9 e7bd 3dc9 13bd cc5c 89be
000000c0: 0d08 8a3c 0643 57be 6c98 323c 647a 0e3e
000000d0: 2ce0 2dbc b134 cfbd da0b 243f 82d7 843e
000000e0: e283 aa3d 46b3 293e f937 c43c 6c40 81be
000000f0: 8369 5ebd 1b14 083e ddf5 c8be 3b2c b2be
00000100: 2b96 3dbe 4721 bb3e e277 5f3e a9ea 16be
00000110: 8510 273d 230a 3c3d 4ad4 a53a b05f 9c3d
00000120: f2dd 283e 7b0d 2c3d 3f09 52be 79f0 db3c
00000130: aee7 8ebe 3b00 e2be 321b 963d cf5e e03e
00000140: 6f82 40be ead0 013c 571f 64be 0ba4 a93e
00000150: c7de 463e 0c15 733e 7d07 b43d 2f75 86be
00000160: 468d d13d e987 103e 9138 803b cd70 053e
00000170: fe31 38be d5c7 3fbe 36db 243e 6465 21be
00000180: 0fde 4e3d 2ece 6ebe 4d33 1b3e a913 db3d
00000190: 9440 7ebd 3ccf 3abe fd10 92be b60e 44be
000001a0: 0450 40be fa5f 86be 1475 acbd 0070 5f3c
000001b0: c8de ff3d 1bfe 933d 5070 2dbe 6ffd 75bd
000001c0: 9297 043f 8b43 b53e 5d9a d3be 314e ffbe
000001d0: b785 8cbe db1f 81be 1c7e 25be 55bf 50be
000001e0: 4c42 c0be 8cda 40be c6de 88be 2543 3fbe
000001f0: 7c2f a9bc 6b71 153e 7d1d 893c f808 52bd
00000200: e663 403c 5448 b2bd e9c4 7dbd 0320 84bd
00000210: daed 82bd 0c3f e03e 66f5 a5be c32e 1f3e
00000220: 6cc7 c63d 972d 93be 53a9 8dbe cc10 7ebe
00000230: b773 9dbe 24be 37bc e143 c0be cdbe a23e
00000240: a71a c6be 0cf6 8ebe 8c78 4b3e 8b53 abbe
00000250: efbc a73e 9f3e dabd b60a 4dbe b09d a0be
00000260: 32c7 b83e ebc7 5abe f61f 413e c4c9 b73e
00000270: 252d b73e 3945 2f3d abb6 d8bc bda7 d73c
00000280: ffc3 973d 7845 bb3d 19cf c1be 5c6a 61be
00000290: 6848 fdbe 3bf0 61be bbc1 aabd 12c3 a0bd
000002a0: dd0c acbe 4b22 303e 2282 efbd e7eb 683d
000002b0: 0995 0cbe 607b 42be 36c4 473e dd09 17be
000002c0: 5deb 113e 5a9e e6bd 6468 ffbc 58e0 073d
000002d0: 5d2b 6f3e aeb1 d23c 5e97 afbd 62d5 923c
000002e0: c7b0 d73d e08e 48be 57db 19bd 4173 e5b9
000002f0: 1886 3fbe 6976 2dbe d58e b8be 2c7d 8d3d
00000300: bc64 5cbd ea99 dd3d 1648 8abe 810f b4be
00000310: 296a 09bd ffea 39bd 6434 fcbd e14d 3abd
00000320: 9065 4a3e 2884 393e 75b0 6b3e 8b9d d8bb
00000330: a7df ed3d fe3a 1abc 05df 523e 323f 38bc
00000340: 5d09 cebe 4cfe 4e3e b4f9 703e 96cb babe
00000350: 98a7 8c3e 1d8f 79be f909 7d3e ad24 17be
00000360: 8ea3 71be 1b63 c8be 07f4 aebd 2983 213e
00000370: debe 873d 5ef3 ca3b 8865 f7be 4ce1 19be
00000380: fd2a 333e 10fd 6e3d c7db 453e 2a66 813e
00000390: 2f51 f33e f071 53be d4f1 aabe 0c52 9ebe
000003a0: fd0b ee3d 4b14 023e d34d e2bd f3e2 5bbe
000003b0: de8e 41bd 3d6d 4f3e 3d70 bb3d 606a 47be
000003c0: 2800 20be 93a5 17be 301e 193e 89e2 4ebe
000003d0: b54a 9c3d d33b 38be 15fe 7a3d 833d 9cbd
000003e0: 0d06 5fbe 6194 90be d0c0 f73d 94ae 3e3e
000003f0: c284 94bd db06 58bd 4315 10be 895d 253e

layer1.weight_sigma f4 [256, 11]
-0.068406135 0.049072824 -0.024041133 0.09909383 -0.060870595 0.06993756 0.005711875 0.09693401
0.1368381 -0.031774316 -0.068527736 -0.005688126 0.10971128 0.062382143 0.0002933508 0.14680912
-0.06416647 -0.17725451 0.06043464 -0.18567291 0.106339246 -0.13551667 0.006523713 -0.0037115423
0.005125693 0.024739608 0.005125693 -0.017414745 0.005125693 0.030700704 -0.020882772 0.005125693
0.023920383 0.11447704 0.0328999 0.18359314 -0.2052844 -0.03865051 -0.13328405 0.050681636
-0.15616184 0.049979065 0.12256044 0.0033714445 -0.14830166 0.013004498 -0.03157298 -0.06745654
0.13782597 0.038211953 0.082706355 -0.09235049 -0.059835616 -0.12073552 -0.06055055 0.055373736
0.043584198 -0.04751989 -0.050324768 -0.0021730019 0.006751087 0.029636823 -0.097914115 -0.050389662
-0.08599101 -0.10814635 -0.045667667 0.032840494 0.01687669 0.05099699 0.04567471 -0.018215679
-0.025429798 -0.096824214 -0.04753189 0.08207342 -0.01358682 0.04778259 0.11162853 0.16328105
0.065350145 -0.002738008 0.01804852 -0.08672884 0.072447054 -0.16549529 -0.1998473 -0.0054317624
-0.1157035 0.17829002 -0.046392515 0.12097855 -0.12448115 0.072631024 -0.13789982 -0.06373494
-0.012373413 -0.06657431 0.12143346 -0.020731494 0.005125693 0.005125693 0.005125693 0.005125693
0.005125693 0.005125693 0.005125693 0.005125693 -0.02655099 -0.026288442 0.059988223 -0.0021756373
0.02343309 -0.044636562 -0.08980228 0.029679151 0.022750335 0.059164833 0.018100834 -0.04286065
0.09171865 -0.008536283 0.005125693 -0.024255509 -0.0039432095 0.007607317 -0.0072102533 -0.033751942
0.0365914 0.010132207 -0.029404402 -0.016947584 0.03724185 0.07621209 0.057518873 0.1605247
-0.01886368 0.031809576 0.12805776 0.010442021 0.0785408 0.043252263 0.06761117 0.0032964365
-0.0042134337 -0.10257829 -0.032614816 -0.063771866 0.018673021 0.040802572 0.04678134 0.09090664
0.01893759 0.111689195 0.14913341 0.10533753 -0.026730403 -0.04797426 -0.0037431966 0.08530551
0.17857021 -0.026107533 -0.07814026 0.017877316 0.07389517 0.05532095 0.122303784 -0.13942704
-0.1069355 0.019998578 0.029174676 -0.14267501 0.034348167 -0.02014007 0.058012567 0.042901367
0.024960833 0.04648733 0.13936232 0.02122029 0.032160137 -0.017889902 0.1966319 0.05208344
0.12275878 0.070853226 -0.051495194 0.041047778 -0.00817446 -0.03338238 0.048027076 0.036962014
-0.06725507 0.03330191 -0.0036484543 -0.05917765 0.050250895 -0.09354711 -0.07413507 -0.107593864
-0.07674824 -0.16779381 0.015510843 0.04481237 0.066321746 0.052646585 0.051086687 0.18296082
-0.02023374 -0.07338569 0.019517006 -0.059346046 0.12801503 -0.03390479 -0.032211263 0.12624578
0.014063079 0.07510667 0.03381413 -0.26522335 -0.0022584957 0.19297686 -0.029188339 -0.093306154
0.05073594 0.0019873718 -0.08074025 0.0061038746 -0.026179377 0.05227187 0.0017009871 -0.0026909534
-0.16338252 -0.049561743 -0.050538216 0.12730305 0.059998974 -0.08341695 0.16533446 -0.007841995
-0.18107115 0.045027092 0.16452838 -0.05676868 0.05414516 0.044215657 -0.02976633 0.01917467
-0.048229843 0.1347702 0.06448471 0.0012036697 -0.00044707445 -6.8859727e-06 0.0770348 -0.118364
00000000: 8418 8cbd 9600 493d e9f1 c4bc b5f1 ca3d
00000010: 7253 79bd 6c3b 8f3d ae2a bb3b 5785 c63d
00000020: 491f 0c3e c925 02bd 4558 8cbd 7663 babb
00000030: 4fb0 e03d 6b84 7f3d e1cc 9939 2155 163e
00000040: b669 83bd 3582 35be 508a 773d 0a21 3ebe
00000050: 64c8 d93d e2c4 0abe dfc4 d53b 593d 73bb
00000060: 6ef5 a73b b8aa ca3c 6ef5 a73b 5ea9 8ebc
00000070: 6ef5 a73b 0b80 fb3c 5912 abbc 6ef5 a73b
00000080: aef4 c33c f072 ea3d 0cc2 063d d7ff 3b3e
00000090: 1336 52be ff4f 1ebd 9d7b 08be 8c97 4f3d
000000a0: e4e8 1fbe d9b6 4c3d f800 fb3d 74f3 5c3b
000000b0: 64dc 17be d110 553c ab52 01bd a826 8abd
000000c0: 4022 0d3e 2384 1c3d f361 a93d 4122 bdbd
000000d0: 3116 75bd 2f44 f7bd db03 78bd 92cf 623d
000000e0: 5885 323d 37a4 42bd 5821 4ebd ec68 0ebb
000000f0: 3938 dd3b ecc8 f23c 3287 c8bd 6465 4ebd
00000100: 0e1c b0bd d57b ddbd 050e 3bbd c183 063d
00000110: fc40 8a3c 38e2 503d 6815 3b3d 0c39 95bc
00000120: 2752 d0bc c64b c6bd cdb0 42bd 1c16 a83d
00000130: 419b 5ebc adb7 433d 809d e43d 2633 273e
00000140: 4cd6 853d 2770 33bb 7dda 933c e49e b1bd
00000150: 1f5f 943d 9977 29be c5a4 4cbe edfc b1bb
00000160: f5f5 ecbd a991 363e 1406 3ebd 9ac3 f73d
00000170: f9ef febd 93bf 943d 9c35 0dbe 7787 82bd
00000180: dbb9 4abc 1d58 88bd 1bb2 f83d 18d5 a9bc
00000190: 6ef5 a73b 6ef5 a73b 6ef5 a73b 6ef5 a73b
000001a0: 6ef5 a73b 6ef5 a73b 6ef5 a73b 6ef5 a73b
000001b0: 7681 d9bc dc5a d7bc 36b6 753d 2395 0ebb
000001c0: c0f6 bf3c d4d4 36bd 42ea b7bd b121 f33c
000001d0: e95e ba3c d356 723d 3348 943c a68e 2fbd
000001e0: fdd6 bb3d c4db 0bbc 6ef5 a73b 7db3 c6bc
000001f0: 0a36 81bb cd46 f93b fd43 ecbb 7a3f 0abd
00000200: dde0 153d 8e01 263c 80e1 f0bc a9d5 8abc
00000210: e98a 183d 1615 9c3d e998 6b3d 9660 243e
00000220: 0188 9abc c24a 023d 9321 033e 0315 2b3c
00000230: 00da a03d 4929 313d ba77 8a3d 0709 583b
00000240: d810 8abb 9114 d2bd 1d97 05bd d39a 82bd
00000250: 2af8 983c 9920 273d ca9d 3f3d 432d ba3d
00000260: 0123 9b3c 4ebd e43d 6eb6 183e 34bb d73d
00000270: b8f9 dabc a880 44bd 6b50 75bb a8b4 ae3d
00000280: 1cdb 363e 77df d5bc 0008 a0bd 7373 923c
00000290: 5a56 973d 3898 623d 687a fa3d f6c5 0ebe
000002a0: 0001 dbbd 0fd4 a33c bbff ee3c 6619 12be
000002b0: aab0 0c3d cafc a4bc 969e 6d3d 58b9 2f3d
000002c0: a97a cc3c 8069 3e3d ffb4 0e3e 2cd6 ad3c
000002d0: 59ba 033d d88d 92bc df59 493e 7255 553d
000002e0: f568 fb3d 7f1b 913d a0ec 52bd b721 283d
000002f0: 2cee 05bc f6bb 08bd 0ab8 443d 7b65 173d
00000300: 07bd 89bd 9567 083d e81a 6fbb 4364 72bd
00000310: e2d3 4d3d a195 bfbd 21d4 97bd 2c5a dcbd
00000320: 2e2e 9dbd 24d2 2bbe 3121 7e3c 2d8d 373d
00000330: b2d3 873d f2a3 573d 4640 513d 155a 3b3e
00000340: 3ac1 a5bc 3d4b 96bd 21e2 9f3c d714 73bd
00000350: 5f16 033e c0df 0abd f5ef 03bd 9346 013e
00000360: d468 663c 87d1 993d af80 0a3d 5bcb 87be
00000370: 4503 14bb ba9b 453e 621c efbc 4c17 bfbd
00000380: 7dd0 4f3d 913e 023b 255b a5bd 0303 c83b
00000390: 2276 d6bc 071b 563d a8f3 de3a b55a 30bb
000003a0: bf4d 27be 4101 4bbd 2901 4fbd bb5b 023e
000003b0: 7cc1 753d 82d6 aabd 704d 293e b67b 00bc
000003c0: b76a 39be 546e 383d 217a 283e 4786 68bd
000003d0: 51c7 5d3d 7a1b 353d 85d8 f3bc 3314 9d3c
000003e0: a88c 45bd 3301 0a3e 8f10 843d 74c4 9d3a
000003f0: 5165 eab9 0e0e e7b6 6cc4 9d3d d368 f2bd

layer1.bias_mu f4 [256]
-0.23936942 -0.31607592 -0.13428007 0.08820887 -0.057343014 0.2051962 -0.4976395 -0.1660451
0.019116752 -0.30847663 0.31467846 -0.27201054 -0.08702207 0.19969006 0.34363744 -0.18190452
-0.25381264 -0.3304819 -0.03468717 0.094845906 -0.036580257 0.021411909 -0.17807706 -0.08698865
-0.28492007 0.20124096 0.1039843 -0.010614157 -0.3225809 0.2001887 0.16770233 -0.028943432
0.20174499 0.22263914 -0.30184183 0.13044433 0.0638441 0.22762117 0.065507166 0.17415825
-0.123816185 0.41112712 0.29481828 0.10397205 -0.16267063 -0.08023885 -0.32223576 0.32221025
-0.03282916 0.054847557 -0.3936292 -0.040957484 0.15055686 -0.17493954 0.059745792 -0.29689825
-0.12109207 -0.14671098 -0.19226523 0.06139222 -0.21458465 -0.01720692 0.06638013 0.4134044
-0.13827014 -0.0691039 -0.020201804 0.14050159 -0.29505983 0.26923648 -0.3738846 -0.4104994
-0.21856897 -0.038817976 -0.12852797 -0.06766828 -0.0012450678 -0.05295491 0.24828373 -0.12433596
0.024522154 0.1843382 0.23635769 -0.09195518 0.058246136 0.18885213 -0.24831954 -0.10692067
0.16333207 0.24610297 -0.10389643 0.21710058 0.10440735 -0.31862804 -0.08557605 -0.17775193
0.19129874 0.363314 0.04410682 0.17076083 0.12184541 -0.08935337 0.10415495 -0.10410187
0.08490315 -0.03886673 0.28038803 0.29979068 -0.3067614 0.27462652 0.1737725 0.049551707
-0.19582328 -0.26180357 -0.20774223 0.1844143 -0.0333092 0.10977815 -0.18257262 -0.29482907
-0.10778825 0.0039875484 -0.048324257 -0.3019081 -0.17249954 -0.12641212 0.24061938 -0.32130677
-0.044709075 0.16642807 0.023932124 -0.29884246 0.0035626306 -0.29442096 0.016214697 0.065147065
-0.022833085 -0.10750286 -0.14338556 0.079615034 -0.05402865 0.4556399 -0.41733766 -0.01518993
0.22432786 0.292297 0.31252417 0.041970756 -0.3117567 -0.13872528 -0.18585396 -0.42554125
-0.3973395 -0.11704641 -0.18646456 0.32360783 0.28927925 -0.23812327 0.0495195 0.15163653
-0.031266715 -0.30934456 -0.088053554 -0.113373145 0.14169787 0.40911213 0.16124523 -0.09811142
-0.2804705 0.1640246 -0.46391508 -0.023650616 -0.23204476 -0.13413194 -0.08238341 0.061740797
-0.11144836 -0.10245719 -0.026491674 -0.10795577 0.22115007 -0.10684902 -0.10486245 0.13473995
-0.1621336 0.04161531 -0.1808284 -0.24802741 0.16009638 -0.12709874 0.20357922 0.33912218
0.26210764 -0.3518732 -0.11872068 0.27759093 0.015188474 -0.18192938 -0.063161545 0.124031365
0.2140952 0.27944162 0.1887229 -0.08617041 -0.2854315 -0.24692617 -0.20784512 -0.14614405
0.08007738 -0.3297247 -0.14334534 -0.035523143 0.25448868 -0.058956515 -0.18329364 -0.36806247
-0.07751622 0.08539639 0.41667917 -0.08540956 0.057402156 0.3793979 0.24078181 0.10823469
-0.040226337 0.0026531063 0.0683609 -0.10416181 -0.25181034 -0.20473868 -0.050013706 0.25044718
-0.046554845 -0.2848539 -0.0016993631 0.22038524 -0.1468652 -0.43086115 0.13011365 -0.2657586
0.29884937 -0.18581322 -0.19641991 0.14730474 -0.08852413 -0.14459768 0.13988702 -0.03847376
-0.18693182 0.033246495 0.0024888052 -0.09866358 -0.024529358 -0.40712327 -0.1496859 0.19050214
00000000: 421d 75be b4d4 a1be b780 09be daa6 b43d
00000010: 82e0 6abd f41e 523e 9bca febe ba07 2abe
00000020: bc9a 9c3c a6f0 9dbe 891d a13e f744 8bbe
00000030: a138 b2bd 8d7b 4c3e 3ff1 af3e 2e45 3abe
00000040: bbf3 81be ec34 a9be 2214 0ebd 923e c23d
00000050: 2ed5 15bd 0768 af3c d559 36be 1b27 b2bd
00000060: 0be1 91be 1c12 4e3e b8f5 d43d 00e7 2dbc
00000070: 5329 a5be 44fe 4c3e 29ba 2b3e c71a edbc
00000080: 3d96 4e3e 84fb 633e 038b 9abe 3393 053e
00000090: b2c0 823d 8615 693e 9f28 863d 8a56 323e
000000a0: 5793 fdbd 417f d23e 6cf2 963e 4cef d43d
000000b0: 2193 26be 4454 a4bd 16fc a4be bef8 a43e
000000c0: df77 06bd d5a7 603d c489 c9be 09c3 27bd
000000d0: 942b 1a3e 5a23 33be 01b8 743d 0c03 98be
000000e0: 1fff f7bd 673b 16be 2de1 44be 6976 7b3d
000000f0: 14bc 5bbe 87f5 8cbc 4ef2 873d bea9 d33e
00000100: b096 0dbe 5886 8dbd 417e a5bc a6df 0f3e
00000110: 1512 97be 5dd9 893e cd6d bfbe fa2c d2be
00000120: 8bd0 5fbe 99ff 1ebd d69c 03be ab95 8abd
00000130: 8b31 a3ba 3fe7 58bd 173e 7e3e daa3 febd
00000140: afe2 c83c 27c3 3c3e c007 723e ff52 bcbd
00000150: 8093 6e3d 7462 413e 7a47 7ebe 39f9 dabd
00000160: 8640 273e 6b02 7c3e a7c7 d4bd 9d4f 5e3e
00000170: 85d3 d53d 3723 a3be 7f42 afbd 9a04 36be
00000180: d1e3 433e 4b04 ba3e 5aa9 343d eddb 2e3e
00000190: 168a f93d e6fe b6bd 314f d53d 5c33 d5bd
000001a0: b4e1 ad3d b832 1fbd 058f 8f3e 2a7e 993e
000001b0: d50f 9dbe d99b 8c3e 6bf1 313e bbf6 4a3d
000001c0: e685 48be 1e0b 86be 61ba 54be 1ad7 3c3e
000001d0: 3a6f 08bd 5ed3 e03d 51f4 3abe d6f3 96be
000001e0: 16c0 dcbd fba9 823b a8ef 45bd b393 9abe
000001f0: b8a3 30be 2e72 01be ed64 763e 5282 a4be
00000200: dd20 37bd 1f6c 2a3e 4d0d c43c e101 99be
00000210: 067b 693b 58be 96be afd4 843c d36b 853d
00000220: 730c bbbc 762a dcbd aad3 12be 350d a33d
00000230: 254d 5dbd a249 e93e 48ad d5be 2fdf 78bc
00000240: 34b6 653e f4a7 953e 2b03 a03e 87e9 2b3d
00000250: 939e 9fbe 000e 0ebe 8050 3ebe 8be0 d9be
00000260: 1570 cbbe 07b6 efbd 91f0 3ebe edaf a53e
00000270: 691c 943e 96d6 73be f6d4 4a3d 9b46 1b3e
00000280: 8711 00bd 6962 9ebe 6c55 b4bd 2e30 e8bd
00000290: 3f19 113e 2577 d13e 781d 253e a4ee c8bd
000002a0: d499 8fbe 11f6 273e 4786 edbe f0be c1bc
000002b0: 249d 6dbe e259 09be a2b8 a8bd ebe3 7c3d
000002c0: 0a3f e4bd 13d5 d1bd 1105 d9bc ea17 ddbd
000002d0: 2a75 623e a9d3 dabd 20c2 d6bd 45f9 093e
000002e0: 5a06 26be d174 2a3d 152b 39be e6fa 7dbe
000002f0: 4ef0 233e 2c26 02be 1277 503e 6ca1 ad3e
00000300: f932 863e b928 b4be d423 f3bd 6620 8e3e
00000310: 14d9 783c b24b 3abe d75a 81bd 2804 fe3d
00000320: c63b 5b3e f912 8f3e 9340 413e 1d7a b0bd
00000330: 1424 92be 37da 7cbe 5ad5 54be c9a6 15be
00000340: 9cff a33d add1 a8be 1fc9 12be b780 11bd
00000350: 574c 823e 637c 71bd 54b1 3bbe af72 bcbe
00000360: d3c0 9ebd 4de4 ae3d f956 d53e 35eb aebd
00000370: 861e 6b3d 7140 c23e 828f 763e 26aa dd3d
00000380: 5fc4 24bd bddf 2d3b cd00 8c3d c952 d5bd
00000390: 49ed 80be 04a7 51be 2cdb 4cbd 9d3a 803e
000003a0: 4bb0 3ebd 5fd8 91be 2abd deba abac 613e
000003b0: d563 16be d599 dcbe 833c 053e 8311 88be
000003c0: c902 993e d245 3ebe 4d22 49be 0ed7 163e
000003d0: 244c b5bd 6a11 14be 8b3e 0f3e a996 1dbd
000003e0: 0e6b 3fbe 7a2d 083d 391b 233b 2210 cabd
000003f0: cbf1 c8bc 7672 d0be 4347 19be fe12 433e

layer1.bias_sigma f4 [256]
-0.007409313 -0.17815697 -0.0014798621 0.017951509 0.012498595 0.28529045 -0.06729438 0.045596056
-0.1210835 0.0070533506 -0.0653651 0.008067123 0.16662088 -0.11296313 0.056525275 0.05679457
-0.16298427 -0.006637606 0.07605921 0.033109494 -0.0588544 -0.043636173 0.0023174575 -0.09575419
0.027965503 -0.10001075 0.09085417 -0.017352628 0.06886589 -0.051991027 -0.02423984 -0.23746972
-0.02328375 -0.10633088 0.06463693 -0.0646705 0.08780058 -0.0031927829 0.043652583 -0.12491803
-0.083224565 0.056942493 0.057077926 -0.035904024 -0.03097434 -0.0053575495 0.08739214 -0.08820428
-0.11369588 -0.024660535 0.025845636 0.013104606 -0.04332023 0.14257123 0.092651196 -0.014523855
-0.16220295 -0.017004054 0.0693613 0.036585182 0.005125693 -0.06749586 0.030949742 0.054205123
-0.036377337 -0.06576484 -0.10078683 0.1341056 0.005125693 0.15960991 -0.00886308 0.012295485
-0.023321992 0.043391373 0.044547107 0.093885735 -0.08553504 0.06599147 -0.04682205 0.04643551
0.021659404 0.016000615 0.18247119 -0.019229509 0.022513662 -0.08292625 0.013749001 -0.019867614
-0.0034537765 -0.040983576 0.012339079 0.2008514 0.098437905 -0.029664664 -0.043162275 0.05764411
0.06854832 -0.02489325 -0.028363109 0.046653617 0.041481163 0.07066332 -0.030465404 -0.061811563
0.005555782 -0.023545522 -0.105387814 -0.054505963 0.026119048 0.026903505 0.04854935 -0.15447065
0.013853707 -0.15019616 0.13532516 -0.038060304 -0.08515954 -0.08006131 -0.10323287 -0.020309718
-0.09487405 -0.07248222 0.10536694 -0.010221031 -0.013159442 -0.047638733 -0.02287434 -0.13283598
0.020321595 -0.10724307 -0.0574371 -0.027235355 0.123266466 0.0048687626 0.20605583 0.0103205
0.27627835 0.005125693 -0.13596272 0.061077185 0.011962309 -0.05188863 0.04905982 -0.079616
-0.04135244 -0.12888288 0.09135916 -0.086009845 -0.09687344 0.009722438 0.009907452 0.042739786
0.00084902154 -0.039031036 0.005125693 -0.005762131 -0.031539004 0.05767513 -0.07766145 -0.0736643
0.11413372 0.1470412 0.17219919 0.020875033 0.11150984 -0.03856718 0.07977544 -0.16367403
-0.0071777087 -0.0035535763 -0.100889534 -0.02663897 -0.1560672 0.33512294 0.11206945 -0.20297554
-0.16748646 0.029053641 0.047666896 0.051647834 -0.0047659017 -0.161712 0.009334858 0.01205021
-0.055763204 0.084621124 0.15141737 0.005125693 0.06374392 0.08677599 -0.005280979 0.084786214
-0.06232854 -0.1777598 -0.013564003 -0.12141763 0.062475022 0.022982845 0.1514295 0.1887681
0.015673034 0.039489888 -0.054723497 -0.10825577 0.07980971 0.061953563 0.017154375 -0.015841566
-0.01239603 0.031510785 0.101053886 -0.011270836 -0.04595659 0.078886755 0.08748159 0.093643926
0.09042749 0.015132427 0.07209402 0.021759959 0.019950567 -0.1677913 0.019263165 -0.052325398
-0.058125317 0.040601514 -0.083237305 0.038471524 0.08304249 0.04689582 -0.045728743 -0.08488802
0.015453976 0.00388638 0.056641422 0.07070227 0.081285186 -0.09217755 0.014681234 -0.005937736
0.025606818 0.005125693 -0.09180049 0.014598665 0.03664677 -0.06662913 -0.012682996 0.080956824
0.012279438 0.0096831275 -0.13483843 -0.029092005 -0.0039086156 0.013074579 -0.15779977 -0.060947597
00000000: d3c9 f2bb c86e 36be eff7 c1ba 0b0f 933c
00000010: e8c6 4c3c 9711 923e a3d1 89bd eec2 3a3d
00000020: a0fa f7bd cb1f e73b 23de 85bd f72b 043c
00000030: aa9e 2a3e 3759 e7bd 0c87 673d 6ca1 683d
00000040: 59e5 26be 4680 d9bb eec4 9b3d d29d 073d
00000050: 5011 71bd d8bb 32bd 7ce0 173b c61a c4bd
00000060: e917 e53c 70d2 ccbd c011 ba3d 1927 8ebc
00000070: 8f09 8d3d 8bf4 54bd a192 c6bc 432b 73be
00000080: 90bd bebc 01c4 d9bd 5e60 843d f871 84bd
00000090: cad0 b33d 023e 51bb 0dcd 323d 06d5 ffbd
000000a0: a471 aabd 883c 693d 8bca 693d 1910 13bd
000000b0: e6bd fdbc 628e afbb a6fa b23d 72a4 b4bd
000000c0: 63d9 e8bd e404 cabc 3aba d33c b4b4 563c
000000d0: 8e70 31bd 31fe 113e e9bf bd3d 77f5 6dbc
000000e0: 8818 26be 164c 8bbc 4c0d 8e3d 58da 153d
000000f0: 6ef5 a73b 453b 8abd 508a fd3c 3106 5e3d
00000100: 6700 15bd b7af 86bd 5369 cebd fa52 093e
00000110: 6ef5 a73b c870 233e 7436 11bc 0073 493c
00000120: c30d bfbc 27bb 313d 0777 363d 2a47 c03d
00000130: ff2c afbd 8926 873d 7ac8 3fbd 2933 3e3d
00000140: 106f b13c b913 833c bad9 3a3e 3487 9dbc
00000150: 926e b83c 3dd5 a9bd 7d43 613c 68c1 a2bc
00000160: c158 62bb 65de 27bd d929 4a3c fdab 4d3e
00000170: d099 c93d 4f03 f3bc edca 30bd 3b1c 6c3d
00000180: 1063 8c3d eeec cbbc c059 e8bc dd17 3f3d
00000190: 27e8 293d eeb7 903d 9592 f9bc 1f2e 7dbd
000001a0: 470d b63b 8ae2 c0bc 91d5 d7bd a541 5fbd
000001b0: 9df7 d53c bd64 dc3c afdb 463d 8e2d 1ebe
000001c0: a9fa 623c 06cd 19be ae92 0a3e 1fe5 1bbd
000001d0: 2068 aebd 2ff7 a3bd c16b d3bd 9160 a6bc
000001e0: 534d c2bd 8f71 94bd 9fca d73d 1c76 27bc
000001f0: b39a 57bc d520 43bd f862 bbbc 2806 08be
00000200: 7979 a63c 41a2 dbbd 2a43 6bbd ae1c dfbc
00000210: 2173 fc3d 248a 9f3b 4d00 533e 5017 293c
00000220: 5b74 8d3e 6ef5 a73b d039 0bbe 122c 7a3d
00000230: 8ffd 433c 2c89 54bd f3f2 483d b70d a3bd
00000240: 2d61 29bd e0f9 03be 831a bb3d ee25 b0bd
00000250: 9565 c6bd dc4a 1f3c de52 223c ea0f 2f3d
00000260: df90 5e3a 02df 1fbd 6ef5 a73b 42d0 bcbb
00000270: 0b2f 01bd c23c 6c3d f70c 9fbd 4fdd 96bd
00000280: f1be e93d f891 163e fc54 303e 1e02 ab3c
00000290: 455f e43d 9ff8 1dbd 4e61 a33d 2a9a 27be
000002a0: fc32 ebbb 1ee3 68bb 2c9f cebd f839 dabc
000002b0: 14d0 1fbe 3c95 ab3e ab84 e53d d2d8 4fbe
000002c0: 9281 2bbe e701 ee3c 5d3e 433d ae8c 533d
000002d0: 482b 9cbb d597 25be 3bf1 183c 3e6e 453c
000002e0: f567 64bd d74d ad3d 280d 1b3e 6ef5 a73b
000002f0: 2c8c 823d 9cb7 b13d 100c adbb 65a4 ad3d
00000300: 364c 7fbd aa06 36be 8d3b 5ebc cea9 f8bd
00000310: cfe5 7f3d 8546 bc3c 5610 1b3e 6d4c 413e
00000320: bc64 803c 26c0 213d bf25 60bd 33b5 ddbd
00000330: 4673 a33d 05c3 7d3d 5587 8c3c 2cc6 81bc
00000340: b818 4bbc 7411 013d 57f5 ce3d 50a9 38bc
00000350: fa3c 3cbd 618f a13d 8c29 b33d 63c8 bf3d
00000360: 0c32 b93d 00ee 773c 08a6 933d f141 b23c
00000370: 5f6f a33c 7cd1 2bbe c9cd 9d3c 2853 56bd
00000380: d014 6ebd c64d 263d 5278 aabd 5194 1d3d
00000390: 2e12 aa3d d515 403d 104e 3bbd c5d9 adbd
000003a0: ac32 7d3c a3b2 7e3b d600 683d 5acc 903d
000003b0: d978 a63d 95c7 bcbd 8f89 703c 5791 c2bb
000003c0: 64c5 d13c 6ef5 a73b e501 bcbd 3d2f 6f3c
000003d0: ec1a 163d da74 88bd 57cc 4fbc b1cc a53d
000003e0: b22f 493c fba5 1e3c 1613 0abe 5b52 eebc
000003f0: d813 80bb c236 563c 4396 21be 30a4 79bd

layer2.weight_mu f4 [3, 256]
0.0005072062 -0.11985291 0.013847159 -0.13799913 0.02374065 0.24487199 0.020834284 0.09930304
0.028969869 0.010938577 0.035388574 0.031186009 0.25782388 0.3290648 0.26334283 -0.007148165
-0.032109246 -0.0050025242 0.009542636 0.29991752 -0.18097499 0.13387644 -0.13241343 0.09491545
0.007462122 -0.12882632 0.12554829 -0.05753293 0.108249195 0.13944876 0.12459408 0.18383168
-0.08065528 0.15093464 -0.055952016 -0.04068946 0.001519165 0.0930703 -0.08141917 -0.09924989
-0.15559076 0.31046283 0.10377121 0.0352464 -0.14212942 0.21815446 0.04716903 0.13978626
-0.013960786 0.061502095 -0.010229038 -0.0046170917 0.10918412 -0.0833263 0.018378312 0.04006655
-0.09267388 0.038578227 0.025425067 -0.02140673 -0.056470357 0.19669595 -0.21406066 0.2798807
-0.14297788 -0.01638138 -0.18355657 0.28016132 0.00476785 0.15012036 -0.014374233 0.024319092
0.25168616 -0.0023938254 -0.016211655 0.22777471 -0.10066207 -0.12179385 0.17059265 -0.010722691
-0.13748239 0.021936499 0.040165976 -0.126619 0.106899954 0.046276506 -0.0587486 -0.20616904
0.08033892 0.22546627 -0.0066040056 0.10140694 0.057280753 0.004029572 -0.14988339 -0.045570817
0.23522002 0.26131025 0.035291575 0.111761585 0.15559569 0.15170377 -0.1310017 -0.014272116
-0.016589323 0.090509206 0.2847964 0.3850575 -0.079173826 0.13916229 0.06977824 -0.118417926
-0.25787935 -0.07875146 0.06317078 -0.093101904 -0.195013 0.16693318 -0.10044558 -0.118377365
-0.03559831 -0.16156103 0.06544849 -0.040873997 -0.086391814 -0.2268562 0.095605806 -0.14449461
-0.18207859 0.257654 0.06544708 0.20542529 0.08248089 0.031525575 0.084973976 -0.15054466
-0.13580708 -0.023749352 -0.16625445 0.15764405 0.04898319 0.24995245 0.07439708 -0.018002959
0.31819156 0.29830018 0.19541934 0.26688972 0.16272703 0.038096834 -0.020360103 0.11960057
0.013779707 0.25624126 -0.00055122375 0.3010588 0.16920137 -0.13042876 0.073537335 0.06260993
0.26836717 0.37979677 -0.0057778554 0.03504563 0.27957743 0.20208892 0.13302602 -0.13753566
-0.02134284 -0.11647886 0.0042568143 -0.13077919 -0.058747545 -0.13579051 0.1225432 0.18781072
-0.11096703 0.055548538 -0.04277978 0.16856852 0.21091308 0.08288461 -0.040633235 0.022980884
0.21492124 -0.07895797 -0.05917542 0.040852264 0.059815727 -0.23283848 0.15842901 0.31978527
0.29528648 0.03105178 -0.08417151 0.12197933 0.07220939 0.057920594 -0.09563205 0.18147369
0.24955861 0.2571863 0.120589875 -0.08658539 -0.073761486 0.010852213 0.058577444 -0.05206958
0.036464266 -0.097443245 -0.13045374 -0.008093723 0.06538407 -0.10523667 -0.023290798 -0.13521576
-0.042318802 0.050124608 0.24977301 0.02766734 -0.20480672 0.24997714 0.10129106 -0.084506884
0.10743416 -0.0946875 0.057143338 0.1032798 -0.05814712 -0.014841153 -0.15554462 0.086506955
0.14677648 -0.08491028 0.26008394 0.26536563 -0.11722836 -0.030050108 -0.12559396 -0.0066109025
0.25775412 0.04895901 0.0016246235 -0.20698209 -0.21645498 0.12656054 0.15927938 0.13674268
-0.14231823 0.2359438 0.011767893 0.06691965 0.23079036 0.024069875 0.20655525 0.060257662
00000000: 08f6 043a 7175 f5bd 32df 623c a54f 0dbe
00000010: c07b c23c b9bf 7a3e a9ac aa3c 645f cb3d
00000020: 3852 ed3c b837 333c 9cf3 103d cd79 ff3c
00000030: 7e01 843e 2e7b a83e dfd4 863e 273b eabb
00000040: fc84 03bd 37ec a3bb b758 1c3c ca8e 993e
00000050: 8251 39be e816 093e 6397 07be 0863 c23d
00000060: d184 f43b 0ceb 03be bb8f 003e a6a7 6bbd
00000070: c1b1 dd3d a8cb 0e3e 2e2b ff3d 5f3e 3c3e
00000080: 982e a5bd 9c8e 1a3e f12d 65bd fea9 26bd
00000090: b81e c73a a49b be3d 18bf a6bd 8743 cbbd
000000a0: 2f53 1fbe fcf4 9e3e 0086 d43d 875e 103d
000000b0: 608a 11be e263 5f3e 5034 413d 2124 0f3e
000000c0: c8bb 64bc 9fe9 7b3d b297 27bc f94a 97bb
000000d0: ed9b df3d fba6 aabd 1d8e 963c d31c 243d
000000e0: cecb bdbd 3404 1e3d 3b48 d03c 2b5d afbc
000000f0: 764d 67bd aa6a 493e b832 5bbe 864c 8f3e
00000100: cb68 12be 3e32 86bc 41f6 3bbe 4e71 8f3e
00000110: a03b 9c3b 27b9 193e e781 6bbc d538 c73c
00000120: 02dd 803e bae1 1cbb 4ece 84bc c63d 693e
00000130: ea27 cebd 0e6f f9bd d7af 2e3e 3aae 2fbc
00000140: 2fc8 0cbe 2cb4 b33c 1485 243d 69a8 01be
00000150: 5dee da3d 6f8c 3d3d 5fa2 70bd fa1d 53be
00000160: bb88 a43d a1e0 663e 6a66 d8bb 71ae cf3d
00000170: 399f 6a3d 800a 843b 087b 19be 77a8 3abd
00000180: 84dd 703e 75ca 853e e68d 103d 42e3 e43d
00000190: 7a54 1f3e 3c58 1b3e 4f25 06be 98d5 69bc
000001a0: 55e6 87bc e45c b93d d5d0 913e 4226 c53e
000001b0: e325 a2bd 8f80 0e3e e5e7 8e3d 1985 f2bd
000001c0: c308 84be 7248 a1bd af5f 813d 36ac bebd
000001d0: 7db1 47be 88f0 2a3e 6ab6 cdbd d56f f2bd
000001e0: 89cf 11bd 4170 25be dc09 863d 7e6b 27bd
000001f0: 31ee b0bd fe4c 68be facc c33d 65f6 13be
00000200: cf72 3abe 3aeb 833e 1e09 863d 025b 523e
00000210: beeb a83d f620 013d d606 ae3d 6128 1abe
00000220: 0311 0bbe 008e c2bc 9b3e 2abe 716d 213e
00000230: 99a2 483d 89f3 7f3e 7f5d 983d f17a 93bc
00000240: 01ea a23e cdba 983e 021c 483e c5a5 883e
00000250: eaa1 263e 6d0b 1c3d 3bca a6bc 25f1 f43d
00000260: 48c4 613c 0e32 833e 0080 10ba 6124 9a3e
00000270: 2043 2d3e 1e8f 05be be9a 963d a339 803d
00000280: 6c67 893e b974 c23e 2a54 bdbb 028c 0f3d
00000290: c624 8f3e 66f0 4e3e f937 083e 26d6 0cbe
000002a0: 2ed7 aebc 788c eebd bf7c 8b3b fbea 05be
000002b0: 44a1 70bd ab0c 0bbe eef7 fa3d 7451 403e
000002c0: af42 e3bd dd86 633d da39 2fbd 3a9d 2c3e
000002d0: 99f9 573e 68bf a93d 096f 26bd 6842 bc3c
000002e0: 5014 5c3e b7b4 a1bd ed61 72bd b454 273d
000002f0: 5601 753d 366d 6ebe 373b 223e e5ba a33e
00000300: ca2f 973e 4d60 fe3c 1d62 acbd 4dd0 f93d
00000310: 84e2 933d 253e 6d3d bcda c3bd 3dd4 393e
00000320: 4b8c 7f3e ecad 833e d3f7 f63d ae53 b1bd
00000330: 4310 97bd 7bcd 313c e7ee 6f3d e946 55bd
00000340: 8e5b 153d 5390 c7bd aa95 05be 899b 04bc
00000350: 15e8 853d 5386 d7bd 58cc bebc 0076 0abe
00000360: 7b56 2dbd 764f 4d3d 7fc4 7f3e 9ea6 e23c
00000370: dab8 51be 02fa 7f3e b071 cf3d f211 adbd
00000380: 7106 dc3d 85eb c1bd 220f 6a3d 5c84 d33d
00000390: ad2b 6ebd 4f28 73bc 1747 1fbe 8f2a b13d
000003a0: 934c 163e 71e5 adbd b929 853e 01de 873e
000003b0: 6c15 f0bd a52b f6bc b49b 00be 45a0 d8bb
000003c0: 59f8 833e 3e89 483d 52f1 d43a 1df3 53be
000003d0: 60a6 5dbe 1699 013e 221a 233e 4606 0c3e
000003e0: dfbb 11be 409b 713e 1fce 403c 2b0d 893d
000003f0: 4f54 6c3e 302e c53c 3883 533e bdd0 763d

layer2.weight_sigma f4 [3, 256]
0.06500962 -0.039981816 0.007272853 0.1646259 -0.004053813 0.002740615 -0.02459902 0.1393905
-0.1314926 0.0010625 -0.026153969 0.051748984 0.045736037 -0.07913215 -0.010945353 -0.093241975
-0.014671162 0.009607224 -0.0070883976 -0.023139415 -0.013994051 0.0991957 0.10401046 -0.077063106
-0.025156358 0.06190426 -0.053435225 0.056013986 -0.041394144 -0.1302401 -0.07503784 -0.032706883
0.039237797 0.010393197 -0.012324808 -0.080385916 -0.09297473 -0.013667285 0.06908742 -0.009969714
-0.06877165 -0.09948494 -0.15292378 0.06299955 -0.08307342 0.08263381 -0.036859103 0.022341356
-0.011239273 0.041911084 -0.021835601 -0.0053212666 -0.016478095 -0.1380611 0.024285667 -0.043323137
0.04623466 0.015588367 0.03609027 -0.08304986 0.0010625 0.018649962 -0.03141782 -0.12009932
0.03047584 -0.069965445 -0.06010027 -0.08328132 0.0010625 -0.03547531 0.0068369894 0.007875575
-0.0066561773 -0.064038664 0.08549058 0.0066841478 -0.015468404 -0.107847914 -0.12030267 0.07344899
0.0051689395 0.07445885 -0.053724784 -0.0053346297 0.072715476 -0.12894939 -0.040939912 0.05486786
-0.055494186 -0.050199457 0.017788665 0.10119695 -0.021718405 0.045967903 -0.0008792073 0.014600436
0.06892651 0.005137451 0.0060028676 0.04660783 -0.004796801 0.012900686 0.13252942 0.055900022
-0.018790768 0.012608777 0.015023426 -0.12299387 0.042170376 -0.07901114 -0.021467973 0.049524475
0.06041624 -0.106240034 0.0048029306 0.056598153 0.14108808 0.10558968 -0.08950859 -0.051127937
0.017433558 0.006942628 -0.016581366 -0.11048486 0.007901357 -0.008241451 -0.04821769 -0.047590975
0.05503494 -0.035480894 -0.0023957028 0.0069313734 0.04405565 0.036438897 0.013194739 -0.02733823
-0.0032930905 0.0010625 -0.0017247846 -0.006880838 -0.03501304 -0.060508963 -0.013358183 0.017812751
-0.04360536 0.00066284963 -0.11742623 0.040310193 0.10012188 -0.04821383 0.054886095 0.08150833
0.08261417 -0.008498019 0.0010625 -0.012999307 -0.015560503 -0.032908473 0.12615265 0.08345345
-0.09037789 -0.079762496 -0.09959787 -0.055378255 0.055111136 -0.043037124 -0.025213305 -0.036415327
-0.015980281 0.14721188 -0.07180618 -0.047061294 -0.059423637 -0.11529872 -0.046583235 -0.11649324
0.07347649 0.16620411 0.039041713 0.08721309 -0.019860106 0.118923485 -0.0048155347 0.051645443
0.014828568 0.06016413 0.13604087 0.0010625 0.027973318 -3.847159e-05 0.0063799163 0.04301865
-0.0409126 0.005650948 0.07785746 0.03830108 -0.011569302 0.08642776 -0.09548422 -0.027221698
0.044315767 0.021402001 0.26744932 -0.03875817 0.034901656 0.029915981 -0.029691413 -0.098356456
-0.010016048 0.0074425153 0.09579498 -0.027553422 -0.013036452 0.023002464 0.069713734 -0.025431367
-0.045542847 -0.015283468 -0.04679867 -0.030615868 -0.039497435 -0.07648226 0.1012841 -0.092172444
-0.049083177 -0.07954407 -0.043189682 -0.04516259 -0.004024789 0.015297537 -0.05180774 -0.09286299
0.02057456 -0.026016098 0.025346722 -0.031767543 0.019159434 -0.09750762 0.030416574 0.019899927
0.044166867 0.0010625 -0.114335656 0.02677404 0.013191436 0.036095235 -0.08571555 -0.028167171
-0.006389403 0.052278027 -0.09479969 0.09956448 -0.012326104 -0.058465626 -0.014438577 -0.054301985
00000000: c323 853d f9c3 23bd 1d51 ee3b b193 283e
00000010: d9d5 84bb e49b 333b e283 c9bc 62bc 0e3e
00000020: ffa5 06be 9643 8b3a d940 d6bc bef6 533d
00000030: b655 3b3d 0910 a2bd 2354 33bc a6f5 bebd
00000040: 505f 70bc 9e67 1d3c ca45 e8bb df8e bdbc
00000050: 4e47 65bc 1d27 cb3d 7003 d53d 43d3 9dbd
00000060: b514 cebc 528f 7d3d e5de 5abd ec6e 653d
00000070: e88c 29bd a95d 05be 70ad 99bd a7f7 05bd
00000080: d0b7 203d 3a48 2a3c feed 49bc 5fa1 a4bd
00000090: 8969 bebd c0ec 5fbc b57d 8d3d 0358 23bc
000000a0: 27d8 8cbd c3be cbbd 0d98 1cbe e805 813d
000000b0: 6622 aabd ea3b a93d 92f9 16bd 3805 b73c
000000c0: ed24 38bc f5aa 2b3d 93e0 b2bc 055e aebb
000000d0: 12fd 86bc e45f 0dbe bcf2 c63c 9a73 31bd
000000e0: 8e60 3d3d 5a66 7f3c 64d3 133d 0c16 aabd
000000f0: 9643 8b3a cec7 983c f9af 00bd a2f6 f5bd
00000100: 78a8 f93c 0b4a 8fbd b32b 76bd 668f aabd
00000110: 9643 8b3a 8f4e 11bd d308 e03b 8e08 013c
00000120: 101c dabb b426 83bd af15 af3d b206 db3b
00000130: 306f 7dbc 5edf dcbd 3f61 f6bd 6d6c 963d
00000140: 3560 a93b e27d 983d 850e 5cbd 1ece aebb
00000150: daeb 943d 4f0b 04be 9cb0 27bd 1fbd 603d
00000160: df4d 63bd f29d 4dbd 89b9 913c 5940 cf3d
00000170: ccea b1bc d748 3c3d 9a7a 66ba ab36 6f3c
00000180: 5829 8d3d 1058 a83b b4b3 c43b dae7 3e3d
00000190: 7c2e 9dbb 665d 533c cbb5 073e 6cf7 643d
000001a0: 19ef 99bc 0b95 4e3c d124 763c 36e4 fbbd
000001b0: d8ba 2c3d 98d0 a1bd 9add afbc 2dda 4a3d
000001c0: 0577 773d 6094 d9bd e761 9d3b 77d3 673d
000001d0: 6579 103e 673f d83d 4850 b7bd 876b 51bd
000001e0: d2d0 8e3c fc7e e33b a5d5 87bc e345 e2bd
000001f0: b174 013c 2707 07bc ea7f 45bd c1ee 42bd
00000200: 516c 613d 6a54 11bd 3901 1dbb 9320 e33b
00000210: b273 343d f440 153d bf2e 583c 6cf4 dfbc
00000220: e4d0 57bb 9643 8b3a 2b12 e2ba a778 e1bb
00000230: d569 0fbd 3fd8 77bd 48dc 5abc 0cec 913c
00000240: 899b 32bd 16c3 2d3a 2a7d f0bd 4d1c 253d
00000250: b30c cd3d dd7b 45bd 3ed0 603d d7ed a63d
00000260: 9e31 a93d 463b 0bbc 9643 8b3a 0cfb 54bc
00000270: 7bf1 7ebc 09cb 06bd 292e 013e a4e9 aa3d
00000280: 0b18 b9bd 855a a3bd f8f9 cbbd 4fd4 62bd
00000290: 37bc 613d b247 30bd 228c cebc 3d28 15bd
000002a0: 14e9 82bc b6be 163e 1e0f 93bd 58c3 40bd
000002b0: 3366 73bd bc21 ecbd 10ce 3ebd 0294 eebd
000002c0: d87a 963d 6931 2a3e 34ea 1f3d c79c b23d
000002d0: a9b1 a2bc 288e f33d a2cb 9dbb 2c8a 533d
000002e0: 86f3 723c aa6e 763d 4c4e 0b3e 9643 8b3a
000002f0: 4d28 e53c 8e5c 21b8 9e0e d13b 5334 303d
00000300: f893 27bd 962b b93b bb73 9f3d 98e1 1c3d
00000310: 2b8d 3dbc 0a01 b13d 3b8d c3bd 0a00 dfbc
00000320: 7384 353d 4053 af3c 1eef 883e e3c0 1ebd
00000330: 0af5 0e3d 5c12 f53c 683b f3bc 1c6f c9bd
00000340: 5a1a 24bc 58e0 f33b 2930 c43d b7b7 e1bc
00000350: d896 55bc aa6f bc3c 13c6 8e3d 7155 d0bc
00000360: 238b 3abd 8367 7abc f6af 3fbd 21ce fabc
00000370: 10c8 21bd bba2 9cbd 0a6e cf3d e8c4 bcbd
00000380: 710b 49bd 00e8 a2bd aae7 30bd 68fc 38bd
00000390: 61e2 83bb 85a2 7a3c 5a34 54bd f42e bebd
000003a0: fb8b a83c b61f d5bc eea3 cf3c af1e 02bd
000003b0: 3ff4 9c3c 13b2 c7bd 2e2c f93c 2c05 a33c
000003c0: 51e8 343d 9643 8b3a d028 eabd 3b55 db3c
000003d0: e520 583c 99d8 133d a28b afbd d7be e6bc
000003e0: 325e d1bb 7c21 563d 5726 c2bd 76e8 cb3d
000003f0: 6df3 49bc a779 6fbd c88f 6cbc c26b 5ebd

layer2.bias_mu f4 [3]
0.18032083 0.03629978 0.03159125
00000000: 06a6 383e 14af 143d d465 013d

layer2.bias_sigma f4 [3]
-0.008370595 -0.05871753 0.05437539
00000000: d224 09bc cb81 70bd bbb8 5e3d
