DDQN_models/noisy-model1-snapshot-score-35.pth (torch, 33781 bytes, 8 tensors)

layer1.weight_mu f4 [256, 11]
0.1922742 0.24125871 -0.13422878 -0.300359 -0.92663723 -0.7801428 -1.2638437 -0.75706875
-1.7733643 1.0892655 -1.1795793 0.84698313 0.8484793 -0.6988237 -0.30387044 -1.5729614
-1.1784724 -1.2475928 -1.2037321 -1.4405309 0.4480074 0.6990018 0.32003868 0.43650165
-0.6727172 -0.62200874 -1.1728576 -0.9776914 -1.1792822 -1.0813037 -1.7811171 0.6205066
0.027576765 0.75127476 0.0548177 -0.7620728 -0.4412549 -0.6734062 -1.2076924 -0.56262714
-0.74958026 -0.38722545 -0.019912586 0.4924339 -0.9574188 -1.3216275 -1.336001 -1.3244808
0.12935229 -0.18182603 0.12340358 0.167521 0.23801269 0.24108666 1.9865171 0.07715015
0.1892741 -0.8073444 -0.6581174 -0.6766947 -0.8861014 -0.29135284 -1.2243053 -1.4050646
0.119211785 -0.010082433 0.07829461 -0.12759477 -0.018021462 0.023697602 -0.09282709 -0.0063554915
0.07081748 -0.040704966 -0.17780273 0.10126499 -0.27457798 -0.18953016 -0.137636 0.049255665
-0.44006374 -0.5219361 -0.6182455 -0.19852816 -0.20126338 -0.09059525 -0.24513097 -0.5227969
-0.055746544 -0.2071799 -0.28985715 0.042024713 -0.5420319 -0.37538713 -0.20116208 -0.34571478
-0.032921217 -0.4305246 0.10350597 0.043933634 -0.062073305 -0.18243116 -0.28528586 -0.19146237
-0.18780524 -0.262451 -0.084207684 -0.01812808 0.061899193 0.040990163 -0.51123595 -0.62553346
0.9401427 1.1233207 -1.1265397 -1.1480948 -0.9877128 -0.9016478 -0.30346474 0.14046891
-0.02161676 -0.18833369 -0.26732463 -0.18677957 -0.020652525 0.14594047 0.016737694 -0.051278085
0.011742568 -0.08705202 -0.061955366 -0.06451418 0.5404946 0.7113274 -0.47066605 -0.17343876
-0.99283826 -1.0108025 -1.3665854 -0.9714561 -1.2672534 0.061545 0.19901916 0.25826114
-1.7834792 -1.731192 0.3378357 -0.99190915 0.5100567 -0.7638531 -0.017797159 -0.8585367
0.28345323 -0.62121284 0.004371116 0.14157468 -0.6714294 -0.70215166 -0.7566227 -0.41096312
-0.6560628 -0.34585208 -1.2193422 -1.3557576 -1.4098777 0.51962423 0.90496874 0.06412498
-0.91110516 -0.606573 -1.1973522 -0.7217183 -1.2176911 -1.9809362 0.30735543 -0.16054693
0.6245776 1.0239822 -0.5220334 -0.26006272 -1.3044418 -1.3721093 -1.6237384 -1.3799042
-1.8257645 -0.1524565 0.49733642 0.4563831 0.44935215 -0.3033439 -0.7412173 -0.90811473
-0.73959726 -0.8689959 -0.95586634 -1.5240238 0.7004531 0.23568898 0.1790833 0.4107104
-0.65756863 -0.35398623 -0.9873475 -0.76753825 -1.1013529 -0.7703417 -0.31848887 0.40994057
0.476887 -0.21254593 0.5757792 -1.0797279 0.63078517 -1.1027794 0.011628591 -1.0066668
-0.47145218 -1.6622709 -0.09336157 -0.04842476 0.4448126 0.44672486 -0.25062403 -0.3098184
-0.8870122 -1.0573523 -0.8687592 -0.8629644 -0.4146013 0.15203474 -0.17925666 0.26597112
0.44695452 -0.36651486 -0.37581304 -0.9872243 -0.94313586 -0.56992835 -0.80435956 -1.1416982
-0.046077315 -0.18003963 0.49666134 0.9588774 -0.69550526 -0.12655343 -0.8445066 -0.9779624
-1.1235858 -1.184052 -1.2019125 0.124580555 0.11510356 -0.20895115 -0.20626281 0.0660217
00000000: 87e3 443e 860c 773e 4573 09be a8c8 99be
00000010: 1938 6dbf 70b7 47bf a1c5 a1bf 42cf 41bf
00000020: 9afd e2bf 0d6d 8b3f 74fc 96bf e3d3 583f
00000030: f035 593f 1ce6 32bf e894 9bbe cd56 c9bf
00000040: 2fd8 96bf 1fb1 9fbf e513 9abf 5163 b8bf
00000050: 3a61 e53e c8f1 323f 1cdc a33e 257d df3e
00000060: 3237 2cbf f73b 1fbf 3320 96bf fc49 7abf
00000070: b8f2 96bf 2968 8abf a5fb e3bf 85d9 1e3f
00000080: abe8 e13c 8b53 403f 8688 603d 3417 43bf
00000090: 2aec e1be 5964 2cbf aa95 9abf 5508 10bf
000000a0: 7ee4 3fbf 6a42 c6be b81f a3bc 4c20 fc3e
000000b0: 6619 75bf 172b a9bf 1502 abbf 9688 a9bf
000000c0: ed74 043e 9a30 3abe 04bb fc3d a08a 2b3e
000000d0: 99b9 733e 6cdf 763e 3146 fe3f e600 9e3d
000000e0: 12d1 413e 1fae 4ebf 627a 28bf dd3b 2dbf
000000f0: 8bd7 62bf 332c 95be 09b6 9cbf 28d9 b3bf
00000100: 4f25 f43d ca30 25bc ed58 a03d 34a8 02be
00000110: bfa1 93bc 7921 c23c 211c bebd ba41 d0bb
00000120: c108 913d 40ba 26bd eb11 36be 0564 cf3d
00000130: 7c95 8cbe 3214 42be 74f0 0cbe 4fc0 493d
00000140: 0950 e1be 9b9d 05bf 5645 1ebf f74a 4bbe
00000150: fd17 4ebe 018a b9bd 9d03 7bbe 05d6 05bf
00000160: 7d56 64bd f826 54be 2868 94be 1b22 2c3d
00000170: 9ac2 0abf be32 c0be 6ffd 4dbe 8701 b1be
00000180: 66d8 06bd b86d dcbe f0fa d33d c1f3 333d
00000190: 9440 7ebd 3ccf 3abe fd10 92be b60e 44be
000001a0: 0450 40be fa5f 86be 1475 acbd 5781 94bc
000001b0: 028a 7d3d 4de5 273d 5ce0 02bf f622 20bf
000001c0: 31ad 703f f9c8 8f3f 7432 90bf c5f4 92bf
000001d0: bfda 7cbf 64d2 66bf bb5f 9bbe 15d7 0f3e
000001e0: a215 b1bc 8cda 40be c6de 88be 2543 3fbe
000001f0: 7c2f a9bc 6b71 153e 7d1d 893c f808 52bd
00000200: e663 403c 5448 b2bd e9c4 7dbd 0320 84bd
00000210: db5d 0a3f 8d19 363f 24fb f0be ee99 31be
00000220: a62a 7ebf fa61 81bf 45ec aebf 59b1 78bf
00000230: 5c35 a2bf 9c16 7c3d aecb 4b3e ce3a 843e
00000240: 0c49 e4bf b397 ddbf cdf8 ac3e c2ed 7dbf
00000250: 1393 023f e08b 43bf 59cb 91bc 10c9 5bbf
00000260: c820 913e ce07 1fbf 943b 8f3b f4f8 103e
00000270: cce2 2bbf 36c0 33bf 06b2 41bf c269 d2be
00000280: bbf3 27bf 8613 b1be 6813 9cbf 7789 adbf
00000290: df76 b4bf 1806 053f 08ac 673f f553 833d
000002a0: 303e 69bf 5e48 1bbf d642 99bf 88c2 38bf
000002b0: 4ddd 9bbf 518f fdbf b15d 9d3e 6a66 24be
000002c0: 51e4 1f3f d911 833f fba3 05bf f126 85be
000002d0: f3f7 a6bf 47a1 afbf a9d6 cfbf b3a0 b0bf
000002e0: a7b2 e9bf 8f1d 1cbe e1a2 fe3e 0cab e93e
000002f0: 7c11 e63e e44f 9bbe 6bc0 3dbf 357a 68bf
00000300: 3f56 3dbf 8476 5ebf a8b3 74bf 3613 c3bf
00000310: e550 333f 7458 713e 9d61 373e a248 d23e
00000320: 6b56 28bf af3d b5be cec2 7cbf 637d 44bf
00000330: 22f9 8cbf 1d35 45bf f910 a3be bbe3 d13e
00000340: 882a f43e a4a5 59be 4466 133f 8634 8abf
00000350: 237b 213f e027 8dbf d985 3e3c 75da 80bf
00000360: 2e62 f1be 4bc5 d4bf 5a34 bfbd 0b59 46bd
00000370: 7abe e33e 1fb9 e43e cb51 80be 84a0 9ebe
00000380: 3b13 63bf 5257 87bf 0167 5ebf 3ceb 5cbf
00000390: 9f46 d4be ffae 1b3e 0f8f 37be 5e2d 883e
000003a0: 39d7 e43e d6a7 bbbe 916a c0be bbba 7cbf
000003b0: 5a71 71bf d3e6 11bf 82ea 4dbf 2b23 92bf
000003c0: 91bb 3cbd 4f5c 38be 654a fe3e fd78 753f
000003d0: a20c 32bf 3997 01be 9631 58bf be5b 7abf
000003e0: a9d1 8fbf 048f 97bf 45d8 99bf 1724 ff3d
000003f0: 6abb eb3d 4af7 55be 8f36 53be 6336 873d

layer1.weight_sigma f4 [256, 11]
-0.69262725 -0.9817107 0.0074459673 0.42313084 0.14945287 -0.004762247 0.21039593 0.06193115
-0.15628046 -0.19031289 0.0042417585 -1.2829033 1.0218536 -0.2856508 -0.14511266 -0.20133623
-0.16822805 0.28994015 0.19850154 0.0990842 -0.80654556 -0.28327668 1.1102744 -0.9173034
0.25459126 0.011450037 -0.35321096 -0.21226142 0.00994238 0.29624575 -0.19733353 0.5073735
-0.34810796 0.8847593 0.83274084 -0.287251 -0.06595532 0.06810251 0.07817534 0.67232114
-0.099740595 0.07528347 -0.09012059 0.67580545 -0.00864462 0.18226233 0.057278197 -0.11068761
0.11381094 -0.17094561 -0.042320255 0.15855964 -0.06282631 -0.06684552 0.02138736 -0.75216883
0.9875379 0.07940184 -0.100427546 -0.03988136 0.2543856 -0.15187657 -0.13425787 -0.16655374
-0.46031055 0.17836675 -0.039116994 -0.016490245 0.01745429 0.11745852 -0.0083711 -0.035861276
0.026231866 0.012507316 0.016324181 0.02023252 0.03264903 0.24769345 0.14245151 -0.06364825
0.0056375577 0.0917503 -0.14005764 0.073770195 0.005276073 -0.13656518 -0.15440884 -0.25398
0.048117884 0.02870949 0.0021291107 -0.02500055 -0.056492906 0.15893868 0.096282646 -0.055997964
-0.08438602 -0.061616644 -0.01882177 -0.020285008 0.005125693 0.005125693 0.005125693 0.005125693
0.005125693 0.005125693 0.005125693 -0.02663978 -0.026297743 0.0052010366 0.063883565 -0.18100606
0.12580375 -0.020725716 0.10718714 -0.07291642 -0.0098809255 -0.032339122 -0.08798143 0.05578304
0.04404239 -0.008536283 0.005125693 -0.024255509 -0.0039432095 0.007607317 -0.0072102533 -0.033751942
0.0365914 0.010132207 -0.029404402 -0.016947584 1.173541 -1.04719 0.12285102 -0.02855369
0.06824311 -0.11688096 -0.24227384 -0.17504308 0.14123334 0.5434633 0.5192056 0.088764995
0.016657833 -0.017895468 0.0019316425 0.02457234 -0.119113736 0.039096825 0.009377214 0.03883601
0.2279742 0.12476716 -0.53057224 0.49112892 0.04104366 0.087956175 -0.022170417 -0.018218791
-0.09440886 0.08396359 0.016652862 -0.08194027 0.06707482 0.96308184 1.2282408 -0.46933934
0.11281384 0.53682125 -0.12672561 0.3497294 -0.14036162 -0.07532519 0.11565798 -0.42466742
-1.0696305 -1.4932394 -0.03423028 0.016591417 -0.17592844 -0.43422335 -0.17086478 0.36016178
0.08594416 0.05343766 -0.46233076 0.7483524 1.3721646 -0.14472345 0.12637444 0.13450481
-0.1035783 -0.14897509 -0.05385566 -0.08166573 -0.34267837 -0.77465814 -0.6197863 0.93451613
0.19708313 0.054809496 0.24158944 -0.22142386 -0.0144347185 0.050288167 0.305109 0.7741839
0.09409993 -0.05741055 -0.051527828 -0.060751356 -0.05465357 -0.039111573 0.0026428662 -0.011321226
0.047214642 -0.111882456 -0.19114025 -0.08408312 0.8445407 0.6416978 0.5298316 0.20741315
0.09089139 -0.07088277 -0.07414188 -0.2133292 -0.014401686 -0.40572473 0.05673685 0.5715359
-0.4677819 -0.40326148 -0.14425738 -0.09257822 -0.1280939 -0.016359113 -0.09856686 0.046558075
-0.60609496 -0.5080962 1.0323278 -0.73145 -0.07294237 0.040123485 -0.3985677 -0.09594481
-0.2011473 -0.2693215 -0.21443745 0.31761432 -0.58869475 0.09819161 0.07073267 -0.06871648
00000000: 0550 31bf 6451 7bbf 4dfd f33b 9ba4 d83e
00000010: 2c0a 193e a00c 9cbb 0872 573e 84ab 7d3d
00000020: fc07 20be 62e1 42be 73fe 8a3b 2d36 a4bf
00000030: 19cc 823f d240 92be 6a98 14be 162b 4ebe
00000040: f943 2cbe 0973 943e fd43 4b3e a8ec ca3d
00000050: c579 4ebf a409 91be 791d 8e3f 65d4 6abf
00000060: c959 823e f098 3b3c 11d8 b4be 0f5b 59be
00000070: 5de5 223c 86ad 973e cd11 4abe 3be3 013f
00000080: 353b b2be 967f 623f 812e 553f 9012 93be
00000090: 9513 87bd 5479 8b3d 651a a03d 3d1d 2c3f
000000a0: cc44 ccbd 382e 9a3d 2591 b8bd 9601 2d3f
000000b0: 2aa2 0dbc faa2 3a3e 8b9c 6a3d 30b0 e2bd
000000c0: b615 e93d 5e0c 2fbe 0158 2dbd 755d 223e
000000d0: 15ab 80bd 4ee6 88bd 8b34 af3c 238e 40bf
000000e0: 49cf 7c3f 6f9d a23d f5ac cdbd a35a 23bd
000000f0: d43e 823e 8885 1bbe e57a 09be 108d 2abe
00000100: d3ad ebbe c6a5 363e 2439 20bd 8d16 87bc
00000110: 4dfc 8e3c 188e f03d f026 09bc 46e3 12bd
00000120: 36e4 d63c 7ceb 4c3c 4aba 853c abbe a53c
00000130: fdba 053d 5aa3 7d3e cfde 113e 045a 82bd
00000140: 43bb b83b 95e7 bb3d 456b 0fbe d414 973d
00000150: e8e2 ac3b bed7 0bbe 5a1d 1ebe ab09 82be
00000160: 4217 453d 2a30 eb3c 8d88 0b3b f4cd ccbc
00000170: 1b65 67bd d2c0 223e d62f c53d 1f5e 65bd
00000180: 94d2 acbd bc61 7cbd 1d30 9abc bf2c a6bc
00000190: 6ef5 a73b 6ef5 a73b 6ef5 a73b 6ef5 a73b
000001a0: 6ef5 a73b 6ef5 a73b 6ef5 a73b ab3b dabc
000001b0: 5d6e d7bc 756d aa3b 63d5 823d a759 39be
000001c0: b3d2 003e fac8 a9bc ee84 db3d 3455 95bd
000001d0: 9be3 21bc 0776 04bd 9c2f b4bd c27c 643d
000001e0: cb65 343d c4db 0bbc 6ef5 a73b 7db3 c6bc
000001f0: 0a36 81bb cd46 f93b fd43 ecbb 7a3f 0abd
00000200: dde0 153d 8e01 263c 80e1 f0bc a9d5 8abc
00000210: 9736 963f 520a 86bf 5199 fb3d 6ee9 e9bc
00000220: 0bc3 8b3d 495f efbd a216 78be 7e3e 33be
00000230: 799f 103e 6920 0b3f a8ea 043f 6cca b53d
00000240: 0276 883c 8499 92bc 2b2f fd3a ef4b c93c
00000250: e7f1 f3bd fe23 203d e3a2 193c 8212 1f3d
00000260: 1272 693e ed85 ff3d 95d3 07bf 4075 fb3e
00000270: 661d 283d 5e22 b43d bc9e b5bc 933f 95bc
00000280: 6f59 c1bd 1af5 ab3d 956b 883c 4dd0 a7bd
00000290: 865e 893d 888c 763f ff36 9d3f 3f4d f0be
000002a0: f10a e73d 1e6d 093f 5cc4 01be bb0f b33e
000002b0: f5ba 0fbe 1844 9abd 17de ec3d 026e d9be
000002c0: a7e9 88bf 7822 bfbf 0d35 0cbd b9ea 873c
000002d0: 9626 34be 8652 debe 2df7 2ebe 2067 b83e
000002e0: 7e03 b03d 73e1 5a3d 9eb6 ecbe 0694 3f3f
000002f0: 17a3 af3f 6232 14be 4d68 013e a1bb 093e
00000300: dc20 d4bd ed8c 18be c197 5cbd 5d40 a7bd
00000310: 8a73 afbe ff4f 46bf 51aa 1ebf 733c 6f3f
00000320: 29d0 493e ec7f 603d 3963 773e f0bc 62be
00000330: 997f 6cbc f7fa 4d3d 3f37 9c3e eb30 463f
00000340: 77b7 c03d 5327 6bbd d80e 53bd 6ad6 78bd
00000350: 6cdc 5fbd 7533 20bd f033 2d3b aa7c 39bc
00000360: 2464 413d a122 e5bd 45ba 43be c533 acbd
00000370: d233 583f 4f46 243f 0ba3 073f 1d64 543e
00000380: 4425 ba3d fc2a 91bd b3d7 97bd f872 5abe
00000390: 0df5 6bbc 27bb cfbe e664 683d 2d50 123f
000003a0: 1c81 efbe 4a78 cebe 35b8 13be a699 bdbd
000003b0: 0c2b 03be 8c03 86bc 6cdd c9bd aeb3 3e3d
000003c0: 0a29 1bbf 9812 02bf 5123 843f 4f40 3bbf
000003d0: cf62 95bd 8658 243d 1111 ccbe b67e c4bd
000003e0: 8ff9 4dbe 82e4 89be 7e95 5bbe 589e a23e
000003f0: b3b4 16bf af18 c93d 4adc 903d 3abb 8cbd

layer1.bias_mu f4 [256]
-1.81458 -1.918585 -1.9746852 -1.4978635 -0.21192183 -1.4439667 -0.6507815 -0.84450036
-0.3885842 -0.37151384 -0.014760944 -0.27201054 -1.9230983 0.4166503 -0.369381 -1.6447273
-1.9762684 -1.4754744 -1.1979772 0.9279906 -2.4359643 -0.9934549 -1.6680318 -0.42199445
-0.48439953 -1.4234296 -1.6395968 -1.9642409 -1.8785636 -1.4197732 -1.2085787 -1.4681901
-1.2810284 -1.6089143 -1.853392 -2.2244005 -1.9332309 0.05428298 -1.30586 -1.4311262
-2.4822981 -0.7244876 -1.3390853 -0.62274307 -1.1472092 -1.5355295 -1.1223559 1.2903566
-2.0832672 -1.4909378 -0.48400733 -0.75055796 -1.5005144 -2.3304338 -0.90967876 -1.1375945
-2.0281122 -2.3148236 -1.7405068 -2.119097 -0.21458465 -1.7388272 -2.2415879 0.6587822
-2.1795187 -0.7592075 -0.43030167 -1.2030818 -0.29505983 -1.5980287 -0.3738846 -0.46376768
-0.4685315 -1.6784424 -1.8736271 -0.9662958 -1.4076513 -1.0541228 -1.5981379 -0.16794908
-1.9682987 -0.5775897 -1.0400883 -1.6906155 -2.206513 -0.45844927 -1.7276747 -1.3923111
-1.7729735 -1.4780742 -2.2668169 -0.1657896 -1.378791 -0.34987336 -1.6886476 -0.401675
-0.54960215 -0.024959704 -1.0122259 -1.2702533 -1.0785546 -1.5240923 -1.9381301 -0.5987378
-1.5707277 -0.24845687 -1.0765097 0.7990793 -0.33946282 -0.5622611 -0.97832984 -1.5263745
-0.853978 -2.28161 -0.6506448 -1.557678 -1.431783 -1.5184352 -2.62918 -0.47360498
-1.378818 -1.3045999 -1.7090453 -1.1495804 -0.67655015 -1.990082 -1.5385044 -1.6769325
-2.007259 -0.7630622 -1.3482655 -2.307143 -0.26578856 -0.32618532 -1.6971935 -1.7997402
-0.88148206 -0.10750286 -1.5870451 -1.4437264 -1.5680982 -0.38249952 -0.54918563 -0.66164434
-0.25295493 -0.6423621 -1.6266814 -1.2648199 -0.5941858 -0.30765313 -1.8547875 -2.2210782
-0.4563227 -1.3882027 -0.18646456 -1.2131788 -0.08138167 -1.6680603 -0.27871728 -1.0421071
-0.5494345 -1.3425028 -1.7444446 -2.2347777 -0.93184465 0.76897216 -1.1393585 -2.1167867
-2.0266852 -0.9551897 -1.149939 -2.0980742 -0.8938409 -0.81565744 -0.42414823 -1.4574609
-1.4765882 -2.0525384 -2.1190612 -1.084923 -0.26846406 -1.3675265 -1.3931985 -0.70933044
-0.5881673 -1.6722527 -1.9300706 -0.24802741 -1.4180933 -1.9539773 -1.4374142 1.6018919
0.74421316 -1.7763764 -0.70955986 -1.3507433 -0.44623855 -1.2625815 -1.0712111 -1.13562
-1.6212676 1.1368365 -0.17725623 -0.8146143 -2.0292692 -1.2251035 -1.1272674 -2.1780283
-1.4764512 -1.793412 -2.2140636 -1.9420614 1.2723387 -1.2708687 -1.9128698 -1.9810371
0.01802202 -1.6781896 -0.8922284 -0.08540956 -1.4138621 -1.7713249 -1.0245341 -1.7834264
-0.65755105 -1.2986392 -1.6028328 -1.6363486 -0.36228123 -1.7302953 -1.3442261 -0.3983861
-1.5214642 -1.1752194 -2.0376003 -0.08689434 -1.2881668 -1.1462718 -1.6353569 -0.2657586
-1.1456401 -0.18581322 -2.2027955 -1.258856 -1.4240385 -0.4300736 -1.8044208 -0.8460914
-2.0169718 -1.8021691 -1.7637894 -1.263423 -1.42432 -0.43888265 -2.3495178 -0.0061804075
00000000: 2844 e8bf 3194 f5bf 7cc2 fcbf feb9 bfbf
00000010: 0902 59be e7d3 b8bf 9e99 26bf 2d31 58bf
00000020: 82f4 c6be 1037 bebe e3d7 71bc f744 8bbe
00000030: 1628 f6bf 3053 d53e 821f bdbe 6d86 d2bf
00000040: 5df6 fcbf 58dc bcbf 5157 99bf cb90 6d3f
00000050: d7e6 1bc0 0f53 7ebf 1182 d5bf a80f d8be
00000060: 3703 f8be f132 b6bf 4fde d1bf 3f6c fbbf
00000070: c674 f0bf 21bb b5bf b5b2 9abf a7ed bbbf
00000080: bdf8 a3bf e7f0 cdbf f33b edbf 945c 0ec0
00000090: 1c74 f7bf d457 5e3d 6c26 a7bf 252f b7bf
000000a0: f9dd 1ec0 0578 39bf 2667 abbf 176c 1fbf
000000b0: c0d7 92bf 3b8c c4bf 5ca9 8fbf 682a a53f
000000c0: 4054 05c0 0dd7 bebf cfcf f7be 9124 40bf
000000d0: db10 c0bf d425 15c0 b5e0 68bf b29c 91bf
000000e0: 97cc 01c0 1226 14c0 edc8 debf 499f 07c0
000000f0: 14bc 5bbe e491 debf 2d76 0fc0 f3a5 283f
00000100: 3c7d 0bc0 6c5b 42bf 8050 dcbe 96fe 99bf
00000110: 1512 97be 348c ccbf cd6d bfbe f572 edbe
00000120: 5ce3 efbe 33d7 d6bf 03d3 efbf 295f 77bf
00000130: eb2d b4bf 7fed 86bf c88f ccbf d8fa 2bbe
00000140: 36f1 fbbf ebdc 13bf 9d21 85bf 1766 d8bf
00000150: 8237 0dc0 ddb9 eabe 7224 ddbf 4037 b2bf
00000160: ccf0 e2bf 8931 bdbf 8713 11c0 c0c4 29be
00000170: 397c b0bf 9a22 b3be 9b25 d8bf 58a8 cdbe
00000180: bab2 0cbf 4b78 ccbc 9e90 81bf a997 a2bf
00000190: 140e 8abf 7515 c3bf a614 f8bf e146 19bf
000001a0: 9b0d c9bf 7a6b 7ebe 12cb 89bf 7690 4c3f
000001b0: 12ce adbe 58f0 0fbf d373 7abf 3d60 c3bf
000001c0: 4d9e 5abf e605 12c0 a890 26bf fe61 c7bf
000001d0: aa44 b7bf 165c c2bf 7c44 28c0 5a7c f2be
000001e0: 1c7d b0bf 21fd a6bf ffc1 dabf 7325 93bf
000001f0: 6432 2dbf 02bb febf b6ed c4bf b9a5 d6bf
00000200: ee76 00c0 0b58 43bf f793 acbf 3ba8 13c0
00000210: 7015 88be c301 a7be a33d d9bf e35d e6bf
00000220: cfa8 61bf 762a dcbd 4b24 cbbf 07cc b8bf
00000230: 71b7 c8bf fad6 c3be 6e97 0cbf 8661 29bf
00000240: 4f83 81be d871 24bf 1937 d0bf 9ee5 a1bf
00000250: 901c 18bf b684 9dbe ad69 edbf 2526 0ec0
00000260: 21a3 e9be a0b0 b1bf 91f0 3ebe 7149 9bbf
00000270: 6fab a6bd 0083 d5bf 08b4 8ebe c463 85bf
00000280: bda7 0cbf 22d7 abbf f649 dfbf 9906 0fc0
00000290: 5f8d 6ebf 5cdb 443f 80d6 91bf 6f79 07c0
000002a0: 36b5 01c0 5087 74bf 3331 93bf d946 06c0
000002b0: c2d2 64bf edce 50bf f529 d9be 148e babf
000002c0: d800 bdbf ca5c 03c0 b39e 07c0 c2de 8abf
000002d0: 1f74 89be 1c0b afbf 5454 b2bf ae96 35bf
000002e0: 2292 16bf 600c d6bf 8e0c f7bf e6fa 7dbe
000002f0: 1584 b5bf ee1b fabf 30fd b7bf cb0a cd3f
00000300: c184 3e3f 4d60 e3bf b7a5 35bf 28e5 acbf
00000310: 6179 e4be 459c a1bf 721d 89bf ff5b 91bf
00000320: b285 cfbf dc83 913f a882 35be 908a 50bf
00000330: 8cdf 01c0 31d0 9cbf 4c4a 90bf d164 0bc0
00000340: 5afc bcbf 868e e5bf 38b3 0dc0 7895 f8bf
00000350: ffdb a23f d3ab a2bf ebd8 f4bf a092 fdbf
00000360: eaa2 933c ebce d6bf 1569 64bf 35eb aebd
00000370: 6ff9 b4bf c6ba e2bf ef23 83bf 5147 e4bf
00000380: 4455 28bf cf39 a6bf a029 cdbf df73 d1bf
00000390: ed7c b9be 517a ddbf 9a0f acbf 43f9 cbbe
000003a0: 57bf c2bf 976d 96bf 0b68 02c0 a9f5 b1bd
000003b0: a6e2 a4bf 09b9 92bf 6053 d1bf 8311 88be
000003c0: 56a4 92bf d245 3ebe 9afa 0cc0 3222 a1bf
000003d0: e546 b6bf 9b32 dcbe 43f7 e6bf 7299 58bf
000003e0: 1116 01c0 7aad e6bf dac3 e1bf d8b7 a1bf
000003f0: 1e50 b6bf 3ab5 e0be 805e 16c0 0485 cabb

layer1.bias_sigma f4 [256]
-0.5360267 -0.55018705 -0.49922636 0.5351723 0.12435132 0.420905 -0.008075857 -0.018204983
-0.0030822079 0.0067840624 -0.1351442 0.008067123 -0.5301302 -0.009351671 0.26325667 -0.5572594
-0.08883291 0.58538884 -0.63130254 -0.17431308 -0.09089767 -0.5808645 -0.22568293 -0.042741016
0.01963762 0.006718956 0.02670441 -0.62991184 -0.42976338 -0.5040197 -0.42371863 -0.47871867
-0.49207896 -0.36495078 -0.47808242 1.0375259 0.46374336 -0.037816465 -0.28185153 -0.3770155
-0.008055143 0.37636903 0.28395683 0.46270525 0.13759789 0.44546974 0.12066345 -0.016115224
0.47768342 0.30100507 -0.019920515 0.0034465767 -0.019401666 0.38443846 -0.66603875 -0.6551696
-0.103029154 0.0064334306 -0.58912855 0.94669425 0.005125693 0.2709763 0.60183895 -0.010277927
0.34699184 0.022725087 -0.06992444 0.13812557 0.005125693 0.3355603 -0.00886308 -0.040756013
0.3076185 -0.51388377 0.6621689 0.773576 -0.101107284 0.05879007 -0.07104842 -0.0014237553
-0.33276492 0.003746054 -0.057963803 -0.40334126 -0.15255235 -0.02389244 0.009278977 0.8003244
0.15706255 -0.28954995 -0.65480566 -0.19412239 -0.3271747 0.0017902523 -0.2351444 -0.02411326
0.3269476 0.0041941674 -0.036553565 -0.2752508 -0.40191552 -0.0395723 0.16143307 0.027747957
-0.5745068 0.023189133 0.28195333 0.04978498 -0.005336505 -0.08782378 0.12791753 0.8663263
-0.09430751 -0.27731392 0.008582617 0.021605156 0.11408024 0.21939823 -0.2674042 0.011465993
0.69877285 0.14744754 0.117511876 -0.7001415 -0.054901768 0.2463095 0.12711143 -0.080322154
-0.59871536 -0.005683723 0.11530811 -0.013622994 0.023507033 -0.026893454 -0.020741282 -0.072518185
0.08274499 0.005125693 -0.5426449 -0.43102968 0.35261455 0.030802784 -0.001444031 -0.0512212
0.03195101 -0.02323178 0.2493564 0.0047434936 -0.005853325 0.0062689944 0.49030802 0.30719087
-0.020204272 -0.159599 0.005125693 0.32138824 -0.045817915 -0.53631467 0.015879491 0.24557172
-0.033977427 0.0051354878 0.07677739 0.28879133 -0.25664544 -0.011949545 0.5201978 -0.052829824
-0.22355534 -0.08065589 0.50059974 0.4504229 0.06976335 -0.055741336 -0.0056306557 0.37180457
0.3426483 -0.19298293 0.06437514 0.009781483 -0.028169662 0.6102524 -0.34329283 0.122505814
-0.089019336 0.029968798 0.30934414 0.005125693 -0.06525223 -0.52962273 -0.3686878 -0.016839547
0.10781958 -0.4294593 -0.09379054 -0.5129733 0.19302012 0.7272493 0.039990604 -0.2684206
-0.33678707 -0.010685836 -0.015001054 -0.03209601 -0.1803135 0.61129695 0.22803146 0.5825718
0.64977866 -0.47254214 -0.74549013 -0.098346464 0.023748131 -0.04439373 -0.41562942 0.6220349
-0.059118368 0.42313367 -0.42094097 0.021759959 -0.12484406 0.5448844 -0.18083361 -0.46328786
0.17917204 0.4224853 0.11326821 -0.31950176 0.053521466 0.17688759 0.53063834 -0.041128285
0.08275029 0.01764219 0.102357976 0.008989178 0.14442879 0.047110677 -0.08884866 -0.005937736
0.03510639 0.005125693 0.33460683 0.12913303 -0.73706007 -0.02461162 0.40265644 0.40976918
0.59777504 -0.6430475 0.41627565 -0.5971105 -0.0029183773 -0.018672872 0.009387835 0.0627542
00000000: 0c39 09bf 0fd9 0cbf 999a ffbe 0d01 093f
00000010: e8ab fe3d dc80 d73e 9950 04bc 9e22 95bc
00000020: defe 49bb d74c de3b 3e63 0abe f72b 043c
00000030: 9db6 07bf c037 19bc 94c9 863e 8da8 0ebf
00000040: 07ee b5bd 0bdc 153f 0b9d 21bf 217f 32be
00000050: 8f28 babd 89b3 14bf 6d19 67be 3411 2fbd
00000060: 13df a03c b02a dc3b 35c3 da3c e741 21bf
00000070: f209 dcbe 6f07 01bf a6f1 d8be 9d1a f5be
00000080: c6f1 fbbe d4da babe 38c7 f4be a6cd 843f
00000090: c56f ed3e 70e5 1abd d84e 90be 2d08 c1be
000000a0: b8f9 03bc 71b3 c03e ca62 913e b4e7 ec3e
000000b0: 76e6 0c3e 9c14 e43e 661e f73d 1304 84bc
000000c0: ec92 f43e 561d 9a3e 5930 a3bc f6df 613b
000000d0: 3ef0 9ebc 1ed5 c43e 8481 2abf 32b9 27bf
000000e0: f300 d3bd 87cf d23b 21d1 16bf 8e5a 723f
000000f0: 6ef5 a73b 68bd 8a3e 1e12 1a3f c064 28bc
00000100: eaa8 b13e f629 ba3c 8b34 8fbd ca70 0d3e
00000110: 6ef5 a73b 8fce ab3e 7436 11bc c7ef 26bd
00000120: 2c80 9d3e e38d 03bf e783 293f 1409 463f
00000130: 5611 cfbd dbcd 703d d681 91bd 4d9d baba
00000140: 2a60 aabe 5b80 753b 746b 6dbd bf82 cebe
00000150: af36 1cbe 14ba c3bc da06 183c 0fe2 4c3f
00000160: 01d5 203e e43f 94be 58a1 27bf 05c8 46be
00000170: 7183 a7be e6a6 ea3a b2c9 70be 2c89 c5bc
00000180: ad65 a73e 3a6f 893b 31b9 15bd aced 8cbe
00000190: dfc7 cdbe 9016 22bd b64e 253e af4f e33c
000001a0: e112 13bf 23f7 bd3c 305c 903e 56eb 4b3d
000001b0: d9dd aebb f4dc b3bd d0fc 023e 8fc7 5d3f
000001c0: 4c24 c1bd 17fc 8dbe 1b9e 0c3c 4cfd b03c
000001d0: e7a2 e93d eea9 603e 34e9 88be dcdb 3b3c
000001e0: c7e2 323f 7dfc 163e 11aa f03d 793c 33bf
000001f0: ade0 60bd 8f38 7c3e 8029 023e f17f a4bd
00000200: 6945 19bf 863e babb a926 ec3d fa32 5fbc
00000210: d291 c03c a94f dcbc 9fe9 a9bc 6a84 94bd
00000220: 3576 a93d 6ef5 a73b c7ea 0abf ecaf dcbe
00000230: e589 b43e 1f56 fc3c a445 bdba 52cd 51bd
00000240: 10df 023d 9350 bebc 4957 7f3e 4f6f 9b3b
00000250: 40cd bfbb 236c cd3b a709 fb3e 1f48 9d3e
00000260: 6e83 a5bc ec6d 23be 6ef5 a73b 008d a43e
00000270: 91ab 3bbd eb4b 09bf b515 823c 2777 7b3e
00000280: ea2b 0bbd 9847 a83b 773d 9d3d 75dc 933e
00000290: 0867 83be 06c8 43bc af2b 053f 1664 58bd
000002a0: b1eb 64be ea2e a5bd 4e27 003f d59d e63e
000002b0: 16e0 8e3d 0751 64bd 5d81 b8bb 2b5d be3e
000002c0: 996f af3e 519d 45be 1dd7 833d 8342 203c
000002d0: 10c4 e6bc 8039 1c3f 14c4 afbe 54e4 fa3d
000002e0: c54f b6bd 2081 f53c 5b62 9e3e 6ef5 a73b
000002f0: f6a2 85bd 5b95 07bf a6c4 bcbe 17f3 89bc
00000300: 83d0 dc3d 17e2 dbbe 4115 c0bd 3852 03bf
00000310: 11a7 453e 032d 3a3f 30cd 233d 6d6e 89be
00000320: 5b6f acbe a513 2fbc fbc6 75bc 1b77 03bd
00000330: 1aa4 38be f57d 1c3f 1481 693e 6d23 153f
00000340: e557 263f 0bf1 f1be 71d8 3ebf df69 c9bd
00000350: 718b c23c 33d6 35bd 61cd d4be ae3d 1f3f
00000360: 1a26 72bd faa4 d83e 9385 d7be f141 b23c
00000370: 3eae ffbd 8b7d 0b3f 722c 39be 1134 edbe
00000380: e078 373e fe4f d83e 2af9 e73d bc95 a3be
00000390: 5339 5b3d 0522 353e ead7 073f 2276 28bd
000003a0: fc78 a93d 5b86 903c 0fa1 d13d 5847 133c
000003b0: 24e5 133e 20f7 403d 49f6 b5bd 5791 c2bb
000003c0: b8cb 0f3d 6ef5 a73b 9651 ab3e 733b 043e
000003d0: f8af 3cbf 4f9e c9bc fc28 ce3e 44cd d13e
000003e0: c907 193f c39e 24bf 1522 d53e 3cdc 18bf
000003f0: 3f42 3fbb daf7 98bc 6fcf 193c 4685 803d

layer2.weight_mu f4 [3, 256]
-0.05169142 -0.1495537 -0.045667466 -0.08856493 -0.02871547 -0.22054748 0.07638145 0.01665967
0.06799552 0.009233781 -1.65238 0.031186009 -0.007395885 0.3510157 -0.12960605 -0.15584843
-0.018548448 -0.16053754 -0.18939684 0.485975 -0.05187208 -0.074892774 -0.09329743 -0.116039276
0.004918027 0.027368153 0.004517017 -0.10428361 -0.09401543 -0.1796229 -0.062335163 -0.08437396
-0.14541759 -0.14377177 -0.24813184 -0.17768303 -0.22126922 0.012067038 -0.0045127673 -0.090077505
-0.05476088 -0.051125597 -0.057786353 -0.05984972 -1.6772213 -0.043000456 -0.27840966 0.46437857
-0.10516246 -0.05309904 0.010292594 0.010186965 -0.15079015 -0.08207753 -0.08132512 -0.556609
-0.18326333 -0.009930662 -0.02156879 -0.17391536 -0.056470357 -0.17344333 -0.23515607 0.4015831
-0.08865846 -0.025371708 -3.1393747 -0.20935452 0.00476785 -0.09754157 -0.014374233 0.024319092
-0.14337723 -0.21581204 -0.1747939 -0.11478374 0.0027678863 -0.1279258 0.015265778 -0.024108697
-0.053975567 0.08304321 0.01762389 -0.21165243 0.0039714808 -0.119929485 -0.06302917 -0.05288062
0.011433361 -0.13584231 0.012574922 0.0026687775 -0.29476526 0.004029572 -0.0226814 -0.082081564
-0.1991281 0.017211398 -0.03944207 -0.06185168 -0.2525088 -0.07140794 0.0040719197 -0.013331383
-0.21808265 0.09492988 -0.044824626 0.5294495 -0.079173826 0.039960857 -0.43118548 -0.032705724
-1.9921405 -0.049912166 -0.034069788 -0.02842584 -0.16135986 -0.015442503 -0.04886681 -0.122310765
-0.25875667 0.050442647 0.035663374 -0.15321104 0.0054220418 0.02640798 -0.061215725 -0.10608849
-0.003838278 -0.09983194 -0.23553613 -0.025667816 0.0029012393 -0.00023551896 -0.18422452 -0.43148512
-0.039744627 -0.023749352 -0.123641565 -0.2699792 -0.04823874 0.02401422 -0.009000925 0.20405933
0.013870275 -0.09730273 -0.118921734 -0.15216091 0.12242159 -0.015387166 -0.08007726 -0.058086265
0.043922782 -0.1682082 -0.00055122375 -0.07901487 -0.10031148 -0.23386097 -0.01941569 -0.11246509
0.0089431815 0.26189268 -0.23503615 -0.08528386 -0.0021533538 0.26899213 -0.09400837 0.051232345
-0.20902102 -0.05673368 -0.27702966 -0.13162218 0.007392695 -0.069794364 -0.08647416 -0.1190224
-0.12834828 -0.13251166 -0.1424531 -0.011360596 0.0062000905 0.019241652 -0.16973215 -0.23103712
0.115611225 -0.2957392 -0.16956191 0.040852264 -0.05884589 -0.07247204 -0.05346536 0.9402589
0.46318054 -0.03599833 0.078847826 -0.14620078 -0.054526422 -0.10567074 -0.1664836 -0.14276564
-0.077199474 0.43053403 -0.0578585 0.03410827 -0.24729972 -0.22714892 -0.25172418 -0.1966622
0.059325308 -0.10280226 -0.13903503 -0.036845956 0.46540347 -0.0799408 -0.08356716 -0.09479411
0.21100608 -0.108600214 -0.15485819 0.02766734 -0.24489121 -0.15815336 -0.06759885 -0.02014943
-0.21326916 -0.07787254 -0.089559756 -0.2542238 -0.008582136 -0.10137716 0.014584808 -0.25916794
0.1498226 -0.011401565 -0.119206995 0.02417627 0.016962958 -0.01895324 -0.061168615 -0.0066109025
0.02909545 0.04895901 -0.122013144 -0.28082556 -0.15209143 -0.09050865 -0.0131492745 -0.24723859
-0.14492603 -0.07799564 -0.12298169 -0.09574168 0.0006132817 0.024069875 0.12638602 0.03925171
00000000: 62ba 53bd 9b24 19be cf0d 3bbd 8861 b5bd
00000010: b53c ebbc 33d7 61be e16d 9c3d dc79 883c
00000020: 3c41 8b3d 4949 173c 3081 d3bf cd79 ff3c
00000030: 2e59 f2bb 54b8 b33e 73b7 04be bb96 1fbe
00000040: eaf2 97bc f463 24be 3ff1 41be b7d1 f83e
00000050: d177 54bd 6261 99bd b912 bfbd 00a6 edbd
00000060: 6727 a13b 2d33 e03c 7c03 943b a592 d5bd
00000070: 298b c0bd 11ef 37be 2853 7fbd 41cc acbd
00000080: 59e8 14be e838 13be 4616 7ebe 8af2 35be
00000090: 6694 62be d3b4 453c d6df 93bb 8e7a b8bd
000000a0: f24c 60bd 1369 51bd 62b1 6cbd fb24 75bd
000000b0: 30af d6bf 3f21 30bd b68b 8ebe 07c3 ed3e
000000c0: 6a5f d7bd 617e 59bd 45a2 283c 3ae7 263c
000000d0: bc68 1abe 4418 a8bd c98d a6bd ed7d 0ebf
000000e0: 62a9 3bbe 37b4 22bc 08b1 b0bc de16 32be
000000f0: 764d 67bd 219b 31be c1cc 70be 4d9c cd3e
00000100: 9192 b5bd 54d8 cfbc 84eb 48c0 0861 56be
00000110: a03b 9c3b e0c3 c7bd e781 6bbc d538 c73c
00000120: 7bd1 12be d5fd 5cbe 2cfd 32be bd13 ebbd
00000130: 6d65 353b fbfe 02be 501d 7a3c 9a7f c5bc
00000140: 7c15 5dbd 8f12 aa3d fa5f 903c 6abb 58be
00000150: 3223 823b 979d f5bd 7015 81bd 5999 58bd
00000160: fe52 3b3c 3f1a 0bbe 0c07 4e3c a8e6 2e3b
00000170: 79eb 96be 800a 843b 58ce b9bc 611a a8bd
00000180: 3de8 4bbe ebfe 8c3c 028e 21bd 3058 7dbd
00000190: d548 81be 533e 92bd bd6d 853b df6b 5abc
000001a0: 0f51 5fbe 996a c23d 079a 37bd 018a 073f
000001b0: e325 a2bd ffad 233d 58c4 dcbe 70f6 05bd
000001c0: 76fe febf b370 4cbd c38c 0bbd 4fdd e8bc
000001d0: 853b 25be 8d02 7dbc 9028 48bd 117e fabd
000001e0: c17b 84be f39c 4e3d c213 123d 5be3 1cbe
000001f0: 62ab b13b 8c55 d83c 57bd 7abd ec44 d9bd
00000200: 9e8b 7bbb b074 ccbd 6230 71be 5045 d2bc
00000210: b822 3e3b a4f5 76b9 5aa5 3cbe 9eeb dcbe
00000220: 43cb 22bd 008e c2bc ca37 fdbd b73a 8abe
00000230: fc95 45bd 78b9 c43c 9e78 13bc eef4 503e
00000240: 2640 633c a746 c7bd 3d8d f3bd 12d0 1bbe
00000250: 2cb8 fa3d 741a 7cbc 8cff a3bd ddeb 6dbd
00000260: 60e8 333d c53e 2cbe 0080 10ba 8cd2 a1bd
00000270: 1b70 cdbd 4079 6fbe a70d 9fbc 1954 e6bd
00000280: 6c86 123c cc16 863e 51ad 70be 4ea9 aebd
00000290: 481f 0dbb 56b9 893e 7687 c0bd 02d9 513d
000002a0: 9b09 56be 9361 68bd d5d6 8dbe f7c7 06be
000002b0: 6c3e f23b 59f0 8ebd 5d19 b1bd 04c2 f3bd
000002c0: bb6d 03be 23b1 07be 3adf 11be cb21 3abc
000002d0: 212a cb3b aba0 9d3c 44ce 2dbe ff94 6cbe
000002e0: 94c5 ec3d 216b 97be a3a1 2dbe b454 273d
000002f0: 6308 71bd 396c 94bd 7efe 5abd cfb4 703f
00000300: 0026 ed3e fc72 13bd f87a a13d a8b5 15be
00000310: 1957 5fbd e769 d8bd ad7a 2abe 2831 12be
00000320: c21a 9ebd f56e dc3e 09fd 6cbd 1db5 0b3d
00000330: 233c 7dbe ba99 68be fee1 80be d161 49be
00000340: 18ff 723d fe89 d2bd 335f 0ebe c9eb 16bd
00000350: 5d49 ee3e 01b8 a3bd 4225 abbd 6a23 c2bd
00000360: fa11 583e ca69 debd 2593 1ebe 9ea6 e23c
00000370: c3c4 7abe f4f2 21be 4471 8abd 6b10 a5bc
00000380: 3b63 5abe a37b 9fbd 1b6b b7bd 9f29 82be
00000390: 169c 0cbc d49e cfbd 1ef5 6e3c a9b1 84be
000003a0: 186b 193e a1cd 3abc cc22 f4bd 500d c63c
000003b0: e7f5 8a3c d343 9bbc f18b 7abd 45a0 d8bb
000003c0: 9559 ee3c 3e89 483d 07e2 f9bd 5ec8 8fbe
000003d0: dbbd 1bbe 995c b9bd 0e70 57bc 1d2c 7dbe
000003e0: 7d67 14be 2ebc 9fbd d3dd fbbd 3714 c4bd
000003f0: a3c4 203a 302e c53c 566b 013e 67c6 203d

layer2.weight_sigma f4 [3, 256]
-0.02624308 0.13813388 0.035104223 0.04237607 0.05459804 0.15127388 0.06082556 0.058435258
0.0464897 -0.000406756 0.21359965 0.051748984 -0.11363373 0.024781145 -0.016287573 -0.103784464
-0.053649083 -0.09228002 0.008112169 0.063143216 -0.12850201 0.10016346 0.0018381659 0.08511916
0.026635144 -0.008390166 -0.043076254 -0.014465107 0.08515646 -0.055112936 -0.034617547 -0.016354501
-0.09620829 -0.14369377 0.11737759 0.028171526 -0.04485773 -0.002040313 0.07436826 -0.10832718
-0.00756758 -0.1408463 0.06466734 -0.102033645 -0.023941053 0.027826572 -0.04271734 -0.011217694
-0.007440458 0.033263206 -0.019498682 6.313449e-05 -0.014204507 0.09851603 -0.1297486 0.01612179
0.0019349172 0.05638684 0.050765887 -0.005468465 0.0010625 0.014616146 0.07613832 0.0075738817
0.13846137 -0.026106104 -0.016676774 -0.011713288 0.0010625 -0.05718748 0.0068369894 0.007875575
-0.03085452 0.13279146 -0.0135501 0.091579296 -0.00048558696 0.23301476 0.018984403 0.054650284
0.02459767 0.045298085 0.059446704 0.110217564 -0.02794918 -0.052479856 0.16361658 -0.1548341
0.0507949 -0.114792034 -0.089227214 -0.015994137 -0.06456378 0.045967903 0.002039234 0.0091134235
0.123324916 0.09282226 0.012038398 -0.012981052 -0.02496614 0.03928366 0.10574141 -0.0127473585
-0.047970604 -0.06516484 -0.024852332 0.039389033 0.042170376 0.06318539 0.014422246 0.11111106
-0.024566779 -0.004891159 0.0041975025 0.011750301 0.0015050443 0.064245515 -0.046863567 -0.099879906
-0.10226571 0.080046095 0.14976099 -0.06670248 0.11614321 -0.15215454 -0.16847254 0.16468045
0.13806008 -0.048785586 -0.19733149 0.121059604 -0.021887952 0.0046828594 0.00346113 0.055940073
0.024679959 0.0010625 0.21080056 -0.04099447 -0.025103087 -0.06027008 0.0026289895 0.109616704
0.015417617 -0.026381098 0.15665585 -0.016930293 0.108736515 0.02953538 -0.021127153 -0.06083477
0.062049404 0.019258723 0.0010625 0.058691602 -0.06230626 -0.20596904 -0.00607233 -0.10816579
-0.031497747 -0.02485804 -0.041641634 -0.0010593223 -0.06757173 0.002646408 -0.08824215 0.088510126
0.0103184255 0.102927916 0.03804362 -0.0007982545 -0.15498292 -0.031782467 0.034750547 -0.04889571
-0.069903955 -0.010673405 0.08752672 -0.021114336 0.017576732 -0.15833014 -0.07155027 0.19186239
-0.09501403 0.05992865 -0.019965833 0.0010625 0.053078264 0.0134510705 -0.04210045 0.026904127
-0.015688052 0.054842122 0.0011566341 0.00047030195 0.18486828 -0.17495489 -0.18971981 0.008529809
-0.028584879 0.00041750283 0.071356006 0.037366554 -0.056078084 0.07406449 0.019006185 -0.008129669
0.15954018 0.06147594 0.031727243 -0.09995808 0.016578797 -0.16983248 -0.107799746 0.017583337
-0.030615631 -0.0990953 0.0067493636 -0.030615868 -0.052840173 -0.037225537 -0.09083868 -0.10820368
-0.02071858 0.17600875 -0.042048655 -0.020359155 0.023500966 -0.017592406 -0.011470869 -0.14577538
-0.0067090397 -0.0120480675 -0.1253216 -0.01666448 -0.030556215 -0.029779682 0.056804042 0.019899927
0.082674295 0.0010625 0.11011028 -0.06026562 0.0788268 0.06643486 0.01842899 0.025596237
-0.18408029 0.0025562048 -0.034427 0.05123761 0.020501593 -0.058465626 -0.01181923 0.028006941
00000000: bafb d6bc f872 0d3e 72c9 0f3d 8892 2d3d
00000010: 32a2 5f3d 8ae7 1a3e 3924 793d cf59 6f3d
00000020: fc6b 3e3d de41 d5b9 deb9 5a3e bef6 533d
00000030: cdb8 e8bd d401 cb3c 846d 85bc f38c d4bd
00000040: 24bf 5bbd 4ffd bcbd e7e8 043c 3b51 813d
00000050: 0896 03be 8022 cd3d 9dee f03a f452 ae3d
00000060: f231 da3c e876 09bc ba70 30bd 0eff 6cbc
00000070: 8366 ae3d 1abe 61bd 21cb 0dbd e0f9 85bc
00000080: da08 c5bd 7624 13be a963 f03d f9c7 e63c
00000090: bdbc 37bd c6b6 05bb 634e 983d a4da ddbd
000000a0: 76f9 f7bb 033a 10be 4f70 843d 04f7 d0bd
000000b0: 0720 c4bc 8df4 e33c 61f8 2ebd 6bca 37bc
000000c0: 16cf f3bb 003f 083d b3bb 9fbc 1267 8438
000000d0: 05ba 68bc c6c2 c93d d1dc 04be d811 843c
000000e0: 0c9d fd3a e3f5 663d e4ef 4f3d cf30 b3bb
000000f0: 9643 8b3a 8f78 6f3c 68ee 9b3d 532e f83b
00000100: d1c8 0d3e 78dc d5bc bb9d 88bc 17e9 3fbc
00000110: 9643 8b3a 6b3d 6abd d308 e03b 8e08 013c
00000120: 9ec2 fcbc 7cfa 073e 3d01 5ebc ed8d bb3d
00000130: 6196 feb9 6c9b 6e3e 2e85 9b3c fad8 5f3d
00000140: 0e81 c93c 7c8a 393d 637e 733d bfb9 e13d
00000150: aef5 e4bc 1ef5 56bd 1b8b 273e d58c 1ebe
00000160: 500e 503d 1618 ebbd c2bc b6bd 2306 83bc
00000170: 043a 84bd d748 3c3d aba4 053b 7850 153c
00000180: c691 fc3d 9919 be3d b33c 453c 7aae 54bc
00000190: ca85 ccbc e7e7 203d f48e d83d 4cda 50bc
000001a0: d37c 44bd 2575 85bd 1e97 cbbc 6556 213d
000001b0: d8ba 2c3d 5767 813d 494b 6c3c 328e e33d
000001c0: 4540 c9bc 0446 a0bb 348b 893b 5684 403c
000001d0: e844 c53a 2793 833d 03f4 3fbd d68d ccbd
000001e0: af70 d1bd 35ef a33d f25a 193e 4f9b 88bd
000001f0: 7edc ed3d 66ce 1bbe 1184 2cbe fea1 283e
00000200: 9f5f 0d3e 65d3 47bd 4411 4abe 19ee f73d
00000210: 5d4e b3bc ac72 993b 20d4 623b 6b21 653d
00000220: a02d ca3c 9643 8b3a 1adc 573e d1e9 27bd
00000230: fda4 cdbc c2dd 76bd 204b 2c3b b97e e03d
00000240: 2c9a 7c3c 2c1d d8bc 646a 203e 66b1 8abc
00000250: 40b1 de3d 2ef4 f13c da12 adbc e12d 79bd
00000260: 8427 7e3d 78c4 9d3c 9643 8b3a 9b66 703d
00000270: d934 7fbd 8ce9 52be 65fa c6bb 0786 ddbd
00000280: c803 01bd 17a3 cbbc 6b90 2abd f5d8 8aba
00000290: 0c63 8abd 5c6f 2d3b 4db8 b4bd cc44 b53d
000002a0: 9d0e 293c dfcb d23d a0d3 1b3d f441 51ba
000002b0: d8b3 1ebe 552e 02bd 9756 0e3d de46 48bd
000002c0: ce29 8fbd 81df 2ebc 3541 b33d f9f7 acbc
000002d0: 14fd 8f3c 4c21 22be f388 92bd 9377 443e
000002e0: b796 c2bd be77 753d 638f a3bc 9643 8b3a
000002f0: 9868 593d e161 5c3c 8571 2cbd 0b66 dc3c
00000300: 3b84 80bc 22a2 603d 339a 973a dc92 f639
00000310: 1c4e 3d3e 6027 33be e945 42be 9dc0 0b3c
00000320: d62a eabc 48e4 da39 1923 923d ac0d 193d
00000330: 22b2 65bd 20af 973d dcb2 9b3c 4e32 05bc
00000340: 805e 233e 32ce 7b3d 6df4 013d d2b6 ccbd
00000350: 42d0 873c 91e8 2dbe 1dc6 dcbd ee0a 903c
00000360: a2cd fabc 7af2 cabd c429 dd3b 21ce fabc
00000370: f06e 58bd ce79 18bd a109 babd e499 ddbd
00000380: 03ba a9bc a33b 343e 363b 2cbd 3ec8 a6bc
00000390: 1985 c03c f31d 90bc 50f0 3bbc 2446 15be
000003a0: 81d7 dbbb 4265 45bc 4e54 00be f383 88bc
000003b0: 0751 fabc 85f4 f3bc 5bab 683d 2c05 a33c
000003c0: 2451 a93d 9643 8b3a 8081 e13d 15d9 76bd
000003d0: f26f a13d 000f 883d 65f8 963c 33af d13c
000003e0: 8b7f 3cbe 0086 273b 5303 0dbd 87de 513d
000003f0: f5f2 a73c a779 6fbd 72a5 41bc d06e e53c

layer2.bias_mu f4 [3]
1.8246384 1.415834 1.3834493
00000000: c08d e93f 0c3a b53f de14 b13f

layer2.bias_sigma f4 [3]
0.047599323 -0.032738592 0.06758719
00000000: 82f7 423d e718 06bd 276b 8a3d
