DDQN_models/noisy-model1-snapshot-score-10.pth (torch, 33781 bytes, 8 tensors)

layer1.weight_mu f4 [256, 11]
0	0x3e474727	0.19460736
1	0xbe8269a0	-0.2547121
2	0x3e7b3262	0.24530938
3	0x3e91ead1	0.28499463
4	0x3e67f90f	0.22653602
5	0x3df10cd9	0.117700286
6	0xbde2a21e	-0.11066078
7	0x3e1027b5	0.14077647
8	0x3d9f9cd5	0.07793585
9	0x3ef77bd3	0.48336658
10	0xbe94bcfb	-0.2905043
11	0xbe9c35b3	-0.3050972
12	0x3e52a016	0.2056888
13	0xbee67964	-0.4501449
14	0x3e8744d6	0.26419705
15	0xbea2ef17	-0.31823036
16	0x3dbc71e7	0.09201413
17	0x3be9ef11	0.0071390946
18	0x3d88b5c8	0.06675297
19	0x3e65088f	0.22366546
20	0xbccaf7a5	-0.02477629
21	0xbe18d399	-0.14924468
22	0xbe2b4b63	-0.16727977
23	0xbbebf526	-0.007200855
24	0xbe95de83	-0.29271325
25	0xbdc947d1	-0.09828151
26	0xbdf38be0	-0.118919134
27	0x3c25ad0e	0.01011206
28	0xbe0059b0	-0.12534213
29	0xbdbf7f12	-0.093504086
30	0x3d9ed5fd	0.07755659
31	0xbe360fa4	-0.17779404
32	0xbe7085f8	-0.23488605
33	0x3c983249	0.018578665
34	0xbe1e69af	-0.15470003
35	0xbca4643b	-0.020067325
36	0xbdc19012	-0.09451307
37	0xbe19979b	-0.14999239
38	0xbea7babf	-0.32759663
39	0xbd2096ce	-0.03920632
40	0x3e05a971	0.13052918
41	0x3ee20661	0.44145492
42	0xbdcc38aa	-0.09971745
43	0x3eaa7b35	0.33297125
44	0x3d91ff53	0.07128777
45	0xbde7c27d	-0.113163926
46	0xbd1469c4	-0.03623368
47	0xbe893cac	-0.268041
48	0x3c8aacbf	0.016928075
49	0xbe578a65	-0.21048887
50	0x3c33e1d0	0.010979131
51	0x3e0e3305	0.1388665
52	0xbc25ec78	-0.010127179
53	0xbdcfbc43	-0.1014333
54	0x3f241e67	0.6410889
55	0x3e851528	0.25992703
56	0x3dab1ac3	0.08354714
57	0x3e2a8a35	0.16654284
58	0x3cde4f0d	0.027137304
59	0xbe81db95	-0.2536284
60	0xbd30e1d5	-0.04318412
61	0x3e06ddc5	0.13170536
62	0xbec344e7	-0.38138506
63	0xbeb2889b	-0.34869847
64	0xbe3e193c	-0.18564314
65	0x3ebafa0c	0.36518896
66	0x3e5f77e2	0.21823075
67	0xbe16eaa9	-0.14737953
68	0x3d271085	0.04078724
69	0x3d3c0a23	0.045908105
70	0x3aa5b219	0.0012641578
71	0x3d9c5fb0	0.076354384
72	0x3e28ddae	0.16490814
73	0x3d2c0d7b	0.042005043
74	0xbe52093f	-0.2051134
75	0x3cdbedf6	0.026846867
76	0xbe8ee7ae	-0.27911133
77	0xbee20082	-0.44141012
78	0x3d93c7a3	0.07215812
79	0x3edfcda5	0.43711582
80	0xbe40826f	-0.18799756
81	0x3bf921f2	0.0076029235
82	0xbe695f3d	-0.22790237
83	0x3ea97a0b	0.33100924
84	0x3e419ee1	0.18908264
85	0x3e73134d	0.23737831
86	0x3db1c0bc	0.08679339
87	0xbe86752f	-0.2626128
88	0x3dce05e5	0.10059718
89	0x3e10736b	0.14106528
90	0x3bb25bed	0.0054430873
91	0x3e037377	0.12837015
92	0xbe39da34	-0.18149644
93	0xbe46c50e	-0.19411108
94	0x3e233300	0.15937424
95	0xbe28629d	-0.16443868
96	0x3d45578e	0.0481792
97	0xbe6ef790	-0.23336625
98	0x3e1640e6	0.14673194
99	0x3ddb13a9	0.10697109
100	0xbd7e4094	-0.062073305
101	0xbe3acf3c	-0.18243116
102	0xbe9210fd	-0.28528586
103	0xbe440eb6	-0.19146237
104	0xbe405004	-0.18780524
105	0xbe865ffa	-0.262451
106	0xbdac7514	-0.084207684
107	0x3c5f7000	0.013637543
108	0x3dffdec8	0.12493664
109	0x3d93fe1b	0.07226201
110	0xbe2d0372	-0.16895846
111	0xbd721c4e	-0.059109025
112	0x3f04b77a	0.51842463
113	0x3eb4c2d4	0.35304892
114	0xbed3aea1	-0.4134417
115	0xbeff669e	-0.49882978
116	0xbe8c99fb	-0.27461228
117	0xbe813848	-0.25238252
118	0xbe257c58	-0.16160715
119	0xbe50bef9	-0.2038535
120	0xbec1bf27	-0.3784115
121	0xbe40da8c	-0.18833369
122	0xbe88dec6	-0.26732463
123	0xbe3f4325	-0.18677957
124	0xbca92f7c	-0.020652525
125	0x3e15716b	0.14594047
126	0x3c891d7d	0.016737694
127	0xbd5208f8	-0.051278085
128	0x3c4063e6	0.011742568
129	0xbdb24854	-0.08705202
130	0xbd7dc4e9	-0.061955366
131	0xbd842003	-0.06451418
132	0xbd85edd0	-0.065395
133	0x3ee114cc	0.4396118
134	0xbea5f566	-0.32413787
135	0x3e1f2ec3	0.15545182
136	0x3dc6c3e6	0.097053334
137	0xbe8fa8c3	-0.28058442
138	0xbe8daa36	-0.27668923
139	0xbe770721	-0.24123813
140	0xbe9f17c6	-0.31072825
141	0xbc440db0	-0.011966154
142	0xbec042de	-0.37551016
143	0x3ea2d7ec	0.3180536
144	0xbec5ad46	-0.3860876
145	0xbe8ea436	-0.27859658
146	0x3e549387	0.20759402
147	0xbeab904c	-0.33508527
148	0x3eac5588	0.33659005
149	0xbddb319a	-0.1070282
150	0xbe43d98b	-0.19125955
151	0xbea09252	-0.31361634
152	0x3eb89b1d	0.36055842
153	0xbe598aee	-0.21244404
154	0x3e40da8c	0.18833369
155	0x3eb90155	0.3613383
156	0x3eb71cbf	0.3576412
157	0x3d474e04	0.048658386
158	0xbce0917b	-0.02741312
159	0x3d0e681f	0.034767266
160	0x3d95cd49	0.07314546
161	0x3dcc8f97	0.09988325
162	0xbec222d9	-0.37917212
163	0xbe628dfb	-0.22124474
164	0xbefd8f63	-0.49523458
165	0xbe61fbc5	-0.22068699
166	0xbdaac181	-0.08337689
167	0xbda0bc65	-0.078484334
168	0xbeac0cdd	-0.33603564
169	0x3e3020cc	0.17200011
170	0xbdef8222	-0.11694743
171	0x3d68e5f2	0.056859918
172	0xbe0c9509	-0.13728727
173	0xbe427b60	-0.18992376
174	0x3e47b356	0.19502005
175	0xbe1709dd	-0.14749856
176	0x3e11aabe	0.14225289
177	0xbde68f89	-0.11257846
178	0xbcff67ef	-0.03117749
179	0x3cfd5901	0.03092623
180	0x3e6e70c6	0.23285207
181	0x3ccc891c	0.024967723
182	0xbdb10c8b	-0.086449705
183	0x3c8cacd0	0.017172247
184	0x3dd7b0da	0.10531779
185	0xbe4863e8	-0.19569361
186	0xbd1e5952	-0.0386594
187	0xb9e57341	-0.00043764155
188	0xbe3f8618	-0.18703496
189	0xbe2d7669	-0.16939701
190	0xbeb88ed5	-0.36046472
191	0x3d8d7d2c	0.0690864
192	0xbd5c64bc	-0.053807005
193	0x3ddd99ea	0.108203724
194	0xbe8a4816	-0.27008122
195	0xbeb40f81	-0.3516808
196	0xbd096a29	-0.033548508
197	0xbd39eaff	-0.045390125
198	0xbdfaefa8	-0.12252742
199	0xbd3c0ee0	-0.045912623
200	0x3e491b23	0.19639258
201	0x3e391e5c	0.18077987
202	0x3e6b5c35	0.22984393
203	0xbc0f0595	-0.008729358
204	0x3ded3728	0.11582786
205	0xbc3cf1cf	-0.011532261
206	0x3e52c565	0.20583113
207	0xbc52c588	-0.012864478
208	0xbece1b35	-0.40255132
209	0x3e4f09f5	0.20218642
210	0x3e73b0a3	0.2379785
211	0xbebacb96	-0.3648345
212	0x3e91d6eb	0.28484282
213	0xbe7b6943	-0.24551873
214	0x3e8531e3	0.26014623
215	0xbe18fed3	-0.14940958
216	0xbe6449be	-0.22293755
217	0xbec8eb5d	-0.39242068
218	0xbdb19c25	-0.0867236
219	0x3e20c942	0.15701774
220	0x3d85036f	0.064947955
221	0x3b92905b	0.004472775
222	0xbef76019	-0.48315504
223	0xbe1e7055	-0.15472539
224	0x3e335309	0.17512144
225	0x3d4ad030	0.04951495
226	0x3e4603d3	0.19337396
227	0x3e79c11d	0.24390073
228	0x3ef24745	0.4732
229	0xbe54af5a	-0.20770016
230	0xbeab9af9	-0.33516672
231	0xbe9d150e	-0.30680126
232	0x3def6420	0.11689019
233	0x3e0186b4	0.12649041
234	0xbddc4553	-0.1075541
235	0xbe5c314b	-0.21503179
236	0xbd22f697	-0.039785948
237	0x3e4f1ee5	0.20226629
238	0x3dcabc5f	0.0989921
239	0xbe47580f	-0.19467185
240	0xbe200268	-0.15625918
241	0xbe179ca7	-0.14805852
242	0x3e19d176	0.1502131
243	0xbe4ee123	-0.2020307
244	0x3d9c4b0c	0.076315016
245	0xbe383bd3	-0.17991571
246	0x3d7afd03	0.061276447
247	0xbd9c3d83	-0.0762892
248	0xbe5f0651	-0.21779753
249	0xbe909461	-0.28238204
250	0x3df7c0c5	0.12097315
251	0x3e3eaea4	0.18621308
252	0xbd947efa	-0.07250781
253	0xbd545efc	-0.051848397
254	0xbe101b4a	-0.1407291
255	0x3e248e0b	0.1606981

layer1.weight_sigma f4 [256, 11]
0	0xbd8df4b2	-0.069314376
1	0x3d111391	0.03541905
2	0xbcbffbce	-0.0234355
3	0x3dcd7c67	0.100334935
4	0xbd733c95	-0.059383947
5	0x3d86271a	0.06550427
6	0x3bc3bf48	0.0059737302
7	0x3dca0832	0.098648444
8	0x3e1199d3	0.14218836
9	0xbd01fafc	-0.031733498
10	0xbd957e50	-0.07299483
11	0xbc2b05fe	-0.01043844
12	0x3dd68d02	0.10476114
13	0x3d7f846b	0.062382143
14	0xba1b99b1	-0.00059356826
15	0x3e161410	0.1465609
16	0xbd837323	-0.06418445
17	0xbe35115f	-0.17682408
18	0x3d7aa854	0.061195686
19	0xbe34b8a5	-0.17648561
20	0x3dd99ffc	0.10626218
21	0xbe009605	-0.12557228
22	0x3bd5c4df	0.006523713
23	0xbb733d59	-0.0037115423
24	0x3ba7f56e	0.005125693
25	0x3ccaaab8	0.024739608
26	0x3ba7f56e	0.005125693
27	0xbc8ea95e	-0.017414745
28	0x3ba7f56e	0.005125693
29	0x3cfb800b	0.030700704
30	0xbcab1259	-0.020882772
31	0x3ba7f56e	0.005125693
32	0x3cc3f4ae	0.023920383
33	0x3dec265d	0.11530755
34	0x3d06a475	0.032871682
35	0x3e3cfa66	0.18454894
36	0xbe514f5f	-0.20440434
37	0xbd1d6f15	-0.038436014
38	0xbe02c25e	-0.12769458
39	0x3d501cc5	0.050808687
40	0xbe2043ed	-0.15650912
41	0x3d4fd9db	0.050744873
42	0x3dfb0147	0.12256103
43	0x3bbbc4c4	0.0057302434
44	0xbe17a252	-0.14808014
45	0x3c59b5ad	0.013287944
46	0xbd01d3cb	-0.031696122
47	0xbd8b3925	-0.06798009
48	0x3e0d7629	0.13814606
49	0x3d15e1c5	0.036592264
50	0x3da94a8f	0.08266174
51	0xbdbc5f45	-0.09197859
52	0xbd750b40	-0.059825182
53	0xbdf6fb0d	-0.12059603
54	0xbd7b17fd	-0.061302174
55	0x3d673592	0.056447573
56	0x3d329ddb	0.043607574
57	0xbd3fa986	-0.04679253
58	0xbd4d5427	-0.050129082
59	0xba8d5356	-0.0010782282
60	0x3b4c2291	0.0031148533
61	0x3cfb3ebd	0.030669564
62	0xbdd94108	-0.10608107
63	0xbd512cf6	-0.05106827
64	0xbdb1449d	-0.08655665
65	0xbddf2535	-0.108957686
66	0xbd3b0e05	-0.045667667
67	0x3d0683c1	0.032840494
68	0x3c8a40fc	0.01687669
69	0x3d50e238	0.05099699
70	0x3d3b1423	0.0456735
71	0xbc95390c	-0.018215679
72	0xbcd05094	-0.025429048
73	0xbdc64bc6	-0.096824214
74	0xbd42b0cd	-0.04753189
75	0x3da8158c	0.08207235
76	0xbc5e9b41	-0.01358682
77	0x3d43b109	0.047776256
78	0x3de220d5	0.110414185
79	0x3e267b14	0.16257888
80	0x3d85d64c	0.065350145
81	0xbb4587a9	-0.0030140674
82	0x3c808ec9	0.015693085
83	0xbdb0bb61	-0.0862949
84	0x3d8d8fb4	0.06912175
85	0xbe297a4d	-0.1655056
86	0xbe4c6aff	-0.19962691
87	0xbbb1fced	-0.0054317624
88	0xbdedf9a2	-0.11619879
89	0x3e368a5e	0.1782622
90	0xbd387d0e	-0.045041136
91	0x3dfe4417	0.12415331
92	0xbdfe79ea	-0.12425597
93	0x3d963bfe	0.07335661
94	0xbe0dd574	-0.13850957
95	0xbd74ecd2	-0.059796162
96	0xbc74eb67	-0.014948702
97	0xbd881223	-0.06644084
98	0x3dfec471	0.12439812
99	0xbca9d518	-0.020731494
100	0x3ba7f56e	0.005125693
101	0x3ba7f56e	0.005125693
102	0x3ba7f56e	0.005125693
103	0x3ba7f56e	0.005125693
104	0x3ba7f56e	0.005125693
105	0x3ba7f56e	0.005125693
106	0x3ba7f56e	0.005125693
107	0x3ba7f56e	0.005125693
108	0xbcd98176	-0.02655099
109	0xbcd75adc	-0.026288442
110	0x3d7690c9	0.06019667
111	0xbae0de3b	-0.0017156074
112	0x3cc0176b	0.023448667
113	0xbd3c6567	-0.045995142
114	0xbdb803b0	-0.08985078
115	0x3d041a5d	0.032251704
116	0x3cb9d76f	0.022685735
117	0x3d71646c	0.05893366
118	0x3c9460aa	0.0181125
119	0xbd2f9003	-0.04286195
120	0x3db9f760	0.09080386
121	0xbc0bdbc4	-0.008536283
122	0x3ba7f56e	0.005125693
123	0xbcc6b37d	-0.024255509
124	0xbb81360a	-0.0039432095
125	0x3bf946cd	0.007607317
126	0xbbec43fd	-0.0072102533
127	0xbd0a3f7a	-0.033751942
128	0x3d15e0dd	0.0365914
129	0x3c26018e	0.010132207
130	0xbcf0e180	-0.029404402
131	0xbc8ad5a9	-0.016947584
132	0x3d16cb85	0.036815185
133	0x3d9d318e	0.076754674
134	0x3d6b98e9	0.057518873
135	0x3e246096	0.1605247
136	0xbc9a398b	-0.018826267
137	0x3d28c8d7	0.04120716
138	0x3e032914	0.12808639
139	0x3c5449cd	0.012957049
140	0x3d9dcc0f	0.07704937
141	0x3d343b7c	0.04400204
142	0x3d8a727e	0.06760119
143	0x3b3ff98a	0.0029293024
144	0xbb7c3e03	-0.003848911
145	0xbdd1b2d9	-0.102391906
146	0xbcd66f71	-0.026176186
147	0xbd8404fe	-0.06446265
148	0x3ccd1957	0.025036497
149	0x3d28d948	0.04122284
150	0x3d421961	0.047387484
151	0x3dba4ef8	0.09097093
152	0x3c9b6489	0.018968837
153	0x3de4ea02	0.11177446
154	0x3e18bc9b	0.14915697
155	0x3ddc133c	0.10745856
156	0xbcd5d3d1	-0.026101978
157	0xbd48134a	-0.04884652
158	0xbb7d74ed	-0.003867443
159	0x3db8ea7a	0.09029098
160	0x3e36c29e	0.17847678
161	0xbca3adce	-0.019980337
162	0xbd9d14c0	-0.076699734
163	0x3c840c0b	0.016119024
164	0x3d99f58f	0.0751754
165	0x3d62cc9d	0.055370916
166	0x3dfa7a50	0.122303605
167	0xbe0f9b36	-0.14024052
168	0xbddb0100	-0.1069355
169	0x3ca45a00	0.020062447
170	0x3ceeffbb	0.029174676
171	0xbe11d816	-0.14242586
172	0x3d0cb0aa	0.034348167
173	0xbca4fcca	-0.02014007
174	0x3d6d7f54	0.057982758
175	0x3d2fb958	0.042901367
176	0x3ccb2aa6	0.02480061
177	0x3d3e6fe4	0.046493426
178	0x3e0eb356	0.13935599
179	0x3cb0919f	0.021553813
180	0x3d003b8b	0.031306785
181	0xbc8d72f3	-0.017266726
182	0x3e4937a6	0.19650134
183	0x3d4cac90	0.049969256
184	0x3dfb68ca	0.12275846
185	0x3d919fc3	0.0711055
186	0xbd5411e5	-0.051774878
187	0x3d2821b7	0.041047778
188	0xbc05ee2c	-0.00817446
189	0xbd08bbf6	-0.03338238
190	0x3d44b80a	0.048027076
191	0x3d17657b	0.036962014
192	0xbd89bd07	-0.06725507
193	0x3d086795	0.03330191
194	0xbb6f1ae8	-0.0036484543
195	0xbd726443	-0.05917765
196	0x3d4dd3e2	0.050250895
197	0xbdbf95a1	-0.09354711
198	0xbd9950a8	-0.07486087
199	0xbdde5316	-0.10855691
200	0xbd9e9b9b	-0.07744523
201	0xbe2a701d	-0.1664433
202	0x3c6e7828	0.014555015
203	0x3d408b01	0.047007564
204	0x3d883d0a	0.06652267
205	0x3d522bb8	0.051311225
206	0x3d51a488	0.0511823
207	0x3e375cab	0.17906444
208	0xbca6500f	-0.020301847
209	0xbd917b22	-0.07103564
210	0x3ca35ac0	0.019940734
211	0xbd7314d7	-0.059346046
212	0x3e059f6c	0.13049096
213	0xbd0fc1e3	-0.035097014
214	0xbd2f56f4	-0.042807534
215	0x3e0085bf	0.1255102
216	0x3cba7f68	0.02276583
217	0x3d986b42	0.07442333
218	0x3d075c93	0.03304727
219	0xbe8824fc	-0.26590717
220	0xbb00c92a	-0.0019651153
221	0x3e466108	0.19372952
222	0xbceeea85	-0.029164562
223	0xbdb7bddb	-0.08971759
224	0x3d513609	0.051076923
225	0x3b8559f4	0.004069561
226	0xbda5d1a6	-0.08096628
227	0x3b8ff5a5	0.004393297
228	0xbcd86a7c	-0.026417963
229	0x3d549e67	0.051908877
230	0xbc0bbde9	-0.008529165
231	0xbbb7a9e3	-0.005604969
232	0xbe27a619	-0.16371955
233	0xbd4e4253	-0.05035622
234	0xbd5b3ac3	-0.053522836
235	0x3e026c09	0.12736525
236	0x3d60e235	0.054903228
237	0xbdab26e9	-0.08357031
238	0x3e2f227a	0.17102996
239	0xbc0247a3	-0.00795165
240	0xbe3951a3	-0.18097548
241	0x3d3888bf	0.045052286
242	0x3e2928c8	0.16519463
243	0xbd6880b2	-0.05676336
244	0x3d5dc844	0.054146066
245	0x3d351b7a	0.044215657
246	0xbcf3d88e	-0.029766347
247	0x3c9d1433	0.01917467
248	0xbd458c55	-0.048229534
249	0x3e0a0133	0.1347702
250	0x3d841188	0.06448656
251	0x3a9dd0db	0.0012040393
252	0xb9f02fcf	-0.00045811987
253	0xbaa832d3	-0.001283253
254	0x3d9dc451	0.0770346
255	0xbdf16b68	-0.11788064

layer1.bias_mu f4 [256]
0	0xbe73ef8c	-0.23821849
1	0xbea4cf26	-0.32189292
2	0xbe0980b7	-0.13428007
3	0x3db439e6	0.08800106
4	0xbd6ae534	-0.05734749
5	0x3e539b49	0.20664705
6	0xbefeca9b	-0.4976395
7	0xbe2ba06c	-0.16760415
8	0x3c8f9ea7	0.017531706
9	0xbe9df0a6	-0.30847663
10	0x3ea11f05	0.3146898
11	0xbe8b44f7	-0.27201054
12	0xbdb03464	-0.08603743
13	0x3e501033	0.2031868
14	0x3eb1a825	0.34698597
15	0xbe3a46ab	-0.1819102
16	0xbe827ad2	-0.2548433
17	0xbea934ec	-0.3304819
18	0xbd115fb9	-0.03549168
19	0x3dcb409f	0.09924435
20	0xbd24168c	-0.040060565
21	0x3cb8aa85	0.022542248
22	0xbe35a866	-0.1774002
23	0xbdb01ddb	-0.085994445
24	0xbe91e10b	-0.28492007
25	0x3e4adca6	0.19810733
26	0x3dda091a	0.10646267
27	0xbbb88a38	-0.0056317113
28	0xbea5b050	-0.32361078
29	0x3e50f839	0.2040719
30	0x3e2d592f	0.16928552
31	0xbce6c89f	-0.028171835
32	0x3e4df0db	0.2011141
33	0x3e68a6d0	0.22719884
34	0xbe9a81cb	-0.3017715
35	0x3e0408c7	0.12893973
36	0x3d800969	0.06251795
37	0x3e69bd99	0.22826232
38	0x3d7abb99	0.061214063
39	0x3e2e074a	0.16994968
40	0xbdfefe01	-0.12450791
41	0x3ed48054	0.41504157
42	0x3e97a7de	0.2962026
43	0x3dd3fe4b	0.10351237
44	0xbe26571d	-0.16244169
45	0xbda4a333	-0.0803894
46	0xbea4fc16	-0.32223576
47	0x3ea5c4a3	0.32376584
48	0xbd0bfa3b	-0.034174185
49	0x3d5ea4bc	0.05435632
50	0xbec7112e	-0.38880295
51	0xbd2c3326	-0.042040966
52	0x3e1ce237	0.15320669
53	0xbe2df17c	-0.1698665
54	0x3d7026e3	0.058630835
55	0xbe9802e1	-0.29689696
56	0xbdf60433	-0.1201252
57	0xbe150d8c	-0.14555949
58	0xbe473603	-0.19454198
59	0x3d7e33d3	0.062061142
60	0xbe5bbc14	-0.21458465
61	0xbc6f43cc	-0.014603566
62	0x3d88429e	0.06653331
63	0x3ed4cfe6	0.41564864
64	0xbe0ee400	-0.13954163
65	0xbd8dde7f	-0.069272034
66	0xbca2f3fc	-0.019891731
67	0x3e10bdbb	0.14134876
68	0xbe971215	-0.29505983
69	0x3e8b45b1	0.27201608
70	0xbebf6dcd	-0.3738846
71	0xbed22cfa	-0.4104994
72	0xbe606787	-0.21914493
73	0xbd23040f	-0.039798792
74	0xbe018419	-0.12648048
75	0xbd83eb9d	-0.06441424
76	0x36801966	3.817654e-06
77	0xbd4d853b	-0.050175887
78	0x3e812379	0.25222376
79	0xbdfea3da	-0.12433596
80	0x3cd067a9	0.025440054
81	0x3e3cd2f7	0.18439852
82	0x3e70d9aa	0.23520532
83	0xbdc268d5	-0.094926514
84	0x3d7c049d	0.061527837
85	0x3e3ffa13	0.1874774
86	0xbe7e47a5	-0.24832018
87	0xbddad698	-0.10685462
88	0x3e28e85e	0.16494891
89	0x3e7df3a8	0.24799979
90	0xbdd36cb1	-0.103234656
91	0x3e5ed134	0.21759492
92	0x3dd75d4a	0.1051584
93	0xbea32337	-0.31862804
94	0xbdadd4d1	-0.08487857
95	0xbe360680	-0.17775917
96	0x3e482c43	0.19548135
97	0x3ebbe326	0.36696738
98	0x3d2c5329	0.042071495
99	0x3e2fb070	0.1715715
100	0x3e028030	0.12744212
101	0xbdb47bcb	-0.08812674
102	0x3dd53d16	0.10412042
103	0xbdd76f84	-0.10519317
104	0x3dae87f1	0.085220225
105	0xbd169ffb	-0.036773663
106	0x3e90510b	0.2818683
107	0x3e9a6b69	0.30160072
108	0xbe9d0fd5	-0.3067614
109	0x3e8def69	0.27721718
110	0x3e316e23	0.1732717
111	0x3d46b4f7	0.048512425
112	0xbe49eab8	-0.19718444
113	0xbe853050	-0.26013422
114	0xbe508510	-0.2036326
115	0x3e359a8e	0.17734739
116	0xbd0d291f	-0.034463044
117	0x3de0ce8b	0.10976895
118	0xbe3a96e6	-0.18221626
119	0xbe976880	-0.29571915
120	0xbde2d378	-0.11075491
121	0x39af04be	0.00033382134
122	0xbd417e5a	-0.04723964
123	0xbe9b6e43	-0.3035756
124	0xbe30bd91	-0.17259814
125	0xbe014c79	-0.12626828
126	0x3e7a1efe	0.24425885
127	0xbea760ce	-0.32691044
128	0xbd38e4fb	-0.045140248
129	0x3e2c1456	0.16804633
130	0x3cbd2a82	0.023091558
131	0xbe97ab6b	-0.2962297
132	0x3ae9fef8	0.0017852476
133	0xbe96be58	-0.29442096
134	0x3c7b44fc	0.015336271
135	0x3d848714	0.064710766
136	0xbcd58ba6	-0.026067566
137	0xbddc2a76	-0.10750286
138	0xbe12a10d	-0.14319248
139	0x3da7a819	0.08186359
140	0xbd6a4f35	-0.057204444
141	0x3eea6f17	0.4578788
142	0xbed5add6	-0.4173419
143	0xbc7b1c58	-0.015326582
144	0x3e67bfe9	0.22631802
145	0x3e9698bb	0.294134
146	0x3ea15739	0.31511858
147	0x3d381962	0.044946082
148	0xbe9ec89d	-0.3101243
149	0xbe0d84be	-0.13820168
150	0xbe3e76bf	-0.18599986
151	0xbed9e096	-0.42554158
152	0xbecb7015	-0.3973395
153	0xbde5669d	-0.112012126
154	0xbe3ef091	-0.18646456
155	0x3ea63efe	0.32469934
156	0x3e947f8a	0.29003555
157	0xbe748e32	-0.23882368
158	0x3d4b9ae7	0.049708273
159	0x3e1c351a	0.15254632
160	0xbcff937c	-0.031198256
161	0xbe9a2832	-0.30108792
162	0xbdb43c9f	-0.08800625
163	0xbde6f1b7	-0.11276572
164	0x3e13ec9e	0.14445731
165	0x3ed305d4	0.41215384
166	0x3e2748e1	0.16336395
167	0xbdc9880b	-0.09840401
168	0xbe8ecf5e	-0.27892584
169	0x3e26faab	0.1630656
170	0xbeed7253	-0.46376285
171	0xbcc51c1e	-0.024061259
172	0xbe6eb40e	-0.23310873
173	0xbe0a159f	-0.1348481
174	0xbda87108	-0.08224684
175	0x3d83b397	0.064307384
176	0xbde6f622	-0.11277415
177	0xbdd0a27e	-0.10187243
178	0xbcd8ec45	-0.02647985
179	0xbdd18fe7	-0.10232525
180	0x3e63ac61	0.22233726
181	0xbdd45baa	-0.10369046
182	0xbdd6c23a	-0.104862645
183	0x3e0a73e4	0.13520771
184	0xbe1c7430	-0.15278697
185	0x3d2865cf	0.041112717
186	0xbe37c5e5	-0.17946585
187	0xbe7dfae6	-0.24802741
188	0x3e238412	0.1596835
189	0xbe05c6b1	-0.13064076
190	0x3e5478ec	0.20749253
191	0x3eae2d60	0.34018993
192	0x3e87086e	0.2637362
193	0xbeb4ae81	-0.35289386
194	0xbdf8675f	-0.121290915
195	0x3e8f922b	0.28041205
196	0x3c91572c	0.017741762
197	0xbe3a5184	-0.18195158
198	0xbd8aa981	-0.067706116
199	0x3e01b1a0	0.12665415
200	0x3e5da181	0.2164364
201	0x3e90f3f6	0.28311127
202	0x3e43b0e0	0.19110441
203	0xbdad23a8	-0.084540665
204	0xbe922414	-0.2854315
205	0xbe7c7b4f	-0.24656413
206	0xbe52d560	-0.20589209
207	0xbe15f661	-0.14644767
208	0x3da2e925	0.07954625
209	0xbea87d05	-0.32907882
210	0xbe1372ea	-0.14399305
211	0xbd1c4242	-0.038149126
212	0x3e828a83	0.254963
213	0xbd752f88	-0.059859782
214	0xbe3e854e	-0.18605539
215	0xbebc7223	-0.3680583
216	0xbd999981	-0.07499982
217	0x3db2f4c9	0.08738095
218	0x3ed6c68c	0.41948354
219	0xbdaeeb35	-0.08540956
220	0x3d6b390a	0.057427444
221	0x3ec34cfc	0.38144672
222	0x3e785857	0.24252449
223	0x3de06f33	0.109587096
224	0xbd23a94b	-0.039956372
225	0x3ba844e3	0.005135165
226	0x3d91ca52	0.07118668
227	0xbdd02fb0	-0.10165346
228	0xbe80e662	-0.25175768
229	0xbe51a842	-0.20474342
230	0xbd609814	-0.054832533
231	0x3e806bfa	0.2508238
232	0xbd1737fc	-0.036918625
233	0xbe91cf9e	-0.28478712
234	0x3a21933d	0.0006163603
235	0x3e633851	0.22189452
236	0xbe158301	-0.14600755
237	0xbedbc421	-0.42923072
238	0x3e05782f	0.13034128
239	0xbe881183	-0.2657586
240	0x3e9b009f	0.3027391
241	0xbe3e45d2	-0.18581322
242	0xbe496a4b	-0.19669454
243	0x3e16d2d0	0.14728856
244	0xbdb3a06a	-0.08770831
245	0xbe114b3e	-0.14188859
246	0x3e1015d1	0.14070822
247	0xbd1d3215	-0.03837784
248	0xbe40d002	-0.18829349
249	0x3d1ffd35	0.039059836
250	0x3bc50388	0.006012384
251	0xbdcb76a9	-0.09934742
252	0xbca56e43	-0.020194178
253	0xbed07276	-0.40712327
254	0xbe10ee84	-0.14153486
255	0x3e4496e4	0.19198185

layer1.bias_sigma f4 [256]
0	0xbbebcea2	-0.0071962634
1	0xbe330cde	-0.17485377
2	0xbac1f7ef	-0.0014798621
3	0x3ca8a90b	0.020588418
4	0x3c4ae944	0.012384716
5	0x3e9264de	0.2859258
6	0xbd89d18c	-0.06729421
7	0x3d38a4de	0.045079105
8	0xbdf5e69f	-0.12006878
9	0x3be71fcb	0.0070533506
10	0xbd8698a9	-0.06572086
11	0x3c042bf7	0.008067123
12	0x3e2a872c	0.16653126
13	0xbde99c7a	-0.11406799
14	0x3d58bd7e	0.05291509
15	0x3d69310b	0.056931537
16	0xbe263eb6	-0.1623486
17	0xbbd98046	-0.006637606
18	0x3d9c1049	0.07620294
19	0x3d065982	0.032800205
20	0xbd72a903	-0.059243213
21	0xbd37a7df	-0.04483783
22	0x3b1b0ac4	0.002365754
23	0xbdc81a86	-0.09770684
24	0x3ce517e9	0.027965503
25	0xbdc535bf	-0.09629392
26	0x3dbffedb	0.09374782
27	0xbc82d8cb	-0.015972516
28	0x3d8bb7ed	0.068221904
29	0xbd49fe44	-0.049314752
30	0xbcc40225	-0.023926804
31	0xbe73e129	-0.2381636
32	0xbcb1dbab	-0.021711191
33	0xbdda452f	-0.10657727
34	0x3d8453ff	0.064613335
35	0xbd813495	-0.06308857
36	0x3db84022	0.08996607
37	0xbb1f675c	-0.0024323082
38	0x3d304b3c	0.0430405
39	0xbdf3c6e2	-0.11903168
40	0xbdaa73f4	-0.083228976
41	0x3d6dd6e8	0.05806628
42	0x3d6cdd96	0.05782851
43	0xbd0d0bcd	-0.034435082
44	0xbcfe12e7	-0.031014873
45	0xbb81cec4	-0.003961416
46	0x3db2faa6	0.08739214
47	0xbdb56e5d	-0.08858941
48	0xbdea4062	-0.11438061
49	0xbcbb4eb2	-0.022864673
50	0x3ce56210	0.028000861
51	0x3c53f7dc	0.012937512
52	0xbd3a3341	-0.045459036
53	0x3e17c1a4	0.14819962
54	0x3dbaaa0d	0.09114466
55	0xbc6dfa9c	-0.014525082
56	0xbe261f9a	-0.16222993
57	0xbc8832ed	-0.016625846
58	0x3d8f9c25	0.07012204
59	0x3d1676c3	0.036734354
60	0x3ba7f56e	0.005125693
61	0xbd855420	-0.06510186
62	0x3d035806	0.032066368
63	0x3d5b8554	0.05359395
64	0xbd1c29e9	-0.038125906
65	0xbd85dce0	-0.06536269
66	0xbdcee8d8	-0.10103005
67	0x3e07e802	0.13272098
68	0x3ba7f56e	0.005125693
69	0x3e225aea	0.15854993
70	0xbc113674	-0.00886308
71	0x3c497300	0.012295485
72	0xbcbdf08b	-0.023185989
73	0x3d377807	0.0447922
74	0x3d3761d5	0.044771034
75	0x3dbe07cf	0.09278833
76	0xbdb070f4	-0.08615294
77	0x3d87cf0c	0.06631288
78	0xbd3c3c3f	-0.045955893
79	0x3d3e3329	0.04643551
80	0x3cb3b2b1	0.021935793
81	0x3c89e0ea	0.01683088
82	0x3e3ac38f	0.18238662
83	0xbc92bfc5	-0.017913708
84	0x3cd95bde	0.026533064
85	0xbda68c02	-0.08132173
86	0x3c61443b	0.013749178
87	0xbca18b89	-0.019719856
88	0xbb822706	-0.003971937
89	0xbd2c8c09	-0.042125735
90	0x3c477d53	0.012175876
91	0x3e4f5f67	0.20251237
92	0x3dccb823	0.09996059
93	0xbcf3034f	-0.029664664
94	0xbd2f8606	-0.042852424
95	0x3d6c2838	0.057655543
96	0x3d8f46cb	0.069959246
97	0xbcdfd6d9	-0.027324127
98	0xbcfe306f	-0.031028954
99	0x3d3e7a07	0.046503093
100	0x3d250443	0.040287267
101	0x3d94f4f5	0.07273284
102	0xbcfb89e2	-0.030705396
103	0xbd8036af	-0.0626043
104	0x3bb0ac78	0.0053916536
105	0xbcc406ac	-0.023928963
106	0xbdd60d32	-0.104517356
107	0xbd69763c	-0.056997523
108	0x3cd5f79d	0.026119048
109	0x3ce6b0ee	0.028160539
110	0x3d4368e7	0.047707465
111	0xbe1d9674	-0.15389425
112	0x3c6640a2	0.014053496
113	0xbe1c9df7	-0.15294634
114	0x3e0e1997	0.13876949
115	0xbd1ce972	-0.03830857
116	0xbdad31f3	-0.08456793
117	0xbda7a06f	-0.08184897
118	0xbdd3e0d7	-0.10345619
119	0xbc92f575	-0.017939309
120	0xbdc12ad9	-0.09432001
121	0xbd93249f	-0.07184719
122	0x3dd7bc68	0.105339825
123	0xbc31762e	-0.010831399
124	0xbc529038	-0.012851767
125	0xbd40e380	-0.04709196
126	0xbcd5dbde	-0.026105817
127	0xbdff6965	-0.12471274
128	0x3ca06a5e	0.01958197
129	0xbddb10e4	-0.10696581
130	0xbd6bbdfd	-0.057554234
131	0xbcf862df	-0.030320583
132	0x3dfb8b6f	0.12282454
133	0x3b9f8a24	0.0048687626
134	0x3e50ec7c	0.20402712
135	0x3c2ec2a8	0.010666527
136	0x3e8cc3b5	0.27493063
137	0x3ba7f56e	0.005125693
138	0xbe0b5fe2	-0.13610795
139	0x3d716a42	0.058939226
140	0x3c531972	0.012884485
141	0xbd50b297	-0.050951567
142	0x3d48ee9a	0.049055673
143	0xbda2cdec	-0.07949433
144	0xbd2287c5	-0.03968026
145	0xbe06ecc0	-0.1317625
146	0x3dbb2547	0.091379695
147	0xbdadf0a0	-0.08493161
148	0xbdc9ecdc	-0.098596305
149	0x3bf683e4	0.007523047
150	0x3c22ac76	0.009928813
151	0x3d2f0f88	0.04273942
152	0x3a5e90df	0.00084902154
153	0xbd331f42	-0.04373098
154	0x3ba7f56e	0.005125693
155	0xbb86c488	-0.004112784
156	0xbd079009	-0.033096347
157	0x3d6982ad	0.057009388
158	0xbd9efbf7	-0.07762902
159	0xbd9b2bcd	-0.07576714
160	0x3de74b8c	0.11293706
161	0x3e17d0dc	0.14825767
162	0x3e302784	0.17202574
163	0x3cbe855a	0.023256946
164	0x3de015a1	0.109416254
165	0xbd20ffad	-0.03930633
166	0x3da32cff	0.07967567
167	0xbe26f685	-0.16304977
168	0xbbce4a33	-0.0062954663
169	0xbb74b04b	-0.0037336524
170	0xbdce9e6e	-0.10088812
171	0xbce442cb	-0.02786388
172	0xbe1ffde8	-0.15624201
173	0x3eab6715	0.33477083
174	0x3de3b7e9	0.111190625
175	0xbe50ff70	-0.20409942
176	0xbe292662	-0.16518548
177	0x3cecc9e3	0.02890486
178	0x3d434d83	0.047681343
179	0x3d57e75d	0.05271088
180	0xbba9a832	-0.005177521
181	0xbe2961ee	-0.16541263
182	0x3c18f18b	0.009334932
183	0x3c5d6c79	0.013514631
184	0xbd62d829	-0.055381928
185	0x3dacdce3	0.08440568
186	0x3e1c35a0	0.15254831
187	0x3ba7f56e	0.005125693
188	0x3d836f0d	0.06417666
189	0x3dacd747	0.084394984
190	0xba382d55	-0.0007025798
191	0x3daa7ff7	0.083251886
192	0xbd76ad64	-0.060223952
193	0xbe35ba28	-0.17746794
194	0xbc65ace7	-0.014018274
195	0xbdf766a6	-0.120801255
196	0x3d8520a9	0.0650037
197	0x3cc333d3	0.023828423
198	0x3e164f0c	0.14678591
199	0x3e453172	0.19257143
200	0x3c5062ed	0.012718898
201	0x3d331c76	0.043728314
202	0xbd59cf62	-0.05317629
203	0xbdddeaeb	-0.10835823
204	0x3da37346	0.07980971
205	0x3d7e761e	0.062124364
206	0x3c879c86	0.016554128
207	0xbc813a66	-0.015774917
208	0xbc4f6339	-0.012657934
209	0x3d047d26	0.032345913
210	0x3dce82f5	0.10083572
211	0xbc240dff	-0.010013103
212	0xbd3d090d	-0.04615121
213	0x3da269e6	0.07930355
214	0x3db1891f	0.08668732
215	0x3dbfc64e	0.093639955
216	0x3db540c8	0.08850247
217	0x3c8817c8	0.016612902
218	0x3d8f5f8b	0.07000645
219	0x3cb241f1	0.021759959
220	0x3ca5c60b	0.020236036
221	0xbe2d6818	-0.1693424
222	0x3c9cb7b9	0.019130575
223	0xbd556753	-0.05210049
224	0xbd759e9d	-0.05996572
225	0x3d2121fe	0.039339058
226	0xbdad8c4a	-0.08474024
227	0x3d265f0d	0.04061799
228	0x3da9fc68	0.08300096
229	0x3d401373	0.04689355
230	0xbd314f51	-0.043288533
231	0xbdb1b9a5	-0.08677987
232	0x3cc4abd3	0.024007713
233	0x3b7f4786	0.0038952543
234	0x3d693f05	0.056944866
235	0x3d94f50a	0.072733
236	0x3da6362f	0.081158035
237	0xbdbf4991	-0.093402036
238	0x3c736c5b	0.014857377
239	0xbbc29157	-0.005937736
240	0x3cc12978	0.023579344
241	0x3ba7f56e	0.005125693
242	0xbdbb4fab	-0.09146055
243	0x3c6eaee0	0.014568061
244	0x3d1a2e6a	0.03764192
245	0xbd879b1e	-0.06621383
246	0xbc5e2556	-0.013558706
247	0x3da53138	0.08066028
248	0x3c56d67a	0.013112659
249	0x3c439ac5	0.011938755
250	0xbe0cbffe	-0.13745114
251	0xbceeb1f1	-0.029137583
252	0xbb02e1c9	-0.0019971004
253	0x3c5636c2	0.013074579
254	0xbe27d8b0	-0.16391253
255	0xbd78835d	-0.060672153

layer2.weight_mu f4 [3, 256]
0	0x3bffd2ab	0.007807096
1	0xbdee643a	-0.116402104
2	0x3c62df32	0.013847159
3	0xbe0caddf	-0.13738202
4	0x3cc811de	0.024422582
5	0x3e7b9244	0.24567515
6	0x3caaaca9	0.020834284
7	0x3dca041b	0.09864064
8	0x3cec9988	0.028881803
9	0x3c3337b8	0.010938577
10	0x3d18857f	0.037236687
11	0x3cff79cd	0.031186009
12	0x3e8530ad	0.260137
13	0x3eaab85e	0.33343786
14	0x3e895582	0.2682305
15	0xbc01d6b3	-0.007924723
16	0xbd01753e	-0.03160595
17	0xbba3ec37	-0.0050025242
18	0x3c237442	0.0099764485
19	0x3e9c5292	0.30531746
20	0xbe37a45f	-0.17933796
21	0x3e0a3778	0.13497722
22	0xbe07e495	-0.13270791
23	0x3dc3cb31	0.0956024
24	0x3bf484d1	0.007462122
25	0xbdf6e5bc	-0.12055537
26	0x3e037419	0.12837256
27	0xbd6c20e2	-0.057648547
28	0x3ddcbabb	0.107778035
29	0x3e107da8	0.14110434
30	0x3e016f0d	0.12640019
31	0x3e3c9a53	0.18418245
32	0xbda5e5c0	-0.08100462
33	0x3e1ece3f	0.15508364
34	0xbd63f48b	-0.055653136
35	0xbd242ab5	-0.04007979
36	0x3bff015c	0.0077821445
37	0x3dc28559	0.0949809
38	0xbd9eeacc	-0.07759628
39	0xbdb6b6a9	-0.089215584
40	0xbe1f4f0b	-0.15557496
41	0x3ea0300c	0.31286657
42	0x3dd851cf	0.10562479
43	0x3d303b15	0.043025095
44	0xbe11cc8a	-0.14238182
45	0x3e5f28ee	0.21792957
46	0x3d413450	0.04716903
47	0x3e13ab12	0.14420727
48	0xbc276a79	-0.010218256
49	0x3d7d7881	0.0618825
50	0xbc44df8f	-0.012016191
51	0xbbb026f5	-0.005375738
52	0x3de868c1	0.11348105
53	0xbda6ebba	-0.0815043
54	0x3c9b9872	0.01899359
55	0x3d241cd3	0.04006655
56	0xbdc043fe	-0.093879685
57	0x3d20e786	0.039283298
58	0x3ccd4953	0.025059378
59	0xbc74d8e6	-0.014944291
60	0xbd674d76	-0.056470357
61	0x3e49eeb4	0.19719964
62	0xbe5ba89c	-0.21451038
63	0x3e9019d1	0.28144696
64	0xbe129841	-0.14315893
65	0xbc8966f7	-0.01677273
66	0xbe3c5b00	-0.18394089
67	0x3e90820b	0.28224215
68	0x3b9c3ba0	0.00476785
69	0x3e1cdd6e	0.15318844
70	0xbc6b81e7	-0.014374233
71	0x3cc738d5	0.024319092
72	0x3e80b6ff	0.25139615
73	0x39a814e8	0.00032059033
74	0xbc4e9a46	-0.012610024
75	0x3e6c1672	0.23055437
76	0xbdce27ea	-0.10066207
77	0xbdfa2400	-0.12213898
78	0x3e3674b8	0.17817962
79	0xbc2fae3a	-0.010722691
80	0xbe0cc82f	-0.13748239
81	0x3cb87cf7	0.022520525
82	0x3d35ad4c	0.044354722
83	0xbdfc0dde	-0.123073325
84	0x3dea13fc	0.11429593
85	0x3d45c482	0.048283108
86	0xbd70a25f	-0.0587486
87	0xbe5393cd	-0.2066185
88	0x3dac105c	0.08401558
89	0x3e68e240	0.22742558
90	0xbbdf7a28	-0.006819982
91	0x3dd1fba1	0.102530725
92	0x3d7bd3f7	0.061481442
93	0x3b840a80	0.004029572
94	0xbe194a8c	-0.14969844
95	0xbd3aa261	-0.045565013
96	0x3e77bd50	0.2419331
97	0x3e882976	0.26594132
98	0x3d1b3244	0.037889734
99	0x3df15d07	0.11785322
100	0x3e275455	0.16340764
101	0x3e1dda0d	0.15415211
102	0xbe05f378	-0.13081157
103	0xbc6afe99	-0.014342927
104	0xbc89fd3f	-0.01684439
105	0x3dbe0882	0.092789665
106	0x3e92ba1b	0.28657612
107	0x3ec62c66	0.38705748
108	0xbda225e3	-0.079173826
109	0x3e135bf3	0.14390545
110	0x3d9d5a3a	0.07683225
111	0xbdf0a326	-0.11749868
112	0xbe83dcb9	-0.25754336
113	0xbda00d56	-0.07815044
114	0x3d83fd07	0.064447455
115	0xbdb29ce3	-0.0872133
116	0xbe47d03d	-0.1951303
117	0x3e2d335b	0.16914122
118	0xbdcdd189	-0.10049731
119	0xbdf00ac5	-0.11720804
120	0xbd0fd47b	-0.035114747
121	0xbe214bb2	-0.15751532
122	0x3d8bb6ff	0.06822013
123	0xbd238a40	-0.039926767
124	0xbdad7746	-0.08470015
125	0xbe67a69b	-0.22622149
126	0x3dca269a	0.09870644
127	0xbdf3b49e	-0.11899684
128	0xbe3ad9cf	-0.1824715
129	0x3e84cbc0	0.259367
130	0x3d86a62b	0.06574663
131	0x3e53ca33	0.20682602
132	0x3da9bef0	0.082883716
133	0x3d0120f6	0.031525575
134	0x3dad3f76	0.0845937
135	0xbe19e4c2	-0.1502867
136	0xbe0a3ea1	-0.13500454
137	0xbcc28e00	-0.023749352
138	0xbe2a4125	-0.16626413
139	0x3e232f21	0.15935947
140	0x3d4d5792	0.05013234
141	0x3e8047ee	0.25054878
142	0x3d985bd3	0.07439389
143	0xbc955d6e	-0.018233027
144	0x3ea3f620	0.32023716
145	0x3e9a0290	0.3008008
146	0x3e4a2052	0.19738892
147	0x3e896c2c	0.2684034
148	0x3e2d94a4	0.16951233
149	0x3d173841	0.036918882
150	0xbca6c638	-0.02035819
151	0x3df4f125	0.11960057
152	0x3c61c448	0.013779707
153	0x3e8b549e	0.27212995
154	0xba108000	-0.00055122375
155	0x3e9aebd4	0.30258048
156	0x3e2e12b0	0.16999316
157	0xbe055ce5	-0.13023718
158	0x3d9a0f14	0.07522407
159	0x3d7c37d2	0.061576672
160	0x3e89229f	0.26784226
161	0x3ec7eb22	0.3904658
162	0xbbc52258	-0.006016057
163	0x3d14ed13	0.036358904
164	0x3e8fefb8	0.28112578
165	0x3e5159a8	0.20444357
166	0x3e0b49e0	0.136024
167	0xbe0c68a4	-0.13711792
168	0xbcbc845a	-0.023012329
169	0xbdee6c51	-0.116417535
170	0xb9aee0b4	-0.00033355283
171	0xbe05dcbf	-0.13072489
172	0xbd6d7693	-0.05797441
173	0xbe0acd48	-0.13554871
174	0x3dfa6e5f	0.12228083
175	0x3e42b51f	0.19014405
176	0xbdde918a	-0.10867603
177	0x3d641db5	0.055692393
178	0xbd2f5a6d	-0.042810846
179	0x3e313f1f	0.17309235
180	0x3e5a7226	0.21332607
181	0x3db42dbf	0.08797788
182	0xbd266f09	-0.040633235
183	0x3ce8b406	0.028406154
184	0x3e66318b	0.22479837
185	0xbda0ec98	-0.07857627
186	0xbd468702	-0.048468597
187	0x3d2754b4	0.040852264
188	0x3d77f9de	0.060541026
189	0xbe6dab75	-0.23209937
190	0x3e2930d7	0.16522537
191	0x3ea49f94	0.32152998
192	0x3e980cf7	0.2969739
193	0x3cf82a06	0.030293476
194	0xbdac0581	-0.08399487
195	0x3e013c7d	0.1262073
196	0x3d9973ad	0.074927665
197	0x3d6e30bc	0.058151945
198	0xbdbf67ac	-0.09345946
199	0x3e3df97d	0.18552203
200	0x3e80a90b	0.2512897
201	0x3e856bc1	0.26058772
202	0x3dfb1ebc	0.122617215
203	0xbdb0830a	-0.08618744
204	0xbd971043	-0.073761486
205	0x3c4e3a91	0.0125872055
206	0x3d6cb412	0.057788916
207	0xbd55649b	-0.052097898
208	0x3d2a882e	0.041633777
209	0xbdc95e13	-0.09832396
210	0xbe05a417	-0.13050877
211	0xbc058438	-0.008149199
212	0x3d9371f9	0.07199473
213	0xbdd69861	-0.10478283
214	0xbca5296d	-0.020161355
215	0xbe0a7733	-0.13522033
216	0xbd2e6b33	-0.042582702
217	0x3d543b5f	0.051814433
218	0x3e81d819	0.25360182
219	0x3ce2a69e	0.02766734
220	0xbe51d94f	-0.20493053
221	0x3e80db88	0.2516749
222	0x3dd229db	0.102618895
223	0xbdadbedb	-0.084836684
224	0x3dde754a	0.10862215
225	0xbdc2a09f	-0.09503292
226	0x3d73e013	0.059539866
227	0x3ddec0b7	0.10876601
228	0xbd6ea92f	-0.058266815
229	0xbbbf8b44	-0.005845459
230	0xbe1edd42	-0.1551409
231	0x3db5bb34	0.08873597
232	0x3e235dda	0.1595377
233	0xbdade5ff	-0.08491134
234	0x3e86203c	0.26196468
235	0x3e88e4a1	0.2673693
236	0xbdf1c75e	-0.118056044
237	0xbcf52525	-0.029924938
238	0xbe009c88	-0.12559712
239	0xbbd8a045	-0.0066109025
240	0x3e858a3b	0.26082024
241	0x3d48893e	0.04895901
242	0x3ad3fcda	0.0016173378
243	0xbe540ec7	-0.20708762
244	0xbe5e2267	-0.21692811
245	0x3e036e54	0.12835056
246	0x3e24a734	0.16079408
247	0x3e0c2571	0.13686158
248	0xbe10fb25	-0.14158304
249	0x3e7890c7	0.24273978
250	0x3c55a154	0.013038952
251	0x3d870914	0.065935284
252	0x3e6ffd05	0.23436363
253	0x3cc52e30	0.024069875
254	0x3e63f789	0.22262396
255	0x3d80c2e7	0.06287175

layer2.weight_sigma f4 [3, 256]
0	0x3d8f3aff	0.069936745
1	0xbd1d21b6	-0.038362227
2	0x3bee511d	0.007272853
3	0x3e297850	0.16549802
4	0xbb372c46	-0.0027949973
5	0x3b610013	0.003433232
6	0xbcc983e2	-0.02459902
7	0x3e0e8dcd	0.1392128
8	0xbe06ab30	-0.1315124
9	0x3a8b4396	0.0010625
10	0xbcd28720	-0.025699198
11	0x3d53f6be	0.051748984
12	0x3d287359	0.04112563
13	0xbda2bada	-0.07945795
14	0xbc236921	-0.009973795
15	0xbdbf2130	-0.09332502
16	0xbc4f661b	-0.012658621
17	0x3c1d679e	0.009607224
18	0xbc03fb03	-0.008055451
19	0xbcc7f919	-0.024410771
20	0xbc44c368	-0.012009479
21	0x3dcdda7a	0.10051437
22	0x3dd582dc	0.1042535
23	0xbd9c4e1f	-0.07632088
24	0xbcce14b5	-0.025156358
25	0x3d851104	0.06497386
26	0xbd54a68c	-0.051916644
27	0x3d6523e0	0.055942416
28	0xbd24e194	-0.04025419
29	0xbe06c81c	-0.13162273
30	0xbd9871b8	-0.07443565
31	0xbd069342	-0.03285528
32	0x3d1d61c8	0.03842333
33	0x3c0763ff	0.008263587
34	0xbc5089f5	-0.012728204
35	0xbda4041c	-0.08008596
36	0xbdbc3d12	-0.09191336
37	0xbc7b58c4	-0.015340988
38	0x3d8edcfa	0.06975742
39	0xbc8632d8	-0.016381666
40	0xbd8c350d	-0.06846056
41	0xbdcaf412	-0.09909834
42	0xbe1e3702	-0.15450671
43	0x3d89d9d8	0.067310035
44	0xbdaa4387	-0.08313661
45	0x3daa357a	0.08310981
46	0xbd16f992	-0.036859103
47	0x3c987403	0.018610006
48	0xbc47b993	-0.01219024
49	0x3d2bde82	0.041960247
50	0xbcd5bb60	-0.026090324
51	0xbbb999b2	-0.005664074
52	0xbc7c1536	-0.015385916
53	0xbe136e81	-0.14397623
54	0x3cd6dc86	0.0262282
55	0xbd31739a	-0.043323137
56	0x3d3f9da4	0.046781197
57	0x3c835fd4	0.016036905
58	0x3d17c631	0.037054244
59	0xbdaa9d84	-0.08330825
60	0x3a8b4396	0.0010625
61	0x3c95209a	0.018204022
62	0xbd031473	-0.032001924
63	0xbdf941c9	-0.12170751
64	0x3d012ad9	0.031535003
65	0xbd8fc257	-0.07019489
66	0xbd7883cd	-0.06067257
67	0xbda05f04	-0.07830623
68	0x3a8b4396	0.0010625
69	0xbd0b3f14	-0.033995703
70	0x3be008d3	0.0068369894
71	0x3c01088e	0.007875575
72	0xbbcf20ac	-0.0063210335
73	0xbd87a217	-0.06622713
74	0x3db6e315	0.08930031
75	0x3be92282	0.0071147094
76	0xbc7d6f30	-0.015468404
77	0xbdd9fb04	-0.106435806
78	0xbdff5eac	-0.12469229
79	0x3d966c6d	0.07344899
80	0x3ba96035	0.0051689395
81	0x3d996622	0.074901834
82	0xbd58a8e7	-0.052895453
83	0xbbd93b0e	-0.0066293543
84	0x3d99b072	0.075043574
85	0xbe016b63	-0.12638621
86	0xbd27b09c	-0.040939912
87	0x3d5ce150	0.053925812
88	0xbd5d1a4f	-0.053980168
89	0xbd4706b0	-0.048590362
90	0x3c910870	0.017704219
91	0x3dcc05d9	0.09962053
92	0xbcb5879a	-0.022159386
93	0x3d3c48d7	0.045967903
94	0xba97a1be	-0.0011568589
95	0x3c6edaa0	0.014578491
96	0x3d9770b4	0.07394543
97	0x3b814668	0.0039451607
98	0x3bb23973	0.0054389774
99	0x3d3f97b6	0.046775542
100	0xbbbbc51f	-0.005730286
101	0x3c6bb542	0.014386477
102	0x3e07dbb0	0.13267398
103	0x3d65179b	0.055930715
104	0xbc8f09eb	-0.017460784
105	0x3c5ffad0	0.013670638
106	0x3c59d677	0.013295761
107	0xbdfb90fc	-0.12283513
108	0x3d2cbad8	0.042170376
109	0xbda7c255	-0.08191363
110	0xbcc9953c	-0.024607293
111	0x3d4b1a4e	0.049585633
112	0x3d76d3dd	0.060260642
113	0xbddbae3a	-0.107265905
114	0x3b1deb60	0.0024096593
115	0x3d5128c6	0.051064275
116	0x3e11045b	0.14161818
117	0x3dc5b61e	0.09653877
118	0xbdb73bc1	-0.08946944
119	0xbd527017	-0.05137643
120	0x3c9414dd	0.018076355
121	0x3c98361e	0.018580493
122	0xbc87b8e2	-0.016567651
123	0xbdde64c3	-0.108590625
124	0x3bb43c7b	0.005500374
125	0xbc4030b9	-0.011730366
126	0xbd42646e	-0.04745906
127	0xbd69fe35	-0.057127196
128	0x3d5fd9a2	0.05465091
129	0xbd139871	-0.03603405
130	0xbb28b0b0	-0.002574008
131	0x3bce36c7	0.006293151
132	0x3d3253b6	0.043536864
133	0x3d1540f4	0.036438897
134	0x3c4900c9	0.012268254
135	0xbce1adb9	-0.027548658
136	0xbba11172	-0.0049154097
137	0x3a8b4396	0.0010625
138	0xbae0ead5	-0.0017159829
139	0xbbda738f	-0.0066666077
140	0xbd0b21f8	-0.033967942
141	0xbd7d8688	-0.061895877
142	0xbc5aee62	-0.013362499
143	0x3c90615c	0.01762455
144	0xbd3a776b	-0.045524042
145	0x39c544f7	0.0003762615
146	0xbdedc4b3	-0.11609783
147	0x3d1cdc6d	0.038296152
148	0x3dca0bcf	0.098655336
149	0xbd3cbe34	-0.04607983
150	0x3d60d300	0.054888725
151	0x3da6edd7	0.08150833
152	0x3da9319e	0.08261417
153	0xbc6c4c19	-0.01442244
154	0x3a8b4396	0.0010625
155	0xbc6a053d	-0.0142834755
156	0xbc8c5aad	-0.017133081
157	0xbd063c0d	-0.032772113
158	0x3e01389d	0.12619253
159	0x3daafa9e	0.08348583
160	0xbdb89a7c	-0.090138406
161	0xbda647fe	-0.081192
162	0xbdcbead3	-0.099568985
163	0xbd6227ea	-0.055213846
164	0x3d6e92a1	0.058245305
165	0xbd37abaf	-0.044841465
166	0xbcd0ed18	-0.02550368
167	0xbd14bf00	-0.036314964
168	0xbc52b23a	-0.012859875
169	0x3e16a6ee	0.14712116
170	0xbd915eb3	-0.070981406
171	0xbd40f1f6	-0.047105752
172	0xbd7add41	-0.06124616
173	0xbded27af	-0.11579835
174	0xbd3d386b	-0.046196382
175	0xbdf2adcc	-0.118495554
176	0x3d90631a	0.07050152
177	0x3e2a4919	0.16629447
178	0x3d1fe263	0.03903426
179	0x3daf6082	0.08563329
180	0xbc8bbac2	-0.017056827
181	0x3dfc2c93	0.12313189
182	0xbb9dcba2	-0.0048155347
183	0x3d540264	0.051760092
184	0x3bdb1a2e	0.0066864705
185	0x3d78b2c3	0.060717355
186	0x3e0f943e	0.14021394
187	0x3a8b4396	0.0010625
188	0x3cedceeb	0.02902933
189	0xb98df500	-0.00027076155
190	0x3c2b2116	0.0104449
191	0x3d36203d	0.04446434
192	0xbd259a92	-0.040430613
193	0x3b8b8a22	0.00425841
194	0x3d9fa4a0	0.077950716
195	0x3d19ddd5	0.03756507
196	0xbbc39f3d	-0.0059699104
197	0x3db09d9c	0.086238116
198	0xbdbe40ac	-0.09289679
199	0xbcd6c308	-0.026216045
200	0x3d3b6ae6	0.045756243
201	0x3c9806a4	0.018557854
202	0x3e8a7eb6	0.27049798
203	0xbd1dcda2	-0.038526185
204	0x3d0ef50a	0.034901656
205	0x3cf357f5	0.029705027
206	0xbcfbf684	-0.030757196
207	0xbdc90d0d	-0.09816942
208	0xbc4847bc	-0.012224134
209	0x3c0496ca	0.008092592
210	0x3dc46449	0.095894404
211	0xbce2671c	-0.027637057
212	0xbc6b065e	-0.01434478
213	0x3cb4ac28	0.022054747
214	0x3d8cfe35	0.06884424
215	0xbcd04c59	-0.02542703
216	0xbd4304f7	-0.047612157
217	0xbc8dae38	-0.017294988
218	0xbd409273	-0.047014665
219	0xbcface21	-0.030615868
220	0xbd21afe2	-0.039474376
221	0xbd9ef2eb	-0.07761177
222	0x3dceae66	0.100918576
223	0xbdbc4ffd	-0.09194944
224	0xbd49b7d3	-0.049247574
225	0xbda478ba	-0.08030839
226	0xbd3ca98a	-0.046060123
227	0xbd4ec9b7	-0.05048534
228	0xbb876354	-0.004131714
229	0x3c63c258	0.013901316
230	0xbd4f3229	-0.050584946
231	0xbdbf1cb8	-0.093316495
232	0x3cda1511	0.026621373
233	0xbcd51e64	-0.026015468
234	0x3cceb39c	0.025232129
235	0xbced16f8	-0.028941616
236	0x3c93acde	0.018026765
237	0xbdc7e3e8	-0.097602665
238	0x3cf921ca	0.03041162
239	0x3ca3052c	0.019899927
240	0x3d347e51	0.044065777
241	0x3a8b4396	0.0010625
242	0xbdea3f0c	-0.114378065
243	0x3cd9b835	0.026577095
244	0x3c503337	0.012707523
245	0x3d12bc14	0.035823897
246	0xbdad473a	-0.08460851
247	0xbceca440	-0.028886914
248	0xbbbd8bf4	-0.005784506
249	0x3d63d97e	0.05562734
250	0xbdc4aa30	-0.09602773
251	0x3dcc9169	0.09988672
252	0xbc6fa473	-0.01462661
253	0xbd6f79a7	-0.058465626
254	0xbcfdb169	-0.030968385
255	0xbd654f4d	-0.05598383

layer2.bias_mu f4 [3]
0	0x3e3cbe82	0.18432048
1	0x3d0ed85b	0.0348743
2	0x3cf8868a	0.03033759

layer2.bias_sigma f4 [3]
0	0xbc1426fb	-0.009042497
1	0xbd62db7a	-0.05538509
2	0x3d5c6d9f	0.05381548
