DDQN_models/noisy-model1-snapshot-score-14.pth (torch, 33781 bytes, 8 tensors)

layer1.weight_mu f4 [256, 11]
00000000: f315 3f3e e66d 79be 8e5d 623e 5129 8f3e
00000010: 12f9 323e 653e e63d 0251 26be 82c0 0a3e
00000020: 8b5e cc3d cfc1 f93e b671 9dbe 7fba b8be
00000030: 1164 793e b5a4 e7be 2988 473e 02eb aebe
00000040: 7a15 203e 8643 85bc 7137 063e 0d0c 673e
00000050: f149 d1bd f291 a4bd 634b 2bbe 7f9e 50bc
00000060: 83de 95be d147 c9bd e08b f3bd 2249 b1bc
00000070: b059 00be 7e43 00be e6ff 953d a40f 36be
00000080: f885 70be 6819 7fbc c479 23be fa46 5ebd
00000090: a971 9abd e6bf 15be 7730 b8be fa37 11bd
000000a0: fa7b c93d 5a09 e23e 04ff 35be 77cd b43e
000000b0: acee 833d de1e f4bd 878d 0f3d c84d 8dbe
000000c0: a795 243d fce1 56be a837 0c3d 74db 0e3e
000000d0: 75b5 6dbd 6112 1ebe 8af9 2e3f a08f 8d3e
000000e0: 4e7b b73d 4446 3c3e d8c1 be3c cb8b 80be
000000f0: 90ac 32bd 677d 093e 417e c3be e273 d9be
00000100: 29cb 42be 0243 c73e 3f3f 6e3e a9ea 16be
00000110: 2f2f 353c 8dae 8c3d d7db 94bc 6970 d83d
00000120: e3f6 143e 7917 923d d2fc 51be b158 ab3b
00000130: d266 9ebe f60e e5be ac09 8b3d eb2c d53e
00000140: 2fb0 68be 2117 28bd 08d2 4cbe 9e92 903e
00000150: 162c 5e3e c4f1 8d3e b6d3 bb3d 241a 97be
00000160: 3b11 e43d df8e dc3d 2b48 e2bc eb5b bf3d
00000170: cc2d 75be dfca 61be bbbe cf3d 6f68 43be
00000180: 1a87 09bd 73bc 95be b0c8 d83d a913 db3d
00000190: 9440 7ebd 3ccf 3abe fd10 92be b60e 44be
000001a0: 0450 40be fa5f 86be 1475 acbd 0070 5f3c
000001b0: c8de ff3d 1bfe 933d 6b90 3fbe a969 e1bd
000001c0: 3b41 0a3f fce2 b13e d448 05bf 7382 0ebf
000001d0: 1d7d c3be a1d6 9ebe 9429 4ebe 79e6 62be
000001e0: 2af0 bcbe 8cda 40be c6de 88be 2543 3fbe
000001f0: 7c2f a9bc 6b71 153e 7d1d 893c f808 52bd
00000200: e663 403c 5448 b2bd e9c4 7dbd 0320 84bd
00000210: f077 b8bd 4873 e93e 66f5 a5be b505 203e
00000220: 3b9e 6a3d 43bc 89be 6f07 a2be 282e 6bbe
00000230: 2374 d9be 9996 0a3c 95ca a1be ae95 b63e
00000240: 4739 cbbe 2df5 9fbe f05b 683e 4098 b8be
00000250: b531 ad3e b6a8 07be 4d21 42be 68de b4be
00000260: 307d ba3e 348b 9bbe 2bdb 683e 1944 b53e
00000270: 0d89 ab3e 7fd4 7b3d 69e3 00bd b6a3 343c
00000280: fb7f 8d3d fdef 9b3d ae91 c4be 1d89 8bbe
00000290: 16ba 18bf 07cc 4cbe e58b dcbb 9de4 153c
000002a0: 3dfe 99be f4fd 5e3e 1c15 9ebd 362d d23d
000002b0: 0ebd c7bd 4e2a fdbd f757 853e d865 c8bd
000002c0: 69e4 f43d cfef 01be 12eb 20bc fed4 833c
000002d0: b298 743e d2b6 08bd d5bc a4bd f0a4 28bd
000002e0: 8c52 be3d ec49 50be 4db5 33bd f8a0 2ebb
000002f0: 1886 3fbe 6976 2dbe d58e b8be 6215 893d
00000300: bc64 5cbd 2032 d93d 1648 8abe 810f b4be
00000310: 296a 09bd ffea 39bd 6779 0fbe 4735 c93b
00000320: fc75 7d3e 7782 203e bcb3 7f3e 0cc1 b9bc
00000330: d1f2 0a3e 1bb7 d0bc c7c6 723e ae77 843b
00000340: d426 b8be 9490 6a3e 3302 633e ef49 aebe
00000350: 91c7 a03e 09f8 8abe a6ca 753e b185 33be
00000360: afe2 78be 4c27 f3be 3f54 bbbd 0ea4 983d
00000370: 5cc4 683d b429 0b3e e6cb 0ebf e3a7 73be
00000380: 417a 703e c3c3 6a3d 8c95 813e 04df 803e
00000390: 07d1 013f 0b6d 48be b8c9 99be a40b b4be
000003a0: 4a4f fd3d f341 fa3d 79a7 37be cfcb 5fbe
000003b0: d4a0 04be 6184 4b3e cbaf 173c 3798 63be
000003c0: 9a74 4cbe 7fe0 4dbe 55d0 1d3e aae2 4ebe
000003d0: 3fdc ae3d d33b 38be b050 883d 35a2 aebd
000003e0: 379d 59be 902d 95be 75a5 d73d b894 3d3e
000003f0: b888 93bd 565c 85bd a165 1bbe 7a68 263e
0.18660717 -0.24358329 0.22106001 0.2796121 0.17477825 0.112423696 -0.1624184 0.13549998
0.0997897 0.48780677 -0.30750817 -0.36079785 0.24354579 -0.4524285 0.19485535 -0.34163672
0.15633193 -0.01626755 0.13107087 0.22563191 -0.10219181 -0.08035649 -0.16727977 -0.012733101
-0.29271325 -0.09828151 -0.118919134 -0.021641318 -0.12534213 -0.12525746 0.073241994 -0.17779404
-0.23488605 -0.015570022 -0.15964419 -0.054266907 -0.0754121 -0.14623985 -0.35974476 -0.035453774
0.098381 0.4414776 -0.17773062 0.35313007 0.064420074 -0.1191995 0.03504708 -0.27598405
0.040181782 -0.20984644 0.034232765 0.13950902 -0.05803438 -0.15436698 0.68349516 0.2764864
0.089590654 0.18386179 0.023285791 -0.25106654 -0.0436216 0.13426743 -0.38182262 -0.42471224
-0.19022812 0.3891831 0.23266314 -0.14737953 0.011058613 0.068692304 -0.018171234 0.105683155
0.14547305 0.07133383 -0.205066 0.0052290787 -0.3093782 -0.44737977 0.06788954 0.41635832
-0.22723459 -0.041037682 -0.20001996 0.2823686 0.21696505 0.27723515 0.0917124 -0.2951213
0.11136099 0.10769438 -0.027622303 0.09343704 -0.23943251 -0.22050045 0.10143801 -0.19082807
-0.03357611 -0.29245338 0.10585153 0.10697109 -0.062073305 -0.18243116 -0.28528586 -0.19146237
-0.18780524 -0.262451 -0.084207684 0.013637543 0.12493664 0.07226201 -0.18707435 -0.11006481
0.54005784 0.34743488 -0.5206425 -0.556678 -0.3818139 -0.31023124 -0.20133048 -0.22158231
-0.3690198 -0.18833369 -0.26732463 -0.18677957 -0.020652525 0.14594047 0.016737694 -0.051278085
0.011742568 -0.08705202 -0.061955366 -0.06451418 -0.09007251 0.45595765 -0.32413787 0.15627177
0.057279807 -0.26901445 -0.31646296 -0.22966826 -0.42471418 0.008458757 -0.3159987 0.35661072
-0.39692137 -0.31241742 0.22691321 -0.36053658 0.33826986 -0.13247952 -0.18958016 -0.35325933
0.36423635 -0.3037964 0.22739856 0.35403517 0.33503 0.06148195 -0.031466875 0.01102536
0.06909176 0.076141335 -0.38392395 -0.27253047 -0.59658945 -0.19999705 -0.006730544 0.009148744
-0.3007678 0.21776563 -0.0771887 0.102625296 -0.09752856 -0.123615846 0.26043674 -0.0978505
0.11957628 -0.12689136 -0.00982167 0.016092774 0.23886374 -0.033377476 -0.08043829 -0.04117292
0.09293088 -0.20340699 -0.043874074 -0.0026646238 -0.18703496 -0.16939701 -0.36046472 0.066935316
-0.053807005 0.10605264 -0.27008122 -0.3516808 -0.033548508 -0.045390125 -0.14011155 0.0061403844
0.24752039 0.15674768 0.24970907 -0.02267506 0.1356919 -0.025477936 0.2370864 0.0040425872
-0.35967124 0.22906715 0.22168808 -0.34040782 0.31402257 -0.2714236 0.24003085 -0.17531468
-0.24305223 -0.4749092 -0.09146928 0.07453166 0.056827888 0.13590127 -0.55779874 -0.23794512
0.23484136 0.0573156 0.25309408 0.25170147 0.50709575 -0.19572847 -0.30036712 -0.3516513
0.12368639 0.1221961 -0.1793498 -0.2185509 -0.12951976 0.19874717 0.009258221 -0.22226034
-0.19966355 -0.2010517 0.15411504 -0.20203653 0.08538102 -0.17991571 0.06656015 -0.08527032
-0.21251379 -0.29136324 0.10529605 0.18513763 -0.072038114 -0.06511752 -0.15175487 0.16250792

layer1.weight_sigma f4 [256, 11]
00000000: bc79 e4bc cbaf a13c d969 c1bc 589b f53d
00000010: 60e8 66bd debc 253d 2dfc 65bc 1fe3 1b3e
00000020: 4be3 483e 2e90 3cbd bfb8 f3bd 6994 6b3c
00000030: b503 d93d 6464 7f3d cfa2 4bbc 9b94 083e
00000040: 0402 cebd 1641 23be 8e4f 0d3d d8bf 65be
00000050: cfd5 873d 9ab4 33be dfc4 d53b 10f7 0dbc
00000060: 6ef5 a73b b8aa ca3c 6ef5 a73b 6968 49bd
00000070: 6ef5 a73b 0085 85ba 00a8 a2bc 6ef5 a73b
00000080: aef4 c33c 5f82 033e 5543 203d e37a 653e
00000090: 2ef2 6ebe ea75 9fbc d62d d8bd eaf1 953d
000000a0: 0c7e ebbd f5ef 853c 02b7 a43d 8cf7 223d
000000b0: cd47 27be 86e4 b93d caf8 a63a ee4f bcbd
000000c0: b760 4e3d 5eb3 c13c 4bd3 e93d 7ff6 9dbd
000000d0: 9c21 a2bd 7e1e cfbd 525d f9bc ac5e bd3c
000000e0: cdf7 853d c99e 16bd 6a56 85bd 4145 843c
000000f0: 88f7 573c cb33 1c3c 0744 b6bd 73f0 1b3c
00000100: bbdc bdbd 476f 96bd 233c 92bd c183 063d
00000110: 0c81 8cbc 7042 a8b9 e2fc 933d 9207 84bd
00000120: cb40 85bc 4cde c2bd fdea 42bd 9bbe 773d
00000130: 9173 2dbd 7091 053e c035 9c3d 1058 923d
00000140: 73be 1f3c 8a10 cb3a ef7b b5bb 2c87 b6bd
00000150: c3b9 4f3d 62dc 33be d7eb 5ebe d137 afbd
00000160: f5f0 d5bd 9cfb 3a3e 02c4 8bbd 919c 1f3e
00000170: d88e bebd 2f01 5b3d 1ba1 b1bd cb8a 9cbd
00000180: 7d95 89bd 9dd8 97bd c2ae d23d 18d5 a9bc
00000190: 6ef5 a73b 6ef5 a73b 6ef5 a73b 6ef5 a73b
000001a0: 6ef5 a73b 6ef5 a73b 6ef5 a73b 6ef5 a73b
000001b0: 7681 d9bc dc5a d7bc 3dbd b63d 4154 af3b
000001c0: eecf 123d 9cd9 533b 3f49 8ebd af8f 89bd
000001d0: 85cb 823d 3037 93bc e4c2 debc b7ec 033b
000001e0: 8ed0 ad3d c4db 0bbc 6ef5 a73b 7db3 c6bc
000001f0: 0a36 81bb cd46 f93b fd43 ecbb 7a3f 0abd
00000200: dde0 153d 8e01 263c 80e1 f0bc a9d5 8abc
00000210: 53d4 423d 8df8 173e e998 6b3d eccc 123e
00000220: 08ef 8a3c 942b 833d af4a 0f3e 61da d63d
00000230: d1a7 923d a6b7 c73c 7609 043d 3cb1 3d3c
00000240: 04f3 acbc 153a b3bd 64da e8bd 6e98 8bbd
00000250: 481f 0e3d c6df c93c 136b d93c 9ed2 8d3d
00000260: 661c 7dbd f396 4c3d 19f1 263e 8988 033d
00000270: 04b1 c2bd ac1e 76bd f84e 5bbc 640a db3d
00000280: 1c70 013e 1bf2 e4bc 9f86 bebd d0ea 853c
00000290: 22d3 5d3d c251 1d3d 5dff 343e 9b65 4ebe
000002a0: 5e46 04be 2bd2 a03c 3c19 823d 0eea 53be
000002b0: f82a ca3d 58e9 9a3c 75a2 483d 4db0 d33d
000002c0: cf33 c13c d9c1 0a3d 1591 353e da44 50bc
000002d0: 75c6 553d f7d0 75bd ea6a 3e3e 1b5f 083d
000002e0: ace2 813d c888 883d 6427 50bd b7c3 213d
000002f0: 2cee 05bc f6bb 08bd 0ab8 443d a1e5 fe3c
00000300: 07bd 89bd a3ac fb3c e81a 6fbb 4364 72bd
00000310: e2d3 4d3d a195 bfbd 8447 7abd 12eb 1dbe
00000320: 7821 adbd a0c1 a1bd e41e 6f3d 466c 6f3d
00000330: 1dc6 8f3d f436 ba3b 96c7 743c 7fb5 553e
00000340: 6468 e7bc 0b19 4f3c 8203 143d dd2c 6cbd
00000350: 4bbe dd3d 9bc4 57bd 1296 a5bc ae11 653d
00000360: f1e6 98bc 278f c83c e1e8 1f3d 0cf0 72be
00000370: b574 763c 7d79 793e 6d1b c9bc f5f1 b0bd
00000380: e8c3 5a3d 52cd 79bb b2db 27bd 7599 9cbd
00000390: e490 47bc ddc8 943d 9bec a23c 7c05 89bb
000003a0: 02de 02be 0bf8 c0bc b897 bcbc c86d 563d
000003b0: e0c8 6f3d 7e45 a1bd 7335 033e 9296 683c
000003c0: 59a6 01be a228 353d 6639 473e cf86 68bd
000003d0: 7c46 053d 7a1b 353d 8416 b53b ac30 fa3c
000003e0: 8f55 98bc 0328 f63d e090 9c3d d3db 60bd
000003f0: 5297 34bc 14ed 4dbd 4225 573c c368 0dbe
-0.027890079 0.019737145 -0.023610042 0.1199252 -0.056373954 0.04046332 -0.014037174 0.15223359
0.19617955 -0.046035938 -0.11900472 0.014378645 0.1059641 0.0623516 -0.012428953 0.13337938
-0.10058978 -0.15942797 0.034499697 -0.22436464 0.06632578 -0.17549363 0.006523713 -0.008664861
0.005125693 0.024739608 0.005125693 -0.04917184 0.005125693 -0.0010186732 -0.0198555 0.005125693
0.023920383 0.12842701 0.039126713 0.22410159 -0.23334572 -0.019465405 -0.105556175 0.07321532
-0.11498651 0.016349772 0.080427185 0.03978686 -0.16335984 0.090767905 0.001273894 -0.09194933
0.050385203 0.0236451 0.11417254 -0.07713031 -0.07916567 -0.10113238 -0.030440006 0.023116432
0.06541405 -0.036772523 -0.06510623 0.016146304 0.013181575 0.009533833 -0.08899694 0.009517777
-0.092706166 -0.07345443 -0.071403764 0.032840494 -0.017151378 -0.00032092957 0.07225968 -0.064467564
-0.016266247 -0.09515056 -0.047587384 0.06048451 -0.04234654 0.13043761 0.076274395 0.07145703
0.0097499965 0.00154926 -0.0055384557 -0.08912501 0.050714266 -0.17564538 -0.21769653 -0.08555568
-0.104463495 0.18260044 -0.06824495 0.15587069 -0.09304589 0.053467926 -0.086733066 -0.0764366
-0.06717966 -0.074143626 0.10287239 -0.020731494 0.005125693 0.005125693 0.005125693 0.005125693
0.005125693 0.005125693 0.005125693 0.005125693 -0.02655099 -0.026288442 0.08922813 0.00535062
0.03584283 0.003232575 -0.06947564 -0.067168586 0.063864745 -0.017970651 -0.02719254 0.0020130107
0.08487044 -0.008536283 0.005125693 -0.024255509 -0.0039432095 0.007607317 -0.0072102533 -0.033751942
0.0365914 0.010132207 -0.029404402 -0.016947584 0.04756577 0.14840908 0.057518873 0.14335984
0.016959682 0.06404796 0.13993333 0.10490871 0.07160915 0.024379563 0.032235585 0.0115779005
-0.021111973 -0.08751313 -0.1136978 -0.06816183 0.0346978 0.024642836 0.026540315 0.06924938
-0.06179466 0.049948644 0.16302909 0.032112632 -0.09506419 -0.060087845 -0.013385527 0.10695341
0.12640423 -0.027947476 -0.09303021 0.016347319 0.05415643 0.03840805 0.17675538 -0.20155947
-0.12917468 0.019631466 0.06352469 -0.20694754 0.09871477 0.018910095 0.048983056 0.10336361
0.023584275 0.033876274 0.17731126 -0.012711728 0.052191216 -0.060013738 0.18595472 0.033293825
0.06342062 0.06666714 -0.050818816 0.03949329 -0.00817446 -0.03338238 0.048027076 0.031115355
-0.06725507 0.030721968 -0.0036484543 -0.05917765 0.050250895 -0.09354711 -0.06110336 -0.15421703
-0.08453649 -0.07898259 0.05837907 0.058452867 0.07020209 0.0056828205 0.014940163 0.20870017
-0.02824802 0.012640248 0.036136158 -0.057659972 0.10827311 -0.052677732 -0.02021316 0.055925064
-0.018664809 0.024482323 0.03904045 -0.23724383 0.015042474 0.2436275 -0.02454921 -0.086399
0.053409487 -0.0038116765 -0.040981002 -0.07646457 -0.012180541 0.07264874 0.019888213 -0.004181562
-0.12780002 -0.023555776 -0.023021564 0.05235079 0.05854118 -0.07874583 0.12813358 0.014196055
-0.12661113 0.044228204 0.1945549 -0.05676919 0.032537922 0.044215657 0.0055263657 0.030540787
-0.018595485 0.120193504 0.0764482 -0.05489714 -0.011022406 -0.050274923 0.013131442 -0.13809495

layer1.bias_mu f4 [256]
00000000: ac9e 7fbe 0c27 a4be 0572 0fbe d0ee 6a3d
00000010: bb65 3abd d02a 673e c817 f7be 6256 4cbe
00000020: fe9d dbbb a6f0 9dbe 569e 943e f744 8bbe
00000030: 30bb 97bd 1bc8 6d3e 0f67 b93e 5399 80bd
00000040: 9662 92be d94e aabe 9bf0 a73b bd30 e83d
00000050: 960f 7e3a cffe 823c d80c 30be 3145 ebbd
00000060: d47b 8ebe 6277 f83d b520 0f3e 66ad 25bd
00000070: e3c0 b0be d892 6c3e 97ff 073e c876 a8ba
00000080: c99c 633e 806a 873e 35d7 92be 3a02 d53d
00000090: baa4 8e3d 2740 853e c492 173d 5cd5 3b3e
000000a0: fd84 08be 2cd4 de3e 8eba 913e fe07 bb3d
000000b0: 0e48 18be dee9 6abd 1569 9abe ab8d b53e
000000c0: c566 03bd cfcc ba3b 9d35 cabe b6bc 51bc
000000d0: eb89 3b3e 0670 1abe 92a2 a43d 0c03 98be
000000e0: e2f9 20be 2ecd 24be 7d9b 08be fc3c 97bc
000000f0: 14bc 5bbe b1b7 dd3c 3988 bd3d 71d8 d83e
00000100: 947a f2bd 665a 86bc 35a3 41bd a2f5 1c3e
00000110: 1512 97be e9df 9e3e cd6d bfbe 2a04 e0be
00000120: af21 75be 9dcb b2bd a26d 1cbe b0f7 b3bd
00000130: 75bb d63c f4b4 b9bc 45df 983e 7875 0bbe
00000140: ebab 863d 2966 2c3e aa7a 533e e8cb b0bd
00000150: 5666 743d 00dc 6a3e d14b 8bbe 6103 eabd
00000160: 5ba4 0a3e 0850 843e 1780 d4bd 0684 493e
00000170: cfec 233e 3723 a3be 33ee fabd 6e4b 45be
00000180: 0e19 7c3e 565f c73e c3a6 673d 0c86 593e
00000190: 181f 063e 1507 babd 34c2 d53d a1ae 04be
000001a0: ae25 da3d d53e b6bc f134 a73e 3026 a13e
000001b0: 18a8 9dbe 332a 873e 3712 393e 3702 6f3d
000001c0: f021 72be be54 67be 8323 3abe 9bd7 213e
000001d0: 0f94 b2bd 300a eb3d 3c1f 8cbe 928e a5be
000001e0: ee25 f4bd 99c5 91bc 55f7 b3bd a4b4 83be
000001f0: 307d 19be 7e77 18be d269 893e 7b42 c2be
00000200: 5190 29bc b630 473e d55e 4d3d 1bb1 a4be
00000210: 3690 91bc 58be 96be e343 3d3d bb1f f03d
00000220: 797c 67bd 762a dcbd 6ad9 bbbd 87a0 8a3d
00000230: 7b9b 45bd 2187 ee3e 2d81 e0be b210 283c
00000240: ea91 813e 5a31 a93e c973 ab3e e3fd 813c
00000250: a90f b4be 62ca dfbd 519f 7fbe 0392 c3be
00000260: 1570 cbbe 7edd efbd 91f0 3ebe 8965 b43e
00000270: e80c a33e b6c3 9fbe 4b4c ea3d bea0 283e
00000280: 2983 203d 8a6d a5be c13a 23be 8e62 d8bd
00000290: 5a84 373e 2f2b e23e edc1 503e ae51 86bd
000002a0: af40 94be 1444 7c3e a4b3 ecbe ef2b 113d
000002b0: 7413 6cbe f61c 34be 641c 5bbd dabf b93d
000002c0: fdef 13be 272b 00be 9ddd 61bd 6456 edbd
000002d0: 1b5c 873e 9cbb 0cbe 81e9 b1bd 6b8d 2c3e
000002e0: 1256 03be f9bf 5f3d e40c 6cbe e6fa 7dbe
000002f0: 3e70 113e 59b6 03be 2c7e 5d3e 92af bf3e
00000300: c534 9f3e e28c aabe e12c 0cbe 30d2 9f3e
00000310: c268 b93d 3eaf 01be 1855 c4bd 2caf 033e
00000320: 095a 7f3e 36df a73e 8a49 ed3d 91af b5bc
00000330: 5999 9bbe 79c4 40be 5971 53be 4112 1bbe
00000340: 86e3 ab3d 818f b2be f1d9 fcbd cb29 61bc
00000350: 233e 9b3e 7959 82bd eac5 55be 19d1 cabe
00000360: c945 81bd f797 da3d 7951 e73e 35eb aebd
00000370: 8821 113e f508 c73e 8d52 873e 7aae 0b3e
00000380: 4658 733c b5f0 193d 2a96 bc3d b65b babd
00000390: 6088 8dbe 9504 59be eb84 62bc 6fb5 7a3e
000003a0: 378a 9abd e46a 81be f8eb fa3c ebf8 733e
000003b0: 0d62 16be 5067 d7be e968 203e 8311 88be
000003c0: 964c aa3e d245 3ebe 7f53 61be 54d0 d73d
000003d0: e03e 04be 7f54 1fbe 5357 303e 1cac b6bc
000003e0: 67e5 fabd b1b4 d5bc 6d9e f73a 3ef9 adbd
000003f0: a67c b43b 7672 d0be 7161 17be 1ceb 743e
-0.24962872 -0.3206104 -0.14008339 0.057356656 -0.045507174 0.22574925 -0.4826033 -0.19954827
-0.0067021837 -0.30847663 0.2902705 -0.27201054 -0.0740875 0.23220865 0.3621144 -0.06279244
-0.2859084 -0.3326328 0.005125118 0.11337421 0.00096916535 0.015990643 -0.171924 -0.114878066
-0.27828848 0.121321455 0.1397732 -0.04044857 -0.3452216 0.23102891 0.13281094 -0.0012852782
0.22227778 0.2644844 -0.28679815 0.10400815 0.06965013 0.26025507 0.0370052 0.18343109
-0.13331981 0.4352125 0.28462642 0.09132384 -0.14871237 -0.05735194 -0.30158296 0.35459647
-0.03208043 0.0057006846 -0.3949403 -0.01280134 0.1831433 -0.15081796 0.0803882 -0.29689825
-0.15720323 -0.16093895 -0.13340564 -0.018461697 -0.21458465 0.02706513 0.09254498 0.42352632
-0.11839786 -0.016400527 -0.047274787 0.15328076 -0.29505983 0.31030205 -0.3738846 -0.43753177
-0.2393863 -0.087302424 -0.15276197 -0.08787477 0.026212433 -0.022669293 0.2985784 -0.1361903
0.065757595 0.16835846 0.20652261 -0.08632642 0.059667908 0.22935486 -0.2720628 -0.11426426
0.13539259 0.2584231 -0.10375994 0.19679269 0.16008304 -0.31862804 -0.12252464 -0.19267055
0.24618933 0.38939923 0.05655552 0.21242541 0.13097799 -0.09083382 0.10437432 -0.1295724
0.10651718 -0.022246758 0.3265758 0.31474447 -0.30792308 0.26399383 0.18073355 0.05835172
-0.23645759 -0.2259092 -0.18177609 0.15804903 -0.08719646 0.114765525 -0.2736758 -0.32335335
-0.11921297 -0.017794417 -0.08787409 -0.25723755 -0.14989161 -0.14889333 0.26838547 -0.37941346
-0.010349349 0.19452175 0.050139267 -0.3216637 -0.01776896 -0.29442096 0.04620732 0.11724802
-0.05651519 -0.10750286 -0.09172328 0.067688994 -0.04824398 0.4658747 -0.43848553 0.010257887
0.25306636 0.33045465 0.33486775 0.015868133 -0.35168198 -0.10927273 -0.24963118 -0.38197336
-0.3973395 -0.11712168 -0.18646456 0.35233715 0.31845784 -0.31204003 0.11440333 0.16467568
0.039187584 -0.32310134 -0.15940382 -0.10565673 0.17921582 0.4417357 0.20386477 -0.06558548
-0.289556 0.24635345 -0.46230805 0.03544229 -0.23054296 -0.17589173 -0.053493872 0.09069796
-0.14447017 -0.12516461 -0.055142988 -0.11588743 0.26437458 -0.13743442 -0.086871155 0.16850822
-0.12825802 0.05462644 -0.23051792 -0.24802741 0.14202973 -0.12862529 0.21630162 0.37438637
0.31094947 -0.3331061 -0.13688995 0.31215048 0.09053184 -0.12664506 -0.09586543 0.12859792
0.2493669 0.32787484 0.11586292 -0.022178443 -0.30390432 -0.18824948 -0.20648707 -0.15143682
0.08393006 -0.3487511 -0.123462565 -0.013742874 0.30320844 -0.06364722 -0.2087628 -0.39612654
-0.063121386 0.10673516 0.45179346 -0.08540956 0.14172947 0.3887402 0.2643017 0.13640776
0.014852589 0.03758307 0.09208329 -0.09099524 -0.27643108 -0.21193154 -0.013825635 0.24483274
-0.07545894 -0.25276864 0.030630097 0.23825423 -0.14685841 -0.4207101 0.1566502 -0.2657586
0.33261555 -0.18581322 -0.22004507 0.10537782 -0.1291461 -0.15559576 0.17220812 -0.022298865
-0.12250786 -0.026087137 0.0018891819 -0.08494805 0.0055080233 -0.40712327 -0.14783265 0.23917812

layer1.bias_sigma f4 [256]
00000000: 3782 1abd 340b 00be 269d 64bc 87b1 61bd
00000010: f7ac 20bd 50df 953e 35d9 a8bd 4550 9e3c
00000020: 4452 9cbd cb1f e73b ad1c 3fbd f72b 043c
00000030: 0f4e d03d 0760 54bd 6cda ab3d 22cc a23d
00000040: fab7 04be 127c 78bb ae17 933d 7929 ae3d
00000050: a639 883d e307 9cbd e2ab 9fbc a24d 42bd
00000060: 8971 f33c 3420 16bd 39ec b83d fc86 eebc
00000070: 4385 9e3d 53b7 e0bd 0944 a63c ea5e 55be
00000080: ca48 09bd a151 9bbd 0045 9b3d 8c4d efbc
00000090: c34a ec3d 2a2e a03b a657 843d 2ba1 6fbe
000000a0: 03af 88bd 431b c13c dde4 d03c a8e4 473d
000000b0: d183 173d 6fdf e53c adc8 063e e4e6 25bc
000000c0: 9e17 13be 7001 a2bc c0e6 cf3c 6077 34bb
000000d0: 9cb7 6b3c 2b0a 283e cb77 cd3d f8f4 6dbc
000000e0: 29b4 e2bd a696 f2bc 764f 523d 8e49 20bc
000000f0: 6ef5 a73b 7195 c5bd 87df ee3c 7db1 3e3d
00000100: 16d2 4abd 2453 65bb a4dd 2fbd bc15 fe3d
00000110: 6ef5 a73b 9d57 353e 7436 11bc 7cfd 9dbc
00000120: 52ad 8bbd c50e 43bd ce6b 943d 6f98 033e
00000130: 395d 88bd 0d08 afbc e77a 8abd 848b f83c
00000140: c0b5 0ebd 9fe3 903c cf9f 453e 8c9f fdbb
00000150: 4381 fdbc c19a a0bb a1dd b63d b962 553d
00000160: 32d3 c5bc 4bf3 8fbc 7e20 bbbc 0e17 273e
00000170: 747a b93d 4f03 f3bc 1cf3 2a3c a824 f93d
00000180: b36c 893d 9f53 27bd 5a09 60bd d443 4f3c
00000190: 8145 323d a5b5 ff3d e577 bf3b 46cb b7bd
000001a0: be36 5cbc aceb ac3c 62ae 1dbe 760b 65bd
000001b0: 7d51 d83c 7bf8 8f3d a1c7 0b3d 1fde 41be
000001c0: c16d 2b3d 1f0b 04be a1d8 223e 082e a9bc
000001d0: c43e 80bd 1a5a 6dbd 70e1 97bd 36e3 603c
000001e0: f61a abbc 0c3a 54be d2e0 ec3d 7376 f93c
000001f0: 4608 d3bc 41da c8bc 628a 1dbd 1b0a fcbd
00000200: 01d9 3fbd c7b4 173d 8f88 70bd fd29 02be
00000210: 515e eb3d 248a 9f3b b4b0 333e fece 003e
00000220: 5825 923e 6ef5 a73b 56f1 3bbe c5db 0d3d
00000230: c6a6 ecbc 2bb5 2dbd f334 0c3d b591 95bd
00000240: 62bc c6bd e24c 9ebd a735 763d e748 c2bd
00000250: 05eb d3bd 9164 873b d1fb 403d 4f1e b23d
00000260: df90 5e3a 236f 8cbd 6ef5 a73b 5f8e 35bd
00000270: 6b40 673d 2d94 b93d 4a8b f5bd 23bd 0fbd
00000280: 15dd f23d dd5c e43d 593b df3d ce06 023d
00000290: d6a2 383e 7d88 abbd 6b4a cd3d cb6f 34be
000002a0: c70d a13c 47f1 c83d ea4a 2fbe 6034 99bd
000002b0: a9db 12be 990b 863e 3c9e 773d 6796 5dbe
000002c0: 9d35 eebd a1eb 3dbc 8927 7c3d 30d1 0f3d
000002d0: 6954 db3d 851c 0abe 3bf7 633d 7158 703b
000002e0: 58cc ffbc b424 b03c 26e2 f53d 6ef5 a73b
000002f0: 9fac b43d c43c 843d 1593 913c 7409 5b3c
00000300: 9120 80bc 0435 54be 3d77 043d 4986 fbbd
00000310: 55b1 553b 14d9 cc3c 137f 283e 60c1 363e
00000320: 1453 86bc dc5d bf3d 34c2 4cbd 9b56 29be
00000330: c7b1 083d 2ec5 913d c9e8 993d 5f96 2e3d
00000340: 94b6 113d 32e7 763d b7a3 f13d 95bc 2bbd
00000350: cbb7 aebd cdb0 723d 5395 f63d feb4 7e3d
00000360: c2a3 813d e048 b6bd e278 9f3c f141 b23c
00000370: 5631 b13c 82c4 b3bd 3796 8ebd 9a4d c5bd
00000380: cd8f cbbd 34ad 56bd d74f 5fbd f684 f93b
00000390: 92d6 933d 57f5 6c3d d073 6cbd fb73 95bd
000003a0: 5616 c13d f40f 1c3d 1dc1 153d ffcc eabc
000003b0: 50fb 943d 433a 92bd 0156 ba3d 5791 c2bb
000003c0: 9308 26bd 6ef5 a73b 32fd d5bd c984 4cbd
000003d0: 82eb 583b ca4a eabd a488 99bc d19c 573d
000003e0: df52 57bd 7e91 4bbd 5aef fabd 4631 c43c
000003f0: 6631 af3d c236 563c d82b b6bd 21d8 4eba
-0.03772184 -0.12504274 -0.013953483 -0.055100944 -0.039227452 0.29271936 -0.08244554 0.019325385
-0.076328784 0.0070533506 -0.046658207 0.008067123 0.101711385 -0.05184939 0.0839127 0.079490915
-0.12960806 -0.0037915749 0.07182251 0.08504004 0.066516206 -0.07618692 -0.01949114 -0.047437318
0.029717224 -0.036651805 0.09029431 -0.0291171 0.077402614 -0.10972466 0.020296114 -0.20836988
-0.033516683 -0.07583929 0.0758152 -0.029211782 0.11537697 0.0048883157 0.0646203 -0.23401324
-0.06674006 0.02357257 0.025499756 0.048802048 0.036990944 0.028060643 0.13162489 -0.010125849
-0.14364478 -0.019776076 0.025378585 -0.0027536973 0.014387038 0.16410129 0.10032614 -0.014523737
-0.11069519 -0.02961285 0.05134531 -0.009783162 0.005125693 -0.09647644 0.02915932 0.046555985
-0.04951676 -0.0034992183 -0.042935982 0.12406489 0.005125693 0.17709203 -0.00886308 -0.01928591
-0.068201676 -0.047621507 0.072471246 0.12851118 -0.06658406 -0.021366144 -0.06761723 0.030339964
-0.0348413 0.017686663 0.19299243 -0.0077399667 -0.030945426 -0.0049012606 0.08928991 0.052096102
-0.024148557 -0.017572066 -0.022842642 0.16317388 0.09056559 -0.029664664 0.010433938 0.12165195
0.06710186 -0.04085123 -0.05469642 0.012650449 0.043523315 0.12485818 0.00584315 -0.08974318
-0.013440786 0.02110847 -0.15398553 -0.055919133 0.026406044 0.07029816 0.034125928 -0.18932389
0.041852716 -0.12894867 0.1590295 -0.020651832 -0.062619716 -0.057947256 -0.07416046 0.013726046
-0.02088688 -0.20725268 0.115663186 0.030451989 -0.025760781 -0.024518134 -0.03846205 -0.12306615
-0.04683781 0.037037637 -0.058723982 -0.1271133 0.11492599 0.0048687626 0.17547876 0.12578961
0.28544116 0.005125693 -0.18353781 0.034633417 -0.028888118 -0.042409103 0.034230184 -0.07303182
-0.097039 -0.07729508 0.06010976 -0.09486561 -0.10347561 0.0041318615 0.04711515 0.08697187
0.00084902154 -0.06857135 0.005125693 -0.04432523 0.056457918 0.090614654 -0.11989458 -0.035092484
0.11858574 0.11150525 0.108999915 0.03174477 0.18030867 -0.083756424 0.1002396 -0.1762077
0.01965989 0.09811645 -0.17118421 -0.07480693 -0.14341606 0.26180723 0.06045364 -0.21639405
-0.1163132 -0.011591823 0.06156114 0.035111606 0.10709459 -0.13487442 0.0556557 0.003667381
-0.031225368 0.021501876 0.12006025 0.005125693 0.08821987 0.064569026 0.01777033 0.013368953
-0.015640529 -0.20723349 0.032340277 -0.12281472 0.0032606919 0.025005855 0.16454725 0.17847204
-0.016397037 0.09344074 -0.049989894 -0.16536944 0.033372667 0.07117687 0.07515103 0.042623874
0.03557451 0.06027908 0.11798804 -0.041927893 -0.085311495 0.05925064 0.120402 0.062184326
0.063300624 -0.089006186 0.019466821 0.021759959 0.02162997 -0.08777715 -0.06962245 -0.09633942
-0.09939537 -0.052411273 -0.0545195 0.007614727 0.072186604 0.05785116 -0.057727635 -0.07297512
0.09428088 0.03810115 0.03656112 -0.028662203 0.072744966 -0.07140019 0.09098435 -0.005937736
-0.04053552 0.005125693 -0.10448684 -0.04993132 0.0033099358 -0.11440046 -0.018741913 0.052639786
-0.052569266 -0.0496993 -0.12252684 0.023949277 0.08554344 0.013074579 -0.08895081 -0.0007890482

layer2.weight_mu f4 [3, 256]
00000000: 8588 b03d b0b6 d6bd 32df 623c 6157 2cbe
00000010: 2f58 b33c 0539 8a3e b64e 433d 07c8 533d
00000020: 58df ed3c b837 333c 2fb8 633d cd79 ff3c
00000030: 1bf6 8e3e 3b51 c83e d81c 983e 758f 8e3d
00000040: eca1 4bbd 37ec a3bb 487e 6b3d b61d a03e
00000050: 2787 82be 511d 0f3e 498e 07be b302 af3d
00000060: 8db3 933c 5db3 aebd 7484 213e 4d6c a9bd
00000070: 5271 4f3d 2ca4 183e 3c0a b63d 3bfa 3a3e
00000080: 5944 a9bd 09fd 213e 06f4 6cbd 7350 8abd
00000090: 2e0e bd3c 111d c53d 7903 d6bd 308c 24be
000000a0: 309a 00be 65a6 a83e 4c13 143e b501 ad3c
000000b0: c363 46be 925b 493e 0d19 0fbc 2614 423e
000000c0: 983f d3bb af88 0a3c d21c 183c f5f0 2c3d
000000d0: 4439 093e 9579 41bd 1968 f7bb d31c 243d
000000e0: 503e c5bd 8482 043d a08c f63b 3689 f83a
000000f0: 764d 67bd b5a8 753e abad 42be 3cc2 a83e
00000100: b9ab 44be 1e81 90bc 374c 56be 6fb9 903e
00000110: a03b 9c3b 635f 3d3e e781 6bbc d538 c73c
00000120: abad 6c3e 344f acbb 1643 0dbd ac06 5a3e
00000130: 992e 8dbd a054 00be 8816 6f3e 9a7f c5bc
00000140: b755 38be 70dd 70bc a932 8ebc 7cbe 94bd
00000150: cb2a d33d 8070 7f3d 5734 94bd 2116 5ebe
00000160: ece8 8e3d f210 763e af71 c3bc f1e6 c03d
00000170: 301f d03d 800a 843b 6cd6 16be 99b5 97bd
00000180: 0d0d 893e a1af 933e 7cfc 2f3d 2459 073e
00000190: 5e5d 113e c860 323e 7341 ebbd 2077 9cbc
000001a0: 94b9 523c 7d08 0e3d f793 a93e 59c9 d63e
000001b0: e325 a2bd 1971 213e 38a9 aa3d a457 0bbe
000001c0: c94f 5abe 37d3 04be 020a 193d 2570 25bc
000001d0: 3630 18be 2f95 133e 6894 85bd 8ce4 1bbe
000001e0: 8a19 4bbd 9881 12be fecc 783c 7630 26bd
000001f0: bb9f dabd 3269 5ebe b5f5 b13d db22 dfbd
00000200: 4245 4dbe 9b70 923e b35a db3d efdc 343e
00000210: d8aa e03d f620 013d da25 d63d 7b62 4ebe
00000220: f015 10be 008e c2bc 5f4b 86be 5858 1f3e
00000230: a6ac 90bd 4d6a 823e 432a 463d a4a0 45bd
00000240: 3a00 b73e 8427 aa3e 72d8 563e 5117 7b3e
00000250: f766 1c3e 107f 953c 701b b0bb 5a10 053e
00000260: 48c4 613c 9748 8f3e 0080 10ba f834 a53e
00000270: f7d9 403e 13af aebd aed4 7f3d 12c3 ce3d
00000280: aa68 8e3e 7d47 d83e 5c92 483c c338 373d
00000290: 48b9 a23e ce31 713e c22e 173e fdca 33be
000002a0: ae7e 17bd b894 b9bd b79f 31bd 7178 2abe
000002b0: 219d 8fbd c0c1 07be 482e f63d 38c3 773e
000002c0: 4a3d 02be 7639 7a3c 0af2 a0bd 4d86 2f3e
000002d0: 275f 6d3e feba 4e3c a259 0cbd 3d47 603d
000002e0: ce91 873e 36ec a7bd eac7 99bd b454 273d
000002f0: 1451 933d 5797 82be 5408 2e3e 5b15 ae3e
00000300: ba2d a83e 6186 5abc 6180 a4bd 6641 cd3d
00000310: 29cd c43d 1df6 7a3d 3080 f3bd 1cf9 483e
00000320: 898e 973e 94b3 9f3e 19ce f83d 08b2 e9bd
00000330: 5ddb 43bd 3680 21bd b1eb ab3d ebb7 35bd
00000340: dbf9 823d e3a4 b5bd dea0 0fbe 9b18 87ba
00000350: 5cf3 cd3d 3266 efbd c40a c13a 2a25 f3bd
00000360: 4734 36bd 775e 8d3c d8b4 953e 9ea6 e23c
00000370: 3600 8abe de1e 773e 7f38 cc3d 3165 e6bd
00000380: 874b c73d cae7 e0bd bbee 263d 2462 e03d
00000390: 92d2 2abd 1411 a23b 688a 19be ddfa a13d
000003a0: 8e4e 323e 6058 10be f751 6b3e b081 943e
000003b0: 5154 14be 7c73 cfbb 30a7 2abe 45a0 d8bb
000003c0: 8cd3 923e 3e89 483d 6410 f0bc 62ff 73be
000003d0: 2743 62be c9da 1c3e 8deb 3e3e ce80 0b3e
000003e0: 5c2d 1cbe 0b1f 573e fbca 903c 4ef5 fd3c
000003f0: 36f8 613e 302e c53c 8efb 1c3e 1e8f bd3d
0.08619789 -0.104840636 0.013847159 -0.16830207 0.021892635 0.26996627 0.047682486 0.051704433
0.029037163 0.010938577 0.055595573 0.031186009 0.2792214 0.39124474 0.29709506 0.06960956
-0.049714968 -0.0050025242 0.057493478 0.31272668 -0.25493738 0.13976027 -0.13237871 0.08545437
0.018029952 -0.085303046 0.15773183 -0.0827261 0.05064518 0.14906377 0.08888671 0.18259518
-0.082649894 0.15819182 -0.057849906 -0.06753626 0.02307805 0.096246846 -0.10449881 -0.16069102
-0.12558818 0.3293945 0.14460486 0.021118978 -0.19373994 0.19663838 -0.008734 0.18952999
-0.00644679 0.0084554395 0.009284215 0.042221982 0.13400751 -0.04723509 -0.007550251 0.04006655
-0.09631026 0.032351032 0.007524088 0.001896179 -0.056470357 0.23990138 -0.19011562 0.3296069
-0.19206132 -0.017639693 -0.20927511 0.28266475 0.00476785 0.18493418 -0.014374233 0.024319092
0.23113124 -0.005258465 -0.034487806 0.21291608 -0.068936534 -0.12532282 0.23348439 -0.024108697
-0.18001448 -0.014701232 -0.017358141 -0.072628945 0.103108965 0.062363148 -0.072365455 -0.21688129
0.0697802 0.24029902 -0.02385792 0.094190486 0.101621985 0.004029572 -0.14730233 -0.07407684
0.2676777 0.28844932 0.042965397 0.13217598 0.14195773 0.17419732 -0.11487093 -0.019099772
0.012861628 0.034676064 0.331207 0.4195049 -0.079173826 0.157658 0.08333057 -0.13607651
-0.21319498 -0.12971197 0.03736306 -0.010097538 -0.14862141 0.14412378 -0.06522447 -0.15223902
-0.049584903 -0.14307249 0.015185593 -0.04057356 -0.106749974 -0.21719816 0.08689443 -0.1089532
-0.20045951 0.28601536 0.10710659 0.17662404 0.10970086 0.031525575 0.10456438 -0.20154755
-0.14070868 -0.023749352 -0.2622938 0.15561044 -0.0706418 0.25471726 0.048380148 -0.048248902
0.3574236 0.33233273 0.20981005 0.24520613 0.15273653 0.018249065 -0.0053743646 0.12994519
0.013779707 0.2798507 -0.00055122375 0.32266974 0.18833147 -0.085294865 0.062458687 0.100958005
0.27814227 0.4224204 0.012241926 0.044731867 0.31781983 0.23554155 0.1476393 -0.17557903
-0.036986046 -0.09061569 -0.043365207 -0.16647507 -0.07012392 -0.13257504 0.12020546 0.24195564
-0.12718692 0.015272489 -0.07858665 0.17141075 0.23180829 0.012617825 -0.034265168 0.054755438
0.26478428 -0.081993505 -0.07508834 0.040852264 0.07193199 -0.25506088 0.16995364 0.34000668
0.32847387 -0.0133377025 -0.08032299 0.100222394 0.09609444 0.06126987 -0.11889684 0.19626278
0.29600933 0.31191695 0.12148685 -0.1141091 -0.047816623 -0.039428912 0.08394564 -0.04436485
0.063953124 -0.0886934 -0.1402621 -0.0010307016 0.10056183 -0.11689414 0.001472794 -0.11872323
-0.04448345 0.017256958 0.29239535 0.02766734 -0.26953286 0.24132869 0.09971713 -0.112497695
0.097312026 -0.1098171 0.040755015 0.10956219 -0.04170472 0.0049458835 -0.14994204 0.079091765
0.17412779 -0.14096212 0.22980486 0.29005194 -0.14485289 -0.0063309055 -0.1666534 -0.0066109025
0.28677022 0.04895901 -0.02930469 -0.2382789 -0.22095929 0.15317835 0.18644543 0.13623354
-0.15251678 0.21007936 0.017674914 0.03100076 0.22067341 0.024069875 0.15330335 0.09255813

layer2.weight_sigma f4 [3, 256]
00000000: eb08 0c3d 182e 11bd 1d51 ee3b f5b2 2a3e
00000010: eb2f 88bc ab08 84bc 8a09 8e3b 1d06 c43d
00000020: bd22 1cbe 9643 8b3a 4e93 21bd bef6 533d
00000030: 1f20 09bd 70dc 2abd e469 6abc 65c1 1dbe
00000040: 1428 c53b 9e67 1d3c 6abc 2e3c 482d 083b
00000050: f60f 513d 2f22 933d 2f4c 023e b297 adbd
00000060: d185 e9bc 4b26 843d 3553 03be a521 493d
00000070: 11ca a2bd 1fb3 39be 4594 59bb 8dc7 703b
00000080: 78fa 803d 39f7 383b 1f51 aa3b 0d6e 4fbd
00000090: 72b9 92bd 98df e7bc 8542 193d f849 d3bc
000000a0: a59d bcbd 46a8 babd 95ad 1bbe 31e0 d73c
000000b0: 68d8 61bd 7fb3 3f3c aa4a 3b3d ca65 2abd
000000c0: 2f94 e23c d335 213d 07e5 11bd 1a06 d9bc
000000d0: ae6c 013d 4895 3bbe a3ea c83d 9a73 31bd
000000e0: 5afe 843c 1ec0 7c3d 8071 7f3d a531 76bd
000000f0: 9643 8b3a 9d9c 8abd bfe0 183d cfef 32bd
00000100: b93e 083d 0440 38bc 6f2a 38bd 39c6 98bd
00000110: 9643 8b3a 9e14 ba3d d308 e03b 8e08 013c
00000120: e1e4 97bc fd12 afbd baff 403d 8ad2 22bd
00000130: 715b 49bd 4d69 06be d0e0 1fbe fad8 5f3d
00000140: bfb7 60bd 3e2e b03d cd9e 643c a999 d1bc
00000150: 5ae9 c13d 635a 2abe cffd 0c3b b705 883d
00000160: 6740 88bd eb1d 79bd 8f3d f5bb 16a0 e13c
00000170: 8077 893d d748 3c3d d389 c03b 2fc8 1f3d
00000180: bf6a 203d b8c1 5d3c 1f7d 423d 46cc 83bd
00000190: 0737 8bbd c181 56bc 9571 143e af5a 013d
000001a0: 6d22 adbd 2946 3d3d 5b11 6f3d 61c9 e5bd
000001b0: d8ba 2c3d 60d7 963c 4b24 3ebd 319f 873c
000001c0: 31df 8e3d 4405 febd f3ed 443d 8875 303d
000001d0: 1258 993d 6fd7 a73d ead2 99bd cf84 05be
000001e0: 21df c03b 5f6b 84bc 4fbc 0ebc 0d4e c4bd
000001f0: 8ec6 39bd 0d17 98bc 47a1 a4bd dd95 93bc
00000200: 7435 b53d c05f 75bd 4a4e 04bd ca4e 313d
00000210: 11a5 903c f440 153d 0a2d f73c 0653 d5bc
00000220: d0fb 273c 9643 8b3a 44aa 8fbd 37ec 9abc
00000230: 48bd c63b 9560 47bd dc27 46bd 668b 78bc
00000240: 4932 5dbd 8326 6abd bbbb cabd fb44 3fbb
00000250: 4d3e ab3d 504d 973c ebf3 6c3d 1b8e a23d
00000260: 9e31 a93d 3946 85bc 9643 8b3a 1cae 20bc
00000270: aa13 013d 72ea c2bc 9966 0d3e a15c b43c
00000280: b9f4 14be a628 e4bd a2e3 eebc 0725 c9bc
00000290: 377f 123e e795 a6bc a9f7 82bd e0d9 b73b
000002a0: 36b2 22bd 842d 383e 5cc2 37bd 5247 25bd
000002b0: fa5e 9fbd a4c9 4ebd 9e56 8fbc cc28 e4bd
000002c0: 583b 0d3e f376 0e3e b0b7 203c 2dc2 863d
000002d0: d665 36bd ee12 bf3c 9fdc d13b 7607 173d
000002e0: 0016 acbc 8d6f 6d3d 2e44 b63d 9643 8b3a
000002f0: 5be3 04bd 7986 153c 575b 3a3d 9d25 833d
00000300: c9e6 e6bd 5df8 8e3a 563d a83d 7fdc 8d3d
00000310: 50e4 edbd 8a05 0b3e c8a7 0dbe cc56 753a
00000320: 50a1 823c c62a c63d 900f 503e 6f51 75bd
00000330: cec1 083d cfeb c93d 5d98 b0bc 9808 b4bd
00000340: e9ec 08bd b1d0 663d b9f4 d23d 54d6 d7bd
00000350: 9daf 243c 01fb 16bc 2b7c 873d a874 b3bc
00000360: 26f0 72bd 61eb 2ebd 12e3 03bd 21ce fabc
00000370: d661 8dbd c5a5 90bc 055b e43d 52be d9bd
00000380: 0983 5c3d 5f43 d5bc a72d 87bd 0115 0dbe
00000390: dcc4 073a e582 123d 05aa e8bc 3385 5e3b
000003a0: 2602 ecbc 9ebb 47bd 5e04 00bd 2d01 54bb
000003b0: bd1e 3d3c 56ca 5bbd 71d7 9c3d 2c05 a33c
000003c0: 81ad 8b3d 9643 8b3a fe6c 16bd b032 253c
000003d0: d863 0c3c a0d5 933d 925c f1bd 7d46 02bc
000003e0: 0c99 cdbc ff99 803d d088 ebbd 9d9f d13d
000003f0: f4ce 2abd a779 6fbd 07c6 e2bc 9015 a3bd
0.034188192 -0.03544435 0.007272853 0.16669829 -0.016624412 -0.016117414 0.0043346332 0.095714785
-0.15247627 0.0010625 -0.03944712 0.051748984 -0.0334779 -0.04171413 -0.014307473 -0.15405805
0.0060167406 0.009607224 0.010665039 0.0020778943 0.051040612 0.071842544 0.12724374 -0.08476199
-0.028506191 0.06452616 -0.1282471 0.04910435 -0.07948697 -0.18134736 -0.0033199948 0.0036740035
0.06297773 0.0028223528 0.0051976587 -0.050642062 -0.07164277 -0.02830486 0.037416954 -0.025792107
-0.09209756 -0.09114127 -0.15202935 0.02635202 -0.05513802 0.01170051 0.045725502 -0.04160098
0.02765855 0.03935797 -0.035618808 -0.026492167 0.031597786 -0.18318665 0.098103784 -0.043323137
0.016234566 0.061706655 0.0623641 -0.06010594 0.0010625 -0.06768153 0.03732371 -0.04368573
0.033262942 -0.011245731 -0.044962343 -0.07459683 0.0010625 0.09085964 0.0068369894 0.007875575
-0.018541755 -0.085485436 0.04711888 -0.039751567 -0.04915947 -0.13126107 -0.15613103 0.054650284
-0.054862734 0.0860257 0.013953877 -0.025585966 0.094683364 -0.16636042 0.0021513586 0.06641715
-0.06652909 -0.060819548 -0.007484145 0.027542155 0.06712246 0.045967903 0.005875805 0.03900927
0.0391643 0.013534956 0.047482606 -0.064354464 -0.06797605 -0.013092459 0.14496453 0.031580623
-0.08453832 0.046209488 0.05836616 -0.112200506 0.042170376 0.018413246 -0.04642133 0.0165554
0.06976164 -0.12403348 0.04807849 0.043080837 0.07487501 0.081953876 -0.07510932 -0.13038944
0.005885974 -0.01616448 -0.008711888 -0.095851995 -0.045355372 -0.018565679 -0.08038574 -0.018015796
0.08848086 -0.059905767 -0.032301225 0.04328803 0.017656835 0.036438897 0.030172843 -0.026040565
0.010252908 0.0010625 -0.070148975 -0.018911464 0.0060650446 -0.048676092 -0.048377857 -0.015169954
-0.054003034 -0.057165634 -0.09899088 -0.0029185403 0.08361492 0.018469483 0.057849806 0.07937261
0.08261417 -0.016268836 0.0010625 -0.009807136 0.031512894 -0.023793433 0.13808669 0.022016825
-0.1454648 -0.111405656 -0.029161278 -0.024553789 0.14306341 -0.02033515 -0.06394894 0.0056106895
-0.039720736 0.17986113 -0.04486309 -0.04035122 -0.07781787 -0.05048527 -0.017497357 -0.11140594
0.13792169 0.13912563 0.0098094195 0.06580005 -0.044530712 0.023324456 0.006404474 0.03687235
-0.021006584 0.05796771 0.08899723 0.0010625 -0.032443386 0.009126299 0.045497265 0.064036585
-0.112744875 0.0010907758 0.08214824 0.06926822 -0.11615813 0.13576332 -0.13833535 0.0009358942
0.01594606 0.09676127 0.20318437 -0.059892114 0.03338795 0.0985943 -0.021557027 -0.08790702
-0.03342906 0.056351367 0.103005834 -0.10538927 0.010051635 -0.009215117 0.0661548 -0.021906212
-0.059311055 -0.042704944 -0.032198973 -0.030615868 -0.06903426 -0.01765717 0.11150173 -0.10632004
0.053835902 -0.026033102 -0.06600504 -0.13777544 0.00051791756 0.035769362 -0.028401384 0.0033953905
-0.028809618 -0.04876291 -0.031254165 -0.0032349334 0.011542973 -0.05365976 0.0765828 0.019899927
0.068202026 0.0010625 -0.036725037 0.010082886 0.0085687265 0.0721848 -0.117852345 -0.007951376
-0.025097392 0.062793724 -0.11500704 0.10235522 -0.041701272 -0.058465626 -0.027682317 -0.07963097

layer2.bias_mu f4 [3]
00000000: b032 593e 385b d33c 14fe 183d
0.21210742 0.025800332 0.037351683

layer2.bias_sigma f4 [3]
00000000: b1b0 e83c d697 01bd 9ba0 4c3d
0.028404566 -0.031638943 0.049957853
