DDQN_models/prb-model2-snapshot-score-25.pth (torch, 17245 bytes, 4 tensors)

linear1.weight f4 [256, 11]
00000000: 373e 3c3c 9638 00bf 453e 77bf f3bd 1dbe
00000010: 1d44 433e f815 54be ad5d 65be 6129 2abf
00000020: 6c00 e23e 7c73 1f3f 9adb a53e a812 1a3e
00000030: 3982 7c3e a137 1bbe a8fa 3a3f fc94 dfbe
00000040: dae4 22bd 47ea 4bbf 9afe 49bd 2544 24bf
00000050: 6258 f7be d766 8e3e 91ad cd3e b41d 443e
00000060: 3457 71bf e127 133f a645 f7bd b98b 403d
00000070: f182 2f3d d87e ed3d a35e 8cbf 6ad1 74bf
00000080: dd9e 8b3d 34ae f63b 3fa7 f5be a755 e2be
00000090: bb54 be3d c426 cfbd 9d18 0a3e 6c7a 82be
000000a0: 3f4d 46bb af2d 90be 4395 cebd b16f b0be
000000b0: b008 b1be 9d91 ebbd 41b0 953e 4aec 573e
000000c0: f6b9 7cbd 2513 72be 4ade 1dbe ab91 23be
000000d0: 4d4e e6bd 07a4 6bbe 8f74 afbe 7c4f 233d
000000e0: 1e88 f0be 2f37 19be 3d65 24bc 5058 69be
000000f0: af65 0ebe cbcc 473e 3652 afbe 3f7d e43e
00000100: bcf5 26bf 3d24 86bb 33b0 62be 0807 bfbe
00000110: 2e24 21bd c9d9 1abf c1ad ecbe ff1c c8be
00000120: 030a 19be e300 14be c51b 91be 1594 fd3d
00000130: 4dc6 ca3e 80e3 6cbf d4b6 e7bc 4ab7 17bf
00000140: e209 8ebe 1317 dd3d 36a3 433e a7e3 14be
00000150: cd78 2b3e df1d e9be 100c f93e ef46 923e
00000160: 8097 0ebf 58ad d93e a40f f63e 7765 6abf
00000170: 2d74 983e 7a7d f9be 822d c83d 56de 25bf
00000180: 8136 e63e e2e0 b23d d131 52be e011 22be
00000190: 089e 2c3f e037 8dbd d7a1 b53e 039c 503e
000001a0: de54 433e ce11 fcbc e53d 003f 0b34 98be
000001b0: 3d7c 1dbf 2eb6 11bf f8bd 143e 2709 36bf
000001c0: 84b7 8b3e d737 bc3e 99e0 393d ab95 cbbe
000001d0: b668 b5bd d378 ecbe 5ba1 c53d 9b1d 5abf
000001e0: 133c e73e 2773 f2bd 2192 a9bd a4d7 583e
000001f0: 43e1 9b3d dbc6 a4bc 4019 aebc 8a14 93be
00000200: b626 bdbd 03ad 3e3e 18bf 92be bfda 36be
00000210: a6d8 a7be 2879 71be 48b0 5c3d 0193 55bc
00000220: d32f 193e 6f57 673c fb25 013e 7391 0abe
00000230: c416 fcbe 93f7 823d 4293 c7be bc1c e9bd
00000240: b964 3abe 329f b3be 2ce4 bbbd 82a1 5ebc
00000250: 6001 01bf f4fc b7be ca34 c0be 99c5 4d3e
00000260: 9501 1cbe d5f9 e03d fbf7 2abf 44c9 5c3e
00000270: 29ba d4be 9e15 f7be 7653 b8be a485 edbe
00000280: d67b 0c3e 7743 83be 7e05 103e 76ac b03e
00000290: 4d45 c23e aacc 82be 600d 6c3e aec7 ca3e
000002a0: 83ec 65bd 7a0e 19be a840 8cbe f9ae 6f3d
000002b0: 86d6 fb3b e209 cfbc 0b19 35bf 3730 ffbe
000002c0: c766 bcbe 3faf 8bbe d8e4 f63d f5b3 77be
000002d0: 4d9c 22bf be41 50be 42c2 97be 35e0 80be
000002e0: e656 fa3d a05d 903e 33ac 88be e0d9 393d
000002f0: a7b9 21bf 92ed 763e 9f9b 07be 1c19 b4be
00000300: 3e8c 1c3e 921f bdbd e355 d63d 45db 9d3e
00000310: 8d63 f3be 4dc3 5d3f b2dd c8be 521a acbe
00000320: e8d6 10bf 2f3f a13e 8ad1 88be 0f55 cfbe
00000330: 9029 49be 321c 79be f398 0bbf 0cc5 9ebe
00000340: 3f03 e43e ad18 80be d843 05bf 00d5 b3bd
00000350: f3be 0dbe 71b9 debe 1884 66be 6dbd 77bd
00000360: e351 c43d bec0 ba3e c73c 75bf 5340 e3be
00000370: 8de1 843d 7f1a b43e 24ad a9be 7be6 f0be
00000380: 1bbc c63d 3be9 d0be dc40 38be 555f fbbd
00000390: 0dff 3fbf f88c c2be c8ea bd3e 7c96 30bf
000003a0: 291d 533e ff31 29bf a0c1 17be 8c76 d4bd
000003b0: dc1c 83be 4167 d8be be30 e43c 3952 0bbd
000003c0: b46f 353f 11dc 6bbf 6585 ab3d 8d15 3c3e
000003d0: 53fc 04bf 8080 373d 20ba f4bd 2a02 f6be
000003e0: 4541 2bbe f34e 4fbe 2a6e c33e 3a59 e33e
000003f0: 6747 073f 6181 4f3c 5436 2bbf 7832 83be
0.011489443 -0.50086343 -0.9657939 -0.15404491 0.19068952 -0.20711505 -0.22399016 -0.6646939
0.44140947 0.6228559 0.32394105 0.1504618 0.24659051 -0.1515794 0.7303872 -0.43668354
-0.03976903 -0.79654354 -0.049315073 -0.6416648 -0.48309618 0.27812836 0.40171483 0.19151956
-0.94273686 0.57482725 -0.12073831 0.04700825 0.042849485 0.11596459 -1.0966381 -0.9563204
0.0681741 0.007528091 -0.4797916 -0.44205973 0.09293505 -0.10114816 0.13485952 -0.25484025
-0.0030258445 -0.28159854 -0.10087063 -0.34460214 -0.3457694 -0.11502383 0.29236034 0.21086231
-0.061700784 -0.23640116 -0.15416828 -0.15973537 -0.112454034 -0.2301179 -0.34268615 0.039870724
-0.4697885 -0.14962457 -0.010033903 -0.22787595 -0.13905977 0.19511716 -0.3424241 0.44626805
-0.6521871 -0.0040936754 -0.22137527 -0.37310052 -0.039341144 -0.60488564 -0.46226314 -0.39084622
-0.14945225 -0.14453463 -0.283415 0.1238176 0.39604416 -0.9253464 -0.028285421 -0.5926405
-0.27741915 0.10795417 0.19105229 -0.14539967 0.167453 -0.45530602 0.48642015 0.28569743
-0.5569992 0.42515063 0.48058808 -0.91561073 0.29776135 -0.48728544 0.09774305 -0.6479238
0.44963458 0.08734299 -0.20526816 -0.15827131 0.67428637 -0.06895423 0.35475037 0.20372014
0.19075343 -0.030770209 0.50094444 -0.29727206 -0.615177 -0.5691861 0.14525592 -0.71107715
0.2728845 0.36761352 0.04538021 -0.39762625 -0.08857863 -0.46185932 0.09649917 -0.85201424
0.4516302 -0.1183837 -0.08279825 0.2117601 0.07611325 -0.020114353 -0.021252275 -0.28726608
-0.09235899 0.18620686 -0.28661418 -0.17856883 -0.32782477 -0.23581374 0.053879052 -0.013035537
0.1495965 0.014119967 0.12612145 -0.13532047 -0.4923612 0.06394877 -0.38979536 -0.11382434
-0.18202485 -0.35082394 -0.0917438 -0.013588311 -0.50392723 -0.35935175 -0.37540275 0.20094909
-0.15234978 0.10985152 -0.6678464 0.21561152 -0.4154828 -0.4825868 -0.36001176 -0.46391022
0.13719115 -0.2563741 0.14064595 0.34506577 0.37943497 -0.2554677 0.23051977 0.3960547
-0.05613376 -0.14946929 -0.2739308 0.058516476 0.0076854853 -0.025273267 -0.7074134 -0.49841473
-0.36797163 -0.2728214 0.12055367 -0.24189742 -0.63519746 -0.20337579 -0.29640394 -0.25171056
0.12223606 0.2819643 -0.26693878 0.045373797 -0.6317391 0.24114063 -0.13242958 -0.35175407
0.15287873 -0.09234537 0.104656 0.30831352 -0.4753689 0.8662613 -0.3923164 -0.3361383
-0.5657792 0.31493518 -0.26722366 -0.40494582 -0.19644761 -0.24327162 -0.54530257 -0.3100971
0.44533727 -0.25018826 -0.52056646 -0.08780861 -0.13842373 -0.43500856 -0.22511327 -0.060483385
0.09585931 0.36475176 -0.95795864 -0.44385013 0.06488333 0.35176465 -0.33139908 -0.47050843
0.09703847 -0.4080294 -0.17993492 -0.122740425 -0.7499855 -0.37998176 0.37093186 -0.6897962
0.20616592 -0.66091913 -0.14819956 -0.103741735 -0.25607955 -0.42266276 0.027855273 -0.03401396
0.7087357 -0.9213267 0.08375052 0.18367596 -0.51947516 0.04480028 -0.11949563 -0.48048526
-0.16724117 -0.2024496 0.38169986 0.44404012 0.52843326 0.012665124 -0.66879773 -0.25624442

linear1.bias f4 [256]
00000000: 90e6 9abe 8305 e33e 90ad 163f b9e1 6cbe
00000010: d81c 5d3e 0cca d5be e944 f8be 1077 e2be
00000020: 403e 003e c40c 24be 1fb9 8bbe 67ab d4be
00000030: 571f d6be 5ea4 69be 411c 21bf 0134 d3be
00000040: f118 72be 9130 d7be 9b10 1abe 05d7 94be
00000050: 507f 67be eb01 b1be 6ec7 13bf 5a7f debe
00000060: 2b6b 0dbf 32f9 febd d2f9 3abe 5667 0dbf
00000070: 779b f0be 448b 27bf 7537 febe dede 5dbe
00000080: 316a f0be 1d91 2ebf 509a dcbe e2ce 06bf
00000090: f792 e9be f139 1abf 0435 643d 7fba a3be
000000a0: fa1c cebe bfca 0abf d5d3 f13c 3fea bbbe
000000b0: 637e 8d3d 6707 ba3e 7960 a7be fa39 02bf
000000c0: b0f8 073f 4468 a1be 4688 82be 1114 b5be
000000d0: 03d7 1cbf 33bb 1fbf aa65 84be 3b97 9a3e
000000e0: 1abf 06bf a00b 17bf 694b 87be faa0 b1be
000000f0: 434a 8fbe c083 28bf 35d0 c1be b683 00bf
00000100: 4763 953c 0c80 f2be d522 08bf 2703 91be
00000110: 8a22 b7be f0f6 3cbf 1f4c c9be 7f3a b1be
00000120: 72fe 31be 8aff 0ebf 40fe 92be f5d5 89be
00000130: 79bb debe 79b3 30be 8084 f8be 670a c1be
00000140: 4845 febd be52 87be b912 e5be c0f9 98be
00000150: bc99 73be 210c 26be 63e8 55be 8708 a2bd
00000160: 2211 99bd 9e2d 4cbf 2904 1d3d 1f9b 86be
00000170: ac3b 25be cede bf3d 43d8 a53e e516 a6be
00000180: e3fd 1b3d b0db b7be 7c79 9fbe 8ae3 22bf
00000190: c18f d8be 990d 133d f44c 14bf bbfc a93d
000001a0: ef67 14bf 2a5b e83e b410 8cbe 0abb d9be
000001b0: 58c7 cbbe d79b d4be 45c6 15be 64b2 ddbe
000001c0: 1f48 92be 9ff4 d7be 3906 d4be 569e f6bd
000001d0: 13f4 a6be bc34 babe 85c4 03be a853 c4be
000001e0: c152 30bf 0aa2 0fbf 9412 d4be 6a76 bdbe
000001f0: 601e 41bf 9429 8fbe b594 e4be 6b63 30bf
00000200: 67d8 22be a800 21bf 8150 eebe a92a 22be
00000210: c23f b9be 7782 a1be 92a9 12be 900c 4dbe
00000220: 5d21 84be 4dad 743e 8a35 a1be 96be 4cbe
00000230: 7125 a3be e99b 07be 2736 c4be 65ca acbe
00000240: 8aa5 92bd 319d e9be ceab 10bd e508 09bf
00000250: ea00 28be e615 5e3e c098 863e cf19 d7be
00000260: a054 af3d 6528 17bf 1469 32be ab37 c43d
00000270: c6f9 e8be a1af 1e3f 3235 b6be 8738 a5be
00000280: 1df6 d6be bff1 36be d27d a4bd 0001 3bbe
00000290: 813a 143e 257d b9be c408 573e 3d6d a9be
000002a0: 3a50 01bf 1549 33be e705 35bf e54f ba3d
000002b0: 7f9f d1be de40 0cbd 8434 39bd af59 07bf
000002c0: a85c 23be 784e 9cbe 16e1 eabc c621 59bd
000002d0: 7e87 c4be 6e4a 63bd 41a0 c5be 5cb3 08bf
000002e0: 58b4 95bd cbf2 13be 5ac7 03bf 5cae 1bbf
000002f0: 4dd2 e9be f9a9 1ebd 331c 94be fa45 97be
00000300: 0ac7 f0be 64a6 22be 77fa 01bf 03fd d8bc
00000310: 52f4 bebe c660 7cbf 3e92 21be 4932 34be
00000320: d589 afbd 62cd afbe 354e f0be 6e79 8cbd
00000330: 80f0 abbd b857 0dbf b839 0cbf 14da b6bd
00000340: f4a7 023f b59e 78be 3ae8 a5be 13c0 a1bc
00000350: 369d 9cbe 3caf 813d 4412 72be 3ad0 f0be
00000360: 8c6e 35be 5df6 9dbe 4c73 bdbe e0d2 00be
00000370: 913e 60be b752 e33d dc8e a1be 0175 4dbf
00000380: 2afe 0abf 269c 2abf d560 d8be 7750 99be
00000390: 61d6 82be a6a7 8abe d138 63be 4cb3 1abf
000003a0: bd63 d3bd deaf bdbe 14b3 d5be 88bb 6bbe
000003b0: a5a7 83be 5737 db3c 57ab bebe d66b 6ebf
000003c0: 2847 2bbf 7ddb 2abe 2457 18bf 0c5e 98be
000003d0: 4e1a 76be af5b 88bd 929f e3be 7ab6 cabe
000003e0: dea7 9ebe 0ac1 a13d d022 b8be 3c65 78be
000003f0: aabd c6be 29cc d3be d9f5 023f 6ed8 5ebe
-0.3025403 0.44340143 0.58858585 -0.23132981 0.21593034 -0.41755712 -0.48490074 -0.44231462
0.12523746 -0.16020495 -0.27289674 -0.4153702 -0.41820785 -0.22816607 -0.6293374 -0.41250613
-0.23642327 -0.4202924 -0.15045397 -0.29070297 -0.2260716 -0.34571776 -0.5772618 -0.43456537
-0.5524165 -0.12449874 -0.18259361 -0.55235803 -0.4699361 -0.6544688 -0.49651685 -0.21667048
-0.46956018 -0.68190175 -0.4308648 -0.5265943 -0.45619938 -0.6024466 0.055714622 -0.31978223
-0.40256482 -0.54215616 0.029519955 -0.36702153 0.06908872 0.36333773 -0.3269079 -0.50869715
0.5311384 -0.3152486 -0.25494593 -0.35366872 -0.6126558 -0.6239502 -0.25858814 0.30193505
-0.5263535 -0.59002113 -0.2642472 -0.34693128 -0.27986345 -0.65826035 -0.37854162 -0.50200975
0.018235816 -0.47363317 -0.5317815 -0.28322718 -0.3576854 -0.73814297 -0.39315888 -0.3461494
-0.1738222 -0.5585867 -0.28709602 -0.2692105 -0.43502405 -0.17255963 -0.4853859 -0.3770325
-0.12415558 -0.26430315 -0.44740847 -0.29878044 -0.23789114 -0.16215564 -0.2088943 -0.07911783
-0.07473971 -0.79757106 0.038334046 -0.26290223 -0.16136044 0.093686685 0.32391557 -0.32439342
0.038083922 -0.35909796 -0.31147373 -0.6362845 -0.42297176 0.03590164 -0.5792992 0.08300158
-0.5797109 0.45382053 -0.27356493 -0.42525512 -0.39800525 -0.41525146 -0.14626415 -0.43300164
-0.2857065 -0.4217882 -0.41410998 -0.12041919 -0.3260809 -0.36368358 -0.12867935 -0.38345075
-0.6887627 -0.56106627 -0.41420424 -0.37004405 -0.75436974 -0.2796141 -0.44644704 -0.689017
-0.15902863 -0.62891626 -0.46545795 -0.15836586 -0.36181456 -0.3154485 -0.14322498 -0.20024323
-0.25806704 0.23894234 -0.3148616 -0.19994578 -0.31864503 -0.13243069 -0.38322565 -0.33748165
-0.0716048 -0.4562774 -0.035320096 -0.53529197 -0.16406599 0.21688041 0.26288414 -0.42011878
0.08561063 -0.5904601 -0.17422897 0.0958093 -0.45503062 0.6198674 -0.3558746 -0.3226969
-0.41984645 -0.17865656 -0.08031811 -0.182621 0.14475442 -0.3622829 0.20999438 -0.33091155
-0.5051304 -0.17508347 -0.7071213 0.0909727 -0.40941998 -0.03424155 -0.0452161 -0.5287122
-0.15953314 -0.30528617 -0.028671782 -0.053010724 -0.38384622 -0.055490904 -0.38598827 -0.5339868
-0.073097885 -0.14448087 -0.5147606 -0.60812926 -0.4566826 -0.038736317 -0.28927764 -0.29545575
-0.47026855 -0.15883785 -0.50772804 -0.026487833 -0.37295777 -0.98585165 -0.15778443 -0.17597307
-0.08571211 -0.34336382 -0.46934667 -0.068590984 -0.08395481 -0.55211973 -0.5477557 -0.08928314
0.51037526 -0.24279292 -0.32403737 -0.019744908 -0.30588692 0.063322514 -0.2363978 -0.47033864
-0.17717952 -0.30852023 -0.37002027 -0.12580442 -0.21898867 0.11099761 -0.31554306 -0.8025666
-0.54294074 -0.66644514 -0.42261377 -0.29944202 -0.25554183 -0.2708103 -0.22189642 -0.60429835
-0.10321758 -0.3704824 -0.41738188 -0.23020756 -0.2571384 0.026759787 -0.37240097 -0.93133295
-0.6690545 -0.1668529 -0.59507966 -0.29759252 -0.24033472 -0.06658112 -0.4445768 -0.39592344
-0.30987448 0.078981474 -0.3596406 -0.24257368 -0.38816577 -0.413667 0.51156384 -0.21762249

linear2.weight f4 [3, 256]
00000000: 0c4a 7cbd fe98 d63e 382d fc3e ea8f a0bc
00000010: 662e b8be 622f 92bd 9d11 02be d78f 563e
00000020: aa68 ca3e 7507 3a3e 6952 403c ac1d 633e
00000030: c58d 633d a01f 07bd 628b e0be 680c 883d
00000040: 2af6 f5bc 131c 05be d05a afbc 5420 aebd
00000050: 9978 d53c 93a2 36be 06bb a7be 5816 27be
00000060: f4ae f43e 3670 2dbd 6acf 3e3d 2e12 0cbd
00000070: af85 a9bc f56e ed3d 90c1 cb3c 0040 2439
00000080: 9302 85bd d79d 96be 0670 edbe 30b6 82bf
00000090: 09a6 2dbe dd91 943f 1ea7 b53e 942d 17bf
000000a0: 3153 e7bd 5b1c 1cbe a05c f33d a8ac 47be
000000b0: 0d7b 11bf 04b0 053f 9be8 b53d 7125 a5bd
000000c0: a6b9 0f3f d316 18bc 8001 71ba 94c4 0dbc
000000d0: 45bb a9be 66db ae3b 7532 c33c 1a24 883e
000000e0: 3836 eebd 734b 96be b4f0 6cbc 0fb2 ea3d
000000f0: f90c 2dbe 0ae4 2abf 04c1 fbbd 010d 543b
00000100: 6b79 c7be c47c b83c e069 9cbe 1c7c 363d
00000110: e163 80bf 0fc9 3c3b e7d0 49be c1b3 4c3d
00000120: 9fdb cdbc 3e45 743e dc35 3dbe 9d72 f3bc
00000130: b388 8ebc 29a1 a73d e791 2abe d41f 0dbd
00000140: ac8c b93d 01b1 e2bd 0965 81be c2df babd
00000150: cb1b cf3c 69d8 f7bc 841a 3b3d 1f2a 4abe
00000160: f816 313d a626 e63e 312e f23e baab bf3b
00000170: 8025 c7be e997 ed3d 109a 7c3e 3743 e8bd
00000180: 81bf 543e 6819 ecbd b39a 0a3c 46c4 a5be
00000190: c202 d4be 58d4 7a3c 6fa9 d8bd 2538 8cbd
000001a0: 2eb1 503c 3fa1 bc3e b0c1 6bbd 9feb cfbd
000001b0: 5bff 58bf d99d 383d b37f a9bd bccc 263e
000001c0: c9ea f23b daea e1bd 636d eabd 8c5a 163e
000001d0: 0937 cf3b 89bd 9b3d bf63 ccbd 96c4 7c3b
000001e0: 446c 27bf 6325 4abe 65dc 513b 1c26 6bbd
000001f0: 30b0 2dbe 9b87 04bf e745 b1bd e2b4 433d
00000200: aa03 19bf 2ec4 19be 44f9 0d3e 478d 1c3d
00000210: 4c59 113d fb64 aabe 4565 be3e 4c97 653d
00000220: 4856 ce3b 351a f13e e79d e73d a017 01be
00000230: a54f 783d d0f9 0ebe 88b3 3b3d f80c 2b3e
00000240: 104f 923b c5cc 94bd 1b89 43bd e5fe 273d
00000250: 5bc2 a2bc 94f6 e73e 989a c23e 1a21 72be
00000260: 532d 0fbf 44b7 2abf 1c92 6b3e b60c 563e
00000270: d546 41be 5514 323e a7c2 78be 6d43 3c3d
00000280: 1400 9bbe 5803 b4be 8b9d 55bd c0f9 8c3c
00000290: b1e8 98bd c084 29be 8f0f 063f f803 25bd
000002a0: a0ed 94be 7a7f 933e 76f5 bb3e e822 96be
000002b0: 5346 a6bc 5d0a b4bb a4a7 42bd ca00 b8bc
000002c0: f4c9 cf3d 81c0 64be b6ff 813e 0b55 553d
000002d0: 2baa 07be a08c 3f3e df6b 22bc 4618 a53e
000002e0: 027c 15be 7e15 843e b25f f0be d38d 82bf
000002f0: 0d39 cabe 1ba4 68bd e7ac 893c 6800 3d3d
00000300: c07f 51ba a9df 6ebe 848b 843d dffa 17bc
00000310: 374c 963c ccaa 4abf 29e1 283e 1380 0cbd
00000320: 51c5 bdbe a765 19be 9386 aabe a7bf be3a
00000330: 9c9e 733c ddfb 87bc f449 febc 3b8c b7be
00000340: d390 073f e871 b6be 5923 80bd 883f f7bc
00000350: 10d8 a6be 96ba 743e 8e24 b33b bc9c c6be
00000360: beba c93d fa8d 3dbd f9cb 44be 26b2 9cbe
00000370: 19ab b53e bea3 1e3f 9f69 81bc 86dc dcbe
00000380: edfd 203e 0e87 eebe 68ab a3be 8cd3 a9b9
00000390: 4a0f dd3c a403 99be 88b5 883d cd59 ccbc
000003a0: 505c 0d3e 5e2c bfbe 123c 42be 93ad 33bd
000003b0: 2c57 1bbe db8a 153d e9b4 2ebe 233f 82bf
000003c0: 13e1 423f 0be1 34bf 753a 0abd bc6d 883c
000003d0: bcc6 973c e29a c5be 9648 d93c 7367 4bbd
000003e0: 0fda 93be 077d 0d3f 6d8f 4c3d fa2e 01be
000003f0: 39e7 a2bb e45d 433e bd27 f63e 6703 8c3e
-0.061594054 0.419136 0.4925325 -0.019599874 -0.359729 -0.07137944 -0.12702031 0.20953308
0.39532977 0.18166907 0.011738398 0.22179288 0.055555124 -0.032989144 -0.4385634 0.06642991
-0.030024607 -0.1299899 -0.021405607 -0.0850226 0.026058482 -0.17835455 -0.32759875 -0.16317117
0.4778973 -0.04234334 0.046584524 -0.034197025 -0.020693628 0.11593429 0.024872571 0.000156641
-0.064946316 -0.29417297 -0.4637453 -1.0211849 -0.16957869 1.1607014 0.35479063 -0.5905392
-0.112951644 -0.15245192 0.11882901 -0.19499457 -0.56828386 0.52221704 0.088822566 -0.08063782
0.5614265 -0.0092827855 -0.0009193644 -0.008652825 -0.33150688 0.005336213 0.02382777 0.26590043
-0.11631435 -0.29354438 -0.014461685 0.11459743 -0.1689948 -0.6675421 -0.12292674 0.0032356384
-0.38959822 0.02252043 -0.30549526 0.044551954 -1.0030481 0.0028806364 -0.19708596 0.049976114
-0.025129138 0.23854539 -0.18477577 -0.029717738 -0.017399168 0.08185036 -0.1665722 -0.03445418
0.09060034 -0.11068917 -0.25272396 -0.0912471 0.025281807 -0.03025456 0.045679584 -0.1974263
0.043234795 0.4495136 0.47300866 0.005849329 -0.38895798 0.1160124 0.24668145 -0.11340945
0.20776178 -0.11528283 0.008459735 -0.32376307 -0.41408354 0.015309416 -0.10579192 -0.06846646
0.012737555 0.3684177 -0.05755776 -0.10152363 -0.8476464 0.04507241 -0.0827631 0.16289037
0.0074132425 -0.110311225 -0.11446645 0.14682978 0.0063236994 0.0760451 -0.099799626 0.0038569323
-0.65399575 -0.19740824 0.0032022235 -0.05740939 -0.16961741 -0.5176942 -0.08655911 0.047779925
-0.59771216 -0.15016243 0.13864619 0.03822067 0.03548555 -0.33280167 0.37186638 0.05605249
0.0062969066 0.47090307 0.11309414 -0.12606668 0.06062283 -0.13962483 0.04582551 0.16704166
0.0044649914 -0.07265619 -0.047738176 0.04101457 -0.019868067 0.45305312 0.3800857 -0.2364544
-0.55928534 -0.6668589 0.23004955 0.20903286 -0.18874677 0.17390569 -0.24293004 0.04596274
-0.30273497 -0.351588 -0.052152198 0.017208934 -0.07466257 -0.16554546 0.5236749 -0.040286988
-0.29087543 0.28808194 0.3671071 -0.29323506 -0.020297205 -0.0054943995 -0.047523156 -0.022461314
0.101459414 -0.2233906 0.25390404 0.052083056 -0.13248508 0.18705988 -0.009913414 0.32245082
-0.14598086 0.25797647 -0.4694801 -1.0199531 -0.3949665 -0.05679713 0.01680608 0.046142966
-0.00079917535 -0.23327507 0.06471923 -0.009276121 0.018346889 -0.79166865 0.16492142 -0.03430183
-0.37064603 -0.14980184 -0.33305797 0.0014552966 0.014869358 -0.01659959 -0.031041123 -0.35849175
0.5295536 -0.3563378 -0.06256742 -0.030181661 -0.32586718 0.23899302 0.005467004 -0.38791454
0.09850071 -0.046277978 -0.19218434 -0.30604666 0.354821 0.619686 -0.015797434 -0.43136996
0.15721865 -0.46587414 -0.3196671 -0.00032391807 0.02698483 -0.2988559 0.06675249 -0.024945164
0.13804746 -0.37338537 -0.18968228 -0.043866705 -0.15169972 0.036509376 -0.17061199 -1.0175518
0.76124686 -0.7065589 -0.033747155 0.016653888 0.018527381 -0.3859473 0.02652387 -0.049659204
-0.28877303 0.552689 0.04994147 -0.12615576 -0.0049714115 0.19078785 0.48077193 0.27346346

linear2.bias f4 [3]
00000000: 4427 9b3e e420 17be 4801 19bd
0.30303395 -0.1475864 -0.037354738
