DDQN_models/prb-model1-snapshot-score-6.pth (torch, 33751 bytes, 8 tensors)

layer1.weight_mu f4 [256, 11]
000000 1b 8f e2 bd 09 52 6b bc b8 46 c0 be 67 c7 08 bc
       -0.110624515 -0.01436282 -0.37553954 -0.0083483225
000010 b9 a4 b5 bd 91 f2 8b be 4c 95 d8 3a e5 19 32 bf
       -0.08869309 -0.273335 0.0016523986 -0.6957076
000020 c8 4d e1 be fa b1 25 3f 68 97 2c bf 11 24 a0 3d
       -0.44004655 0.64724696 -0.6741853 0.07819379
000030 a9 55 fc 3d 2b 95 ec be e3 4c 3b be 88 06 02 be
       0.12321026 -0.46207556 -0.18291049 -0.12697804
000040 05 5a a2 be 68 ca 0f bf 21 d1 c4 be 1b 95 e6 be
       -0.31709304 -0.5616822 -0.38440803 -0.45035633
000050 ed aa e4 be 2a 70 6a be 1f e0 7a be 7a c0 27 3e
       -0.44661656 -0.2289435 -0.24499558 0.16382018
000060 58 25 2c be 7a 85 68 be cd e2 1f bf fc 55 21 be
       -0.1681112 -0.22707167 -0.62455446 -0.15755457
000070 c2 e5 92 be 6a d6 d8 be 9a 2b 56 be 07 1e 9d bd
       -0.28690916 -0.42351085 -0.2091507 -0.07671743
000080 7b f6 f1 3d 0a 4c 0a be 49 9d ec bd db b2 e1 bc
       0.118145905 -0.13505569 -0.11553437 -0.027551105
000090 8b 0e 67 be 20 3c 78 be 36 5f 49 be ee a0 8e bd
       -0.22564141 -0.24241686 -0.19665226 -0.06964289
0000a0 3e af c3 bd 88 e8 d5 bd fc 28 61 bd 0c ac 40 3e
       -0.09554909 -0.104447424 -0.054970726 0.1881563
0000b0 00 dc 4a 3e 6e 25 92 be 1a 83 20 bf bb c7 0d bf
       0.19810486 -0.28544182 -0.62700045 -0.5538289
0000c0 dd 69 9c be 9a 7e ff be 4a c2 4a bd 71 ec e1 be
       -0.30549517 -0.49901277 -0.049501695 -0.44125703
0000d0 e0 da 31 3e 98 e4 5b 3e 05 43 c1 3e 9a 15 e8 be
       0.1736865 0.2147392 0.37746444 -0.4532898
0000e0 3e 0e 0b 3e 1f ec d7 bd b6 bd a1 3d 16 a3 fb bd
       0.13579652 -0.105430834 0.078975126 -0.122869655
0000f0 e5 f0 94 be 92 e9 8a bd e7 c1 2d bd e6 45 9e 3e
       -0.29090038 -0.06782831 -0.042421248 0.30912703
000100 83 58 7f 3f 92 7b a0 bf e8 7c 01 be 40 80 30 be
       0.99744433 -1.2537711 -0.12645304 -0.17236423
000110 a5 48 cb 3d 0f c5 03 bf e5 2c 2b be 02 df 99 be
       0.09925965 -0.5147256 -0.16716345 -0.30052954
000120 e3 9e 19 be f3 93 14 be 24 fd b8 be 03 a8 08 3f
       -0.15002017 -0.14509563 -0.3613063 0.53381366
000130 dc 5b 8c bb 2d 1a 2d 3d a2 2e 15 be bc a9 39 3e
       -0.0042834114 0.04226129 -0.1456857 0.18131155
000140 bf 0d f3 bd 56 ae 28 3e 59 60 55 be f5 fc b6 3c
       -0.11867856 0.16472754 -0.20837535 0.022337416
000150 af 4a 42 3e e9 2d 25 3f 7c 50 ad bf b8 7c 7e bf
       0.18973802 0.6452318 -1.3540187 -0.99409056
000160 08 95 60 be 3d 5d b6 be 78 0f 99 3c 34 1d 57 3e
       -0.21931851 -0.3561801 0.018684134 0.21007234
000170 42 d4 0c be 72 38 b4 be 91 1a b8 bd ed b3 30 bd
       -0.13752845 -0.35199314 -0.08989442 -0.04314034
000180 2c 7b 16 bf bb 57 ab 3e 7f 0c 99 3e dd ac cb 3e
       -0.58781695 0.3346537 0.29892346 0.39780322
000190 6d 85 c0 be e8 1e dd 3e 14 ce df be 8a 0b 3a 3d
       -0.37601796 0.43187642 -0.43711913 0.04542116
0001a0 16 36 9d 3c 12 21 09 3e b8 cd 50 bd 69 4d 88 bf
       0.01919083 0.13391522 -0.05097744 -1.0648624
0001b0 0f b2 15 3f a4 6b 2e 3f 72 cc a4 be 38 58 33 3e
       0.5847482 0.68132997 -0.3218723 0.17514122
0001c0 83 cc cb bd 85 e7 b5 be 31 7a 91 be 86 35 0e bf
       -0.09951117 -0.35528198 -0.28413537 -0.5555042
0001d0 bf 15 98 be f5 82 87 be 0c fc 9d 3e fd 4e 82 be
       -0.2970409 -0.264671 0.3085636 -0.25450888
0001e0 9f 01 9a 3d 9e d7 29 3f 40 c7 f9 be be b4 39 3e
       0.075198404 0.6634463 -0.48784828 0.18135354
0001f0 d7 a4 39 bf 8c 11 f5 3d d4 4d 0f 3e 95 d7 77 3e
       -0.7251715 0.119662374 0.13994533 0.24203332
000200 d2 7f 08 be cc 0f 7e bf 08 ba f6 3e 37 1a 0f 3f
       -0.1333001 -0.99242854 0.48188806 0.55899376
000210 84 f9 87 3d 25 d9 2a bf ad 6e 20 be d8 ee 0e be
       0.06639388 -0.66737586 -0.1566722 -0.13958299
000220 04 7e bf 3d 1c 3a fc be f0 85 dd 3d e6 99 d5 be
       0.093502074 -0.49263084 0.10816562 -0.41718978
000230 20 69 83 bd 93 d1 03 bf 6d 23 58 3f 02 51 fa 3d
       -0.064165354 -0.5149166 0.84429055 0.12222482
000240 a0 34 1e be fd 67 81 be b6 c5 a9 bd 36 65 67 be
       -0.15449762 -0.2527465 -0.082896635 -0.22597203
000250 73 b0 18 be 3c d2 cb 3d 04 b3 7f be 96 eb 14 be
       -0.1491106 0.099522084 -0.24970633 -0.14542994
000260 2a e9 38 3d 29 f4 84 be e4 9c 83 bd 45 3f 1d 3e
       0.045144238 -0.2596753 -0.06426409 0.15356167
000270 67 ae cc be 85 43 43 bd 6f 48 ff 3d 59 62 87 be
       -0.39976808 -0.047671814 0.124649875 -0.2644222
000280 72 49 ac be 27 4f 05 be 26 6f ea be 65 b1 be 3d
       -0.33649784 -0.13018475 -0.45787925 0.09311179
000290 32 ce 46 bd 84 7a 53 be a3 a9 77 bc f7 85 5d be
       -0.048536487 -0.20652205 -0.015116128 -0.21633135
0002a0 3d fb 93 be 3d 76 2c be 36 5e 96 be fb e1 91 be
       -0.28902617 -0.1684198 -0.29368752 -0.28492722
0002b0 4f 11 98 be c8 2d 9c be 91 8c d1 3d 50 4f 72 3e
       -0.29700705 -0.30503678 0.10231889 0.23663068
0002c0 57 47 02 bf 12 4a 9b bd 32 4e df 3e 75 db 57 3d
       -0.50890106 -0.07582487 0.43614346 0.052699525
0002d0 46 aa d8 be ae 90 9a be 3a 6b 09 bf fa 33 03 bf
       -0.42317408 -0.30188507 -0.5367924 -0.51251185
0002e0 f7 53 dd be 34 66 cf 3d f1 34 86 bd 9f 38 c4 bd
       -0.43228123 0.101269156 -0.065530665 -0.09581112
0002f0 7d a8 c6 bd 84 3e d6 bd 3c 9b 0d bd 8b 72 19 bf
       -0.09700105 -0.10461143 -0.03457187 -0.59940404
000300 0d 4b 37 be 56 b0 41 be bf 39 20 be 18 b9 6e 3e
       -0.17899723 -0.18914923 -0.15647028 0.23312795
000310 b2 bf d6 be 37 3d ea be fa 83 96 bc f5 af f0 be
       -0.41943127 -0.45749828 -0.018373478 -0.47009245
000320 a7 02 f5 bd 4a 50 28 be 6e e7 59 be 57 b5 83 be
       -0.119633965 -0.16436878 -0.2127969 -0.2572429
000330 76 15 5c be bd 44 9c 3d 94 4e f4 3e b3 79 c4 3e
       -0.21492562 0.07630298 0.477162 0.383741
000340 f2 3e b8 be 25 f9 de 3d 8a b3 06 be 41 52 ae 3e
       -0.35985523 0.10887364 -0.13154426 0.3404713
000350 bb 2a bb be bb 44 d2 be 17 9e 98 be da 41 82 be
       -0.36556038 -0.41068062 -0.29808113 -0.25440866
000360 ad fa 10 bf 8f 5e d5 be ab 5b bd 3d 2c 51 a9 be
       -0.566325 -0.41673705 0.09246 -0.33069742
000370 2a db 8e be fa 8f b7 bc a0 f5 d9 be ce d9 88 3e
       -0.27901584 -0.02240752 -0.4257021 0.26728672
000380 51 2d 9e 3d bf c6 82 3c 7b 8f 8c be f7 dc d2 be
       0.07723487 0.01596391 -0.27453217 -0.41184208
000390 42 ee 21 bf 47 49 f6 be 90 0a 23 3f 07 f0 42 3e
       -0.6325418 -0.4810278 0.6368799 0.19036876
0003a0 92 67 2f bf 14 49 d7 3e 78 42 fc be cd fd 7f bb
       -0.6851741 0.42047942 -0.49269462 -0.003906119
0003b0 6e d4 ec 3c 1b 14 43 be 20 01 f0 3d 88 42 24 bd
       0.028909888 -0.19050638 0.117189646 -0.04010251
0003c0 f3 1f 29 bf d5 27 5f 3f 9f ac 24 bf 52 8a 28 be
       -0.66064376 0.87170154 -0.643259 -0.16459015
0003d0 b2 d0 2b be 2f 03 04 3e 8c 6f 00 bf 3e a1 3c be
       -0.1677883 0.1289184 -0.5017021 -0.18420884
0003e0 a4 d5 2e be 62 bf 9a be f2 c6 88 be a2 f4 0a 3d
       -0.17073685 -0.30224138 -0.26714283 0.033924706
0003f0 da b4 bb bc d7 f4 a8 be 8a 38 33 3e 72 68 cf be
       -0.022913385 -0.32999298 0.17502037 -0.40509373

layer1.weight_sigma f4 [256, 11]
000000 af ba 50 3d 00 02 a7 3d c7 9a 9d 3d f8 e2 a7 bd
       0.050959285 0.08154678 0.07695537 -0.08197588
000010 ee 9f 30 3d 2c a3 ab bd 61 68 a3 bc 7f 03 be bc
       0.04312127 -0.08380732 -0.019947233 -0.023195026
000020 b2 06 8c 3d 67 c6 bc bc 5f a9 1f ba 8b e4 c5 3c
       0.068372145 -0.023043824 -0.0006090607 0.02415683
000030 f6 07 e8 bb ab 0b ca 3b 8f 07 1a 3e d7 1a 81 3d
       -0.007081027 0.0061659417 0.15041946 0.063039474
000040 f6 67 f5 bc 10 6f 2e 3d c0 15 38 3d 47 97 d0 3d
       -0.029956799 0.042586386 0.044942617 0.10185104
000050 87 54 31 3d 61 74 04 3e db 73 39 3d 74 18 89 be
       0.043293502 0.1293502 0.045276504 -0.2677647
000060 da 22 c4 bd b6 51 e8 bc c2 4b af 3d 59 74 09 3e
       -0.0957696 -0.028359275 0.085593715 0.1342329
000070 cc 75 7b 3b 9e b2 2d bd 5c 94 31 3e dd 91 07 be
       0.0038369773 -0.04240667 0.17341751 -0.13239236
000080 c6 ca 05 be 6e f5 a7 3b ba 3a da bc c2 2c 6f 3c
       -0.13065633 0.005125693 -0.026639331 0.014598073
000090 6e f5 a7 3b 6e f5 a7 3b 6e f5 a7 3b 6e f5 a7 3b
       0.005125693 0.005125693 0.005125693 0.005125693
0000a0 6e f5 a7 3b 6e f5 a7 3b 6e f5 a7 3b dc 44 c1 3c
       0.005125693 0.005125693 0.005125693 0.023592405
0000b0 f0 60 e5 bd 6d 51 4d be a4 48 8c bd 2b ec 29 3e
       -0.1120013 -0.20050593 -0.068497926 0.16593997
0000c0 ad 71 87 bd e9 61 ef bd de 08 c3 bc c5 e0 57 3c
       -0.06613479 -0.11688597 -0.02380794 0.013176148
0000d0 a5 81 4f 3c 76 d6 22 3e 50 16 09 3e 7b e2 d6 3d
       0.012665187 0.15902123 0.13387418 0.104924165
0000e0 31 6f 65 bd e4 f3 13 be 51 84 27 bd 81 15 7f 3d
       -0.056014244 -0.14448506 -0.04089767 0.062276367
0000f0 7e bd 79 bc 99 d4 2b 3e 12 46 c1 3d a8 45 84 bb
       -0.015242932 0.16780318 0.09437193 -0.004036624
000100 6e c9 33 be 32 97 e0 3c f8 f2 5d 3d f3 d7 68 3e
       -0.17557308 0.027415846 0.05418679 0.22738628
000110 79 d7 95 3c 52 b0 10 3d 21 78 1e bd ca 39 09 be
       0.018291222 0.035324402 -0.038688783 -0.13400951
000120 f5 ca 54 3c 6e da 0e bc 8e 84 28 3e 02 43 26 be
       0.012987842 -0.00871907 0.16456816 -0.16236499
000130 78 be 94 3c 52 3c 33 bd 12 56 ba bc 01 18 e5 bb
       0.018157229 -0.043758698 -0.02274612 -0.006991387
000140 01 18 36 3d b8 f9 f0 3c a4 85 15 bd 50 96 a2 3b
       0.044456486 0.02941595 -0.036504403 0.0049617663
000150 12 a1 16 3d 6b c8 9d bd 1d 37 c0 3b b1 33 a0 3c
       0.036774702 -0.07704242 0.005865945 0.019555898
000160 3c 7c 9a bc b7 32 10 be a2 69 2f bd 04 3f 61 be
       -0.018858068 -0.14081846 -0.04282535 -0.21996695
000170 28 bf 13 bd 62 e6 c1 bc cb 5a 35 bd 4d b7 5a bd
       -0.036070973 -0.023669425 -0.04427604 -0.053397465
000180 e2 b4 a7 3d ef 5f a1 bd e9 4c 5d 3e c6 48 c3 3d
       0.081887975 -0.07879626 0.2161137 0.09535365
000190 94 55 b2 3d 78 8f 02 be 47 33 a4 bc f9 16 d0 3a
       0.08707729 -0.12750041 -0.020043982 0.0015875987
0001a0 a4 b3 19 3e b8 3b 33 3b de cd 1a 3d f1 77 05 bd
       0.15009934 0.0027348828 0.037793986 -0.03258509
0001b0 de 65 02 3b 7e 42 be 3d c2 da 99 bd 9f 98 37 3d
       0.0019897143 0.09290026 -0.07512428 0.044823285
0001c0 79 21 a5 3d b7 43 a6 3c 46 2e e6 bd 88 38 c7 bd
       0.08063025 0.02029596 -0.11239295 -0.09727579
0001d0 56 52 b3 bc c1 c0 99 bd ae 67 0c 3e 4a 05 46 3e
       -0.021889847 -0.07507468 0.13711426 0.19337955
0001e0 d5 7e 22 bd 8e 97 48 bd 67 87 93 bd 79 70 cc 3d
       -0.039671738 -0.04897266 -0.0720356 0.0998239
0001f0 5b 2e e0 3c 82 18 0c ba 59 93 71 3d f9 8d 8d bc
       0.027365854 -0.0005344228 0.058978412 -0.017279612
000200 bd 80 84 3d f2 00 23 bc 99 7d b5 3d 4c 5f 02 3c
       0.064698674 -0.009948956 0.088618465 0.007957291
000210 ee 9b 38 3c 86 fd a7 bc ee 45 91 ba 2e fc d6 bd
       0.011267645 -0.020506632 -0.0011083463 -0.10497318
000220 be b3 f4 3d 02 d8 94 3c db 45 0c bd 30 e5 72 3c
       0.119483456 0.018169407 -0.034246307 0.01482515
000230 d9 0c 96 3d 96 a9 49 3d 1c 2a 04 3d f3 21 56 3c
       0.07326669 0.049233995 0.03226672 0.013069618
000240 6e f5 a7 3b 6e f5 a7 3b 6e f5 a7 3b 6e f5 a7 3b
       0.005125693 0.005125693 0.005125693 0.005125693
000250 6e f5 a7 3b 6e f5 a7 3b 6e f5 a7 3b 6e f5 a7 3b
       0.005125693 0.005125693 0.005125693 0.005125693
000260 3e 62 e5 3c 6e f5 a7 3b 36 0c 81 3d c1 3d 21 bd
       0.028000947 0.005125693 0.06301157 -0.039365534
000270 f7 66 a7 3d 39 c9 36 3c eb 91 a4 3b 5d f1 d5 3b
       0.08173936 0.011156374 0.0050222776 0.006529017
000280 75 2a 9f 3c 21 b3 b2 3d 2e 33 23 bb 5f f6 44 3c
       0.019429425 0.087255724 -0.0024902332 0.01202163
000290 ea e5 ac 3e 38 5d 6a bb d2 c0 fe bc c6 2c 0d bc
       0.3376916 -0.003576113 -0.031097803 -0.008616632
0002a0 13 0b 0d 3d b8 d9 26 bd 6e f5 a7 3b 7e 8b 4b ba
       0.03443439 -0.040734977 0.005125693 -0.00077646214
0002b0 6e f5 a7 3b 79 91 7e bd ab c3 10 bd 59 77 08 be
       0.005125693 -0.062150452 -0.035342854 -0.13326778
0002c0 fe bc 25 3d 36 2b 8c bd 70 50 90 3c 7e 6b 3a be
       0.04046344 -0.06844179 0.01761648 -0.18205068
0002d0 08 da ab bd a9 28 b8 3c 97 cc 90 3c d0 ea 87 3d
       -0.083911955 0.022480326 0.017675681 0.06636584
0002e0 89 52 56 be fc eb 04 be 6a 52 09 be 5e 25 3f 3c
       -0.20929922 -0.12980646 -0.13410345 0.011666624
0002f0 c8 2d a7 3d fc 4e 26 3e 5c fc 4a 3e f8 f6 98 bd
       0.08163029 0.16241068 0.1982283 -0.074689806
000300 a0 85 65 be 1e e1 fb 3d 88 ff e8 3a 00 03 dd bc
       -0.22414255 0.12298797 0.001777635 -0.02697897
000310 81 b7 b3 3d b4 44 a6 bc 6a e6 36 bd 95 c7 77 bd
       0.08775235 -0.020296432 -0.044653334 -0.06049307
000320 58 46 f7 bd 97 d3 ef 3d de 00 22 be 63 9c 4a bd
       -0.12073964 0.117102794 -0.15820643 -0.04946555
000330 06 41 52 be 04 52 87 bc f9 55 f8 bd 2b 01 80 3c
       -0.20532617 -0.0165186 -0.12125773 0.015625557
000340 cc 79 49 3e a9 16 3e be e4 d9 26 3e e0 94 58 bd
       0.19675368 -0.18563332 0.16294056 -0.052876353
000350 d8 8e 3f 3d 8b 25 76 3d 4b ae 62 bd af e6 95 bc
       0.046767086 0.060094398 -0.055342 -0.018298475
000360 80 7c 2c bd 81 0f dc bc 4e 99 12 be 5c df 43 be
       -0.04211092 -0.026862862 -0.14316294 -0.19128174
000370 3b 29 13 bd 18 b8 39 3e 3b 57 ff bc 1b 9e 97 bc
       -0.035927992 0.18136632 -0.031169524 -0.018508008
000380 de 34 9c 3d dc 4d 1a be 35 1f 73 bd c3 a5 1c 3e
       0.07627271 -0.15068763 -0.059355933 0.15297608
000390 d3 c0 39 3d bd 3d a5 bc 05 af cc 3d 2e 29 40 3d
       0.045349907 -0.02017104 0.0999432 0.046914272
0003a0 50 82 dc 3d b6 e1 c3 3d 35 99 5b 3d f9 9b 4e bc
       0.10767043 0.09564535 0.053612906 -0.012610429
0003b0 68 48 c1 3d bf d1 89 3c 4d 03 bf bd 8f 8b 83 be
       0.094376385 0.016823648 -0.093268014 -0.25692412
0003c0 a8 cf 8e bd db a5 6a bd fd 61 c6 bd 28 3e f1 3e
       -0.06973201 -0.05728708 -0.096866585 0.47117734
0003d0 8d 67 39 bb c7 79 9d bd a8 df 13 bd 07 2b 09 be
       -0.002829048 -0.07689243 -0.036101967 -0.1339532
0003e0 02 58 5b bb 72 69 a2 3d ac e8 34 3b 6d af fb 3a
       -0.0033469205 0.07930268 0.0027604504 0.0019202061
0003f0 4a 22 6d bd 2a 28 94 3b 92 f6 d0 bb d4 83 c0 bd
       -0.05789403 0.0045213895 -0.0063770497 -0.09400144

layer1.bias_mu f4 [256]
000000 95 71 5e bc 26 69 05 3e 37 ee a4 bd 89 21 a5 be
       -0.013576885 0.13028392 -0.080532484 -0.32252148
000010 cb ee 5a be 92 f8 19 be 51 6b 32 be 2c f0 00 3f
       -0.21380155 -0.15036228 -0.1742375 0.50366473
000020 f2 30 46 be 63 fa da be e0 32 8b be 30 29 01 be
       -0.19354609 -0.42769155 -0.27187252 -0.12613368
000030 0e 8a ad be a3 20 b3 be 1b 9b c3 be 81 79 0a be
       -0.3389439 -0.34985837 -0.38204274 -0.13522913
000040 3e 6e e2 3d 91 7c 33 be a7 b0 8c be 91 0c 15 be
       0.11056183 -0.17527987 -0.27478525 -0.14555575
000050 f0 df 4a be b2 97 6f be bc 72 f2 bb 24 3b d4 be
       -0.19811988 -0.23397711 -0.0073989313 -0.4145137
000060 3b 33 b6 3e 77 4d ff 3c 31 ee 68 3d dd 93 23 bc
       0.3558596 0.031164868 0.056867782 -0.009983984
000070 23 37 fa bd f1 09 33 be b4 f4 af bd 65 87 c3 be
       -0.12217548 -0.17484261 -0.08591595 -0.38189235
000080 7d eb 93 be 16 bf 01 bf b7 e8 bb be 4c 65 5b bf
       -0.288906 -0.506822 -0.36700985 -0.8570144
000090 11 79 66 be 34 a7 c6 be 85 6b 4f be 5b ab ab be
       -0.2250712 -0.3879944 -0.20255859 -0.3352917
0000a0 70 95 1c bf 0b 9f 6e be 53 3b c1 be 86 9f 98 bc
       -0.61165524 -0.23302858 -0.37740573 -0.018630754
0000b0 a3 91 5e be 8a 16 25 3e 7b 96 21 be 4c 6b bb 3d
       -0.21735243 0.16121879 -0.1578006 0.09151325
0000c0 5b 15 36 be ce 74 7c be 52 ea 7d be 4b 73 73 bc
       -0.17781584 -0.24653932 -0.24796417 -0.014859031
0000d0 eb 6a c6 be 5f c0 f0 3d 90 7a 1c bf 8f 3e 83 be
       -0.38753447 0.11755442 -0.61124516 -0.25633666
0000e0 b7 0d c1 3e d9 dc 8e be f1 c1 08 3f ca ca ea bc
       0.37705776 -0.27902868 0.5342093 -0.02866115
0000f0 0b e5 ac be 38 bb da be 65 82 8a be 7d 6c 85 be
       -0.33768496 -0.42720962 -0.27052608 -0.26059332
000100 3d 56 83 be 90 e5 ce bd eb 06 a3 3e 11 2a 17 bd
       -0.25651732 -0.10102379 0.31841215 -0.036905352
000110 ad ed 9e be b9 04 64 bd 8b 04 11 be 46 65 bb be
       -0.31040707 -0.055668566 -0.1416189 -0.36600703
000120 3c d6 88 3d 56 97 9c bd 4b f5 41 be 28 0f 1c be
       0.06681487 -0.076460525 -0.18941228 -0.15240157
000130 2d 4b c4 be ff 1d 62 be 43 7e 01 bf 56 41 5e be
       -0.38338605 -0.22081755 -0.50583285 -0.21704611
000140 e4 0b c0 be a5 79 62 be 54 82 c8 be 63 71 d6 be
       -0.37509072 -0.22116716 -0.39161932 -0.41883382
000150 50 ec 7d 3c 7e a7 c9 be 48 7e 11 3f 63 cc 94 be
       0.015498236 -0.393856 0.56833315 -0.29062185
000160 d2 e8 21 be d4 c6 80 bc 52 9b 1e bf 89 03 a3 be
       -0.1581147 -0.015719809 -0.6195575 -0.31838635
000170 f4 4a 18 be 9b 4b e5 be 93 20 23 be 1d 78 cd be
       -0.14872342 -0.44784245 -0.15930395 -0.40130702
000180 95 53 37 be 40 2f 66 be 15 5c bc be 04 ff e7 3e
       -0.17902978 -0.22478962 -0.36789003 0.4531175
000190 87 e9 c6 be b7 e3 97 be 66 70 da be 26 45 e8 bc
       -0.38850042 -0.2966592 -0.42663878 -0.028353285
0001a0 11 6e ed bc 14 89 c5 be 45 60 37 bf 31 23 ab 3e
       -0.028983148 -0.38581145 -0.7163127 0.33425286
0001b0 78 87 8e be 80 ef 96 be 88 1a 2b be be 6c 09 be
       -0.2783773 -0.294796 -0.1670934 -0.13420388
0001c0 36 fe ac be a1 79 d5 3e 17 81 bc be 4b 24 27 bf
       -0.33787698 0.41694358 -0.36817238 -0.65289754
0001d0 d3 ab 8d be 28 85 22 be 71 2b 90 be bf b7 c7 3d
       -0.27670154 -0.15871108 -0.28158143 0.09751844
0001e0 9a c5 98 be 60 51 21 bd 96 24 9b be c7 b6 4a be
       -0.29838258 -0.039384246 -0.3030135 -0.19796287
0001f0 a5 60 a6 3c b2 45 92 be c7 18 4a be 93 6b 8a 3e
       0.020309756 -0.28568798 -0.19736014 0.27035198
000200 15 bd da 3d 55 dd 69 be 36 a7 da be 20 3b 7b 3d
       0.10680596 -0.22838338 -0.42705697 0.061335683
000210 2e dd 1a bf 2c 22 ea 3c 82 fe 79 be 89 39 37 be
       -0.60493743 0.028580748 -0.24413493 -0.17893042
000220 58 e1 35 be fc 36 87 be 2b 74 81 3e 86 ac e8 3d
       -0.17761743 -0.26409137 0.25283942 0.11361031
000230 a0 3a 04 bd 3e 6a 98 be 3a 8b 47 3d 81 cb 7f be
       -0.03228247 -0.29768556 0.04871676 -0.24979974
000240 56 79 3a bd 00 b1 61 be dc bf b4 be 4c fc 0a be
       -0.04552587 -0.22040176 -0.35302627 -0.13572806
000250 45 4f a5 be 9e 6b ab bd aa 4f de 3e eb 20 ec bd
       -0.3228704 -0.08370136 0.43420154 -0.11529716
000260 7a 41 a1 be c4 e6 bd be b0 57 f8 3d 9f 3a 47 be
       -0.31495267 -0.37090123 0.121261 -0.19455956
000270 f7 98 b0 be 24 93 63 be 6b b2 59 be de f0 04 bf
       -0.34491703 -0.22224098 -0.21259467 -0.51930034
000280 15 4c cb be 8b 46 31 3f 34 cb 80 3e f6 c3 b7 be
       -0.39706483 0.69248265 0.25155032 -0.35891694
000290 18 b6 53 3e 35 e2 d2 be f8 65 7b 3d 10 1a 84 be
       0.20674932 -0.41188207 0.06137654 -0.25801134
0002a0 f5 38 83 be 7b 34 36 bd 23 8c 74 be 0c de 48 3d
       -0.25629392 -0.044483643 -0.23881583 0.049039885
0002b0 c9 2d 3e 3e 92 0f a4 bd ec 94 4c bf a8 bd be 3d
       0.18572153 -0.08010782 -0.79914737 0.09313518
0002c0 28 9c ee be 32 d9 c4 be 89 bc a1 be f1 c0 5b bf
       -0.46603513 -0.38446957 -0.31589153 -0.8584128
0002d0 50 ee a3 be 07 e4 c0 3d 6a 50 a6 be 32 3f 89 3d
       -0.32017756 0.09418493 -0.32483226 0.06701507
0002e0 3c a1 75 be 6d 9f 86 be 44 b0 a9 be 72 70 93 be
       -0.23987287 -0.26293507 -0.33142292 -0.28796726
0002f0 24 dd 76 3e 98 5f 18 be 72 21 bf 3d d9 3d 55 bb
       0.24107796 -0.14880216 0.09332551 -0.0032538085
000300 4f d2 e9 bd 57 45 d4 be 87 de 02 be 13 33 aa be
       -0.11417066 -0.41459152 -0.127802 -0.33242092
000310 a9 47 07 be 54 98 5a bf 41 50 cc bd 4b f1 a6 be
       -0.1321093 -0.85388684 -0.09976245 -0.32605967
000320 84 3f e9 be 51 e4 25 be 6c 50 6a bd 66 93 41 be
       -0.4555627 -0.16200377 -0.057205603 -0.18903884
000330 78 f1 21 3e ec 00 0f bd 7a 5f b9 be af 86 e3 bd
       0.1581477 -0.03491299 -0.36205655 -0.11109673
000340 7f 90 b8 be ed 6c 82 bc 68 28 78 be 9e cd 45 be
       -0.36047742 -0.01592108 -0.24234164 -0.19316718
000350 25 71 0c bb df 80 03 bf 6e f8 0e bd 68 5d 3b be
       -0.0021429744 -0.51368517 -0.03490489 -0.1829735
000360 cd 87 ac be 6c 71 a5 3d a6 47 fb bd f4 54 10 be
       -0.33697358 0.08078274 -0.12269525 -0.14094907
000370 04 1a 95 3c f0 3a 81 be 59 0d da bd df 96 83 be
       0.018200882 -0.25240278 -0.10647077 -0.25701043
000380 df a0 4b be db 2e 57 3c 96 75 1f bf b4 07 2b 3d
       -0.19885586 0.01313373 -0.62288797 0.041755393
000390 17 19 1f 3e 34 62 54 be 3e f6 5c be 77 0a ba be
       0.15536915 -0.20740587 -0.21578309 -0.3633611
0003a0 18 86 8b be 7f 58 ba 3d e2 81 e9 bd 9f df c3 be
       -0.27250743 0.090989105 -0.11401726 -0.38256547
0003b0 5a 38 de be b2 c2 cf be ec af cf be 9f d0 b2 be
       -0.43402368 -0.40578228 -0.40563905 -0.3492479
0003c0 3f 43 cc bd dd 22 4b be ce 3c 1f be 04 07 a6 bc
       -0.09973764 -0.19837518 -0.15550539 -0.020267017
0003d0 1f 74 f5 bd 68 6d 17 be 51 b1 bc bd 7a f1 71 3e
       -0.11985039 -0.14787829 -0.09213508 0.23627272
0003e0 b0 b4 42 bd 6f 89 0c 3f c9 ae a5 be 6f 3d 3b 3b
       -0.0475356 0.5489721 -0.32359913 0.0028570553
0003f0 d9 da 9b 3e c0 d8 63 be f4 6e d0 be 02 d1 16 3d
       0.30440405 -0.22250652 -0.4070965 0.03682042

layer1.bias_sigma f4 [256]
000000 2d be bb bc b6 b6 0f be e0 7f 1b bc 1c 1b 76 bc
       -0.022917831 -0.14034542 -0.009490937 -0.015021112
000010 b8 c4 91 3e 16 2d 8a bc fb 6b 95 3c 9b 1a 13 bd
       0.28470397 -0.016867202 0.018239966 -0.035914045
000020 4c 2d e0 bd 43 b4 c4 3b f8 66 3e bd 4c 87 64 bd
       -0.1094614 0.006002934 -0.046484917 -0.05579309
000030 ad 9e e0 bc d4 dd 3e ba 3a 2b 17 bd 2b 3f 71 bd
       -0.027419413 -0.000728098 -0.03690646 -0.058898132
000040 77 ce 89 bd 96 1c 33 3e be 37 a1 3e 02 1e 8a bd
       -0.06728833 0.17491373 0.3148784 -0.06744005
000050 50 60 ca bb f9 6a 4f 3c 7e e1 0c 3e 8d 4d 08 bd
       -0.006176032 0.012659782 0.13757893 -0.033277083
000060 5b 53 d0 3c 15 41 52 3d 5a 0e c4 3d d5 b6 11 be
       0.025430372 0.0513316 0.0957305 -0.14229901
000070 b8 0b 29 3d 50 6f 03 3e 7a 67 05 3c ba de 8c bd
       0.04127094 0.12835431 0.0081423465 -0.06878419
000080 dc 6d 8a 3d 9f 68 a4 3d 55 d1 4a 3d 37 e9 b2 b9
       0.06759235 0.080277674 0.04951604 -0.00034124564
000090 e6 da 3a 3d 4e 96 34 3e 77 02 1b 3e 7d 02 41 bd
       0.045618914 0.17635462 0.15137659 -0.047121514
0000a0 45 e6 85 3c 05 00 4b 3d a7 5a 9f 3d db 76 18 bd
       0.016345153 0.049560566 0.077809624 -0.037222724
0000b0 e8 6b 6d 3e 94 f3 30 3d 31 c5 52 3e ce 34 ff 3b
       0.23185694 0.043201044 0.20583035 0.007788277
0000c0 20 50 18 bd 82 39 89 3d d2 bc 28 bd a8 0a 49 3d
       -0.03718579 0.06700422 -0.041195698 0.04908243
0000d0 de 29 ac bd 34 91 2a 3d 68 d2 e7 bd 15 cf 98 3d
       -0.08406423 0.041642383 -0.11319429 0.07461373
0000e0 8b 24 48 bd 3a f2 d1 3c aa 52 ca bb 4b d9 72 3e
       -0.048862975 0.025628198 -0.006174405 0.23715703
0000f0 af c2 67 3d c8 6c 60 bc 3c 39 05 bd 6e f5 a7 3b
       0.05658215 -0.0136978105 -0.032525286 0.005125693
000100 77 45 84 3e 4e 29 f3 3d 79 3f f1 3b 75 53 59 3d
       0.25834247 0.118731126 0.007362303 0.053058106
000110 8f 4d 51 3d d3 d2 8a 3e e8 9c 01 bc bc 78 c4 bd
       0.051099356 0.2711397 -0.0079109445 -0.09593341
000120 7b 75 8a 3d 09 30 8c 3d 6e f5 a7 3b ba 09 dd bd
       0.06760689 0.068450995 0.005125693 -0.10792871
000130 c0 9e 08 bd 88 38 bb 3d 20 ae 88 3d 38 cc 13 3d
       -0.03335452 0.09141642 0.06673837 0.03608343
000140 29 07 a7 bc c7 62 71 bc 49 62 ad 3a 2b 21 58 3d
       -0.020389156 -0.014733023 0.0013228144 0.052766006
000150 58 cf 84 3d 60 ad 01 bb 25 f2 cf 3c 08 31 97 bb
       0.0648486 -0.0019787177 0.025384018 -0.0046139993
000160 af 45 e8 bd 72 19 b9 3d 28 26 ec 3c de 6d 8a be
       -0.11341416 0.090380564 0.028826788 -0.27036947
000170 61 be a2 3c 0a c0 db 3c 83 9c a0 bc e2 1f 1c bc
       0.01986617 0.02682497 -0.01960588 -0.009529086
000180 e2 99 8d be f9 91 59 bd 1d 4d b4 3d bf 73 b0 bc
       -0.27656466 -0.053117726 0.08803771 -0.021539567
000190 e4 e5 68 bd 55 8c d6 bd 4a a5 9a 3c 43 fa 35 be
       -0.056859866 -0.10475985 0.018877644 -0.17771249
0001a0 84 ab cb 3d 9c b3 d0 bd 7c 01 0b 3d ce 7a e0 3d
       0.099448234 -0.10190508 0.033936962 0.10960923
0001b0 2e fe 2b 3c 22 d4 1b 3e 36 c5 02 be 2c 09 8e 3d
       0.010497613 0.15217641 -0.12770543 0.06935343
0001c0 b1 46 3d 3d 49 cf 2d 3c 36 93 b6 3b 70 fc a1 ba
       0.046209995 0.010608503 0.005571748 -0.0012358557
0001d0 66 49 4f 3d 58 4f da 3c 88 16 05 bd 90 94 4b bd
       0.050607108 0.026649162 -0.03249219 -0.049702227
0001e0 53 d2 9c bd d6 95 9f bd 8c e9 db bd 5e 23 21 3c
       -0.07657304 -0.07792251 -0.10737905 0.009835092
0001f0 de 81 a4 bb be b8 96 bd 60 d3 c7 3d 6c 6f a2 bc
       -0.005020364 -0.073594555 0.097571135 -0.01982852
000200 da eb 49 bd ca d0 73 3d fc ea cd bc f7 0d 9f bc
       -0.04929719 0.05952529 -0.025136463 -0.019415839
000210 43 07 ba 3d 71 f3 b9 3c 6e f5 a7 3b c0 5e 1d 3a
       0.09083416 0.02269909 0.005125693 0.00060031936
000220 6e f5 a7 3b c5 63 b2 bc cf ae c6 bc dd c9 a7 bb
       0.005125693 -0.02177609 -0.024253277 -0.0051204995
000230 6f 5a 05 3d ad 52 22 3c cc e2 cb 3d 6a 61 2b bd
       0.032556947 0.009907407 0.099553674 -0.04184095
000240 a8 22 30 3e fc a2 83 bc 0e 4a 43 3d 04 ff 8c 3c
       0.1720072 -0.016068928 0.047678046 0.017211445
000250 bd b8 f2 3b ca 8f a8 bd 16 a7 99 3d ba 4e ad bd
       0.0074072764 -0.082305506 0.07502572 -0.084622815
000260 c6 b5 52 3d 72 8e a9 3c 54 80 09 bd 72 fe 86 3d
       0.051442884 0.020697806 -0.03356965 0.065915
000270 7c d8 cf ba 76 21 ef bc bb 73 6e 3c 05 36 96 3c
       -0.0015857364 -0.02919076 0.0145539595 0.018336305
000280 2d d2 8d 3d 05 2a 45 bd 8d 09 0a bc ed 55 c4 3c
       0.069248535 -0.048135776 -0.008425129 0.023966754
000290 92 bd ab 3d c6 ee 9c 3d 6b 6e 0c ba 50 0b 02 3d
       0.08385767 0.0766273 -0.000535703 0.03174907
0002a0 4d cd 83 bc d8 67 ba 3d 24 26 41 3c 85 14 16 3e
       -0.016089106 0.09101838 0.011788879 0.14656265
0002b0 ba 18 1e bd 2e fc 3b 3d 11 9c 8c bd 9e 45 04 3b
       -0.0385978 0.045894794 -0.06865705 0.0020183097
0002c0 c8 bf 50 bb 3e e6 73 3e 5e 9e b8 bc 8b b4 8b 3d
       -0.0031852592 0.23818299 -0.022536453 0.06821545
0002d0 6d 70 04 3e 9a f6 4d bd 22 21 a6 bc b5 76 bc 3d
       0.12933512 -0.050284006 -0.02027947 0.09202329
0002e0 5d b0 3d 3d 49 0a 3f bc eb 18 26 be 18 a5 10 3d
       0.04631077 -0.011660167 -0.16220443 0.035313696
0002f0 1e de 04 be 9e bf 3b 3d 13 44 da 3d 47 3f 32 be
       -0.12975356 0.045837037 0.106575154 -0.17406951
000300 49 cf 9e bc 40 57 ea 3c 6b 1b f6 bd 5e d0 08 3d
       -0.01938595 0.028606057 -0.12016948 0.03340184
000310 ba ac a1 be 18 b1 06 3e 34 41 b9 3d 8a ea f0 bc
       -0.31577092 0.13153493 0.0904564 -0.029408712
000320 6c 11 5f be 3c bc b0 bd 41 80 2d be 2d 48 b6 3d
       -0.2178399 -0.08629653 -0.16943456 0.08900485
000330 3e 85 54 bd c3 ac 8f 3c bd f1 7a bc 1c bb 17 bd
       -0.051884882 0.017538434 -0.015316424 -0.037043676
000340 26 18 0c 3c 08 90 20 3e f4 ee 9d 3c 26 78 2f 3e
       0.008550679 0.15679944 0.01927898 0.17135677
000350 41 14 e9 3d ff 31 01 bd 1f 35 b0 bd 43 ef 41 3c
       0.11380816 -0.03154182 -0.08603882 0.01183683
000360 64 ab b3 bd 36 fb 20 3d 81 2e 06 be fe bb 09 bc
       -0.087729245 0.039302073 -0.13103677 -0.008406637
000370 09 48 90 bc a1 f0 a8 3c fb 5d e8 3d 7e 77 1f 3e
       -0.017612474 0.020622553 0.1134605 0.15572926
000380 8e 07 27 3c 60 d0 21 be 85 0c 18 3c f6 51 51 be
       0.010194672 -0.15802145 0.009280329 -0.20441422
000390 68 e3 d9 3c d6 51 c8 bc c4 f3 a2 3d 8a ee 06 3c
       0.026597694 -0.024453085 0.07956651 0.008235583
0003a0 f2 0f 05 be fa 14 76 3c 91 4a be 3d d9 eb 9d 3c
       -0.12994364 0.01501965 0.09291566 0.0192775
0003b0 1a 5c d8 3c 58 46 17 3c 58 3a 25 bc 1a a9 05 3e
       0.026411105 0.00923308 -0.010084711 0.13052788
0003c0 34 24 f5 bd b7 71 82 3d 9e 63 fd bd ba 15 fb 3c
       -0.11969796 0.06369346 -0.12372516 0.030650008
0003d0 ec cd e7 3c 6d 2d 5c bd 49 4b c9 bd 6c ae 86 bc
       0.028296433 -0.05375426 -0.09828813 -0.016440593
0003e0 0d 44 91 bd da f1 95 3d f8 31 b0 bc e7 80 1b 3d
       -0.07093058 0.0732152 -0.021508202 0.037964728
0003f0 ef 87 1e 3d e7 b9 0a 3d 63 c7 c7 3c 99 3d 7f 3c
       0.038703855 0.033868697 0.024387067 0.015578651

layer2.weight_mu f4 [3, 256]
000000 62 77 5d 3d 1b 43 45 3e 5f 39 61 be b9 f4 8a 3c
       0.05406893 0.1926388 -0.21994542 0.016962396
000010 ec 35 a3 be cb 97 89 3e 31 83 e8 bd de a8 10 bd
       -0.31877077 0.2687362 -0.11353148 -0.035317294
000020 41 2d 34 3c 7e 50 50 be 87 a2 ef 3d 50 36 85 3e
       0.0109971175 -0.20343205 0.117009215 0.26018
000030 47 c5 b0 3e 40 4b 3a 3b df ca a6 3c b9 71 5e bd
       0.3452551 0.00284262 0.020360408 -0.054307673
000040 0f 47 89 be 68 bc c5 bd 50 b4 3a be 3d 04 a7 be
       -0.26812026 -0.09655076 -0.18232846 -0.3262042
000050 3a c4 cd bd 97 01 b2 3c cf ca 8d be e5 62 74 3e
       -0.10047193 0.021729274 -0.27693793 0.2386585
000060 b1 00 a8 3e f4 00 ef 3d a9 66 38 bf 0f 78 d6 3e
       0.32813028 0.11670104 -0.72031647 0.41888472
000070 1c 3d 29 be e3 13 f0 be 62 79 85 3e 1c 1b 8d be
       -0.16527218 -0.46890172 0.2606917 -0.27559745
000080 5a 00 46 3d 80 90 87 be bd ed 05 bf ed ac 7a bf
       0.04834018 -0.26477432 -0.52315885 -0.97920114
000090 d3 6c 9a be da 2c 52 be ab 65 20 be 83 f7 81 3e
       -0.3016115 -0.20524922 -0.15663783 0.2538415
0000a0 fd 1f 5f 3e 7e 32 fa bd c9 d5 b2 be 47 4c bb 3e
       0.21789546 -0.12216662 -0.3492873 0.36581632
0000b0 ed be 03 be e0 d4 21 3f 31 25 8c be 8b 1f d0 3e
       -0.12865801 0.63215446 -0.27372125 0.40649065
0000c0 c2 c8 ff 3e 68 06 05 bf fb 14 a7 3d 5d c6 57 3e
       0.49957854 -0.519629 0.081582986 0.21071763
0000d0 e9 71 67 be bd 2e b1 3e 71 ff f1 be 41 50 ca bd
       -0.22602047 0.3460597 -0.472652 -0.098785885
0000e0 56 d8 5d 3e fc f1 bb bd 86 3c 37 3d 8b 92 89 be
       0.21664557 -0.09177014 0.044735454 -0.26869616
0000f0 2e 0c e5 3d a9 4b 86 bd 4d 08 e4 bd 7e 68 2f bd
       0.11183964 -0.065574 -0.11134396 -0.04282426
000100 ca 2b 13 be 2d 54 4e be e9 29 3f 3e 73 8a 8f bc
       -0.14372173 -0.20149298 0.18668331 -0.017522072
000110 b1 21 23 bd 1f 7e 92 bc 08 70 fe 3d a7 ca 00 be
       -0.039827053 -0.017882405 0.12423712 -0.12577306
000120 1f dd fd 3d fa c9 24 bf 30 a6 7a bc b1 82 85 be
       0.12395691 -0.6437069 -0.015298411 -0.26076272
000130 58 ab 3f bc a7 bd 39 be a6 6d 06 bf d8 19 0b bd
       -0.011698566 -0.18138753 -0.5251106 -0.033960193
000140 6c 07 00 bd e2 38 68 bd ee e5 d6 3e 49 27 32 3f
       -0.031257078 -0.056694873 0.41972297 0.69591194
000150 ae 7e a9 3d a5 f6 b4 be eb 03 8f 3e 34 31 5c bd
       0.08276115 -0.35344425 0.27932677 -0.05375786
000160 92 1b 40 be 3d 60 9f be 69 e2 26 bd 7c a8 42 be
       -0.18760517 -0.3112811 -0.040743265 -0.19009584
000170 06 36 0d bd 08 35 73 be 45 b9 a6 3c 6f fc e9 3d
       -0.03447535 -0.23750699 0.020352015 0.11425101
000180 8c 42 6c be 60 2a 9a be c8 cb 8f be ec e7 b1 3e
       -0.2307226 -0.30110455 -0.2808516 0.34747255
000190 77 8e 83 3d 4a 72 27 be 82 7d 7e 3d 5e 67 72 3d
       0.064236574 -0.16352192 0.062131412 0.05918061
0001a0 76 d4 bd bd 0d 05 e4 3e e6 0a 02 bf 79 6d be 3e
       -0.09269039 0.44535103 -0.5079788 0.37192896
0001b0 c9 da 01 3d 3f 96 ec bd 3b 92 e2 3d 90 72 1e be
       0.03170279 -0.11552095 0.110630475 -0.1547339
0001c0 59 4a 05 bf ac fa 57 3e d8 50 11 3c c4 34 3b bd
       -0.5206657 0.21091717 0.008869372 -0.045704618
0001d0 a4 bd 31 be d8 cb 34 3e 23 69 81 3d 48 f2 67 3e
       -0.17357498 0.17655885 0.06318881 0.22651017
0001e0 59 3a 82 be 34 38 58 3e 6b eb 2c be 04 5c 06 bd
       -0.2543514 0.2111519 -0.1688668 -0.032802597
0001f0 86 d4 82 be 24 43 7b bd f1 09 95 3e 04 e8 c1 3e
       -0.25552768 -0.061343327 0.29109147 0.37872326
000200 de 48 bd be aa d8 15 be 77 40 f0 be 55 6e cc 3e
       -0.36969656 -0.14633432 -0.46924183 0.39927927
000210 43 49 e7 bd a2 9f 9e be ea c9 2d 3d b9 7a ba 3c
       -0.112932704 -0.30981165 0.04242889 0.022763597
000220 fa 91 16 bd 6e fe 14 be 7b 0e 46 3e a6 08 95 3e
       -0.036760308 -0.14550182 0.19341461 0.2910816
000230 ca a1 84 be eb 11 19 3e 36 fa 11 3e 7b 3d 5f 3d
       -0.25904685 0.14948241 0.14255604 0.05450199
000240 7a 58 83 be 14 3d 73 bf b8 18 e0 3d 97 ab 5c 3e
       -0.2565344 -0.9501507 0.10942215 0.21549831
000250 b3 8b a4 3c c1 24 61 3e 91 5a b4 3e 1b 3f 9a 3d
       0.020086145 0.21986677 0.35225347 0.07531568
000260 b5 59 78 bd f4 fd a3 3c 9e 5a 68 bf e8 28 86 be
       -0.060632426 0.020018555 -0.9076327 -0.26203084
000270 8a 99 5d 3b d5 61 d7 3e 50 1d 55 be 20 ed 40 be
       0.003381344 0.42066827 -0.20811963 -0.18840456
000280 97 6f 23 be f8 ca bd 3e 2d 3e aa 3e 76 91 31 3d
       -0.15960537 0.37068915 0.3325056 0.043351613
000290 16 e1 41 bd fb b8 62 3f 5a 57 67 bd c9 2d d8 be
       -0.0473338 0.8856351 -0.05647979 -0.4222243
0002a0 aa 5c 4f 3e 80 08 43 3e bc a8 74 3b f4 e0 24 be
       0.20250192 0.19046211 0.003733202 -0.16101438
0002b0 f8 87 7c 3d 28 28 8e be b7 f8 7d bf cf 63 64 3e
       0.061653107 -0.27765012 -0.99207634 0.22303699
0002c0 18 9b fc bd c5 36 76 3d 58 9f f2 bd 31 0f 63 bf
       -0.12334269 0.060110826 -0.11846799 -0.88695055
0002d0 ad ff a5 3d d8 48 1b bf 69 08 51 bd 6d f4 d3 3e
       0.08105407 -0.60658026 -0.05103341 0.4139742
0002e0 e1 81 66 3b 9e 7e cf 3c 49 5b 7e 3d 50 85 c3 be
       0.0035172629 0.02532893 0.062098775 -0.38187647
0002f0 10 51 13 3e 2c 43 61 3e 75 37 26 bf 6e 27 26 be
       0.14386392 0.2199828 -0.6492837 -0.16225979
000300 87 de 2b be 64 3c 02 bf 25 df df 3d fd 25 6c be
       -0.16784106 -0.508734 0.10931233 -0.23061366
000310 e0 c0 15 be 15 49 6c bf 8e 3c 8c be e0 66 1e be
       -0.14624357 -0.92299014 -0.2738995 -0.15468931
000320 f1 07 8e be 36 90 10 be f5 10 98 3e 7e b2 90 bd
       -0.27740434 -0.14117512 0.29700437 -0.07065295
000330 c8 5e 0f 3f 15 2e 17 3e 7b 88 f2 3e 57 cb 71 3d
       0.56004 0.14763673 0.4736975 0.05903181
000340 90 be 6e 3f b3 f3 da bc 10 6f 86 3b af 3d 1f be
       0.93259525 -0.026727533 0.004102595 -0.15550874
000350 91 06 84 bc f3 99 f3 be 40 48 95 3e c5 dd c0 be
       -0.016116412 -0.4757839 0.29156685 -0.37669197
000360 b2 df 30 be bc 66 26 3e 14 dc 86 bd fd 48 2d bd
       -0.17272833 0.16250128 -0.06584945 -0.042305935
000370 39 d7 c0 3e e4 0d 85 bd e0 44 ae 3d 64 4d 5e be
       0.37664202 -0.0649679 0.085092306 -0.2170921
000380 71 15 04 be 76 c1 95 3e 1a 7d f3 be 7e 49 54 be
       -0.12898804 0.2924916 -0.47556382 -0.2073116
000390 6d c2 77 3e 3d 36 3a bf 41 9b 93 be b8 cd 03 3e
       0.24195261 -0.7273901 -0.28829387 0.12871444
0003a0 2e c5 ae bd 39 c5 8b be 4b a5 48 bd ce b7 14 bc
       -0.08533703 -0.27298906 -0.04898576 -0.009077026
0003b0 df 2d 5c bd da 02 32 3c fb f0 99 be fe f0 be be
       -0.053754684 0.010864938 -0.30066666 -0.37293237
0003c0 c4 e1 dc 3d f7 04 2e be 2a de 67 be 0b 0a 25 3f
       0.10785249 -0.16994081 -0.22643343 0.6446845
0003d0 25 ea 2a bd 19 7d ae bd 3d 00 0b bf 0b 3a cf 3e
       -0.041727204 -0.08519954 -0.5429724 0.4047397
0003e0 1e fe 21 be a4 f1 c5 3e 6e 0d 8f 3d 9f 9c 21 bf
       -0.15819594 0.3866092 0.069849834 -0.6312961
0003f0 70 bd cc 3e 13 d5 cc 3c 54 62 cd 3e 93 5d b1 3d
       0.3998828 0.025003945 0.4011408 0.08660426

layer2.weight_sigma f4 [3, 256]
000000 86 da 10 3d 14 df d0 bd 1e 55 62 3c 8f a5 7f bd
       0.03536465 -0.10198799 0.013814239 -0.06241375
000010 5c ae 86 3d 58 ef 2a bd a2 e3 24 3e 15 d6 36 bb
       0.06576225 -0.041732162 0.1610246 -0.00278986
000020 4d f8 fd bd 89 aa fd 3c ee 3a fc 3d 2c 67 00 3d
       -0.12400875 0.030965107 0.123159274 0.031348392
000030 5e 63 7c 3d 96 43 8b 3a 23 06 a6 3d aa 35 be bd
       0.0616182 0.0010625 0.08106639 -0.09287579
000040 5a 06 28 3e 2c 5e e6 3c d8 5f 9e bd a6 0a 8d 3d
       0.16408673 0.028121077 -0.077331245 0.06886797
000050 bb 9d 33 3c f5 4c 96 bc dd d1 67 3d d1 e3 02 bd
       0.010962899 -0.018347243 0.056596626 -0.031955544
000060 3d b8 bc ba 6e 5a 5b be d5 aa c9 3c 5d 87 af 3c
       -0.0014398169 -0.21421215 0.024617592 0.02142685
000070 3c be ed bc f5 1c 7c 3e 44 77 c1 3b da dd 18 be
       -0.029021375 0.24620421 0.00590411 -0.1492838
000080 fc 26 1d 3e 7b ff b3 3d d2 dd 0e 3e 6e b3 5b bd
       0.15346903 0.087889634 0.13951805 -0.053637914
000090 f9 e9 02 3e c1 5c 83 bc ce 4c ad 3c b8 c7 fe bc
       0.12784566 -0.01603544 0.021154787 -0.031101093
0000a0 1d 98 56 bd 90 95 91 3d d2 83 aa 3d ec 0b 12 bd
       -0.05239116 0.07108605 0.08325924 -0.0356559
0000b0 32 66 b9 3d 4d a0 2a bd 65 d1 93 3d c8 13 21 bd
       0.09052695 -0.04165678 0.07217673 -0.039325505
0000c0 c1 fa 2b 3d 58 11 45 3e 62 00 06 3d 3b 1e 94 3d
       0.041987184 0.19244897 0.03271521 0.072323285
0000d0 da 9c f4 3c c0 ff 2d 3d 5e 2f d0 bd ee 81 a1 bd
       0.029859949 0.04248023 -0.101652846 -0.0788611
0000e0 6d ea e0 bc b5 6e 6b bb 69 f4 9f bc 56 c1 84 be
       -0.027455533 -0.003592414 -0.019525724 -0.25928754
0000f0 eb 70 de 3d 9f 88 85 bd ab a6 b8 3d 96 43 8b 3a
       0.10861381 -0.06520199 0.090161644 0.0010625
000100 4f 6c 4a be 6c 41 35 bd 58 8e 2b 3c 1c d6 04 3e
       -0.19767879 -0.044251844 0.010470949 0.12972301
000110 1c 5a 70 3a c0 25 d6 3d b9 17 23 3e 59 73 7a bd
       0.0009168701 0.10456419 0.15927018 -0.06114516
000120 48 8a 59 bd e6 53 8f be 96 43 8b 3a 80 1c 34 be
       -0.05311039 -0.27993697 0.0010625 -0.17588997
000130 60 e4 27 3d 59 9b c9 bc 22 10 e5 bc 8f ec a6 bc
       0.04098928 -0.024610208 -0.027961794 -0.020376472
000140 e7 e9 7c 3b 73 68 99 bc 35 8b da bb 08 a5 31 bd
       0.0038591565 -0.018726563 -0.006669427 -0.043370277
000150 22 ff 1c 3d 73 59 c4 3d 2a 4c 73 bd 6a 45 01 3d
       0.03832925 0.095873736 -0.059398808 0.03156034
000160 56 00 d1 bd bd 57 09 3d 69 2c 95 3d ee 06 c6 bd
       -0.10205142 0.03353094 0.07283861 -0.096692905
000170 36 d8 8f 3d 29 8d 31 be 5b 76 f9 bd 28 ea 85 bc
       0.07023661 -0.17339005 -0.12180778 -0.016347006
000180 fc a0 17 3d 7e 70 29 be 06 40 f7 3c c4 e1 9d 3c
       0.03701876 -0.16546819 0.030181896 0.019272693
000190 d6 b2 cd bd bd 5d 54 3e 04 c6 7f 39 a0 80 80 3e
       -0.10043876 0.20738883 0.00024392462 0.25098133
0001a0 ca 28 a8 bd a2 82 f8 bd ff 38 c3 bd 48 0b 9c bc
       -0.08210905 -0.12134291 -0.095323555 -0.019048348
0001b0 4f 50 03 3c 21 8a 12 3e c4 50 ec 3d ef 46 b5 bd
       0.0080147525 0.14310504 0.11538842 -0.0885142
0001c0 32 16 35 bc e7 7c 1e 3b ec c2 8b bd 7f 82 c1 3d
       -0.011052655 0.0024183334 -0.06824288 0.09448718
0001d0 27 fe 07 3b ee 82 7a bd cd 38 c0 bc 7d 8d aa bd
       0.0020750852 -0.06116002 -0.023464585 -0.08327768
0001e0 56 45 88 bd 7c b1 8d 3d d1 8a e3 3d de e1 2c 3d
       -0.0665385 0.06918618 0.111104615 0.04220759
0001f0 a7 8c 50 bd 73 88 a8 3b 88 57 0f bd 4d 9d dc 3c
       -0.050915387 0.005143219 -0.034995586 0.026930476
000200 c7 07 09 3c 42 54 01 3d e1 5d 9f 3d e7 87 48 bd
       0.008363671 0.031574495 0.07781578 -0.04895773
000210 04 43 f4 3c ae b2 a6 3d 96 43 8b 3a 9d 63 f6 3b
       0.029817112 0.08139549 0.0010625 0.007519199
000220 96 43 8b 3a 4f 47 1b 3e 6e f0 0a 3b 51 f5 29 bd
       0.0010625 0.15163921 0.0021200436 -0.041493718
000230 aa 23 e7 bc 95 6b 27 be 1c df c8 3d ac 93 82 3d
       -0.028215248 -0.16349633 0.0980818 0.063758224
000240 89 84 47 3e 0d 74 02 be c4 7b 1e bd d5 08 3a 3d
       0.19484152 -0.12739582 -0.03869225 0.04541858
000250 cb 3e 89 3d 51 ac ad 3c 1e 0d 28 bd 34 ca 0c 3e
       0.0670143 0.02120033 -0.041028135 0.1374901
000260 dd 12 83 bc 71 b1 9d 3c 8a b3 d8 3d 59 7f 39 be
       -0.016000206 0.01924965 0.10581119 -0.18114986
000270 f0 0d 6f 3d 74 82 49 3d 1d ef 92 bc 8b 0f 89 3d
       0.0583629 0.049196675 -0.017936284 0.06692418
000280 d8 9c 50 bd 80 86 e2 bc 6e 4c a3 bd 63 c0 24 3b
       -0.050930828 -0.027652025 -0.07973562 0.0025139085
000290 2f 78 f3 3c 9c 88 29 3e 3f 6a 8f bc 53 a8 18 bd
       0.029720394 0.16556019 -0.017506717 -0.0372699
0002a0 e8 c4 46 bd db 54 21 3d d1 e9 81 bd 37 93 03 3b
       -0.04852763 0.039387565 -0.06343425 0.002007676
0002b0 6c 32 02 3b 1d 47 47 3d 73 df 07 be 38 b8 e7 3d
       0.001986648 0.048651803 -0.13268833 0.11314434
0002c0 a5 da c6 3c df 9b 80 3d cc 9e b5 bc c5 d3 08 3d
       0.02427418 0.0627973 -0.022170447 0.033405084
0002d0 99 5e af 3d 69 eb ef 3c 14 20 94 3d 50 d5 59 bd
       0.08562965 0.029287057 0.07232681 -0.053181946
0002e0 9a 89 16 bd 24 d0 8f 3c 61 1a f2 bc ea cc 67 3d
       -0.03675232 0.017555304 -0.029553594 0.056591906
0002f0 d8 f1 ab 3d a2 54 eb 3d 99 b2 de 3d 3e 2c c1 bd
       0.083957374 0.11490752 0.108739085 -0.09432267
000300 ab e6 96 bc d5 d9 81 bd 58 bb e6 3c b9 6c 8a 3d
       -0.018420538 -0.06340376 0.028165504 0.067590185
000310 7a f0 3b be 93 bc f4 bc 2d 4c d1 3d 18 f9 ee 3d
       -0.18353453 -0.029875075 0.102196075 0.116686046
000320 52 43 d8 3c 73 8c 5a 3d 57 4d 90 3b 53 9f 38 3d
       0.026399288 0.0533566 0.004403751 0.04507382
000330 87 39 ec 3d 5d 33 df 3b 5e 22 c5 bc 55 d6 5e bd
       0.1153441 0.006811543 -0.02406424 -0.05440362
000340 14 dc 7d bd f9 b4 2b 3e 49 81 66 3c 17 b7 27 3e
       -0.06197746 0.16768254 0.01406891 0.16378437
000350 87 27 fd 3c af a9 44 3d 4d 5a 96 bc 0d b3 e4 bd
       0.030902637 0.048013385 -0.018353606 -0.11166964
000360 60 d5 17 bd 20 53 db 3d a2 85 b3 3d 54 53 e4 3b
       -0.037068725 0.10709214 0.08765723 0.0069679413
000370 d1 4b 0f bd 18 98 97 bd 18 c3 26 be 4f a1 d2 bd
       -0.034984414 -0.074020565 -0.1628536 -0.102846734
000380 e7 23 ba 3d 0d f0 8a bd 5d 58 16 bd 6e 9c 7a 3d
       0.09088879 -0.06784067 -0.036705364 0.06118434
000390 d5 96 91 bc fd 50 d7 bd 94 5c a5 3d ed 44 ea 3d
       -0.017772118 -0.10513494 0.080742985 0.11438928
0003a0 83 fa aa 3d ae 81 0d be 7d 7b 9a bc b1 07 dd 3c
       0.083485626 -0.13819 -0.018857712 0.026981207
0003b0 32 a1 95 bd d7 6f 2f bd e7 6c e6 3d 31 d5 14 3d
       -0.07306136 -0.04283127 0.1125124 0.036336128
0003c0 0f 71 d9 bc c7 22 43 bd 4e a9 00 bd 36 34 8a bc
       -0.026543168 -0.047640588 -0.03141146 -0.0168706
0003d0 38 5c c2 3d d8 03 42 bd 07 61 37 3d bb 0c c0 bc
       0.094902456 -0.047366947 0.044770267 -0.02344357
0003e0 fc 4f 2c 3d 8d ad 08 39 f4 50 10 be 0c ea 02 3d
       0.042068467 0.00013034623 -0.14093381 0.031961486
0003f0 62 79 d0 bb 5a f2 d4 bc 00 e6 53 3e 8a 8b 0e bd
       -0.006362126 -0.025994468 0.20693207 -0.034801044

layer2.bias_mu f4 [3]
000000 54 26 6d 3e 56 26 a2 3c 5a 54 3e 3d
       0.23159152 0.01979367 0.046467163

layer2.bias_sigma f4 [3]
000000 1a 1c 01 3d cf c3 31 3b e5 81 ec 3c
       0.03152094 0.0027124768 0.028870532
