DDQN_models/prb-model2-snapshot-score-18.pth (torch, 17245 bytes, 4 tensors)

linear1.weight f4 [256, 11]
000000 96 cc 89 bd a6 d6 09 bf 6d 2c 4e bf b4 58 93 bc
       -0.06728475 -0.5384315 -0.8053654 -0.017986633
000010 01 3c a5 3e 5c 35 6d bd 82 52 bc bd 62 f7 03 bf
       0.32272342 -0.057912216 -0.091954246 -0.5154935
000020 40 ce e0 3e 0b 07 34 3f eb f5 a7 3e 23 bb c5 3d
       0.43907356 0.70323247 0.32804808 0.09654834
000030 18 1c a8 3c a3 90 09 bf 69 23 0d 3f 3b b6 ce be
       0.020521209 -0.53736323 0.55132157 -0.40373406
000040 74 3d 8c be ae 7a 43 bf ba 20 91 be 88 91 27 bf
       -0.27390635 -0.7635907 -0.2834528 -0.6545644
000050 59 a8 1b bf f1 31 7c 3e 36 70 ac 3e 95 54 bc bc
       -0.60803753 0.24628426 0.3367936 -0.02298955
000060 f2 76 50 bf 7f 97 d2 3e 0c ce 5f be 4a 95 0c be
       -0.81431496 0.41131207 -0.21855944 -0.13728824
000070 16 2a 61 bd b6 f1 8b bd df 06 74 bf d3 61 64 bf
       -0.054971777 -0.06833212 -0.95322984 -0.8921177
000080 c6 81 95 3d 34 ae f6 3b 3f a7 f5 be a7 55 e2 be
       0.07300143 0.007528091 -0.4797916 -0.44205973
000090 bb 54 be 3d c4 26 cf bd 9d 18 0a 3e 6c 7a 82 be
       0.09293505 -0.10114816 0.13485952 -0.25484025
0000a0 3f 4d 46 bb af 2d 90 be 43 95 ce bd b1 6f b0 be
       -0.0030258445 -0.28159854 -0.10087063 -0.34460214
0000b0 b0 08 b1 be 7b 62 55 be 01 70 c8 3d 9c 59 18 3e
       -0.3457694 -0.20838349 0.09786988 0.14877933
0000c0 52 be 5b be ad 3b 49 be 14 37 9d be 80 74 f5 bd
       -0.2145932 -0.19651671 -0.30706084 -0.11985111
0000d0 26 bf 54 be 77 1d a3 be aa 64 e8 be d9 a6 25 3e
       -0.20776042 -0.31858417 -0.453893 0.16176929
0000e0 f8 ab 8a be b9 04 35 be dd 9e 47 3e 5e bf e2 bd
       -0.27084327 -0.17677583 0.19494195 -0.11071657
0000f0 20 05 85 bd ae e2 9f 3e a1 60 89 be ab 95 29 3f
       -0.06495118 0.3122763 -0.26831535 0.66244
000100 b4 a2 29 bf 2b 0c d3 3d 33 b0 62 be 08 07 bf be
       -0.6626389 0.10305055 -0.22137527 -0.37310052
000110 2e 24 21 bd c9 d9 1a bf c1 ad ec be ff 1c c8 be
       -0.039341144 -0.60488564 -0.46226314 -0.39084622
000120 03 0a 19 be e3 00 14 be c5 1b 91 be 15 94 fd 3d
       -0.14945225 -0.14453463 -0.283415 0.1238176
000130 4d c6 ca 3e e4 49 6e bf 8e f6 69 bd 53 21 2e bf
       0.39604416 -0.930815 -0.0571199 -0.680196
000140 f1 cb 9b be ce fc 56 3e b4 cb a7 3d 3a c9 31 bd
       -0.30429032 0.20994875 0.0819315 -0.043404795
000150 a8 ed 6e 3d b1 5d ce be 19 da b2 3e a0 d1 9e 3e
       0.058332115 -0.40305856 0.3493202 0.31019306
000160 2e 43 3c bf 74 3c 8f 3e 35 26 a2 3e d7 11 22 bf
       -0.7354001 0.2797581 0.31669775 -0.6330847
000170 88 f7 42 3d f8 c6 c6 be 66 13 1c be 27 83 0c bf
       0.047599345 -0.38823676 -0.15241775 -0.5488762
000180 49 ae 22 3f 71 35 ad 3c bf 03 6c be da f2 88 bd
       0.6354719 0.021143647 -0.23048304 -0.06686945
000190 d7 46 fb 3e 3c 04 d7 bd fd 6f 40 3e 58 b0 3b 3e
       0.49077484 -0.104988545 0.1879272 0.18328989
0001a0 f0 34 9c bd d0 b6 51 bd 1d 88 6f 3e bc bc 84 be
       -0.076272845 -0.051199734 0.23391767 -0.25925243
0001b0 4e 2d 38 bf d8 bd 0e bf 65 81 99 3e 27 09 36 bf
       -0.7194413 -0.5575843 0.29981533 -0.71107715
0001c0 bb 34 2a 3d dd 8e 98 3e 78 ef 6a 3d 1e 52 bb be
       0.041554194 0.29796496 0.05735728 -0.36586088
0001d0 c9 e1 9c bd 46 35 dc be b1 94 89 3e 48 a4 42 bf
       -0.076602526 -0.43009394 0.26871255 -0.76031923
0001e0 26 5b c6 3e 27 73 f2 bd 21 92 a9 bd a4 d7 58 3e
       0.38741416 -0.1183837 -0.08279825 0.2117601
0001f0 43 e1 9b 3d db c6 a4 bc 40 19 ae bc 8a 14 93 be
       0.07611325 -0.020114353 -0.021252275 -0.28726608
000200 b6 26 bd bd 03 ad 3e 3e 18 bf 92 be bf da 36 be
       -0.09235899 0.18620686 -0.28661418 -0.17856883
000210 a6 d8 a7 be 28 79 71 be 48 b0 5c 3d 01 93 55 bc
       -0.32782477 -0.23581374 0.053879052 -0.013035537
000220 d3 2f 19 3e 6f 57 67 3c fb 25 01 3e 73 91 0a be
       0.1495965 0.014119967 0.12612145 -0.13532047
000230 c4 16 fc be 93 f7 82 3d 42 93 c7 be bc 1c e9 bd
       -0.4923612 0.06394877 -0.38979536 -0.11382434
000240 b9 64 3a be 32 9f b3 be 2c e4 bb bd 82 a1 5e bc
       -0.18202485 -0.35082394 -0.0917438 -0.013588311
000250 60 01 01 bf f4 fc b7 be ca 34 c0 be 99 c5 4d 3e
       -0.50392723 -0.35935175 -0.37540275 0.20094909
000260 95 01 1c be d5 f9 e0 3d fb f7 2a bf 75 19 8d 3e
       -0.15234978 0.10985152 -0.6678464 0.27558485
000270 2d c1 91 be 07 d2 e6 be 69 1b b8 be bb ad c8 be
       -0.28467694 -0.45082113 -0.35958412 -0.39195046
000280 ca eb 0c 3e 29 d7 3c be 8f d0 d0 bd 6a 09 c2 3e
       0.13761821 -0.18441452 -0.101960294 0.37897807
000290 0d 85 d8 3e aa cc 82 be 60 0d 6c 3e ae c7 ca 3e
       0.4228901 -0.2554677 0.23051977 0.3960547
0002a0 83 ec 65 bd 7a 0e 19 be a8 40 8c be f9 ae 6f 3d
       -0.05613376 -0.14946929 -0.2739308 0.058516476
0002b0 86 d6 fb 3b e2 09 cf bc 0b 19 35 bf 37 30 ff be
       0.0076854853 -0.025273267 -0.7074134 -0.49841473
0002c0 c7 66 bc be ce 5d 56 be 63 a1 18 3e d5 2c 57 be
       -0.36797163 -0.20934221 0.14905314 -0.21013196
0002d0 4d 9c 22 bf b6 a3 1d be 42 c2 97 be 62 22 4f be
       -0.63519746 -0.15394482 -0.29640394 -0.2022796
0002e0 1f 7c 3a 3e 99 22 97 3e 1a 96 70 be 7e 2b 24 3e
       0.18211411 0.29518583 -0.23494759 0.16032216
0002f0 65 af 32 bf c9 95 91 3e f0 c8 75 be 28 c7 31 be
       -0.6979888 0.2843459 -0.24002433 -0.17361128
000300 8d 31 85 3d df b5 af 3d d4 bb 89 3c ca 16 51 3e
       0.06503592 0.08579611 0.016813196 0.2041885
000310 c1 46 0e bf 32 d4 4c 3f e2 6b 7e be 75 c5 51 be
       -0.5557671 0.80011284 -0.24845842 -0.2048548
000320 e8 d6 10 bf 09 27 a0 3e 2e 54 28 be f4 79 78 be
       -0.5657792 0.3127978 -0.16438362 -0.24265271
000330 bc b5 bf bd ff d7 a5 bd 74 dc 12 bf f0 15 80 be
       -0.09360835 -0.080978386 -0.57367635 -0.25016737
000340 ec 8d 0b 3f c3 c6 3d be d8 43 05 bf ca f1 13 3d
       0.5451343 -0.18532853 -0.52056646 0.03611926
000350 ad 09 3a 3d c2 17 c8 be 64 9f f7 bd e6 5f 85 bc
       0.045419384 -0.39080626 -0.12090948 -0.01628108
000360 5f dd 4c 3e 70 07 06 3f c7 3c 75 bf be fc d2 be
       0.20006321 0.523551 -0.95795864 -0.41208452
000370 5c 33 d3 3d 7d 00 c9 3e 64 db 23 be 81 37 d4 be
       0.103125304 0.39258185 -0.1600166 -0.41448596
000380 12 79 a4 3d a2 4d d3 be 57 62 49 be 90 78 02 be
       0.08030905 -0.41270167 -0.1966642 -0.12741303
000390 9c 68 2d bf a0 6b 9e be 9e 0e c5 3e 7c 96 30 bf
       -0.67737746 -0.30941486 0.38487715 -0.6897962
0003a0 64 d3 cc 3d ff 31 29 bf 58 89 82 3d 6a a1 f1 bd
       0.10001257 -0.66091913 0.063738525 -0.117983654
0003b0 32 80 d3 bd f6 b1 df be f7 ff 38 3e 33 62 bc ba
       -0.10327186 -0.4369046 0.18066393 -0.0014372527
0003c0 34 b0 2c 3f 11 dc 6b bf 83 99 94 bb aa b6 0d 3d
       0.67456365 -0.9213267 -0.0045349016 0.03459803
0003d0 54 ce ac be 38 fe 17 3e 76 88 91 be e4 46 df be
       -0.33751166 0.1484307 -0.28424424 -0.43608773
0003e0 8a fa a9 be 43 d8 21 be e9 bb b9 3e a8 0c ce 3e
       -0.3319896 -0.15805154 0.36276177 0.4024403
0003f0 fb cb 0a 3f 08 73 d4 3d 71 62 16 bf 3d da 68 be
       0.542175 0.10373503 -0.5874396 -0.22739501

linear1.bias f4 [256]
000000 3b d4 7a be 1f 9b 4d 3e bd 5a b0 3e b9 e1 6c be
       -0.24495022 0.20078705 0.34444228 -0.23132981
000010 e1 ee 33 3d bb ce 57 be e9 44 f8 be d6 12 f0 be
       0.043928985 -0.21074955 -0.48490074 -0.4688937
000020 0d 94 a1 bd 49 72 ab be 48 0f 36 be 67 ab d4 be
       -0.078895666 -0.3348563 -0.17779267 -0.4153702
000030 57 1f d6 be 5e a4 69 be af ea 00 bf 01 34 d3 be
       -0.41820785 -0.22816607 -0.503581 -0.41250613
000040 21 97 51 be 0f 08 bf be 09 50 0d be 1e 15 01 be
       -0.20467807 -0.37310836 -0.13800062 -0.12605712
000050 d2 75 b3 bd f3 80 c2 be 02 f2 0e bf eb 7c c3 be
       -0.08762707 -0.37989005 -0.55838025 -0.38181242
000060 2b 6b 0d bf 32 f9 fe bd d2 f9 3a be 56 67 0d bf
       -0.5524165 -0.12449874 -0.18259361 -0.55235803
000070 77 9b f0 be 2b c5 26 bf 50 5a da be de de 5d be
       -0.4699361 -0.65144604 -0.42647028 -0.21667048
000080 31 6a f0 be 34 de 19 bf 1a cf be be c1 07 1a bf
       -0.46956018 -0.6010468 -0.3726738 -0.6016808
000090 f7 92 e9 be 60 22 05 bf c4 44 f5 bc 03 69 b8 be
       -0.45619938 -0.5200558 -0.029940017 -0.36017618
0000a0 fa 1c ce be 7f 0d 07 bf 62 ee 8b bd 59 cd d0 be
       -0.40256482 -0.5275497 -0.06832577 -0.40781668
0000b0 b1 22 32 3d 7d 92 50 3e 75 b2 9c be fa 39 02 bf
       0.043490116 0.20368381 -0.30604902 -0.50869715
0000c0 3b 33 b6 3e 6e f7 19 be 46 88 82 be 11 14 b5 be
       0.3558596 -0.15035793 -0.25494593 -0.35366872
0000d0 d7 9c 16 bf 33 bb 1f bf aa 65 84 be d4 48 8d 3d
       -0.5883307 -0.6239502 -0.25858814 0.068986565
0000e0 1a bf 06 bf 74 1c 0a bf 69 4b 87 be fa f8 42 be
       -0.5263535 -0.53949666 -0.2642472 -0.1904029
0000f0 d5 29 91 be c0 83 28 bf 01 b2 c8 be fd fa 8f be
       -0.28352228 -0.65826035 -0.39198306 -0.28121176
000100 98 6f b6 3c 15 b3 01 bf 33 64 e7 be 27 03 91 be
       0.022270009 -0.5066388 -0.45193633 -0.28322718
000110 01 92 9b be 8a 0b 1b bf 4f ea 85 be 10 0b 89 be
       -0.3038483 -0.6056448 -0.26155326 -0.26766253
000120 72 fe 31 be c5 80 09 bf 40 fe 92 be f5 d5 89 be
       -0.1738222 -0.5371211 -0.28709602 -0.2692105
000130 79 bb de be 0f d9 7b be b0 5e 6c be 67 0a c1 be
       -0.43502405 -0.2459452 -0.23082995 -0.3770325
000140 84 c8 41 bd be 52 87 be 32 7d ba be f7 e7 9e be
       -0.047310367 -0.26430315 -0.3642364 -0.3103635
000150 bc 99 73 be 21 0c 26 be 63 e8 55 be 64 90 0f be
       -0.23789114 -0.16215564 -0.2088943 -0.14019924
000160 22 11 99 bd 55 0f 44 bf 47 e3 4e be 1f 9b 86 be
       -0.07473971 -0.76585895 -0.20203887 -0.26290223
000170 4d e2 5a be 2d 55 5e bc cb e3 0b 3e e5 16 a6 be
       -0.2137539 -0.013570112 0.13661115 -0.32439342
000180 fb 0d 1e 3c e8 1e 62 be 33 6f 4e be 3d b0 00 bf
       0.009646888 -0.22082102 -0.20159607 -0.5026892
000190 c7 b0 0f bf cf bb 83 bd 7f 56 09 bf d2 1a 9a 3d
       -0.56129116 -0.06432306 -0.5364761 0.07524647
0001a0 95 9c e6 be 0e 4d 95 3e 2f ad 60 be 67 6e a4 be
       -0.45041338 0.2916035 -0.21941064 -0.3211548
0001b0 97 fe 8f be 83 cc aa be a1 72 48 be 61 af c0 be
       -0.28123924 -0.33359155 -0.19574977 -0.37633803
0001c0 1f 48 92 be 8c 4d b0 be 58 2c 10 bf 01 b5 75 be
       -0.2857065 -0.34434164 -0.56317663 -0.23994829
0001d0 13 f4 a6 be 8f 71 53 be ec 73 74 be 5d 08 80 be
       -0.3260809 -0.20648788 -0.23872346 -0.2500638
0001e0 c1 52 30 bf 57 54 0f bf 94 12 d4 be c2 94 b4 be
       -0.6887627 -0.5598807 -0.41420424 -0.35269743
0001f0 c9 c1 36 bf 85 20 47 be b5 94 e4 be a7 e8 15 bf
       -0.7138944 -0.19445999 -0.44644704 -0.58558124
000200 ef a0 50 bd a8 00 21 bf 81 50 ee be a9 2a 22 be
       -0.05093473 -0.62891626 -0.46545795 -0.15836586
000210 c2 3f b9 be 1d dc 40 be 0d 0b dc bc 90 0c 4d be
       -0.36181456 -0.18833967 -0.026860738 -0.20024323
000220 5d 21 84 be 82 d5 b6 3b 2a de 86 be 5c ba 80 be
       -0.25806704 0.0055796513 -0.26341373 -0.2514218
000230 ff 98 46 bd 19 55 3d be ef 71 ae be 65 ca ac be
       -0.048485752 -0.18489493 -0.340713 -0.33748165
000240 8a a5 92 bd d9 14 8d be 3d ad d5 3d e5 08 09 bf
       -0.0716048 -0.27554968 0.10433433 -0.53529197
000250 ea 00 28 be 09 70 47 3d 27 8b 96 3d cf 19 d7 be
       -0.16406599 0.04869083 0.0735076 -0.42011878
000260 aa 7e e0 bd 30 86 24 bf da c3 32 be f6 9c 12 be
       -0.10961659 -0.64267254 -0.17457524 -0.14317688
000270 6f 7b c8 be 9a 2d a7 3e 76 e7 b2 be 87 38 a5 be
       -0.39156672 0.3265198 -0.34942216 -0.3226969
000280 96 d3 17 be 5a 7f dc bd d2 7d a4 bd f9 a4 53 be
       -0.14826807 -0.10766478 -0.08031811 -0.20668401
000290 5c fb b2 3c 4f 6b bf be bc 18 b3 3d 27 9a 83 be
       0.021848373 -0.37386557 0.08744952 -0.25703546
0002a0 39 8f 0f bf 08 02 fc bd e7 75 35 bf 90 a4 00 bd
       -0.56077915 -0.12305075 -0.7088303 -0.03140694
0002b0 7f 9f d1 be 76 ee 4e be 34 e4 c2 3b 16 cd ce be
       -0.40941998 -0.20208153 0.005947614 -0.40390843
0002c0 22 14 95 bd 8c f6 c1 be 73 b4 a1 bd 14 cd 53 be
       -0.07279231 -0.37883413 -0.07895746 -0.206837
0002d0 7e 87 c4 be c1 7b 50 be 41 a0 c5 be 88 d8 17 bf
       -0.38384622 -0.20359708 -0.38598827 -0.59314775
0002e0 8a ac ca bd f1 b7 6b be 30 7b 14 bf 67 54 20 bf
       -0.098961905 -0.23019387 -0.5800047 -0.6262879
0002f0 8d 02 ae be 37 99 b6 bd 33 1c 94 be fa 45 97 be
       -0.3398632 -0.08915942 -0.28927764 -0.29545575
000300 42 64 aa be 25 26 7a be 5b 66 be be 03 fd d8 bc
       -0.33279616 -0.24428613 -0.37187466 -0.026487833
000310 52 f4 be be c6 60 7c bf 70 14 c3 bd 0e 9f 81 be
       -0.37295777 -0.98585165 -0.095253825 -0.25316662
000320 ec 46 7f be c4 ba 8e be ae d3 b8 be 8e c4 c4 bd
       -0.24929398 -0.27876866 -0.36099 -0.09607802
000330 06 72 8a bd 33 39 0b bf b8 39 0c bf 7d 8d e9 bd
       -0.067600295 -0.54384154 -0.5477557 -0.1140394
000340 c9 59 b6 3e cc b3 65 be 3a e8 a5 be 13 c0 a1 bc
       0.35615376 -0.22431868 -0.32403737 -0.019744908
000350 ae 56 ae be 14 42 52 be 44 12 72 be 58 5f 9d be
       -0.34050506 -0.2053302 -0.2363978 -0.30736804
000360 9c 8b 77 be a8 7a d8 be ad 41 82 be a6 28 1b 3d
       -0.2417435 -0.4228108 -0.25440732 0.037880562
000370 99 94 69 be c0 c9 8a bd 73 b5 95 be aa a6 09 bf
       -0.22810592 -0.06776762 -0.29239997 -0.53769934
000380 06 86 fb be 63 f9 40 bf d5 60 d8 be a3 34 89 be
       -0.4912569 -0.75380534 -0.42261377 -0.2679797
000390 61 d6 82 be 77 ed 25 bd d1 38 63 be 34 c0 0a bf
       -0.25554183 -0.040509667 -0.22189642 -0.5419953
0003a0 b2 25 4f be 1e 5f 67 be 5c 94 bd be 47 48 c0 be
       -0.20229223 -0.22594878 -0.37027252 -0.37555143
0003b0 a5 a7 83 be 71 ec 16 bd 57 ab be be b3 c5 81 bf
       -0.2571384 -0.03684658 -0.37240097 -1.0138458
0003c0 28 47 2b bf 42 1f 84 be cb f1 03 bf 0c 5e 98 be
       -0.6690545 -0.25805098 -0.5154082 -0.29759252
0003d0 46 d1 45 be e9 4f 0e be 92 9f e3 be ec 55 a1 be
       -0.19318113 -0.13897671 -0.4445768 -0.31510866
0003e0 de a7 9e be 53 22 4c bc 6f 90 8f be ba 52 cd be
       -0.30987448 -0.012459355 -0.28039882 -0.40102178
0003f0 81 1b c4 be 51 5f 9e be 52 b8 b0 3e 12 68 bd be
       -0.38302234 -0.30932096 0.34515625 -0.36993462

linear2.weight f4 [3, 256]
000000 22 39 69 bd 58 fa 7c 3e 8f 3a a7 3e ea 8f a0 bc
       -0.05693925 0.24704874 0.32661864 -0.019599874
000010 d0 93 48 be c8 51 e1 bd 9d 11 02 be 64 d0 5d 3e
       -0.19587636 -0.11001927 -0.12702031 0.21661526
000020 e7 70 5e 3e 9d 96 12 bd 70 5a 1e be ac 1d 63 3e
       0.21722756 -0.035788167 -0.15464187 0.22179288
000030 c5 8d 63 3d a0 1f 07 bd 73 b8 f9 be 68 0c 88 3d
       0.055555124 -0.032989144 -0.48773536 0.06642991
000040 f6 9f bf bb be 76 2c be 8d ff a6 3c 19 cd b8 bd
       -0.0058479263 -0.16842172 0.020385528 -0.09023494
000050 1f 8c 07 be ee 59 2a be ca bf 96 be 95 f7 e5 bd
       -0.13237046 -0.16635868 -0.29443198 -0.11228863
000060 f4 ae f4 3e 36 70 2d bd 6a cf 3e 3d 2e 12 0c bd
       0.4778973 -0.04234334 0.046584524 -0.034197025
000070 af 85 a9 bc 30 b0 b2 3c 41 1a ef 3c 00 40 24 39
       -0.020693628 0.021812528 0.029187324 0.000156641
000080 93 02 85 bd 77 08 56 be c0 e9 d3 be 09 3c 77 bf
       -0.064946316 -0.20901667 -0.41389275 -0.9657598
000090 09 a6 2d be 5c 2e a4 3f 22 54 94 3e ae 23 fe be
       -0.16957869 1.2826648 0.28970438 -0.49636596
0000a0 31 53 e7 bd 84 86 6d bd 22 44 f9 bc 6e 03 f0 bd
       -0.112951644 -0.057989612 -0.030427996 -0.11719404
0000b0 0f ac 0b bf 74 b2 c9 3e ff ac b1 bd 71 25 a5 bd
       -0.54559416 0.3939396 -0.086755745 -0.08063782
0000c0 b7 31 d3 3e 98 ff 0e 3e 80 01 71 ba 94 c4 0d bc
       0.41248867 0.13964689 -0.0009193644 -0.008652825
0000d0 1c 24 a7 be 66 db ae 3b 75 32 c3 3c 81 6b 1f 3e
       -0.32644737 0.005336213 0.02382777 0.15568353
0000e0 38 36 ee bd 1f 38 54 be b4 f0 6c bc 38 c2 aa 3d
       -0.11631435 -0.20724533 -0.014461685 0.083378255
0000f0 f6 ac 3c be 0a e4 2a bf 19 10 7e bd 68 1e 32 3d
       -0.18425354 -0.6675421 -0.06202707 0.04348603
000100 42 58 01 bf 31 5a 88 3d d0 b1 a4 be 1c 7c 36 3d
       -0.50525296 0.06657828 -0.3216691 0.044551954
000110 34 01 88 bf 8b 4f 87 bd 8a 9c 41 be 39 81 c1 bc
       -1.0625367 -0.066069685 -0.18907371 -0.023621188
000120 9f db cd bc 25 31 45 3e dc 35 3d be 9d 72 f3 bc
       -0.025129138 0.19257028 -0.18477577 -0.029717738
000130 b3 88 8e bc 9e c6 fe bc c4 37 a3 be d4 1f 0d bd
       -0.017399168 -0.031100567 -0.31878483 -0.03445418
000140 2c 65 80 3d 01 b1 e2 bd 96 07 32 be 47 9b be 3c
       0.06269297 -0.11068917 -0.17385706 0.023267401
000150 cb 1b cf 3c 69 d8 f7 bc 84 1a 3b 3d 14 c9 fe bd
       0.025281807 -0.03025456 0.045679584 -0.12440696
000160 f8 16 31 3d a6 26 e6 3e 47 e7 39 3e ba ab bf 3b
       0.043234795 0.4495136 0.18154632 0.005849329
000170 7b 81 f2 be cc 7d 18 bd 37 c2 f0 3d 37 43 e8 bd
       -0.4736441 -0.037229344 0.117557935 -0.11340945
000180 9a e0 17 3e 47 9c 7b be 56 2b 2e be 4a 32 53 be
       0.14831772 -0.24571334 -0.17008719 -0.20624653
000190 6e 78 86 be a1 9e f4 3c 03 91 f4 bd 14 d6 36 be
       -0.26263756 0.029860796 -0.11941721 -0.17855102
0001a0 b8 48 10 3d 2f 87 77 3e c5 8f 1e be 7f 25 34 bd
       0.0352256 0.24172662 -0.15484531 -0.04398107
0001b0 41 0b 73 bf 0c 97 ce 3d 86 dc 69 be 42 ac 90 3d
       -0.9493905 0.10087404 -0.2283803 0.070641056
0001c0 c9 ea f2 3b 96 03 3a be a2 08 90 be f6 cc 21 3e
       0.0074132425 -0.1816543 -0.28131586 0.15800843
0001d0 09 37 cf 3b f6 18 6d bd 7d 45 82 bd d8 ff 16 3c
       0.0063236994 -0.057885133 -0.0636091 0.009216271
0001e0 44 6c 27 bf 72 c2 a5 be 65 dc 51 3b 2f c5 09 bd
       -0.65399575 -0.32374913 0.0032022235 -0.033635315
0001f0 30 b0 2d be 74 e6 13 bf e7 45 b1 bd 1f 94 4b 3e
       -0.16961741 -0.5777352 -0.08655911 0.19880722
000200 b9 bc 2e bf 2e c4 19 be 44 f9 0d 3e 47 8d 1c 3d
       -0.6825672 -0.15016243 0.13864619 0.03822067
000210 4c 59 11 3d 0b f1 e7 be 0d 38 8f 3e 4c 97 65 3d
       0.03548555 -0.4530109 0.2797245 0.05605249
000220 48 56 ce 3b 4d 5c b2 3e 02 b9 18 be ca c7 42 be
       0.0062969066 0.34836045 -0.14914325 -0.19021526
000230 b8 46 51 3c d5 d2 b6 bd 83 9a 81 bc f8 0c 2b 3e
       0.012773208 -0.08926932 -0.015820747 0.16704166
000240 10 4f 92 3b 42 8c 9d bd 46 91 22 be e5 fe 27 3d
       0.0044649914 -0.07692768 -0.1587573 0.04101457
000250 5b c2 a2 bc fa f8 9a 3e ca e6 84 3e 1a 21 72 be
       -0.019868067 0.3026808 0.25957328 -0.2364544
000260 18 82 32 bf 44 b7 2a bf e4 9c c3 3d 9e c8 51 bd
       -0.6972976 -0.6668589 0.09551409 -0.051216714
000270 d5 46 41 be 96 87 36 3d 16 58 96 be 6d 43 3c 3d
       -0.18874677 0.0445629 -0.2936408 0.04596274
000280 91 54 a3 be 59 cb f0 be 8b 9d 55 bd 18 16 82 bc
       -0.31900457 -0.47030142 -0.052152198 -0.015879676
000290 24 64 10 be a7 e3 d0 bd 2d 78 d4 3e c8 e3 23 bd
       -0.141007 -0.10199671 0.41497937 -0.04001215
0002a0 ac d8 87 be 25 d2 31 3e 76 f5 bb 3e b3 05 49 be
       -0.26532495 0.1736532 0.3671071 -0.1963108
0002b0 53 46 a6 bc 35 75 98 bc 51 1e 2b be e6 cc fd bc
       -0.020297205 -0.018610576 -0.16710784 -0.030981492
0002c0 71 36 0b bd 14 85 62 be 1b ac 55 3e 0a 51 c5 3c
       -0.033987466 -0.22121078 0.20866434 0.024086494
0002d0 2b aa 07 be f2 df 8a 3d df 6b 22 bc b6 77 f4 3e
       -0.13248508 0.067809954 -0.009913414 0.47747582
0002e0 3d ad e9 bd 10 4a 0f 3e ad 42 c3 be b1 22 7d bf
       -0.11409996 0.13993096 -0.38136807 -0.9888106
0002f0 ff c8 f6 be cd ed 6b be e7 ac 89 3c 68 00 3d 3d
       -0.48200223 -0.23039933 0.01680608 0.046142966
000300 9c 3b 89 39 fa a2 24 be 94 61 1f 3e df fa 17 bc
       0.0002617509 -0.16077796 0.15564567 -0.009276121
000310 37 4c 96 3c cc aa 4a bf 76 d8 58 3d ef 35 e7 bd
       0.018346889 -0.79166865 0.05294081 -0.11289584
000320 26 25 9a be b9 8f 4e be 0d 1f 90 be 07 07 83 bc
       -0.30106467 -0.20172013 -0.2814869 -0.015994562
000330 b5 be 34 3d dd fb 87 bc f4 49 fe bc 96 f4 cf be
       0.044127185 -0.01659959 -0.031041123 -0.40616292
000340 68 5c d0 3e bc fc 85 be 59 23 80 bd 88 3f f7 bc
       0.406955 -0.26169384 -0.06256742 -0.030181661
000350 e4 69 b4 be f9 63 a7 3c 8e 24 b3 3b c3 c3 d1 be
       -0.35237038 0.020433413 0.005467004 -0.40969667
000360 59 27 18 3c ed 57 4e bd 1a c3 3b be 4e 29 db be
       0.009286725 -0.05037682 -0.18336144 -0.4280495
000370 55 f5 85 3e 36 1b be 3e 87 dc 90 bd d9 14 f9 be
       0.26163736 0.37130135 -0.07073312 -0.48648718
000380 d6 40 d8 3c c4 4f 9f be 68 ab a3 be 9a 21 9e bd
       0.026398104 -0.31115544 -0.3196671 -0.07721253
000390 4a 0f dd 3c 49 d4 f0 be 88 b5 88 3d 68 cc 3c 3d
       0.02698483 -0.4703696 0.06675249 0.046093374
0003a0 e3 6c 3b 3d e7 33 fb be 15 3f 35 be 9b 9c 1e be
       0.04575814 -0.49063036 -0.17699845 -0.15489428
0003b0 2c 57 1b be 35 82 e1 ba e9 b4 2e be 20 c8 74 bf
       -0.15169972 -0.0017204942 -0.17061199 -0.95617867
0003c0 13 e1 42 3f 20 a2 0d bf 58 5a 0e bd bc 6d 88 3c
       0.76124686 -0.5532551 -0.034754127 0.016653888
0003d0 bb 5b 15 3d bf 40 8c be 96 48 d9 3c a0 95 92 bc
       0.036464434 -0.27393147 0.02652387 -0.017893612
0003e0 0f da 93 be 0a f7 eb 3e 4c 9f ae bc 6b 99 c8 bd
       -0.28877303 0.46086913 -0.021316193 -0.09794887
0003f0 d6 9f bb bd e1 ea a8 3d 71 29 b9 3e 70 55 4f 3e
       -0.09161346 0.082479246 0.3616443 0.20247436

linear2.bias f4 [3]
000000 62 73 e3 3d 63 7c 66 be cc 55 eb bd
       0.11105992 -0.22508387 -0.11490974
