Code Submission/DDQN_models/model2-snapshot-score-28.pth (torch, 17221 bytes, 4 tensors)

linear1.weight f4 [256, 11]
000000 e1 17 ff bb 3e 47 da bd 89 35 e7 be 02 ff 63 3e
       -0.007784829 -0.106581196 -0.45158032 0.22265247
000010 62 68 4b bc cb b5 ca be 17 15 93 be 2f 5e 10 be
       -0.0124150235 -0.39591822 -0.28727028 -0.14098428
000020 e8 8f d9 be 87 98 3d bf 83 58 b5 3d ea 03 aa 3e
       -0.42492604 -0.74060863 0.08854773 0.3320611
000030 4d 92 84 bf 1c 18 98 3e cd 1f 23 be 01 86 2e bf
       -1.0357147 0.29705894 -0.159301 -0.68173224
000040 a2 cf 89 bd 35 6b 44 bf 6c 38 5c be f7 3b 2d bf
       -0.06729056 -0.76726085 -0.21505898 -0.67669624
000050 f4 0f 5b 3f 25 c2 a3 bf 91 4a 17 3c 29 b3 80 3d
       0.8557122 -1.2793623 0.009234087 0.06284172
000060 6a f9 40 3d 24 32 2f bb 1f e1 a3 3d 11 f1 42 3d
       0.04711286 -0.0026732767 0.08001923 0.04759318
000070 3d 1e be bd d0 28 ba be 9e 4d 85 be d5 e3 e4 bd
       -0.09283111 -0.36359262 -0.2603578 -0.11176268
000080 32 38 0d be 5f d3 bb 3e 78 41 a6 bf a6 15 0a 3c
       -0.13790968 0.366847 -1.298873 0.008428013
000090 98 13 de bd 42 f3 a4 be 13 69 dc 3d 84 13 0b bd
       -0.10843581 -0.3221684 0.10762229 -0.03395416
0000a0 e5 11 f5 bd 64 4f 21 3f cf 55 83 bf 61 5c 11 3f
       -0.11966304 0.63011765 -1.0260562 0.56781584
0000b0 71 3e 33 bf 38 0a 04 bf 84 4d ec bd 5e f8 99 be
       -0.70017153 -0.5157809 -0.115382224 -0.30072302
0000c0 09 19 2a be a3 2e 3f bf a7 81 bd 3e 45 0f ca be
       -0.16611113 -0.74680537 0.3701298 -0.39464775
0000d0 d9 1e ea bd 29 cb 8e 3f a4 76 77 be 37 2d 3f be
       -0.11431665 1.115575 -0.24166352 -0.18669592
0000e0 7c 23 1c bf b2 2c 05 3f a2 82 a9 bf 17 5c 00 3e
       -0.60991645 0.52021325 -1.3242991 0.1253513
0000f0 18 58 06 bf e2 06 2b 3e 87 d7 23 be 28 65 83 bf
       -0.5247817 0.16701844 -0.16000186 -1.0265245
000100 87 97 4a bd 89 8a a1 3f 33 ab ff be bf 66 02 bf
       -0.049460914 1.2620403 -0.49935302 -0.5093803
000110 de 16 8a 3d e4 7f 70 bf a8 02 83 be c0 65 8f be
       0.06742643 -0.93945146 -0.25587964 -0.28007317
000120 56 bc 25 3d 26 a9 43 bf 96 7c 8b bc d6 aa 44 bf
       0.040462814 -0.76429975 -0.01702718 -0.76823175
000130 53 9e 55 3f c0 43 8d be 93 b7 dc 3d 7d a2 c3 3d
       0.8344471 -0.27590752 0.107772015 0.095524766
000140 83 8e 9e be 3a 73 0c 3d e2 83 91 be 85 90 87 be
       -0.30968103 0.034289576 -0.2842093 -0.26477447
000150 95 92 9c bc 16 ec b3 3d 17 a7 a2 be 50 40 dc be
       -0.019112865 0.08785264 -0.31768104 -0.43017817
000160 e5 bd 47 be ef 8e de 3d fe 84 0b bf 2b 0c c9 3d
       -0.19506033 0.10867106 -0.54499805 0.09816774
000170 56 76 08 3e cc da 53 bd 39 f1 98 be 67 c5 bd 3c
       0.13326392 -0.051722333 -0.29871538 0.023165418
000180 00 75 04 bf 91 4a db bd 28 50 77 3e fe 5d 00 bf
       -0.5174103 -0.10707582 0.24151671 -0.5014342
000190 1f 0f 00 bf 8b 68 81 bd ee e3 60 3e 5c 69 d8 be
       -0.5002307 -0.06318768 0.21961948 -0.42267883
0001a0 7c da 05 bf a2 67 80 be 38 c5 b4 be 6a 22 9e 3e
       -0.52286506 -0.25079066 -0.35306716 0.3088563
0001b0 d6 80 dd 3e 35 f9 dd be f2 79 9c be b0 01 9c 3d
       0.43262357 -0.43354192 -0.30561787 0.07617509
0001c0 53 e5 4a bf 33 a4 1c bf 87 22 35 bd 4a 02 b3 be
       -0.7925617 -0.6118805 -0.04422238 -0.34962684
0001d0 c8 00 b3 bc b1 36 a2 3c 6d 66 e9 3e 2a 8c e1 3e
       -0.021850958 0.01980147 0.45585957 0.4405225
0001e0 1b 36 df 3d 03 88 ae 3d 53 ed 0a 3f de f5 72 3e
       0.10898992 0.08522036 0.5426838 0.23726603
0001f0 e2 6b 2d bf 2a 10 06 3d 8f 28 91 3e 57 cc c1 3e
       -0.6774274 0.03273026 0.28351256 0.3785121
000200 a1 84 7c 3e 0b ee 05 3f 23 f4 96 bf 0e 8f 7d bf
       0.24659969 0.5231635 -1.1793255 -0.9904641
000210 1e 16 1b 3e 5a 46 cf be 77 ed 53 bf 1d c3 71 be
       0.15145156 -0.4048336 -0.8278422 -0.23609586
000220 cd 67 8f be e1 b4 d7 bd 57 be 46 be c0 80 d9 be
       -0.2800888 -0.10532547 -0.19408546 -0.4248104
000230 b0 7e 14 3f 8e 9e fa 3d 2c 18 e2 3e ba 9f 38 bd
       0.5800581 0.12237273 0.44159067 -0.045074202
000240 99 99 a8 be aa fa 85 be 06 eb 42 bb f5 bc 7c be
       -0.32929686 -0.26167804 -0.0029742136 -0.24681456
000250 35 48 11 bd d2 11 22 be 39 ef fe be ab 66 ac 3e
       -0.035469253 -0.1582711 -0.49791887 0.3367208
000260 4b 03 08 3d 70 f3 19 3e 3a 3a 28 be b5 92 4a be
       0.033206265 0.1503427 -0.16428462 -0.19782527
000270 5a 54 01 be f2 3f 14 bd ce 45 25 be e6 b2 81 3d
       -0.12629834 -0.036193796 -0.1613991 0.0633295
000280 05 e1 a7 bd 7e 90 a8 be 29 6a e6 3d 68 a8 82 3e
       -0.08197216 -0.3292274 0.11250717 0.2551911
000290 bd 43 99 3d 74 f0 40 bf 19 32 c8 3c be 6b 43 3e
       0.07483623 -0.753669 0.02443795 0.19084069
0002a0 ea 14 30 bf d1 68 7e be b0 9f 3b be b9 e0 17 be
       -0.6878191 -0.24844672 -0.18322635 -0.14831819
0002b0 78 23 c6 3d 27 ac 06 3f 6f 12 ae 3e d4 ab ef 3e
       0.09674734 0.52606434 0.3399844 0.46810782
0002c0 7d 62 ea bd 5f 44 3c bf 02 66 40 bc b8 65 3b bf
       -0.114445664 -0.73541826 -0.011743071 -0.73202085
0002d0 74 5d fa be b3 ba 04 be 42 4d be be d3 79 b9 be
       -0.48899424 -0.12961845 -0.37168318 -0.36225757
0002e0 f9 a9 6c bf 61 59 df be 80 24 29 3f e9 9b 77 be
       -0.9244686 -0.43622878 0.6607132 -0.24180569
0002f0 6e d2 6f bd ab 37 9d bd fb 30 1f bf 3c be 5a be
       -0.05855029 -0.076766334 -0.62184113 -0.21361631
000300 33 26 de 3c 49 ce d6 bb 75 3f af bd f0 f2 00 3f
       0.027117824 -0.006555353 -0.08557025 0.50370693
000310 b8 44 e1 3e 85 91 f7 3e 4e 35 8d be cd 59 62 be
       0.4399774 0.4835321 -0.2757973 -0.22104569
000320 77 80 3f 3e ea 14 be 3e 3d 44 39 be 05 29 b1 be
       0.18701349 0.3712533 -0.18092437 -0.34601608
000330 4a 41 95 3e 85 51 8a be 61 21 e8 bd 45 7e 5a be
       0.29151374 -0.2701532 -0.113344915 -0.2133723
000340 62 42 ab be 6c 54 de be 45 38 d5 be 4d 16 c3 bd
       -0.33449084 -0.43423784 -0.41644493 -0.09525738
000350 35 1e eb 3c 3f 61 97 be e8 e4 c0 bc ba f3 45 bd
       0.028700927 -0.2956638 -0.023546651 -0.04832814
000360 d2 8f 14 3d fa 65 4a 3d 44 bd 03 3e ef 46 d8 be
       0.03626997 0.04941366 0.12865168 -0.42241618
000370 c8 a1 2e 3e 1b e9 ee 3e 43 7f 0e 3d 34 f0 9f be
       0.17053902 0.4666222 0.034789335 -0.31237948
000380 70 72 88 be 2b 76 16 be 0b 66 f0 be d5 0b a7 be
       -0.2664981 -0.14693515 -0.46952853 -0.32626215
000390 3d e4 25 3f 96 f2 97 3d 3f 30 c4 be 26 ad 37 bd
       0.6480139 0.074193165 -0.3831806 -0.04484286
0003a0 59 79 96 3e 85 1c b3 3e 37 68 0d 3e 30 4b a3 3e
       0.29389456 0.34982696 0.13809286 0.318933
0003b0 8b 37 85 3e 2b 5e 9d 3e fa 01 34 3d 01 a3 bc 3d
       0.26018938 0.30735907 0.043947197 0.09210778
0003c0 81 b3 9f bf 4a f8 c2 bf 3f 88 eb 3e a7 98 0b bf
       -1.2476655 -1.5232022 0.46002385 -0.54529804
0003d0 b2 03 75 3e f1 ec 28 bd a1 31 06 be 1e 61 c4 be
       0.23927191 -0.04124159 -0.1310487 -0.38355345
0003e0 e6 ab c7 be cf 72 01 bf 65 6a ae 3e b0 c5 39 bf
       -0.38998336 -0.5056581 0.34065548 -0.7256727
0003f0 65 3d 16 bf cc 52 06 3f c2 94 24 bf 37 7e ee 3e
       -0.5868743 0.5247009 -0.64289486 0.4658067

linear1.bias f4 [256]
000000 f2 8c af be 4e a8 14 3e 7c aa 83 bd 82 01 b2 be
       -0.3428722 0.14517328 -0.06429002 -0.34766775
000010 0b f3 eb 3b 45 43 76 be 85 6d d2 bd 0f 49 58 be
       0.007200604 -0.24049099 -0.102747954 -0.2112162
000020 8a 22 c7 be 94 82 fb be 44 fc 65 bf 7c 89 d8 bd
       -0.3889354 -0.4912306 -0.8983805 -0.10573098
000030 c6 11 1a bf 69 30 0a bf f5 c1 d0 be 91 5c 21 bf
       -0.6018337 -0.5398012 -0.40772977 -0.6303187
000040 39 63 9e be f3 bf 5f bf c1 79 b9 3e 29 be 71 be
       -0.30935076 -0.87402266 0.36225703 -0.23607697
000050 11 f9 ee be 50 cc f6 3e 47 08 ea bd 14 97 f5 be
       -0.46674398 0.48202753 -0.1142736 -0.47966826
000060 7a 36 2f 3e a8 6c 39 be 71 f0 9b be f0 a6 28 be
       0.17110625 -0.18107855 -0.3045688 -0.16469932
000070 a3 b7 11 bf 7f 63 16 bf 6e 53 6f be 0a 39 19 bf
       -0.5692083 -0.5874557 -0.2337167 -0.5985266
000080 bf 22 02 bf a5 8f 34 3f 10 02 8e be 69 e4 b4 be
       -0.5083427 0.70531684 -0.2773595 -0.35330513
000090 35 74 c0 be fe d2 68 bf 9e 9a bf be 33 5d 78 bd
       -0.3758866 -0.9094695 -0.3742265 -0.060635757
0000a0 65 40 27 3f 41 46 fb bd 63 af 64 be 32 81 c3 be
       0.65332633 -0.12269259 -0.2233253 -0.38184506
0000b0 68 4d 3f be 11 6d 95 be c1 73 23 bf ac 66 b0 be
       -0.18681872 -0.29184774 -0.638485 -0.34453332
0000c0 b7 99 96 bf d0 c6 44 be df c9 d5 3c 63 79 52 bf
       -1.176566 -0.19216466 0.026097236 -0.8221647
0000d0 be 2e 2c bf eb 94 ef be 49 ae 0c 3f 31 33 10 bf
       -0.6725882 -0.46793303 0.5495344 -0.5632811
0000e0 3c 10 9d be ba f7 ac be 81 6e 51 be 14 97 03 bf
       -0.30676448 -0.3378275 -0.2045231 -0.514024
0000f0 4d 78 09 3c 48 cb 9a be 21 39 98 be 86 01 1d bf
       0.008390498 -0.30233216 -0.29731086 -0.6133045
000100 2b 18 a8 be 96 99 2e be dc 44 23 bf 65 58 e0 be
       -0.3283094 -0.17050776 -0.63776946 -0.4381744
000110 f2 ad 16 bf 3e 89 2b bf a0 85 22 bf 39 c8 b5 be
       -0.5885917 -0.6700629 -0.63485146 -0.3550432
000120 5d e7 91 be a2 e3 ac be ff fd 1b bf 33 e6 b1 3d
       -0.2849683 -0.3376742 -0.6093444 0.08686485
000130 d5 b3 d8 be e5 bf 69 3e 96 65 1e bf cb 61 bc be
       -0.423247 0.22827108 -0.6187376 -0.3679336
000140 ed bd 68 be 49 14 58 be 43 51 23 bf 78 53 14 be
       -0.22728701 -0.21101488 -0.6379587 -0.14484966
000150 e8 7d 88 3d 5d fd 35 3d 89 2f 25 bf bd 6c b1 bd
       0.0666464 0.04443108 -0.6452566 -0.08663318
000160 41 37 ea be d7 f4 57 bf 99 05 f9 be ca b4 a3 be
       -0.4574528 -0.8435797 -0.48637083 -0.3197387
000170 c4 81 da be f3 c5 bb be d0 5f 76 bf fe 07 32 be
       -0.42677128 -0.3667446 -0.9623995 -0.17385861
000180 d4 90 3e be 4c 77 a6 be f4 fb 31 3e fc c6 d5 bd
       -0.18609935 -0.3251289 0.17381269 -0.10438344
000190 56 e6 5a be 7b 4f ea be 64 8e 33 3d 37 c2 b1 be
       -0.21376929 -0.45763764 0.043836966 -0.34718487
0001a0 b9 0c e2 3c 61 e3 95 be e0 e2 28 bf 8b fc 0f 3f
       0.027593957 -0.2927504 -0.65971184 0.56244725
0001b0 c5 30 7c bf f2 83 4c be fa 4a ed be b7 cc 89 be
       -0.98511916 -0.19972208 -0.46346265 -0.26913998
0001c0 0a 8d ee be 32 de d7 be 2a b9 9b be 11 62 1b bf
       -0.4659198 -0.4216171 -0.30414706 -0.6069651
0001d0 6d cb 6e 3e f7 53 93 be 55 ce 4b be d4 ea 5e 3f
       0.23319788 -0.28774998 -0.19902928 0.8707707
0001e0 89 32 8e be d8 9e e5 be d7 35 8b be d5 0f 0d bf
       -0.2777293 -0.4484775 -0.27189514 -0.5510228
0001f0 a3 60 95 be 74 be 4b be 2f f1 24 be b7 23 cc be
       -0.2917529 -0.19896871 -0.16107629 -0.39870998
000200 ff ef ad be 28 4e 55 bf e1 d7 90 3e ee b8 03 bf
       -0.33972165 -0.8332238 0.28289703 -0.51454055
000210 9b 68 a9 bd 32 a7 20 be cd 91 8e 3e 5b 22 a2 be
       -0.08271905 -0.1568878 0.27845612 -0.31666836
000220 b7 8d e3 be b8 2d b3 be 76 0e b9 be f8 e4 10 bf
       -0.44444057 -0.34995818 -0.36143845 -0.5659938
000230 da 86 8c be 86 db b2 be 2b 97 bd bd 84 6e 83 bf
       -0.27446634 -0.34933108 -0.092573486 -1.0268102
000240 d1 9e b2 be 0d 25 1a be 4d ca 51 be 10 d2 a6 be
       -0.34886792 -0.15053196 -0.20487328 -0.3258214
000250 40 28 99 be 5c 31 db be f0 60 a7 bb 00 5f a0 bc
       -0.2991352 -0.42811096 -0.0051079914 -0.01957655
000260 89 5f ca be d4 fe a3 be f7 b1 59 bd 12 0f 26 be
       -0.39526013 -0.32030356 -0.053148236 -0.16216686
000270 18 c3 e8 be a9 5e cf 3e 17 26 0e be f8 42 3b bf
       -0.45461345 0.40501907 -0.13881718 -0.7314906
000280 70 55 39 3e a7 7c 33 bd 83 9a c0 be af ac 04 bf
       0.18098998 -0.04382005 -0.37617883 -0.51825994
000290 02 8a 1d bf 8e f5 73 be a5 34 95 be 5d d0 8f be
       -0.6153871 -0.2382414 -0.29141727 -0.28088656
0002a0 a3 26 40 be a7 e8 84 be 43 e8 c6 be 43 42 66 be
       -0.18764739 -0.2595875 -0.38849077 -0.22486214
0002b0 e7 3b bb be a3 4d 53 be 7e a4 7e bd 75 57 41 be
       -0.3656914 -0.20635085 -0.06216859 -0.18881018
0002c0 68 19 07 bf 47 10 20 bf a1 73 df be dc 3e 90 3e
       -0.5277314 -0.6252484 -0.43642905 0.28172958
0002d0 3c df b7 be ad 14 6b be 35 72 3e bf 65 39 b6 be
       -0.35912502 -0.22957106 -0.74393016 -0.35590664
0002e0 fe 9c ef be 84 51 d4 bd 36 10 83 bf 4f 15 f6 be
       -0.46799463 -0.1036711 -1.0239322 -0.48063132
0002f0 f3 78 63 be 9b 3d fa bd ff 4e c6 be 6f 70 57 be
       -0.22214107 -0.122187816 -0.38732144 -0.21038984
000300 bb a6 81 be 50 52 3b bf 1a fa a1 be 4c 26 19 bf
       -0.25322518 -0.73172474 -0.31636125 -0.5982406
000310 6f 67 9e be 95 50 bb be 15 3b d2 bc 7b 55 0d bf
       -0.3093829 -0.36584917 -0.025662938 -0.5520856
000320 f8 96 ac be 51 9f 72 be 0f b1 3d be 19 c5 e9 be
       -0.3370893 -0.23693587 -0.18524574 -0.45658186
000330 3e 3f 00 be 98 b4 c8 be cb 0c 18 bf cb bd ba be
       -0.12524125 -0.39200282 -0.5939452 -0.36472926
000340 21 20 bd be e6 9d 7a be 42 db 34 be cb f4 33 bf
       -0.36938575 -0.24474296 -0.17661765 -0.702954
000350 38 b0 21 3f f6 29 0b bf 18 23 9e be 94 70 4f be
       0.63159513 -0.543609 -0.3088615 -0.20257789
000360 d3 ad 19 be 01 2a eb be 7c 93 bc be 83 aa 5c be
       -0.15007715 -0.45930484 -0.36831272 -0.2154942
000370 c8 ac d4 be 74 1f 32 bf e3 09 27 bf 3c a0 99 be
       -0.41538072 -0.69579244 -0.6524946 -0.30005062
000380 f6 ae fa be b5 ed c2 be d2 ad 9c be 77 ad 9a be
       -0.4896161 -0.3807198 -0.30601364 -0.30210468
000390 cd e9 c5 bd e8 53 79 be 4f 41 00 3e d4 d8 c7 be
       -0.096637346 -0.24348414 0.12524913 -0.39032614
0003a0 04 05 e1 be 06 b3 46 3e 99 00 02 be d3 9c bb be
       -0.4394914 0.1940423 -0.1269554 -0.36643085
0003b0 b6 7b 11 bf f6 c5 0a 3f 2f 05 ab be 39 a2 90 be
       -0.5682939 0.54208314 -0.33402392 -0.28248766
0003c0 4a f5 dd be 34 59 bb 3d f2 56 55 be 02 d8 66 bd
       -0.43351203 0.091478735 -0.20833948 -0.056358345
0003d0 0f f2 6b 3d c6 d1 11 be f6 ea 4e be d2 89 db be
       0.057603892 -0.14240178 -0.20206818 -0.42878586
0003e0 ce 69 33 b9 79 ae f7 be 22 4f 49 be 61 3c 07 bf
       -0.00017110186 -0.483753 -0.19659093 -0.52826506
0003f0 5c c3 97 3d 9b a7 10 bf be ba d9 be 9a af a1 be
       0.07410309 -0.56505746 -0.42525285 -0.31579286

linear2.weight f4 [3, 256]
000000 37 b1 ee bd 5a e3 41 3e b9 70 d1 3b 0d 18 75 be
       -0.11654895 0.18934384 0.0063916114 -0.23934956
000010 77 06 e7 3d f0 54 7d 3e 6d ce 9f bd bc d1 86 3d
       0.1128053 0.24739432 -0.078030445 0.065829724
000020 ea 52 e4 3a f7 b0 a8 be a1 b5 9e be 25 34 7e 3e
       0.001741973 -0.32947513 -0.30997947 0.24824579
000030 36 29 85 be ed 4d bc be fe a9 a8 bd 8a af 9b be
       -0.26008004 -0.36778203 -0.082355484 -0.30407363
000040 50 ac 42 3d 8f 74 24 bf ce 6f 83 3d 3c a7 86 3c
       0.04752761 -0.64240354 0.064178094 0.016437165
000050 b2 b6 af bd af 31 53 3e 6f 44 a5 be 0c 27 2e be
       -0.08579768 0.20624422 -0.32278773 -0.17007083
000060 07 56 ce 3d 2b 8f 42 3e fe 0c 63 bd 8b 8e ac bc
       0.10075002 0.18999927 -0.055432312 -0.021064064
000070 80 89 4f bd 88 b7 12 3d 9d 64 99 3b 3d f5 33 3d
       -0.05066824 0.03581956 0.0046811835 0.04393505
000080 f0 a5 97 3c 84 c8 85 3e ae 9b 24 3d 21 6f b8 bc
       0.018511742 0.26129544 0.04018753 -0.022513928
000090 e5 3f 5a be 3b 7a 03 bf c0 5c 87 3f da 80 88 3e
       -0.21313436 -0.51358384 1.057518 0.26660806
0000a0 eb d0 e9 3e 79 c9 74 be 11 3e e3 3c d5 1e 01 bc
       0.45667204 -0.2390498 0.027739557 -0.007880886
0000b0 16 f5 c6 3e 4f 07 d7 bc 5f 9a 5c be cb 62 4d bd
       0.3885886 -0.026248602 -0.21543263 -0.050143044
0000c0 d2 89 8b bf b8 00 ad bb 45 59 44 bf f2 00 eb be
       -1.0901434 -0.0052796267 -0.76698714 -0.4589916
0000d0 53 31 f4 3d 33 0e 1c bf b1 40 58 3f ef 8b 0a 3e
       0.1192347 -0.60959166 0.8447371 0.13529943
0000e0 44 25 e0 3c d4 96 03 be 67 97 81 bc 9f 36 cc 3c
       0.02736152 -0.12850505 -0.015819265 0.02492839
0000f0 b7 c0 33 bf 9b 30 03 be e7 0f ca 3c d9 20 3f 3d
       -0.70215935 -0.1281151 0.024665786 0.046662185
000100 70 85 a3 bc c7 2f e8 3a d1 1c 84 be 5c aa 13 be
       -0.019961089 0.0017714434 -0.25803235 -0.14420456
000110 f5 22 bd 3d 20 37 2f be 34 f0 59 be cb 1b e8 bd
       0.09235183 -0.17110872 -0.21283036 -0.11333426
000120 54 81 32 be 63 ed 91 bd 2f 84 7e 3e 17 7f bf 3d
       -0.17432147 -0.07125356 0.24855112 0.09350412
000130 c6 9d 4d 3f d9 f3 c8 3e 92 ca 00 be fe aa 99 bd
       0.8031887 0.3924854 -0.12577274 -0.07503317
000140 f5 8f ca be ec 25 4c be f1 63 7a be 4f f2 0d bf
       -0.39562955 -0.19936341 -0.24452187 -0.5544786
000150 3a a2 99 3e 78 a8 6e bf 4a 3c 0a be 0c 6e ae 3e
       0.30006582 -0.9322581 -0.13499561 0.34068334
000160 43 c3 77 bd 1d 15 3e bf 77 4a 10 3e e7 f3 a4 bd
       -0.06048895 -0.74250966 0.14090906 -0.08054333
000170 d3 c5 a6 bc 89 a0 90 bc 8d 2c 3f bf 41 10 26 be
       -0.020358002 -0.017654674 -0.74677354 -0.16217138
000180 ab fa 62 be 2e 85 a0 3a d3 66 09 bf be d2 6c bf
       -0.22165935 0.0012246722 -0.5367252 -0.9250907
000190 16 0d ae bc 64 78 d5 be bd 36 e8 3d 9f a6 c1 3d
       -0.021246474 -0.41693413 0.113385655 0.094556086
0001a0 b3 65 8b 3e 02 74 91 3d 7c 6d 8b bd b2 f5 16 3f
       0.27226028 0.07102205 -0.06807992 0.5896865
0001b0 6f 31 95 be 6d 3a 8e bc 2c 52 37 bc cd 74 0d be
       -0.29139277 -0.017361844 -0.011189025 -0.13814087
0001c0 97 cf c8 bd 62 d6 fd 3e 81 44 4b 3d 76 01 79 bd
       -0.098052196 0.49577624 0.049625877 -0.06079241
0001d0 5e a7 b3 3e b5 10 8d 3d 88 e3 30 bc 45 82 f4 3e
       0.3508863 0.06887952 -0.010796435 0.47755638
0001e0 41 56 1b bc 91 17 5d be 1e 8b a3 bc 17 41 67 3c
       -0.009481014 -0.21591021 -0.019963797 0.01411464
0001f0 dc 12 87 bc 4a 34 21 3c 24 7f b9 bb ad 6f 34 3c
       -0.016488485 0.009839127 -0.0056609083 0.011012954
000200 ac 99 0d bc e7 0a 35 bf 23 24 dd 3e 64 10 1a be
       -0.008642595 -0.7071976 0.43191633 -0.15045315
000210 5d 63 56 bd 4c f5 79 3c 64 8d 83 3e 68 de e7 3c
       -0.052340854 0.015256237 0.2569381 0.028304294
000220 41 34 14 3b 23 ab 87 bc e5 60 29 be f9 ca 32 be
       0.0022614154 -0.016561097 -0.16540869 -0.1746024
000230 51 0f 47 be be 79 95 3b 24 b5 3f 3b 51 82 4d be
       -0.19439436 0.004561632 0.0029252255 -0.20069243
000240 1d a6 04 bd ab 7c a6 bd bb 70 7e 3d 4c 03 3d bf
       -0.03238498 -0.08129247 0.062119227 -0.73833156
000250 ac 3f a7 3d f6 2f 16 3c 73 0e b4 bd e8 0c a9 bc
       0.08166441 0.009166708 -0.087918185 -0.020636037
000260 ab a3 88 bd 4a 57 d1 be e9 28 e3 be 5a fd 8f bc
       -0.06671842 -0.4088691 -0.4436715 -0.017576862
000270 63 98 70 be 9d 2c 07 3f 47 98 d6 3b b4 1c 81 bd
       -0.23495631 0.5280245 0.0065489146 -0.06304303
000280 17 d7 86 3e 21 38 3f 3e 49 c3 dc 3c 89 39 be 3e
       0.26335976 0.18673755 0.026948588 0.3715327
000290 45 b1 5b 3e 54 cd bc 3c 0e 2a de bd e9 97 57 3d
       0.21454342 0.023047127 -0.10847865 0.052635107
0002a0 3a c4 43 3d 25 f1 cb 3c c8 67 87 3b 09 18 a4 bc
       0.047794558 0.02489526 0.0041322447 -0.020030992
0002b0 7a 1d 81 3d 50 fc 36 be d0 6b 3f bb b3 b2 bc 3e
       0.0630445 -0.17869687 -0.0029208548 0.36855087
0002c0 9a 4e d3 3c 59 96 cb bd e7 af c1 bd 8b 5d 80 3e
       0.025794316 -0.09940786 -0.09457379 0.25071368
0002d0 57 39 24 3d c0 07 66 3b bd 58 0a 3d 50 b1 7a bd
       0.040093746 0.0035099834 0.033776034 -0.061204255
0002e0 82 22 32 bd eb 5a c5 3c 94 f6 37 bf 73 85 8a bf
       -0.04348994 0.024091205 -0.71860623 -1.0821975
0002f0 6a 56 1c bf eb 37 1b be 3b 0e bb bd 69 24 3b bd
       -0.6106936 -0.1515805 -0.091335736 -0.04568902
000300 3a e5 d5 be fe c3 06 3e c8 7f 46 bd eb f2 0f bf
       -0.41776448 0.13160703 -0.048461705 -0.5623004
000310 0e c1 0a be 83 e7 2e bd 08 18 a6 3c 39 01 96 be
       -0.13550207 -0.042701256 0.02027513 -0.29297808
000320 e1 91 75 bd ae b4 5d 3c a9 29 40 bd 37 f6 8d 3a
       -0.059953574 0.013531847 -0.04691473 0.0010830824
000330 9d d3 25 3c c7 57 46 bd dd 60 9a bd b4 bb 8a 3d
       0.010121253 -0.048423555 -0.075380065 0.06774083
000340 12 f5 a1 bd f3 99 c0 be 95 09 a5 be d4 8d 19 be
       -0.079080716 -0.37617454 -0.32233873 -0.1499551
000350 77 0f ce 3e 6d 3a 34 3b e2 00 e2 3d 78 e6 8d 3c
       0.40246174 0.0027500645 0.11035325 0.01732181
000360 d5 ac a1 bd 03 c0 f6 3d c7 54 aa 3e d2 80 7a be
       -0.07894293 0.12048342 0.33267805 -0.24463204
000370 87 5f 81 be 64 f4 54 be 75 b6 d9 3e f1 5c d8 3d
       -0.25268194 -0.20796353 0.42522016 0.10564602
000380 45 a0 16 be e5 33 c8 bd 8e d0 fb bc ee a9 f8 3e
       -0.14709575 -0.09775523 -0.030739095 0.48567146
000390 6a 19 73 3c 86 87 69 3d a0 b6 ec 3e af ef db 3c
       0.014837602 0.05701401 0.46233082 0.026847688
0003a0 da ae b4 3c a6 bc 8d be 4e 50 84 bd 88 bb 49 be
       0.022056032 -0.2768299 -0.064606294 -0.19700444
0003b0 5d 2a 2e bd e2 43 2c 3f 95 81 20 be 70 54 10 3d
       -0.04252087 0.6729108 -0.15674432 0.035236776
0003c0 f8 21 90 3e d9 af a0 3e 8c 49 12 3d 29 54 69 bf
       0.28150916 0.3138416 0.03571467 -0.91144043
0003d0 2c cc d7 3d 59 f0 63 3c 8b 8f 92 3e f7 58 3e 3e
       0.105369896 0.013912284 0.2862514 0.18588625
0003e0 09 de 96 3b 9e 05 3f bd e4 2e 3b be c5 23 98 bd
       0.0046041054 -0.046636216 -0.18279606 -0.074286975
0003f0 b6 5e 92 3e fc 2b af be cf 53 3b bf 97 2e 9b be
       0.28587884 -0.34213245 -0.73174757 -0.30308983

linear2.bias f4 [3]
000000 f1 9d ee 3e 9f 72 d5 bd 7c 4e ce bd
       0.46604875 -0.10422253 -0.100735635
