Code Submission/DDQN_models/model1-snapshot-score-21.pth (torch, 17221 bytes, 4 tensors)

linear1.weight f4 [256, 11]
000000 d3 51 c0 be 7c 4a 02 be 50 f4 f6 bc 1a a3 38 3e
       -0.37562427 -0.12723726 -0.030145794 0.18030968
000010 8e d6 23 3e 3c 28 74 be 0b 3c eb bd 43 21 87 3c
       0.15999815 -0.23843473 -0.11486062 0.016495353
000020 52 fa 1b bf f1 d2 0d bf 74 3c 4d 3e 3b 93 7c 3e
       -0.60928833 -0.55399996 0.20042592 0.24665539
000030 9d a1 c3 be 19 40 94 3e 9a 70 a0 be 9f 38 a6 be
       -0.3820924 0.28955153 -0.31335908 -0.32465073
000040 5b 47 98 be d3 02 d2 be 4b ef e3 be 68 27 fc be
       -0.2974194 -0.4101778 -0.44518504 -0.49248815
000050 0e 7d dd 3d e4 2f 04 bf 36 4c a3 be db 46 ac 3d
       0.10814868 -0.51635575 -0.31894082 0.08411952
000060 7f 53 80 be ed e6 c3 be 9d ec 97 3c 66 cc 8b 3e
       -0.25063702 -0.3826212 0.018545443 0.2730438
000070 36 03 1e be e5 75 0d be 43 24 a9 3e 9b 8f a4 3e
       -0.15430912 -0.13814504 0.33035478 0.32140812
000080 eb 79 d6 3e b1 63 6e 3e 9d c0 5b bf 48 70 19 bf
       0.4188989 0.23280217 -0.8584078 -0.5993695
000090 45 de 2a be 2f 0e 2c be 47 0c 86 be 37 27 f6 3d
       -0.16686352 -0.16802286 -0.26181242 0.120191984
0000a0 8b 6b fa be 47 e5 39 3f e5 c8 16 be 1a 62 51 3f
       -0.48910174 0.72615474 -0.14725073 0.81790316
0000b0 9a 0d d9 be ab 9c d2 be d5 1b 26 bc 8a ed 88 3d
       -0.4239319 -0.41135153 -0.010138472 0.06685932
0000c0 04 7d 04 be c4 d6 fd be 99 4e d0 3e 50 10 13 be
       -0.12938315 -0.49577916 0.40684965 -0.14361691
0000d0 a4 49 b5 3e 5a bf 2c 3f 7f 39 06 bf e9 90 17 3e
       0.35407746 0.6747948 -0.5243148 0.14801373
0000e0 83 dd 05 bf 44 25 2b 3e b3 66 9d be 77 dd 4f be
       -0.52291125 0.16713434 -0.30742416 -0.20299326
0000f0 ef ac 94 be 55 32 25 be 38 5b 98 3d e5 da 1d bf
       -0.29038188 -0.16132481 0.074392736 -0.6166213
000100 1e 29 85 be cf 7d 9c 3e 63 c4 c0 be 0e 61 c7 be
       -0.26007932 0.30564734 -0.3764983 -0.38941234
000110 28 3b 7f be 3a 69 34 bf ef 6d 48 be 04 b8 42 3e
       -0.2492491 -0.70473063 -0.19573186 0.19015509
000120 98 0d ce 3d 21 91 96 be 30 ac 51 be 72 df 80 be
       0.100611866 -0.294076 -0.2047584 -0.25170475
000130 77 97 f1 3e c7 df ee 3d a9 42 11 3d e2 e1 11 3e
       0.4718587 0.11663776 0.035463963 0.14246324
000140 48 ef 49 be 5e 88 1e 3e 75 a3 82 be ac b5 13 be
       -0.19720185 0.15481707 -0.25515333 -0.14424771
000150 99 e9 22 3c 4f 5f f7 bd 1f ad 8f bd 37 78 e8 be
       0.009943389 -0.120787255 -0.07015442 -0.45404217
000160 cb 37 69 be 9f 1a e1 3d 02 fd de bc 65 02 21 3d
       -0.2277519 0.10991406 -0.027220253 0.039308924
000170 59 69 8c 3e 0d 97 5a bc 07 85 21 be ec 18 7c 3d
       0.27424124 -0.013341677 -0.15773402 0.061547205
000180 a4 92 34 bf 59 4a f2 be 28 d3 59 3e fa 08 1b bf
       -0.70536256 -0.47322348 0.21271956 -0.6056057
000190 b7 a8 c2 be 63 14 3e 3d 2b f4 ad 3e 09 8c e5 bd
       -0.38019344 0.04640616 0.33975348 -0.1120835
0001a0 85 7c f7 be 57 f6 74 3d b0 8c a0 be e8 43 c4 3d
       -0.48337188 0.05980524 -0.31357336 0.095832646
0001b0 ca 6a 04 3f b4 81 99 be 43 10 ac 3e 9e e8 c5 be
       0.5172545 -0.29981768 0.33606157 -0.38654035
0001c0 3b 3f 77 bf e4 73 aa be 91 c4 2f bd 75 0c 05 bf
       -0.9658086 -0.33291543 -0.04291207 -0.5197213
0001d0 9f 43 a8 bc d4 e6 19 be a0 32 47 3f 58 9a f9 3c
       -0.020540057 -0.1502946 0.7781162 0.030469105
0001e0 3b 80 00 3e 6d 6c a0 3e 2b c1 d5 3e 0d c2 41 3f
       0.12548916 0.31332722 0.41748938 0.75686723
0001f0 4a fe 1a 3f 0f ec ad be 2e b6 10 bd 88 a5 c7 3b
       0.60544264 -0.3396916 -0.03532999 0.006092731
000200 01 f4 93 bd e4 60 b4 3c cb 9e f8 be 71 50 2b bf
       -0.072242744 0.022018857 -0.4855865 -0.6691962
000210 a9 38 87 3d f7 7e 0a bf fe b9 35 bf 34 4a ec be
       0.06602604 -0.5409998 -0.70986927 -0.46150362
000220 fd c0 33 3e f3 19 9b 3d ae e8 85 3e f2 99 79 be
       0.17554088 0.07573309 0.26154083 -0.24375132
000230 93 c4 54 3f f5 0c 95 be ad 75 ea 3d d1 a1 c1 3d
       0.8311245 -0.29111448 0.11448226 0.09454692
000240 ad 93 09 bd 90 d3 eb be b9 94 a5 bd 56 45 90 bd
       -0.0335881 -0.46059847 -0.08085007 -0.07044475
000250 40 61 09 bd a8 43 94 3c a9 f2 fd be 2c 07 3a 3e
       -0.03354001 0.018098667 -0.49599198 0.18166798
000260 f0 77 82 be 32 21 ae 3e 85 c7 ae bd d3 88 9f bd
       -0.2548213 0.340097 -0.08534149 -0.07789769
000270 f8 bb d8 bd 7d 0f 32 bd cf 80 18 be a8 03 0b 3d
       -0.10582727 -0.043471802 -0.14892887 0.033939034
000280 1d 56 8e bd 43 9d b7 be a1 90 ca 3d d4 0b 3c 3e
       -0.069500186 -0.3586217 0.09890867 0.18363887
000290 94 72 d2 3c 52 05 ac be 97 70 30 bd 84 44 05 bf
       0.0256894 -0.3359781 -0.043076124 -0.5205767
0002a0 a5 1d fd be 87 46 64 bd 19 fe e1 be fe d9 35 3d
       -0.4943668 -0.055731323 -0.44139174 0.044397347
0002b0 07 4d 25 be 40 8c 39 3e fb 99 d8 3d 47 22 8e 3c
       -0.16142665 0.18119907 0.105762444 0.01735033
0002c0 3d be 9c 3d b4 ca 0c bf a8 10 d1 bd f7 0a 73 bf
       0.076534726 -0.549968 -0.10208255 -0.94938606
0002d0 ee cd e2 be 84 22 b5 3d fa bd a6 be ec a7 13 be
       -0.44297737 0.08844474 -0.32566816 -0.14419526
0002e0 64 27 d5 3d f1 c1 3f bf cf bc 86 3f 09 20 eb 3c
       0.10407904 -0.74905306 1.052637 0.028701799
0002f0 64 fe 0a bb 67 fe 60 be b7 d5 50 bf 01 bb bd bd
       -0.0021208758 -0.21972047 -0.815761 -0.09264184
000300 91 73 9a 3d 83 53 ea 3d 97 a6 18 bd 53 91 d6 3e
       0.07541574 0.1144171 -0.037268247 0.4190775
000310 6f 14 ea 3d 59 23 90 3e 1d 99 31 be 01 81 aa bc
       0.11429679 0.28151968 -0.17343564 -0.020813467
000320 77 76 ef be 9f 95 6b bd f0 78 5b be 37 33 5a be
       -0.4677007 -0.057515737 -0.21432853 -0.213086
000330 db 27 84 3e 9d 85 0c be c6 eb e9 be 3a 9e 8d be
       0.25811657 -0.13722844 -0.45687693 -0.2765978
000340 4a 79 d9 be 95 ca e7 be ee 7c 5b be 04 e9 b3 3e
       -0.4247535 -0.45271745 -0.21434376 0.35138714
000350 44 a9 e2 3e c9 f1 32 bf 31 04 f7 be d6 40 e7 be
       0.44269764 -0.69900185 -0.48245385 -0.45166653
000360 3b 64 d8 be 0a c1 b8 be d9 91 ae be 11 43 f5 3d
       -0.4226397 -0.36084777 -0.34095648 0.119756825
000370 a8 01 5f be a7 14 a4 3d 26 69 6f 3e 2a dc 82 be
       -0.21777976 0.080117516 0.23379955 -0.25558597
000380 51 99 7f 3d ef 5a dc bd 74 01 10 be cb e7 92 be
       0.062402073 -0.10759532 -0.14063054 -0.2869247
000390 fc 11 b4 3e a4 07 ac be 3e 29 21 bd 85 da 76 bd
       0.3516997 -0.3359958 -0.039345972 -0.06026699
0003a0 75 bb 28 be 9c 21 5f 3d 11 ca 15 3d 82 85 0c be
       -0.16477759 0.05447541 0.03656966 -0.13722804
0003b0 5f e0 8d 3c ce 5f 18 be ed b1 4b be ab f6 08 3d
       0.017318903 -0.14880297 -0.19892092 0.033438366
0003c0 49 f3 3c bf 26 e7 17 bf ae cd ae 3e 09 a4 ff bd
       -0.73808724 -0.5933708 0.34141296 -0.12482459
0003d0 3d 47 c9 bd e7 a9 cb bd cf 11 31 be 18 e4 ce bd
       -0.09828041 -0.09944516 -0.1729195 -0.10102099
0003e0 bb 1b dd be 59 7b 64 be 10 86 b3 be 45 0f bf be
       -0.4318522 -0.22312678 -0.3506322 -0.37316337
0003f0 82 3f d6 be 05 51 4f be 9c 46 6c 3c 18 f6 71 3d
       -0.41845328 -0.2024575 0.014421131 0.059072584

linear1.bias f4 [256]
000000 31 40 dd be 29 08 88 3d ca df 22 bf da 38 ef bd
       -0.43213037 0.066421814 -0.63622725 -0.116807655
000010 7a 65 06 be 2d 2d 08 bf 51 29 89 be 75 90 33 be
       -0.13124648 -0.5319393 -0.26789334 -0.17535575
000020 3a ad f0 be 5a 40 ee bd cd 7c 47 be c9 51 53 3d
       -0.4700716 -0.11633368 -0.19481201 0.05159167
000030 75 21 cd be 23 2b 20 bf 5e b8 8c be be 1c 87 be
       -0.40064588 -0.6256582 -0.2748441 -0.26389116
000040 f6 7e 31 be bf 35 60 bf 35 d8 22 bd 9d aa 50 3e
       -0.17333588 -0.8758201 -0.039756972 0.20377584
000050 05 6c 23 bf f9 b1 bf bd 94 0c 21 bd 5e f2 e1 be
       -0.638367 -0.093601175 -0.039318636 -0.44130224
000060 5f 26 83 be e9 c2 ae be f2 9a 58 3d 5c 6b cc 3c
       -0.25615212 -0.3413308 0.052882142 0.024953537
000070 65 ed fb be 0a 97 22 be 98 b9 3d be 64 24 13 bf
       -0.49204555 -0.1587793 -0.1852783 -0.574774
000080 a8 4a fb be 12 4e f2 3c 62 47 af be f8 e4 5c be
       -0.49080396 0.029578242 -0.34234148 -0.2157172
000090 cf de e7 be 76 1a 2e bf e6 3e ca be f9 c7 8c be
       -0.45287177 -0.68009126 -0.39501113 -0.27496317
0000a0 a3 19 90 3e 2f 6b fa 3d d7 70 5e be bd a2 bc be
       0.2814456 0.12227475 -0.21722732 -0.3684291
0000b0 1d 5c f1 be dd 79 bb be dc 1d a8 be 00 b0 93 be
       -0.4714059 -0.36616412 -0.3283528 -0.28845215
0000c0 7b d3 7e bf af 49 05 3e af 4c dc 3b 76 ba 29 be
       -0.99541444 0.1301639 0.0067230086 -0.16575035
0000d0 6b 06 9d be 5a 0d a1 be d0 1b d0 3e c5 d3 02 bf
       -0.3066896 -0.314555 0.4064622 -0.51104385
0000e0 96 61 30 bf b1 b8 51 3d ac b8 ee be 2e ec 06 bf
       -0.68898904 0.051201526 -0.46625268 -0.5270413
0000f0 28 21 9f be b4 55 c6 be 09 d5 35 be 8a 51 14 bf
       -0.31079984 -0.3873726 -0.17757048 -0.5793692
000100 81 59 40 be 29 ad 4b be 1b f9 ff be 3c f3 9b be
       -0.18784143 -0.19890274 -0.4999474 -0.3045901
000110 c7 d9 7b 3e 87 f1 c4 be 14 73 e4 be 57 e9 cd be
       0.24594794 -0.3846552 -0.44619048 -0.40217087
000120 56 74 03 bf 03 10 62 be bf df b7 be f5 3d a4 bd
       -0.5134939 -0.2207642 -0.35912892 -0.0801963
000130 85 cb 13 bf 61 25 f1 3e 69 e8 95 be 5c 9a b0 bd
       -0.5773242 0.4709883 -0.29278877 -0.08623192
000140 d5 2d c5 bd 08 1d 56 be 19 85 d0 be ac 90 a8 bd
       -0.096278824 -0.20909512 -0.40726545 -0.08230719
000150 ab 13 dd bd ac 7a a4 be e4 80 16 bf f5 1d 46 bd
       -0.10794767 -0.3212484 -0.5879042 -0.048368413
000160 3e 91 38 be 6c 2e f1 bd 94 7c a9 be 77 fd d0 be
       -0.18024155 -0.117764324 -0.33102858 -0.40818378
000170 9d 2e 0b bf 05 e5 f0 3e 46 3b 62 bf ac 67 a9 bd
       -0.54368 0.47049728 -0.88371694 -0.08271727
000180 0f 8c aa bd 25 1b 64 be 60 2f 3e be 9e fa 49 be
       -0.08327495 -0.2227598 -0.1857276 -0.19724509
000190 c8 53 ee be 48 11 af be fe a7 c1 be 2e 69 cd be
       -0.46548295 -0.34192872 -0.3782348 -0.40119308
0001a0 34 e3 b9 be 23 78 e7 be 9f 61 e9 be 6b 40 aa be
       -0.36306155 -0.45208845 -0.4558229 -0.33252272
0001b0 67 21 1d bf 81 23 53 be 10 ca db be 8f 1a ea be
       -0.6137909 -0.20619012 -0.429276 -0.45723388
0001c0 f3 91 5f be c1 ff eb 3d da 8b ab be 31 db 14 bf
       -0.21833019 0.115233906 -0.33505136 -0.5814696
0001d0 e2 f2 6f be 8b 94 99 3d a1 a4 68 be 65 fb 0e 3f
       -0.23432496 0.074990354 -0.22719051 0.5585235
0001e0 0c 67 96 ba 0e e6 22 be e4 03 6b be bb 4c b6 be
       -0.0011474802 -0.15908071 -0.22950703 -0.35605416
0001f0 a3 60 95 be fb 62 6d 3e aa ce 0c be 06 12 37 be
       -0.2917529 0.2318229 -0.13750711 -0.17877969
000200 6e f5 02 3d 51 f0 df be cd 82 ad 3e ff a3 54 be
       0.03197234 -0.43738034 0.33888856 -0.20765685
000210 8e 4a 14 3d fa c8 26 be fd b2 fe be 52 a3 9a be
       0.036203913 -0.16287604 -0.49745932 -0.3020273
000220 54 20 a7 be 5c 68 0a bf 41 40 d6 be c2 aa 80 be
       -0.32641852 -0.5406549 -0.41845897 -0.25130278
000230 6a ad 05 bf 53 a6 1f bf df 31 51 be cf 50 70 bf
       -0.52217734 -0.62363166 -0.2042918 -0.93873304
000240 ec c1 f1 bd 85 9a 24 be f5 59 2a be d7 0b 15 bf
       -0.11804566 -0.1607457 -0.16635878 -0.5822119
000250 a6 4d ca be 3e 5d 1d bf 2c 4d 17 be 00 5f a0 bc
       -0.39512366 -0.614704 -0.14775532 -0.01957655
000260 1e 0e 90 be 07 d1 a6 be 03 67 e0 be 0b e9 9b be
       -0.2813577 -0.3258135 -0.43828592 -0.30451235
000270 ab 0f 6b be b5 cc e5 3e 76 5c 15 be d9 46 44 be
       -0.22955196 0.44882742 -0.14586052 -0.19167651
000280 04 fe a6 be 6a ab e8 be 51 a9 d9 3e 2b 9e 09 bf
       -0.32615674 -0.4544328 0.4251199 -0.5375697
000290 d9 b5 c0 be 8e f5 73 be 9f 86 b0 be 99 40 05 bf
       -0.3763874 -0.2382414 -0.34477708 -0.52051693
0002a0 96 a6 1c bf fc 06 1e 3e 85 71 c1 be a8 15 7f be
       -0.6119169 0.15432352 -0.3778192 -0.24910605
0002b0 f2 0a ff 3d 86 0e 82 3d de 2d 18 bd 0a 01 d7 bd
       0.124532595 0.063504264 -0.037153117 -0.10498245
0002c0 0a 65 cf be 2c 58 b1 bd 94 6a 13 be 13 df 9a be
       -0.40506774 -0.086593956 -0.14396125 -0.30248317
0002d0 fd 2e a2 be ad 14 6b be cf e4 f8 be 6b ad a3 be
       -0.31676474 -0.22957106 -0.48612067 -0.31968245
0002e0 a7 3f f9 be ff f7 c7 be 04 13 66 bf ab 4e 21 bf
       -0.48681375 -0.39056394 -0.89872766 -0.6301066
0002f0 72 35 ae be 62 6d 5a bd b6 d7 01 3f 19 91 72 be
       -0.3402515 -0.05332697 0.50719774 -0.23688163
000300 ba 53 3f be b2 e0 4b be 45 3a 91 be 63 1b 22 be
       -0.18684283 -0.19909933 -0.2836477 -0.1583076
000310 a2 c2 71 be 3e 78 e9 bd 2a b2 97 be f7 40 0b bf
       -0.23609403 -0.113998875 -0.29628116 -0.54396003
000320 dc 97 fc bd 7b e2 ba bd 9c 7d 60 be d4 8d de be
       -0.123336524 -0.09125229 -0.21922916 -0.4346758
000330 c9 55 13 3e 17 8b fd be 8d 06 05 bf a7 6b ba be
       0.14388193 -0.4952018 -0.5196312 -0.36410257
000340 9f 67 87 be 05 b9 4e be 5d 8b 11 3e 47 04 00 bf
       -0.26446244 -0.20187767 0.14213319 -0.50006527
000350 74 f2 28 3f 18 44 73 be e1 5e 9b be fc 28 59 be
       0.65994954 -0.23756444 -0.30345824 -0.2120704
000360 28 90 94 be b3 5d a6 be f0 b1 f3 be e8 6c 97 be
       -0.29016232 -0.32493362 -0.47596693 -0.29575276
000370 9c d8 c3 be 15 09 e9 be 54 f5 10 bf 0a 10 a9 be
       -0.38251197 -0.45514742 -0.5662434 -0.3302005
000380 d8 fb 8c be 2d a1 bf be 18 78 9e be b8 a1 e6 bd
       -0.27535892 -0.37427655 -0.30951 -0.11261314
000390 8e 71 10 be e8 53 79 be 21 f7 1f be e4 65 9f be
       -0.14105818 -0.24348414 -0.15621616 -0.31132424
0003a0 eb 3a 9e be 34 9b bf be 89 6a f8 bd 4f 62 f9 be
       -0.30904326 -0.37423098 -0.12129695 -0.48707816
0003b0 40 6e ed be 8a ec 4c 3d 1d 9f 60 be cb 8d 90 be
       -0.46373177 0.05003027 -0.21935697 -0.2823318
0003c0 41 15 99 be 4b 5f b6 be 4b 04 a3 bd d9 49 97 be
       -0.29899028 -0.35619578 -0.07959803 -0.2954853
0003d0 8c f0 51 be 80 94 54 3c 5d 99 74 bd 38 f6 0e be
       -0.20501918 0.012974858 -0.05971657 -0.13961112
0003e0 72 b6 aa 3e 1b 93 b8 be ce 6b 95 be 3a ed eb bd
       0.3334232 -0.36049733 -0.2918381 -0.11519857
0003f0 8a 0c 42 be 45 53 1b bf f9 ae e7 be 6b b8 0d bf
       -0.18950096 -0.60673934 -0.4525068 -0.55359524

linear2.weight f4 [3, 256]
000000 35 7d 8a 3e f3 a5 41 3e 8b e6 3c bf 3b ac e8 be
       0.2704865 0.18910961 -0.7378928 -0.454439
000010 e7 de ee bd 4a 84 05 bc a3 01 0f 3c 15 db 4f bc
       -0.11663609 -0.008149216 0.008728418 -0.012686511
000020 cd 8e ca bc 05 4c c4 be 7e df 97 be 38 f1 8b 3e
       -0.024726296 -0.38339248 -0.29662699 0.27332473
000030 d0 51 2c bf 76 56 c6 be 14 ab 56 bc f8 af b7 be
       -0.67312336 -0.3873784 -0.013102312 -0.3587644
000040 f5 90 2c be 89 d1 1a bf b7 c6 40 3d d7 e0 3f bf
       -0.16852172 -0.60475975 0.04706451 -0.74952453
000050 b9 67 0d 3e 5c ba 2e bd cb 9b d3 3d 6c 31 de 3c
       0.13809098 -0.042658195 0.103324495 0.027123176
000060 0d 6a fa 3d 9c d9 c1 bd 6c d6 02 3d a5 c0 0f bf
       0.12227259 -0.09465334 0.03194277 -0.5615333
000070 b2 7c 40 3e c6 55 e4 3d f2 ab 76 3d 00 4c 10 3d
       0.18797567 0.111491725 0.060222574 0.03522873
000080 3d 59 1b 3e 81 ac b8 3c ca 56 39 be 67 94 5a be
       0.1517076 0.022543194 -0.18099514 -0.21345674
000090 58 f1 03 be 8d 48 16 3f 1f e9 8a 3c 12 fe 60 bd
       -0.12885034 0.58704454 0.016956864 -0.0549298
0000a0 a2 f3 b5 3e 45 1c 1c 3c e8 94 65 3a 71 18 c5 bc
       0.3553744 0.009528224 0.00087578455 -0.024059506
0000b0 f5 9c bd bb 94 0a 1f bd 33 3e d5 bd ac af 12 be
       -0.005786533 -0.038828447 -0.10412254 -0.14324826
0000c0 31 b9 9d bf dc c4 5d 3e 9c 1f df be 75 9d e5 3b
       -1.2322141 0.21657127 -0.43578804 0.0070072957
0000d0 de ee 4c 3e bf 34 97 be 6d 1f 1d 3f 19 b1 95 39
       0.20012996 -0.2953243 0.61376077 0.00028551443
0000e0 1d b5 f2 3d b5 4e 8f 3e 27 66 78 be b1 c1 90 bd
       0.11850951 0.27989736 -0.24257718 -0.07068194
0000f0 a4 e0 77 3b d4 c1 cd bd 4b 3d 60 be 0b 96 11 bf
       0.0037823105 -0.100467354 -0.21898381 -0.5686957
000100 17 3a f0 bb 94 3d f5 3c 65 07 41 bd c4 2e b8 3c
       -0.0073311436 0.02993659 -0.047126193 0.022483237
000110 20 04 17 bf 7c a8 bf be 28 fd 82 be 6e ea 31 be
       -0.5899067 -0.3743323 -0.25583768 -0.17374584
000120 38 94 b1 3a ab 18 fe 3e d6 97 f6 3b 27 71 b2 3b
       0.0013548201 0.49628195 0.0075254245 0.0054456177
000130 10 16 ac bd 75 98 f7 3e 35 56 4e 3e 19 1a d6 3e
       -0.084026456 0.48358503 0.20150073 0.41816786
000140 70 82 84 3c e3 b0 60 be 16 62 a1 be 53 a3 fc 3d
       0.016175479 -0.21942477 -0.31520146 0.12335839
000150 8f aa ce 3b 66 05 4d 3c 23 39 49 be b8 a0 a0 3e
       0.0063069533 0.012513494 -0.19650702 0.3137262
000160 68 ec 78 bd 4c f7 b4 3d 84 bb 27 bd ac 84 2d 3e
       -0.06077233 0.08836231 -0.040950313 0.16945142
000170 5b 10 b1 3a de db b2 3e 64 e3 36 bf 50 05 c3 be
       0.0013508903 0.3493337 -0.7144072 -0.3808999
000180 6e 6a 38 bf e3 13 8c bd 6d e5 7a 3d a3 b9 47 3d
       -0.720374 -0.068397306 0.061253954 0.04876102
000190 b1 43 fb bc a6 93 98 bf 59 cc 9a bd 51 b6 3c be
       -0.030671926 -1.1920059 -0.075585075 -0.18428923
0001a0 e3 55 24 3e 03 01 d1 bd b4 40 96 bb 01 f4 36 be
       0.16048388 -0.10205271 -0.00458535 -0.17866518
0001b0 3f d6 12 bf ca d0 74 bc 12 3a 19 3f 71 55 c9 3c
       -0.57358164 -0.014942357 0.59854233 0.024576874
0001c0 d9 54 79 be 32 d9 e8 bd 28 0a 9a 3c 3c cf 04 bf
       -0.24348773 -0.11369552 0.018803671 -0.51878715
0001d0 29 2d 80 3d 86 67 cf bc b8 41 a6 be 67 4f b7 3e
       0.062586136 -0.025317919 -0.32472014 0.35802767
0001e0 7f fe 87 3e d5 84 e7 3d fd 79 72 3c 33 75 74 3e
       0.26561353 0.113046326 0.014799592 0.23872833
0001f0 dc 12 87 bc ef 90 83 3e f6 e8 71 3d 9b 6f 72 3d
       -0.016488485 0.25696513 0.05906006 0.059188467
000200 6c df 29 bf d4 08 16 be e0 6c f7 3e 9a d2 8d 3d
       -0.6635654 -0.14651805 0.48325253 0.06924935
000210 61 5a dc be 66 cf 88 be ad a3 a9 be a9 d9 23 be
       -0.43037704 -0.26720732 -0.33132687 -0.16001
000220 13 f1 47 bd 2a 94 a3 3d ec e5 99 be ed 17 ad be
       -0.04881389 0.079872444 -0.3005823 -0.33807316
000230 c3 87 b4 3c 94 58 47 3e c8 6a e2 3c f1 f6 24 bf
       0.022037392 0.19467384 0.027638808 -0.644393
000240 14 6a e2 3d 4e fc e2 3d 5d d4 da 3d 91 91 38 be
       0.11055389 0.110832796 0.10685036 -0.18024279
000250 d8 b7 58 bd bd 2d 9a 3d 4d b8 17 be e8 0c a9 bc
       -0.052909702 0.07528255 -0.14816399 -0.020636037
000260 1e 0e c2 bd 39 4c 2f bf 7c a0 8a bd 8c 71 07 bc
       -0.09475349 -0.6847568 -0.06768891 -0.008266818
000270 2a 1b 4e be fc a3 25 3f 56 af c2 3c 12 5f 41 be
       -0.2012755 0.64703345 0.023765247 -0.18883923
000280 98 87 1b be 80 e6 fe bb a7 58 2e 3f 71 f0 f0 3c
       -0.15188444 -0.0077789426 0.6810402 0.029411526
000290 52 35 a4 3b 54 cd bc 3c e2 4f 98 3c b4 83 61 be
       0.005011239 0.023047127 0.018592779 -0.22022897
0002a0 0c d1 99 3e 92 1f e4 3c 83 e5 57 3e 3c 73 a0 3c
       0.30042303 0.027847085 0.21083646 0.019586198
0002b0 4a f6 78 be 7a de 59 3e 07 b0 62 bc 87 86 33 3f
       -0.24312702 0.21276274 -0.0138359135 0.7012715
0002c0 a6 4d 81 3d 7e cc ba 3e aa 03 46 bb 29 2c a8 3e
       0.063136384 0.3648414 -0.0030214586 0.32846192
0002d0 66 60 2c 3d c0 07 66 3b fd 15 50 bb 3c 9f 36 be
       0.04208412 0.0035099834 -0.0031751387 -0.1783418
0002e0 04 f1 88 be f3 29 81 3d f7 d2 5b bf 10 a8 4e 3f
       -0.2674638 0.06306829 -0.8586878 0.80725193
0002f0 5b b6 8f be 44 8d 0f bf 8c 1f 0e 3f 67 2b 33 be
       -0.28068814 -0.5607493 0.55516887 -0.17497025
000300 45 f5 dc ba ad 0a 17 be 36 0b c7 bb eb 59 c4 3b
       -0.0016857764 -0.14750166 -0.0060743345 0.0059921644
000310 83 c6 2d bf 3b ca a8 be 91 6b 77 bd d4 50 8c 3e
       -0.6788103 -0.3296679 -0.060405318 0.27405417
000320 cc d9 a4 3d ad 02 e9 3c 4a 89 f4 bc 71 a5 93 3e
       0.08049354 0.028443659 -0.02985062 0.2883716
000330 2b 94 4f bd 2a a7 2e bd cc bb 6a bf 65 78 0a 3e
       -0.050678413 -0.04263989 -0.91692805 0.1352249
000340 44 71 c6 bc 7f 2e b4 be 91 a5 62 be f1 6c a7 3b
       -0.024223931 -0.35191724 -0.22133471 0.0051094224
000350 10 cc 25 3f e0 cf 81 3e be e5 65 3d 7a 99 e7 3c
       0.647645 0.2535391 0.056127302 0.028271426
000360 e4 a5 8e 3d 97 ef f8 bd d9 4d 8c bd bb fa 73 be
       0.06965235 -0.12155073 -0.06850786 -0.23826115
000370 44 ab c9 3e 30 fa cd bb f2 2c 89 3e fd 13 64 3d
       0.39388478 -0.006285928 0.26792103 0.055683125
000380 7a fb 86 be 03 9c 0b 3e 5d 4c 62 be 34 32 bf 3d
       -0.26363736 0.13633732 -0.22099443 0.09335747
000390 f4 b0 f0 3b 86 87 69 3d ee 23 c7 3b 61 b4 a8 bc
       0.007345313 0.05701401 0.006077281 -0.020593824
0003a0 a5 47 49 bf 1e 53 93 be 74 c4 e9 bc 00 3c 10 bf
       -0.78624946 -0.2877435 -0.028536059 -0.5634155
0003b0 08 67 bc be 28 1c ae 3e 49 95 3d be 70 54 10 3d
       -0.36797357 0.34005857 -0.18513979 0.035236776
0003c0 d2 d8 c1 3e 90 22 09 3e 7d 19 ac be 05 b6 9c 3e
       0.37860733 0.13392091 -0.33613196 0.3060762
0003d0 7b 86 b4 bd a6 e3 4b be 56 6c 0e 3e 50 07 45 3f
       -0.088147126 -0.1991106 0.13908514 0.76964283
0003e0 1c 1f 8a 3e 2d 03 49 3b 2f 8d a0 bd ad fb 45 3e
       0.2697686 0.003067206 -0.07839429 0.19334288
0003f0 f4 40 85 bf 80 13 0f be 65 c8 55 bf 52 ce f5 bd
       -1.0410447 -0.13972282 -0.835089 -0.12002243

linear2.bias f4 [3]
000000 8f c0 9d 3e fc ff 94 bd 00 83 35 be
       0.30810973 -0.07275388 -0.17725754
