Code Submission/DDQN_models/model1-snapshot-score-4.pth (torch, 17215 bytes, 4 tensors)

linear1.weight f4 [256, 11]
00000000: e12e 91be 4448 5ebe cf57 55be c972 bb3e
00000010: 69ed 8a3e 9dc1 f6bd 8aad 66bb a9ab 093e
00000020: cce4 e5be 1953 fabe 83fe 6c3e 066d 923e
00000030: 30bf 94be 0eee c7bd 4433 16be 5302 22be
00000040: a53f 00be bf96 79be bac7 8bbe a9b6 ffbe
00000050: c290 853e da4d a3be 3063 84be d922 f83d
00000060: 9379 593d 9908 94be cc54 56bd 38fb 933d
00000070: 0195 66be 5288 adbe 530f aa3d 4774 bd3e
00000080: 4cce d13e 5cb5 a73d 90fc cebe 096a 35be
00000090: 38ba dfbd f77f b6bd bcb3 1a3e b0e1 4b3e
000000a0: 4615 9cbd 0124 163f bbbd bebd 65f2 383f
000000b0: 1622 b4be 7a82 bc3d abc4 5ebe ca57 99bd
000000c0: 66a8 e8bc 31a9 5ebe 3501 023f 09f3 093e
000000d0: bcc9 ee3e 8dba 333f ffc8 b3be 94df 8f3e
000000e0: 8776 dabe 42ca 843e e309 a83d fe9d 453d
000000f0: d8bd 3cbe 5525 b83d cac9 383e 789e c3be
00000100: 7214 4ebe 05d4 1c3f 8f06 733c 6245 5cbe
00000110: 9b3b 89bc 88b3 c4be 8cee 63be 33eb 353e
00000120: ee0c 973d 21f7 9cbe 1bd9 763d b14c f6bd
00000130: 2913 1d3f 7c69 103e a767 043e 39a6 493e
00000140: 48ef 49be 6930 543e 75a3 82be 331b bcbd
00000150: 99e9 223c cd75 c3bd 351d efbd 3778 e8be
00000160: 18a7 7dbe 23eb 473e ca7b abbe 6df6 473d
00000170: f414 ba3e 6d27 7fbd e55c 8cbd 335c 4e3c
00000180: d1f4 02bf 074e 19be 0b13 923e fd9a f6be
00000190: c932 4e3d 6536 46be 4cd4 4a3e fc7a 71be
000001a0: f59c 55be eded 82bd 84f5 1ebd ffdc 9b3e
000001b0: c49f 023f 5cb8 f33d 8664 873e 73ce 5fbe
000001c0: c714 4bbf f8b9 e5bc 3111 aa3d 2f8d bbbd
000001d0: 91e2 d73d 0a42 8e3e bfae 133f de34 053e
000001e0: e879 08be ee92 723e 6500 733e e872 8f3e
000001f0: b061 c73d 0845 8bbe 4769 783d 1d16 973d
00000200: 676d c23c a442 323e 69db 0dbf 32aa 18bf
00000210: a8fe 413e 38db 8dbe 677f 25bf 7ec3 42be
00000220: 973b a63d af6c 653e f02d 2b3e 5774 c3bd
00000230: 247f 363f 1afb 6e3d a701 243e d842 01bd
00000240: 2e64 fdbd 700e c2be db84 373e 789c 30bc
00000250: 8987 c63d 5943 9f3d a824 bbbe 9b57 a03e
00000260: 354f 343e b547 8e3e 991e 8abd 2e4d b43b
00000270: bafa 82bd 2088 003d 9d0e 28bd 9b42 223e
00000280: 6f48 1d3d a9b8 6fbe 6a47 643e 789c 9f3e
00000290: 92e3 9a3d 1c43 b4be c310 8abd a6d1 f2be
000002a0: e1aa a9be 5d3c 19be 5a48 82be 6ad1 4abd
000002b0: c0f3 d03c 3de5 193e 6300 5b3e 7910 7a3e
000002c0: 8b8c 5c3e 8561 46be a981 193d a1c4 03bf
000002d0: 09ba 24be de62 073e 4766 32bd 72ad cdbd
000002e0: b5ee f4bb e810 5dbf 62d8 553f be6f 553e
000002f0: eb8d 253c 6de7 f7be 0bad fbbe e599 8abd
00000300: a504 873e 68ba 0e3e 73a5 1a3e 5b34 a13e
00000310: 5b92 993e 5b94 b43e e0cd 89bd 3d00 303c
00000320: 5a6b 673d 7ca1 ddbd acc3 70be 7385 b7bd
00000330: 8d05 733e c551 61bc 30a8 d9be 7ce7 cbbe
00000340: 6639 dbbe fbad 9dbe 78fd 94be e86b 73bc
00000350: 5858 a53e b0c9 e7be 8d9d a2be c34d 52be
00000360: 76fd 83be 956c 21be 61d4 fcbe e6c5 a73d
00000370: 50f4 7ebe 8032 623e b762 813e 049d 87be
00000380: 9ab1 f23c b3c1 f0bd aa91 31be 7401 98be
00000390: 41d6 013f e2f4 4bbe 30c6 39bd b214 623d
000003a0: 5e1a 59bd 6b94 ca3d 2d5a 003e 2fc4 aabd
000003b0: 28b8 603e d378 c2bd 6086 523b 9239 e73d
000003c0: 49f3 3cbf 4d48 22bf 5d19 b43e 9e17 5ebd
000003d0: 68fb d73d 8ad6 823d a213 02be 9017 8bbd
000003e0: a79c c5be 4495 42be 48a5 a4be 9875 dcbe
000003f0: 7ede 34be 0942 08be 1e2e 643e 7848 123e
-0.28356078 -0.21707255 -0.20834278 0.36611012 0.27134255 -0.120486476 -0.0035198652 0.1344439
-0.4490112 -0.48891523 0.23143964 0.28598803 -0.29052114 -0.09762202 -0.14667994 -0.15821199
-0.12524278 -0.24373911 -0.27300817 -0.49944046 0.26087004 -0.31895334 -0.25856924 0.12116022
0.053094458 -0.2891281 -0.052326962 0.072256505 -0.22517778 -0.33893067 0.08303704 0.37002775
0.40977705 0.081888884 -0.40427065 -0.1771623 -0.1092419 -0.08911126 0.15107626 0.19910312
-0.07621245 0.5864869 -0.09313532 0.72244865 -0.35182256 0.09204574 -0.2175471 -0.074874476
-0.028400611 -0.21744229 0.5078309 0.13471617 0.46638286 0.7020653 -0.35114285 0.28100264
-0.42668554 0.2593556 0.08205011 0.048246376 -0.18431795 0.089914955 0.18045726 -0.3820684
-0.20124987 0.61261016 0.014833107 -0.21510842 -0.016752055 -0.3841822 -0.22258967 0.17765503
0.07375513 -0.30657294 0.06026564 -0.120263465 0.6135736 0.14102739 0.12930165 0.19692315
-0.19720185 0.20721592 -0.25515333 -0.09184875 0.009943389 -0.09543953 -0.11675493 -0.45404217
-0.24770772 0.19523291 -0.3349288 0.048818994 0.3634411 -0.06229346 -0.06853656 0.012595224
-0.5115481 -0.14971171 0.28530154 -0.48165122 0.0503414 -0.19356687 0.19807547 -0.23582071
-0.20860656 -0.06393037 -0.03880836 0.30442044 0.51025033 0.11900398 0.2644388 -0.21856098
-0.7932858 -0.028042778 0.0830406 -0.09157788 0.10541261 0.2778476 0.57688516 0.13008448
-0.13327754 0.23688862 0.23730619 0.28017354 0.09735429 -0.27201104 0.060647275 0.07377265
0.023733808 0.17408234 -0.5541292 -0.596347 0.189448 -0.27706313 -0.64647526 -0.19019887
0.081168346 0.22404741 0.16716743 -0.095436744 0.7128775 0.058344938 0.16016255 -0.031557888
-0.123726234 -0.3790164 0.17921774 -0.010779493 0.0969382 0.077765174 -0.36551404 0.31316838
0.1760834 0.27789083 -0.06744117 0.0055023646 -0.063954785 0.03137982 -0.04102956 0.1584572
0.038399156 -0.23410286 0.22292867 0.31174064 0.07562937 -0.3520745 -0.06741478 -0.47425574
-0.33138183 -0.14964433 -0.25445825 -0.04951612 0.025506854 0.15028854 0.21386866 0.24420346
0.21537988 -0.19373138 0.03747717 -0.51471907 -0.16086592 0.13221309 -0.04355457 -0.10042848
-0.007474745 -0.8635392 0.835333 0.20843408 0.010104637 -0.4841875 -0.4915546 -0.06767634
0.2637073 0.13938296 0.15102176 0.31485257 0.29994473 0.35269436 -0.06728721 0.010742244
0.056498863 -0.10821816 -0.23512143 -0.08961 0.23732586 -0.0137524055 -0.4251113 -0.39825046
-0.4281723 -0.307968 -0.2909963 -0.01485727 0.32293963 -0.45271063 -0.31760827 -0.20537476
-0.25779313 -0.15764077 -0.49380782 0.08192043 -0.24897885 0.22089577 0.25270626 -0.2648698
0.029625703 -0.11755695 -0.17340723 -0.2968861 0.5071755 -0.19917634 -0.045355022 0.055195518
-0.05300366 0.0989159 0.125344 -0.083382 0.2194525 -0.09495702 0.003212355 0.112902775
-0.73808724 -0.6339157 0.351756 -0.05422174 0.10545999 0.06388576 -0.12702802 -0.067916036
-0.3859608 -0.19002253 -0.3215735 -0.43058467 -0.17662999 -0.1330644 0.22283217 0.14285457

linear1.bias f4 [256]
00000000: 3f08 34be a17f 8a3d e1ed 9dbe 78bb cdbc
00000010: ad0a 11be dbfc 90be 500c ddbd 03d4 6cbd
00000020: 3180 76be 2d05 7cbc 2fa3 76be c28a 46be
00000030: ad8e 46be 4fac dbbe 0387 d4bd 0c2c f4bd
00000040: 725d d5bd 3ffa e7be 2fcb 4d3e d96d 303e
00000050: a5dd bebe 43af f53d ae6b a43c 1082 3cbe
00000060: fd82 0dbe e8ae 92bd 3934 743e 1a58 9e3d
00000070: 883e 54be 20b5 c83d 98b9 3dbe 4a32 54be
00000080: 90f7 83be 124e f23c 43be 8bbe ca41 53bd
00000090: 5393 a7be 5fe6 10bf e63e cabe c724 1bbe
000000a0: 6cf9 083e 94df bf3c d770 5ebe 2f6a 79be
000000b0: 0772 d4be cfe2 0bbe 41c3 1fbe d166 66bc
000000c0: 4bdd 25bf 737e 9e3d 20d5 2f3c 1d0d 26bd
000000d0: 755d debe 923e 8bbe ff5c 543e a93b e0bd
000000e0: 80e6 eabe 5245 16be c16d 41be fa30 8dbe
000000f0: 62f7 463e 9f41 56be d004 46bd 9f70 a5be
00000100: 918f 1a3d 6326 2bbe 4279 9fbe 838a 603a
00000110: b35c cb3d e912 3dbe 3cd6 3dbe 1f2d 6bbe
00000120: efa0 54be 9a70 2ebe 8199 febd c968 a03d
00000130: 4a67 2ebe 3574 823e 90d7 9dbe 6093 87bd
00000140: f14a 8e3d 3591 58bd 0f8b acbe 3903 48bd
00000150: d251 94bd 579f 55bd 6c20 8cbe cc22 69bd
00000160: 099f 41bd 7bf8 22be 320e 723d 4947 1abe
00000170: 02e1 e6be 1614 cf3d 3610 babe 50c4 44be
00000180: b335 d1bd b014 a0bd 5019 6d3e 8f34 4ebe
00000190: 9788 8dbd e4fe 8abe 609a 95be e37e 91be
000001a0: 7883 cfbc aa3b 0dbe 89e7 2dbe 9151 633c
000001b0: 1f39 edbe 8123 53be 0c5a abbe 07ec 7f3b
000001c0: d0fe 5ebe f8c1 fdbd da8b abbe f25b cdbe
000001d0: 83bc 1abd 711b 0c3d 1262 83be 9f94 b63e
000001e0: 2c23 eabd 9ce5 17be 71e2 32be 4b87 d5be
000001f0: a360 95be cd87 203d 325a a6bd b667 ebbd
00000200: a3da 00bd cebf 1ebe 7ed4 b73d 4754 38be
00000210: 0b60 843e a50e a1bd 96a2 bcbd b59c 26be
00000220: f5a2 69bc 72dc 84be af95 eabd 676b 8abe
00000230: a9ed 56be bbc3 9ebe 401d debd 3bd4 0fbf
00000240: 941c 9ebd 3ba1 043e d679 a73d aad8 51be
00000250: a374 f0bd 188f c9be 66db 323e 005f a0bc
00000260: b477 93bd e32c 2abe a66c 0fbe 0d67 e5bd
00000270: aaed 9fbd 0d3b 423e a467 17be f451 a0be
00000280: 92b5 6ebc bf41 aebe 5c17 c13d ead9 82be
00000290: 7022 a0be 8ef5 73be eea2 983c 1c8b 8bbe
000002a0: 575d 98be ce53 77bc 3535 86be a815 7fbe
000002b0: 325a 5a3e 541c 1bbe 634a 21bd 6b92 d3bd
000002c0: 2e91 4bbe 054e aebd 248c 2ebd 1d54 6ebe
000002d0: 837b 9abd ad14 6bbe 6d40 22be cdfe 4bbd
000002e0: d5ca e2be fccb edbc 5d07 0fbf a77c ffbe
000002f0: b27a aabd c20d ff3d dbdf 9a3e 9d94 c9bb
00000300: d27d 22be c021 90be 81e0 22be e2a7 01be
00000310: 25c0 c7bd 5614 88bd 05dd bb3d e438 a0be
00000320: 76c6 12bd 1e57 e4bc 9ed6 a83d be1a 40be
00000330: 9b2b 25bc bd10 a5be f243 78be f2e3 d5be
00000340: c7e7 cc3c d03d 00be a16f 523e 6ab5 66bd
00000350: 03e9 8f3e eed0 84be 533f 94be fc28 59be
00000360: 093f 15be 16fe c6bd 5a27 86be 2eb6 b8be
00000370: c3b6 0cbd 4954 41be ace9 8cbe 005b 43bd
00000380: 1534 0fbe 7342 6cbe 4832 01be fb65 08bd
00000390: 6ac4 383e e853 79be 93a4 34be 11c2 d5bd
000003a0: 4c68 bbbe 02da f03d 896a f8bd 69e6 a2be
000003b0: 93c5 39be f0c8 3e3d d237 45bd cb8d 90be
000003c0: 9d68 c8be bf30 9bbe f127 0bbe e9d6 29be
000003d0: 4030 e73d a19d 113e 6eaa e9bc b02e d2bd
000003e0: 9dbc 5b3e fd8a 40be e14f bebd 8f90 0cbe
000003f0: fa11 04be b425 88bd a9b6 8fbe 1f91 6cbe
-0.1758127 0.067626245 -0.3084555 -0.025113806 -0.14164229 -0.28317913 -0.10793364 -0.057819378
-0.24072339 -0.015382093 -0.24085687 -0.1938887 -0.19390364 -0.429049 -0.10377314 -0.11922464
-0.10418214 -0.4530811 0.2009704 0.17229404 -0.37278476 0.11996319 0.020070877 -0.1840899
-0.138195 -0.07162267 0.23848046 0.07731648 -0.20726979 0.09800172 -0.1852783 -0.20722309
-0.25774813 0.029578242 -0.27293596 -0.051576413 -0.32729587 -0.5660152 -0.39501113 -0.15150748
0.13376397 0.02342204 -0.21722732 -0.24356912 -0.41493246 -0.1366074 -0.15601827 -0.014062599
-0.6479079 0.07738962 0.010731965 -0.04053985 -0.43430677 -0.27196175 0.207386 -0.10948879
-0.45878983 -0.14674881 -0.18889524 -0.2757643 0.19430307 -0.2092347 -0.048344433 -0.32312486
0.03773457 -0.16713862 -0.311472 0.0008565562 0.0992979 -0.18464245 -0.18538755 -0.22966431
-0.20764516 -0.17035142 -0.12431622 0.07832486 -0.17031589 0.25479284 -0.30828524 -0.066199064
0.06947888 -0.052872855 -0.33699843 -0.0488312 -0.072421685 -0.05215391 -0.27368486 -0.05691795
-0.04727081 -0.159151 0.05909557 -0.15066256 -0.45093542 0.10111253 -0.36340493 -0.19215512
-0.102153204 -0.07816446 0.23154187 -0.20137237 -0.06910818 -0.2714759 -0.2921934 -0.2841712
-0.025331244 -0.13792291 -0.16982855 0.013874427 -0.46332642 -0.20619012 -0.33467138 0.0039050595
-0.21776891 -0.12390512 -0.33505136 -0.4010921 -0.037777435 0.034205858 -0.2566076 0.35660264
-0.1143249 -0.14833683 -0.17469193 -0.41704783 -0.2917529 0.03919201 -0.08122672 -0.11494391
-0.03145851 -0.15502855 0.089760765 -0.180009 0.25854525 -0.07864121 -0.09210698 -0.16270716
-0.014260043 -0.25949436 -0.11454331 -0.27035066 -0.20989098 -0.31008705 -0.10845423 -0.56183213
-0.077202946 0.1295213 0.08177535 -0.20492807 -0.11740997 -0.39366984 0.17466506 -0.01957655
-0.07200566 -0.16618685 -0.1400629 -0.11201296 -0.07809003 0.18967839 -0.1478563 -0.31312525
-0.014569657 -0.34034535 0.094282836 -0.2555688 -0.31276274 -0.2382414 0.018632378 -0.2725457
-0.29758713 -0.015095664 -0.2621247 -0.24910605 0.2132347 -0.15147525 -0.03937758 -0.103306614
-0.198796 -0.08510975 -0.042614117 -0.23274274 -0.07543089 -0.22957106 -0.15844889 -0.049803544
-0.44295374 -0.029027931 -0.5587061 -0.4989979 -0.083241835 0.12453796 0.30248913 -0.0061517493
-0.15868309 -0.2815075 -0.15905954 -0.12661698 -0.097534455 -0.06644504 0.091730155 -0.31293404
-0.0358338 -0.027873572 0.0824406 -0.18760201 -0.010081197 -0.32239333 -0.24244669 -0.4177547
0.025012864 -0.1252358 0.20550396 -0.056325354 0.2810746 -0.2594065 -0.28954563 -0.2120704
-0.14574827 -0.09716432 -0.26201898 -0.36076492 -0.034353983 -0.18879808 -0.27522027 -0.047694206
-0.13984711 -0.23072223 -0.12616837 -0.03330038 0.18043676 -0.24348414 -0.17640905 -0.10437406
-0.3660301 0.11760332 -0.12129695 -0.31816414 -0.18141775 0.046578348 -0.048148938 -0.2823318
-0.39142314 -0.30310628 -0.13589455 -0.16585888 0.112885 0.14220287 -0.02852365 -0.10262811
0.21458669 -0.1880302 -0.092925794 -0.1372702 -0.12897483 -0.06647816 -0.28069046 -0.23102234

linear2.weight f4 [3, 256]
00000000: 1246 ed3d 3de4 153e 9c9c 0bbf ef09 c4be
00000010: 9c97 0abe b61d 033e d69a 1dbd 4270 193d
00000020: ee8d 0f3c 98ad b7bd d1cc a5be 4494 22bd
00000030: 0a6b a7be 62b0 65be 10e2 38bd 1740 98be
00000040: 5f43 173e ad02 cfbe d981 893d 48ff 81be
00000050: d02d 823e d240 55bd a672 113e f60c dc38
00000060: fdc7 b93e c85f 2abd c231 d1bb e497 d3be
00000070: 8086 2bbe d5da 2d3e f2ab 763d ebd8 f6bd
00000080: 2901 883e 81ac b83c 1e44 54be 1d03 39be
00000090: 06eb 0f3e 2122 f33e 1fe9 8a3c 2cd4 383c
000000a0: 1bfa 783e 6766 7abe e894 653a 61b2 14bb
000000b0: 71b0 b6bd 3562 76be 556a 0dbe 4a11 64be
000000c0: 100f 65bf 0798 e13d 4c4c f4be e8d3 d9bd
000000d0: 71f2 e8bd 3b8e e9be 431b 083f 1024 823e
000000e0: 75ea 603c 80b8 863e 61c7 80be 1a3f 4bbe
000000f0: 8fc5 723d a51e 42be 5aca 17be 75e9 53bf
00000100: dc93 8cbd c4b0 7c3d 0cec b33d bb2d 25bd
00000110: 330e f6bd 505a 16be eb79 77be a7b4 ccbd
00000120: ec79 55bd dd1f e63e 7667 8b3c 847c 0c3d
00000130: 8a72 5ebb a56c 9b3e d88d abbd e1cf d33e
00000140: 241a 0a3e 7361 bfbd ff12 b2be 7aba 94bd
00000150: 5ef3 ef3c e76f f73d 8695 143d eadb c63e
00000160: a0a9 16bd 8fdc 3abe 5952 023d 1845 94bd
00000170: e812 49be 8276 b83e 409c 2ebf 0d6a c5be
00000180: d92d c7be ebcb 913d c193 a83c 9604 51be
00000190: 0d67 493d fd47 4ebf b457 a3bd d82f 20bd
000001a0: 5eb1 5d3e 64d5 c93c be04 46be b7c7 ca3d
000001b0: 3ac2 bcbe cad0 74bc ee71 063f 05b4 2ebe
000001c0: 5cf2 0bbe 69a7 e63d 280a 9a3c 23e2 c9be
000001d0: e57d c23e 89c5 2bbe f621 183d bfa6 8a3e
000001e0: 5883 213e d27d 953d 2d48 a7bb 5bc5 113d
000001f0: dc12 87bc 3b9e f43d 99bc 033e c341 8f3e
00000200: 46a3 05bf 2d10 cfbe 7741 d83e 5717 463c
00000210: 6e5d b2be 5d6f 58be eb53 9ebd 2f5e e0bd
00000220: 0325 48bd 56ef 063e ef8f ddbe aa07 c7be
00000230: 7983 743e d32d e13e 6db2 653d e523 96be
00000240: 823d b4bd 8381 0a3e 95c1 803d f71f b3be
00000250: f19c 89bd 20a8 053e 84ba 143b e80c a9bc
00000260: cf0e f4bd cfd8 bbbe 3091 c2bd 199b 013d
00000270: b8bb babe 7a4e c23e 609e f13d df1e 903d
00000280: 7294 573e 6730 8e3d 53c7 953e eea1 313e
00000290: 6b14 31bd 54cd bc3c df5a fdbd d648 84bd
000002a0: 9ec0 af3e 81be ecbd 6d44 813e 3c73 a03c
000002b0: 7563 b1bd 45ae ea3d e303 18be 5268 213f
000002c0: 2c38 13bd d82e a43e 4820 4abd 504e 973e
000002d0: 2335 91bd c007 663b da7b 0d3e f59c 4cbe
000002e0: 870b b0be 5172 de3d 8154 34bf fa63 0a3f
000002f0: 09d1 7dbe bd97 b4be abbd e53e 95c3 bcbc
00000300: b4da f4ba 0778 97be 056b 4c3d eb59 c43b
00000310: 8bcc 8abe 9ce4 69be de5f cc3d 4b3f 5c3e
00000320: 86b9 273e a1c4 453e 28e5 db3d c21a a53e
00000330: 68b5 19be 2484 d6bd d26a 19bf 5a03 033e
00000340: 2e17 ecbd ca67 23be d449 0abd 3efb 99be
00000350: 50fa 883e bcdc 4b3e 9339 d03d 7a99 e73c
00000360: aea5 5abe c7c8 32be 66b8 63be 5a3d 82be
00000370: 7e50 ec3e 64d7 1ebe 25d7 3a3e 0918 11bd
00000380: c31d eabe e929 62bd 0e76 edbd b032 7ebe
00000390: 1240 c43d 8687 693d 0b37 b33e 2959 5f3e
000003a0: 9147 09bf 120f 73be 74c4 e9bc 0b32 d3be
000003b0: 0dd8 a2be cbde b83e c73a edbd 7054 103d
000003c0: 1bcd e53d 35a0 4a3e e166 acbe baff 53bd
000003d0: 2f2e acbd 17bd 813c ea5d 52bd 2e67 683f
000003e0: bb99 943e 91f7 eabd 7fab 0ebe 10c7 1c3e
000003f0: 6d98 4ebf 8950 4cbe 7738 36bf 56ce 94be
0.115856305 0.14637847 -0.5453584 -0.3828883 -0.13534397 0.12804303 -0.03847774 0.037460573
0.008761866 -0.08968657 -0.32382825 -0.03969218 -0.32698852 -0.22430566 -0.045137465 -0.29736397
0.14771794 -0.4043173 0.067142196 -0.25390077 0.25425577 -0.05206377 0.14203891 0.00010492832
0.3628539 -0.04159525 -0.0063841054 -0.4132682 -0.16750526 0.16978009 0.060222574 -0.120530926
0.26563385 0.022543194 -0.2072911 -0.18067594 0.14054498 0.47486976 0.016956864 0.0112810545
0.24314158 -0.24453126 0.00087578455 -0.002268933 -0.08920372 -0.240609 -0.13810094 -0.2227222
-0.8947611 0.11015325 -0.4771446 -0.10636121 -0.11374367 -0.45616326 0.531666 0.25418139
0.013727774 0.26312637 -0.25152114 -0.1984829 0.059270438 -0.18957002 -0.14823285 -0.827781
-0.068641394 0.061692014 0.08785257 -0.040326815 -0.12014427 -0.14682889 -0.24167602 -0.09995394
-0.052118227 0.44946185 0.017017107 0.034298435 -0.0033942782 0.30356327 -0.08376664 0.41369537
0.13486534 -0.09344759 -0.34780118 -0.0726213 0.029290851 0.120818906 0.03627541 0.38839656
-0.03678286 -0.18248199 0.031816814 -0.07239741 -0.19636118 0.36027914 -0.6820717 -0.38557473
-0.38902166 0.071189724 0.020578267 -0.20411906 0.049170543 -0.80578595 -0.079757124 -0.039108127
0.21649691 0.024637885 -0.19337747 0.09901374 -0.36866933 -0.014942357 0.5251759 -0.1706086
-0.13666672 0.112624 0.018803671 -0.3943034 0.37986675 -0.16774572 0.037141763 0.27080342
0.1577276 0.07299389 -0.0051050396 0.035588603 -0.016488485 0.119442426 0.12864913 0.2797986
-0.5220226 -0.4044203 0.42237446 0.012090526 -0.34836906 -0.21136232 -0.0773085 -0.10955464
-0.048863422 0.13177237 -0.43273875 -0.38873035 0.23878278 0.43980274 0.056078363 -0.2932426
-0.08800794 0.13525967 0.06286923 -0.34985325 -0.06719387 0.13052416 0.002269418 -0.020636037
-0.11916887 -0.3668885 -0.095003486 0.031642053 -0.36471343 0.37950498 0.11797786 0.07037138
0.21052721 0.06942826 0.29253635 0.17346928 -0.043232363 0.023047127 -0.12370848 -0.06459205
0.34326643 -0.11559773 0.25247517 0.019586198 -0.08661548 0.114590205 -0.14845233 0.63049805
-0.03594224 0.3206699 -0.049347192 0.29551935 -0.07090213 0.0035099834 0.13816777 -0.1998175
-0.34383795 0.10861648 -0.7044144 0.540588 -0.24786772 -0.35272017 0.44871268 -0.02304248
-0.0018680901 -0.2958376 0.04990675 0.0059921644 -0.2710918 -0.22841114 0.09979223 0.2150852
0.16379365 0.19313289 0.107370675 0.32246977 -0.15010607 -0.104744226 -0.5992862 0.12794247
-0.11527859 -0.15957561 -0.033761814 -0.30074495 0.26753473 0.19908422 0.101672314 0.028271426
-0.21352264 -0.17459403 -0.22238311 -0.25437433 0.4615516 -0.15511853 0.18246134 -0.035423312
-0.4572583 -0.05521575 -0.11594783 -0.24824023 0.09582533 0.05701401 0.35002932 0.21811356
-0.53624827 -0.23736218 -0.028536059 -0.41249117 -0.3180546 0.36107478 -0.115834765 0.035236776
0.112207614 0.19787677 -0.3367224 -0.05175755 -0.08407246 0.015837235 -0.051359095 0.9078244
0.29023537 -0.11473001 -0.13932608 0.15310311 -0.80701333 -0.19952597 -0.7117991 -0.29063672

linear2.bias f4 [3]
00000000: 9a97 d33c aa32 05bd e53e 5abd
0.025829125 -0.03251902 -0.053282637
