Code Submission/DDQN_models/model2-snapshot-score-31.pth (torch, 17221 bytes, 4 tensors)

linear1.weight f4 [256, 11]
000000 e1 17 ff bb 3e 47 da bd 89 35 e7 be 02 ff 63 3e
       -0.007784829 -0.106581196 -0.45158032 0.22265247
000010 62 68 4b bc cb b5 ca be 17 15 93 be 2f 5e 10 be
       -0.0124150235 -0.39591822 -0.28727028 -0.14098428
000020 e8 8f d9 be 87 98 3d bf 83 58 b5 3d b5 e3 b8 3e
       -0.42492604 -0.74060863 0.08854773 0.36111227
000030 ff ec 8d bf 6d 8c 03 3f 7c ca b7 3d 75 e8 16 bf
       -1.108795 0.5138615 0.08974168 -0.5894845
000040 96 d3 80 bd b7 cd 2c bf d3 ba 57 be 5c a5 dc be
       -0.06290357 -0.67501396 -0.21067362 -0.4309491
000050 4f 79 73 3f f1 c4 a0 bf 91 4a 17 3c 29 b3 80 3d
       0.9510698 -1.2560102 0.009234087 0.06284172
000060 6a f9 40 3d 24 32 2f bb 1f e1 a3 3d 11 f1 42 3d
       0.04711286 -0.0026732767 0.08001923 0.04759318
000070 3d 1e be bd d0 28 ba be 9e 4d 85 be d5 e3 e4 bd
       -0.09283111 -0.36359262 -0.2603578 -0.11176268
000080 32 38 0d be 2e 66 b3 3e af af 9e bf 2f 89 a9 3e
       -0.13790968 0.35038894 -1.2397364 0.33112475
000090 32 54 1f be ac c8 0a be 16 7a 66 3e 7b 59 1c 3e
       -0.15559462 -0.13553113 0.2250751 0.15268509
0000a0 43 b7 10 bb 25 6c 48 3f a6 0a 86 bf 79 df 4a 3f
       -0.0022081889 0.78290015 -1.0472 0.7924724
0000b0 ec 74 28 bf 0b ad 11 bf 0c 78 69 3e 08 7b 9e be
       -0.6580341 -0.5690467 0.227997 -0.3095324
0000c0 eb 39 3a be 07 ad 48 bf 22 71 b5 3e ba 0b dd be
       -0.18186156 -0.7838902 0.35437876 -0.4317301
0000d0 8e 0d 6e be 58 94 83 3f a5 1f 17 bf 9d 99 a6 be
       -0.23247358 1.0279646 -0.5903266 -0.32539073
0000e0 32 be 41 bf 83 f9 04 3f 7d 90 b3 bf 64 35 44 3e
       -0.7568084 0.51943225 -1.4028469 0.19160992
0000f0 d4 09 af be 30 e0 6e 3e 8f ad bb 3c 37 8c 97 bf
       -0.34187186 0.23327708 0.022909908 -1.1839665
000100 eb 7d a7 3d 2c 9e b9 3f f9 2d e5 be 3d 1c 01 bf
       0.08178314 1.4501395 -0.44761637 -0.50433713
000110 1d 48 97 3d e4 7f 70 bf 8c a4 17 be 5d c5 b3 be
       0.073868014 -0.93945146 -0.14808863 -0.35111514
000120 e9 cf 17 3e f7 d8 55 bf b1 75 5c 3d 0f b1 45 bf
       0.14825405 -0.8353419 0.053823177 -0.77223295
000130 90 1b 6d 3f c0 43 8d be 93 b7 dc 3d 7d a2 c3 3d
       0.9262018 -0.27590752 0.107772015 0.095524766
000140 83 8e 9e be 3a 73 0c 3d e2 83 91 be 85 90 87 be
       -0.30968103 0.034289576 -0.2842093 -0.26477447
000150 95 92 9c bc 16 ec b3 3d 17 a7 a2 be 50 40 dc be
       -0.019112865 0.08785264 -0.31768104 -0.43017817
000160 e5 bd 47 be ef 8e de 3d fe 84 0b bf 2b 0c c9 3d
       -0.19506033 0.10867106 -0.54499805 0.09816774
000170 56 76 08 3e cc da 53 bd 39 f1 98 be 67 c5 bd 3c
       0.13326392 -0.051722333 -0.29871538 0.023165418
000180 00 75 04 bf 91 4a db bd 28 50 77 3e fe 5d 00 bf
       -0.5174103 -0.10707582 0.24151671 -0.5014342
000190 1f 0f 00 bf 0c 19 ed bd ca ac 6f 3e ef ac e8 be
       -0.5002307 -0.11577043 0.23405758 -0.45444438
0001a0 7c da 05 bf 35 ab 90 be 38 c5 b4 be b2 eb be 3e
       -0.52286506 -0.2825562 -0.35306716 0.37289196
0001b0 28 c5 aa 3e 35 f9 dd be ab a6 cf be 28 4e 88 3e
       0.33353543 -0.43354192 -0.40556845 0.26622128
0001c0 53 e5 4a bf 33 a4 1c bf 2f 89 04 bd 29 61 cf be
       -0.7925617 -0.6118805 -0.03235739 -0.40503815
0001d0 4c 9b 23 bc 7c db 11 bd 1a 91 2d 3f e0 03 1e 3f
       -0.009985756 -0.035609707 0.6779953 0.6172466
0001e0 c7 0e 77 3e 0e ff 08 3e 61 4a 0b 3f 45 50 d8 3e
       0.24126731 0.13378546 0.5441037 0.4224874
0001f0 76 4d 3f bf 7b f4 88 3d ad 01 52 3e 8e 47 d3 3e
       -0.7472757 0.06687256 0.20508452 0.4126553
000200 f1 34 2c 3e 99 a8 b7 3e 0a a3 a6 bf 39 c3 74 bf
       0.1681707 0.35870817 -1.3018506 -0.95610386
000210 56 c3 16 3d 10 fa dd be 77 ed 53 bf b8 66 81 be
       0.03680738 -0.43354845 -0.8278422 -0.2527368
000220 c5 b6 9f be ea b9 dc bd 4d 5c 67 be 01 c2 da be
       -0.3119413 -0.10777648 -0.22593804 -0.42726138
000230 44 a0 df 3e 65 ad 0e 3e d3 70 be 3e ba 9f 38 bd
       0.4367696 0.13933332 0.37195453 -0.045074202
000240 99 99 a8 be aa fa 85 be 06 eb 42 bb f5 bc 7c be
       -0.32929686 -0.26167804 -0.0029742136 -0.24681456
000250 35 48 11 bd d2 11 22 be 39 ef fe be ab 66 ac 3e
       -0.035469253 -0.1582711 -0.49791887 0.3367208
000260 4b 03 08 3d 70 f3 19 3e 3a 3a 28 be b5 92 4a be
       0.033206265 0.1503427 -0.16428462 -0.19782527
000270 5a 54 01 be f2 3f 14 bd ce 45 25 be e6 b2 81 3d
       -0.12629834 -0.036193796 -0.1613991 0.0633295
000280 05 e1 a7 bd 7e 90 a8 be 29 6a e6 3d 68 a8 82 3e
       -0.08197216 -0.3292274 0.11250717 0.2551911
000290 bd 43 99 3d 74 f0 40 bf d9 dc 47 3e ba b8 87 3c
       0.07483623 -0.753669 0.1951784 0.016567577
0002a0 ea 14 30 bf 03 c1 26 be 19 1d b7 be f4 71 80 bd
       -0.6878191 -0.16284566 -0.35764387 -0.06271735
0002b0 a0 10 9f bd 62 00 07 3f 9d cb 96 3e 56 d8 0b 3f
       -0.07766843 0.5273496 0.2945222 0.5462698
0002c0 84 d0 6d bd 3c 2a 32 bf 6f d0 f4 3d 17 4f 21 bf
       -0.058060184 -0.69595695 0.11953818 -0.63011307
0002d0 0c a7 14 bf 14 6c e2 be db 3d ed be 3e c4 2c bf
       -0.58067393 -0.44223082 -0.46336254 -0.6748694
0002e0 a8 2c 68 bf 38 f8 0e bf b0 d5 2e 3f e1 20 fa be
       -0.9069314 -0.558475 0.6829481 -0.4885321
0002f0 bc 05 1d 3d 8b 2d 8b bb 97 cb 04 bf 83 0a 5f be
       0.038335547 -0.0042473725 -0.51873153 -0.21781354
000300 22 08 84 bd 33 2a 30 bc 88 68 35 be 8d 52 33 3f
       -0.06446864 -0.010752249 -0.17715657 0.7004784
000310 0f 36 07 3f c1 4f 16 3f 85 07 f1 be 3c f1 fa be
       0.5281686 0.58715445 -0.4707605 -0.49012172
000320 8e c8 8f 3e ee 49 ab 3e d4 e3 de be 9c 40 ee be
       0.280827 0.3345484 -0.43533194 -0.46533668
000330 32 fb 17 3d 15 69 c7 be 9e fe 00 be d9 73 99 be
       0.037104793 -0.3894736 -0.12597129 -0.29971197
000340 83 51 8a be 6c 54 de be 45 38 d5 be 4d 16 c3 bd
       -0.27015314 -0.43423784 -0.41644493 -0.09525738
000350 35 1e eb 3c 3f 61 97 be e8 e4 c0 bc ba f3 45 bd
       0.028700927 -0.2956638 -0.023546651 -0.04832814
000360 d2 8f 14 3d fa 65 4a 3d 44 bd 03 3e ef 46 d8 be
       0.03626997 0.04941366 0.12865168 -0.42241618
000370 c6 0c b0 bb 7b 1f 90 3e be e7 92 3c 34 f0 9f be
       -0.0053726165 0.28149018 0.017932769 -0.31237948
000380 70 72 88 be b5 87 2c be 0b 66 f0 be 79 14 b2 be
       -0.2664981 -0.16848643 -0.46952853 -0.34781244
000390 65 74 d3 3e fa 37 83 3e a8 99 96 be b3 2c 18 3d
       0.4129974 0.25628644 -0.29414105 0.037152003
0003a0 5f c8 a5 3e 8c c2 d2 3e 79 05 eb 3d 88 21 98 3e
       0.32379434 0.41164052 0.11475653 0.29713082
0003b0 42 78 68 3e 8c 34 92 3e 2f 98 30 3c 2c 45 00 3d
       0.22702125 0.28555715 0.010778471 0.031315967
0003c0 15 0d ac bf ef 45 cc bf 1a 23 d9 3e a7 98 0b bf
       -1.3441492 -1.5958842 0.42409593 -0.54529804
0003d0 ae fb d5 3b b7 8f 95 bd b5 f9 02 3a fd e6 e1 be
       0.0065302467 -0.07302802 0.00049963157 -0.44121543
0003e0 b3 51 84 be bc 35 10 bf 40 64 c2 3e 38 97 34 bf
       -0.25843582 -0.5633199 0.3796711 -0.7054324
0003f0 ce 78 17 bf 37 5a e2 3e c2 94 24 bf 2f f4 f8 3e
       -0.5916871 0.44209453 -0.64289486 0.48623797

linear1.bias f4 [256]
000000 f2 8c af be be fa b0 3e 7c aa 83 bd 14 1a bc be
       -0.3428722 0.345663 -0.06429002 -0.36738646
000010 ba d7 c8 3e 8f 7f 6d be db 22 e3 bd 0f 49 58 be
       0.39227086 -0.23193191 -0.110906325 -0.2112162
000020 8a 22 c7 be 79 2f fe be 71 ac 3b bf 85 d0 96 3c
       -0.3889354 -0.49645594 -0.7331 0.018409977
000030 88 2b 36 bf 69 30 0a bf f5 c1 d0 be f0 10 3f bf
       -0.71160173 -0.5398012 -0.40772977 -0.7463522
000040 74 d3 03 be 5e 4b 45 bf 8e de ed 3e 29 be 71 be
       -0.12873632 -0.77068126 0.46458858 -0.23607697
000050 a1 8f 43 bf d3 c8 1c 3f 7b e0 2d be 9f d7 22 bf
       -0.76391035 0.61243933 -0.16980164 -0.6361026
000060 54 75 78 3e a8 6c 39 be 71 f0 9b be f3 22 3b be
       0.24263507 -0.18107855 -0.3045688 -0.18275051
000070 a3 b7 11 bf 5e 4e 08 bf 6e 53 6f be 7f 16 df be
       -0.5692083 -0.5324458 -0.2337167 -0.4357185
000080 bd ee 1d bf 35 ab 60 3f 10 02 8e be 1f fb b0 be
       -0.6169241 0.8776124 -0.2773595 -0.3456659
000090 d9 81 99 be 64 17 60 bf 21 95 01 bf fc 3e 0f be
       -0.29981878 -0.8753569 -0.5061818 -0.1398887
0000a0 40 1a 30 3f a9 c9 32 be 63 af 64 be 32 81 c3 be
       0.68790054 -0.1745974 -0.2233253 -0.38184506
0000b0 fb ea 0b be 11 6d 95 be c1 73 23 bf ac 66 b0 be
       -0.13663857 -0.29184774 -0.638485 -0.34453332
0000c0 be b4 99 bf e0 56 f0 3c 51 14 0d bd 0d b9 81 bf
       -1.2008283 0.0293383 -0.034443203 -1.0134598
0000d0 be 2e 2c bf d3 27 e2 be 46 b3 23 3f 31 33 10 bf
       -0.6725882 -0.44171008 0.63945425 -0.5632811
0000e0 3c 10 9d be 28 9e cc be ed bf 0f be aa 55 c9 be
       -0.30676448 -0.39964414 -0.14038058 -0.3932317
0000f0 67 eb 9e bd 44 ed d2 be 21 39 98 be 5c 8f 21 bf
       -0.07759743 -0.41196644 -0.29731086 -0.63109374
000100 2b 18 a8 be 96 99 2e be 4d c9 39 bf 65 58 e0 be
       -0.3283094 -0.17050776 -0.72572786 -0.4381744
000110 f0 1e 2f bf 3e 89 2b bf 75 45 31 bf 39 c8 b5 be
       -0.6840658 -0.6700629 -0.6924661 -0.3550432
000120 da 73 b2 be a2 e3 ac be b2 76 36 bf 32 f2 f4 3d
       -0.34854013 -0.3376742 -0.71274865 0.119602576
000130 98 fe 37 bf 66 55 61 3e 96 65 1e bf cb 61 bc be
       -0.71872854 0.22005233 -0.6187376 -0.3679336
000140 20 af 84 be 29 a9 cd be 85 eb 3f bf db 31 46 be
       -0.2591486 -0.4016812 -0.7496875 -0.19354956
000150 8c e0 8c bd e1 6b e0 bc cf c5 57 bf a3 4f 48 be
       -0.068787664 -0.02739519 -0.84286207 -0.19561629
000160 41 37 ea be 39 53 64 bf 99 05 f9 be d7 bb ad be
       -0.4574528 -0.8918949 -0.48637083 -0.33932373
000170 e4 0b d2 be f3 c5 bb be 0e 7e 8a bf 8f 63 4d be
       -0.41024697 -0.3667446 -1.0819719 -0.2005751
000180 c7 5d 59 be 4c 77 a6 be 9d c3 36 3e b7 23 12 be
       -0.2122718 -0.3251289 0.17848058 -0.14271437
000190 56 e6 5a be c0 35 9d be cc a2 e3 bd 37 c2 b1 be
       -0.21376929 -0.3070507 -0.111150354 -0.34718487
0001a0 10 2e 1f bd 61 e3 95 be e8 cf 31 bf 7b 88 2c 3f
       -0.038862288 -0.2927504 -0.69457865 0.6739575
0001b0 e5 79 8c bf f2 83 4c be ce 02 06 bf 32 b4 9b be
       -1.0974699 -0.19972208 -0.5234803 -0.30410916
0001c0 0a 8d ee be 32 de d7 be 2a b9 9b be 11 62 1b bf
       -0.4659198 -0.4216171 -0.30414706 -0.6069651
0001d0 ff a6 9b 3e 71 5d 11 bf 55 ce 4b be d7 b3 80 3f
       0.30400845 -0.56783205 -0.19902928 1.0054883
0001e0 89 32 8e be d8 9e e5 be d7 35 8b be d5 0f 0d bf
       -0.2777293 -0.4484775 -0.27189514 -0.5510228
0001f0 a3 60 95 be 74 be 4b be 2f f1 24 be b7 23 cc be
       -0.2917529 -0.19896871 -0.16107629 -0.39870998
000200 ff ef ad be f1 30 73 bf 31 86 57 3e cb 3f 0d bf
       -0.33972165 -0.94996554 0.21047284 -0.55175465
000210 26 30 90 be 99 4c 2d be 4d 98 62 3e f3 95 6b be
       -0.28161734 -0.16923751 0.2212841 -0.2300642
000220 b7 8d e3 be b8 2d b3 be fb 3a 85 be f8 e4 10 bf
       -0.44444057 -0.34995818 -0.2602156 -0.5659938
000230 98 54 b5 be 31 af be be 2b 97 bd bd 09 88 77 bf
       -0.35416102 -0.37243035 -0.092573486 -0.9669195
000240 b2 aa ff be 0b fb 0c bd 4d ca 51 be 06 43 a9 be
       -0.49934918 -0.0344191 -0.20487328 -0.33058947
000250 40 28 99 be 32 9d fc be f0 60 a7 bb 00 5f a0 bc
       -0.2991352 -0.4933868 -0.0051079914 -0.01957655
000260 89 5f ca be d0 41 ca be 4c 04 8a be 12 0f 26 be
       -0.39526013 -0.39503336 -0.26956403 -0.16216686
000270 18 c3 e8 be 4a 62 e3 3e 17 26 0e be f8 42 3b bf
       -0.45461345 0.44410926 -0.13881718 -0.7314906
000280 50 9b 94 3e 68 cf 20 be 5e d9 05 bf af ac 04 bf
       0.29024744 -0.15704119 -0.522848 -0.51825994
000290 02 8a 1d bf 8e f5 73 be 0c b8 69 be ee 29 a4 be
       -0.6153871 -0.2382414 -0.22824115 -0.3206324
0002a0 20 5e c7 be aa ee aa be 43 e8 c6 be 43 42 66 be
       -0.38939 -0.3338521 -0.38849077 -0.22486214
0002b0 e7 3b bb be a0 99 9b be 7e a4 7e bd 75 57 41 be
       -0.3656914 -0.30390644 -0.06216859 -0.18881018
0002c0 68 19 07 bf 11 85 16 bf 9c dd 0b bf da 46 ed 3e
       -0.5277314 -0.58796793 -0.54635024 0.46343118
0002d0 57 c0 c6 be ad 14 6b be f9 9e 4a bf 16 75 60 be
       -0.3881862 -0.22957106 -0.79148823 -0.21919665
0002e0 fe 9c ef be 84 51 d4 bd 36 10 83 bf 60 0e ec be
       -0.46799463 -0.1036711 -1.0239322 -0.46104717
0002f0 18 90 8f be 78 d5 05 be 5c 36 0b bf b7 6f a4 be
       -0.28039622 -0.13069713 -0.5437982 -0.32116482
000300 82 af 9f be 50 52 3b bf 16 55 a6 be 4c 26 19 bf
       -0.3118859 -0.73172474 -0.3248679 -0.5982406
000310 bb c5 9c be 95 50 bb be 15 3b d2 bc 7b 55 0d bf
       -0.30619606 -0.36584917 -0.025662938 -0.5520856
000320 c8 39 98 be 51 9f 72 be 0f b1 3d be 19 c5 e9 be
       -0.29731584 -0.23693587 -0.18524574 -0.45658186
000330 3a 7b 09 be 98 b4 c8 be cb 0c 18 bf dd 6a cc be
       -0.13425913 -0.39200282 -0.5939452 -0.3992528
000340 21 20 bd be 0f 2d a8 be 4d 7b 96 be cb f4 33 bf
       -0.36938575 -0.32846877 -0.29390946 -0.702954
000350 ee 6a 39 3f f6 29 0b bf 36 fe 0d bf 94 70 4f be
       0.72428787 -0.543609 -0.5546602 -0.20257789
000360 ee e7 77 bd 01 2a eb be bf 07 8a bd 9d e1 92 be
       -0.06052392 -0.45930484 -0.06739759 -0.28687754
000370 95 ac 24 bf 2d 9e 27 bf e3 09 27 bf 6e be ff bd
       -0.6432584 -0.6547573 -0.6524946 -0.124874935
000380 06 72 e1 be fd d5 2c be d2 ad 9c be 68 02 32 bf
       -0.44032305 -0.16878505 -0.30601364 -0.6953492
000390 cd e9 c5 bd e8 53 79 be 1b e2 06 3e d4 d8 c7 be
       -0.096637346 -0.24348414 0.1317219 -0.39032614
0003a0 04 05 e1 be 14 76 d5 3d 99 00 02 be 66 90 b7 be
       -0.4394914 0.10422912 -0.1269554 -0.35852355
0003b0 e7 08 14 bf ca d2 10 3f 0f 04 d6 be 39 a2 90 be
       -0.57826084 0.5657164 -0.4179997 -0.28248766
0003c0 4a f5 dd be 19 27 38 3e 2a 9d 91 be c3 02 3d bd
       -0.43351203 0.17983665 -0.2844022 -0.046145212
0003d0 ca 0c 10 3c c6 d1 11 be 40 de be be d2 89 db be
       0.008792112 -0.14240178 -0.37278938 -0.42878586
0003e0 ce 69 33 b9 79 ae f7 be 8e 7b 56 be 61 3c 07 bf
       -0.00017110186 -0.483753 -0.2094557 -0.52826506
0003f0 b0 90 85 3e dc ad 9d be 13 ff e0 be 2b 2a cc be
       0.2608695 -0.30796707 -0.43944606 -0.39875922

linear2.weight f4 [3, 256]
000000 37 b1 ee bd 32 02 3d 3e b9 70 d1 3b 2a af 8a be
       -0.11654895 0.18457869 0.0063916114 -0.27086765
000010 30 d8 1f 3e bd 6b ff 3e 99 9d 8b be bc d1 86 3d
       0.15609813 0.49886885 -0.27268675 0.065829724
000020 ea 52 e4 3a ae f4 bb be f0 13 d6 be 10 16 5a 3e
       0.001741973 -0.36710113 -0.41812086 0.21297479
000030 a2 41 87 be ed 4d bc be fe a9 a8 bd 4b 1b b6 be
       -0.2641726 -0.36778203 -0.082355484 -0.35567698
000040 76 3b 34 be 1f 2e 34 bf f2 24 35 3e 3c a7 86 3c
       -0.17600808 -0.70382875 0.17689875 0.016437165
000050 fc f2 d3 bd ce 04 88 3e 57 7f 92 be 49 ed 43 be
       -0.1034908 0.26566166 -0.28612778 -0.19133486
000060 7d 71 7f 3d 2b 8f 42 3e fe 0c 63 bd c1 b6 d3 bd
       0.06236409 0.18999927 -0.055432312 -0.10337592
000070 80 89 4f bd ab 8d 45 be 9d 64 99 3b 41 ea a2 3e
       -0.05066824 -0.19292323 0.0046811835 0.31819347
000080 5d 02 b5 3c 25 6c ab 3e ae 9b 24 3d 61 ad 68 be
       0.022095853 0.33480945 0.04018753 -0.22722389
000090 2e c6 db bd 73 7c 1c bf cc 40 78 3f 7b 5a 0d 3e
       -0.10731159 -0.61127394 0.9697387 0.13804047
0000a0 58 7a f6 3e d8 d8 e1 bd 11 3e e3 3c d5 1e 01 bc
       0.48140216 -0.11027688 0.027739557 -0.007880886
0000b0 3d 39 a6 3e 4f 07 d7 bc 5f 9a 5c be cb 62 4d bd
       0.32465544 -0.026248602 -0.21543263 -0.050143044
0000c0 d2 89 8b bf 3d 3b 99 3d 13 51 ef be 0a e9 e3 be
       -1.0901434 0.07482002 -0.46741542 -0.44513732
0000d0 53 31 f4 3d d7 85 41 bf 4f 70 60 3f ef 8b 0a 3e
       0.1192347 -0.7559485 0.8767137 0.13529943
0000e0 44 25 e0 3c de 7b ed bd 51 38 ed 3d 15 9c db be
       0.02736152 -0.115958914 0.11583007 -0.4289252
0000f0 30 75 23 bf 2f 93 8a bd e7 0f ca 3c cf 5f 8c 3d
       -0.6385069 -0.06766354 0.024665786 0.068542115
000100 70 85 a3 bc c7 2f e8 3a 88 80 60 be 5c aa 13 be
       -0.019961089 0.0017714434 -0.21924031 -0.14420456
000110 c9 02 02 3e 20 37 2f be b6 86 7a be cb 1b e8 bd
       0.12696375 -0.17110872 -0.2446545 -0.11333426
000120 da c4 28 be 63 ed 91 bd b0 5f bd 3d ed fb a1 3e
       -0.16481343 -0.07125356 0.092467666 0.31637517
000130 39 89 06 3f 85 f2 bd 3e 92 ca 00 be fe aa 99 bd
       0.52553135 0.3709909 -0.12577274 -0.07503317
000140 90 6b b4 be 85 c0 73 be f5 5b 0e be 56 89 00 bf
       -0.35238314 -0.23803909 -0.13902266 -0.5020956
000150 b9 27 1f 3e 6e d3 57 bf 46 af c5 bd e0 95 b2 3e
       0.15542497 -0.8430699 -0.096525714 0.3487997
000160 43 c3 77 bd d2 27 32 bf 77 4a 10 3e e7 f3 a4 bd
       -0.06048895 -0.6959201 0.14090906 -0.08054333
000170 94 84 b4 bd 89 a0 90 bc 17 0a 35 bf 25 07 66 be
       -0.0881435 -0.017654674 -0.7071852 -0.22463663
000180 ba 79 1b be 2e 85 a0 3a 29 e0 14 bf 63 d8 5b bf
       -0.15183154 0.0012246722 -0.5815454 -0.85877055
000190 16 0d ae bc 5a 71 98 be c2 03 3c 3d 9f a6 c1 3d
       -0.021246474 -0.2977398 0.04590202 0.094556086
0001a0 f5 e8 3e 3d 02 74 91 3d 7c 6d 8b bd 0d b0 25 3f
       0.046608884 0.07102205 -0.06807992 0.6472176
0001b0 3b 09 a9 be 6d 3a 8e bc 8b fa 98 bd c1 5d 5d be
       -0.33014855 -0.017361844 -0.07469662 -0.21617796
0001c0 97 cf c8 bd 62 d6 fd 3e 81 44 4b 3d 76 01 79 bd
       -0.098052196 0.49577624 0.049625877 -0.06079241
0001d0 07 bf b2 3e 0b f5 89 bd 88 e3 30 bc 8c 72 0d 3f
       0.34911367 -0.06736191 -0.010796435 0.5525291
0001e0 41 56 1b bc 91 17 5d be 1e 8b a3 bc 17 41 67 3c
       -0.009481014 -0.21591021 -0.019963797 0.01411464
0001f0 dc 12 87 bc 4a 34 21 3c 24 7f b9 bb ad 6f 34 3c
       -0.016488485 0.009839127 -0.0056609083 0.011012954
000200 ac 99 0d bc 07 7a 2b bf a2 20 f7 3e 56 3a d7 be
       -0.008642595 -0.66983074 0.48267084 -0.42036694
000210 83 0b b0 bd e2 b9 0b bc a5 7f 3a 3e 89 88 3f be
       -0.08595946 -0.008528205 0.18212755 -0.18704428
000220 41 34 14 3b 23 ab 87 bc 3a f6 ab be f9 ca 32 be
       0.0022614154 -0.016561097 -0.33586293 -0.1746024
000230 1d 7f 8c be 92 eb d8 bc 24 b5 3f 3b a9 95 85 be
       -0.2744073 -0.026479516 0.0029252255 -0.26090744
000240 c0 ae 0f bd 9d 5e cd 3d bb 70 7e 3d 73 d3 45 bf
       -0.035078764 0.10027812 0.062119227 -0.7727577
000250 ac 3f a7 3d 3b 6c 98 bd 73 0e b4 bd e8 0c a9 bc
       0.08166441 -0.07442518 -0.087918185 -0.020636037
000260 ab a3 88 bd 0a 53 0b be ad 3f aa be 5a fd 8f bc
       -0.06671842 -0.13605896 -0.33251706 -0.017576862
000270 63 98 70 be 73 c7 0a 3f 47 98 d6 3b b4 1c 81 bd
       -0.23495631 0.54210585 0.0065489146 -0.06304303
000280 b4 5a a2 3e ae 48 39 3e f3 34 8c 3d 89 39 be 3e
       0.31709826 0.18094131 0.06846037 0.3715327
000290 45 b1 5b 3e 54 cd bc 3c e8 26 ca be c4 90 b7 bd
       0.21454342 0.023047127 -0.39482808 -0.08963159
0002a0 35 89 9f bc 4a d9 b4 bd c8 67 87 3b 09 18 a4 bc
       -0.019474605 -0.08830507 0.0041322447 -0.020030992
0002b0 7a 1d 81 3d 86 cc e9 bd d0 6b 3f bb b3 b2 bc 3e
       0.0630445 -0.11415963 -0.0029208548 0.36855087
0002c0 9a 4e d3 3c 4f fa 11 3d 27 0d d3 3c 7e 8b 9b 3e
       0.025794316 0.035639104 0.025763107 0.30379862
0002d0 45 e9 2f bd c0 07 66 3b d4 b1 9b bc f7 74 09 be
       -0.042947073 0.0035099834 -0.019005693 -0.13423525
0002e0 82 22 32 bd eb 5a c5 3c 94 f6 37 bf 99 6b 85 bf
       -0.04348994 0.024091205 -0.71860623 -1.0423461
0002f0 9b e3 2d bf 8f b2 8a be 5b 19 74 bd c3 91 de 3a
       -0.67925423 -0.27089354 -0.059594493 0.0016980696
000300 1e fe c8 be fe c3 06 3e ce 1a 5b bd eb f2 0f bf
       -0.39256376 0.13160703 -0.05349236 -0.5623004
000310 9c 27 62 be 83 e7 2e bd 08 18 a6 3c 39 01 96 be
       -0.22085422 -0.042701256 0.02027513 -0.29297808
000320 d6 28 e2 bd ae b4 5d 3c a9 29 40 bd 37 f6 8d 3a
       -0.11042945 0.013531847 -0.04691473 0.0010830824
000330 d4 50 71 bd c7 57 46 bd dd 60 9a bd 5c 86 65 bc
       -0.058914974 -0.048423555 -0.075380065 -0.014009085
000340 12 f5 a1 bd 3c cc 9c be 38 3a a0 be d4 8d 19 be
       -0.079080716 -0.30624568 -0.31294417 -0.1499551
000350 e6 6a d8 3e 6d 3a 34 3b 08 ff 67 3d 78 e6 8d 3c
       0.42269057 0.0027500645 0.0566397 0.01732181
000360 bd ae c1 3d 03 c0 f6 3d f8 f8 f5 3e 2b b4 29 be
       0.09457157 0.12048342 0.4804151 -0.16572635
000370 64 06 81 be 95 ba fb be 75 b6 d9 3e 85 4c 97 3e
       -0.25200188 -0.49165788 0.42522016 0.29550567
000380 1d ac b0 be 7a e9 5f bd 8e d0 fb bc c6 9f 69 3e
       -0.34506312 -0.05466602 -0.030739095 0.22814855
000390 6a 19 73 3c 86 87 69 3d e8 0a 03 3f af ef db 3c
       0.014837602 0.05701401 0.51188517 0.026847688
0003a0 da ae b4 3c 5e 38 35 be 4e 50 84 bd 10 2a 3f be
       0.022056032 -0.17697284 -0.064606294 -0.1866839
0003b0 5d 2a 2e bd f9 9e 30 3f 17 42 a2 be 70 54 10 3d
       -0.04252087 0.68992573 -0.31691048 0.035236776
0003c0 f8 21 90 3e 30 19 a7 3e e2 74 eb bd bd a2 63 bf
       0.28150916 0.32636404 -0.11496903 -0.88920194
0003d0 36 0d 75 3d 59 f0 63 3c 99 be b8 3d f7 58 3e 3e
       0.059827052 0.013912284 0.090207286 0.18588625
0003e0 09 de 96 3b 9e 05 3f bd 92 2d f4 bd c5 23 98 bd
       0.0046041054 -0.046636216 -0.11922754 -0.074286975
0003f0 a4 0e 91 3e bd db 01 bf 2c a9 2d bf 1d 4d 9c be
       0.28331482 -0.5072592 -0.6783626 -0.30527583

linear2.bias f4 [3]
000000 39 e3 05 3f c2 08 e7 bd b0 58 3b bd
       0.5229984 -0.11280967 -0.045738876
