Code Submission/DDQN_models/noisy-model1-snapshot-score-48.pth (torch, 33781 bytes, 8 tensors)

layer1.weight_mu f4 [256, 11]
0	0x3f6f7c29	0.9354883
1	0x3f7e7253	0.99393195
2	0x3decd603	0.11564257
3	0xbf1545da	-0.5830971
4	0xbfe326f5	-1.7746264
5	0xbff8e070	-1.9443493
6	0xc0072831	-2.111828
7	0xbff5ec5e	-1.9212759
8	0xc01e6cc5	-2.4753888
9	0x3fc15490	1.5103931
10	0xbe98fbbe	-0.29879564
11	0x3fbd8ba8	1.4808245
12	0x3fe4ce04	1.7875371
13	0xbf32e6e4	-0.6988356
14	0xbec62100	-0.38697052
15	0xc000dc6a	-2.013453
16	0xbfc997a4	-1.5749402
17	0xbfd8132c	-1.6880851
18	0xbfccd35a	-1.6001999
19	0xc025b478	-2.58914
20	0x3f696f1f	0.9118518
21	0x3f1d4bc0	0.6144371
22	0x3fa7d7b1	1.3112699
23	0x3fb58169	1.4180118
24	0xbf0bde76	-0.54636323
25	0xbf62a002	-0.885254
26	0xbfc5549d	-1.5416447
27	0xc002cb25	-2.043649
28	0xbfc62723	-1.5480694
29	0xc0096cc5	-2.1472638
30	0xc02a0911	-2.6568034
31	0x3fac98d8	1.3484144
32	0x3e4171f2	0.18891123
33	0x3f99943b	1.1998361
34	0x3f67cf6c	0.90550876
35	0xbf244030	-0.6416044
36	0xbed49b9d	-0.41524974
37	0xbf8f41c3	-1.1191944
38	0xbfc89a46	-1.567208
39	0xbf8113d1	-1.0084172
40	0xbf8df6c2	-1.109093
41	0xc006a80c	-2.1040068
42	0x3fb12eda	1.3842423
43	0x3e3c3cf6	0.1838263
44	0xc00444bf	-2.066696
45	0xc0143618	-2.3158016
46	0xc0140795	-2.3129628
47	0xbfa40768	-1.281476
48	0xbaf8c8c3	-0.001898073
49	0xbed44966	-0.4146225
50	0xbc0091b4	-0.007847238
51	0xbd85ae1b	-0.065273486
52	0xbe0c7e58	-0.13720071
53	0x3e338ab8	0.17533386
54	0x4026d417	2.606695
55	0x3f426309	0.75932366
56	0x3f29e5a4	0.6636603
57	0xbf221ff8	-0.6333003
58	0xbf4271bb	-0.7595479
59	0xbf84b081	-1.0366365
60	0xbfb1d5f2	-1.3893416
61	0xbf26bb87	-0.65129894
62	0xbfdd203f	-1.7275466
63	0xc03c554a	-2.9427056
64	0x3e9a488d	0.30133477
65	0x3e932206	0.28736895
66	0x3da058ed	0.07829461
67	0xbe02a834	-0.12759477
68	0xbc93a1bf	-0.018021462
69	0x3cc22179	0.023697602
70	0xbdbe1c21	-0.09282709
71	0xbbd041ba	-0.0063554915
72	0x3d9108c1	0.07081748
73	0xbd26ba40	-0.040704966
74	0xbe3611eb	-0.17780273
75	0x3dcf6405	0.10126499
76	0xbe8c957c	-0.27457798
77	0xbe629b4d	-0.22129555
78	0xbe0cf074	-0.137636
79	0x3d49c04f	0.049255665
80	0xbee15009	-0.44006374
81	0xbf059d9b	-0.5219361
82	0xbf1e4556	-0.6182455
83	0xbe4b4af7	-0.19852816
84	0xbe4e17fd	-0.20126338
85	0xbdb98a01	-0.09059525
86	0xbe7b039d	-0.24513097
87	0xbf05d605	-0.5227969
88	0xbd64567d	-0.055746544
89	0xbe5426f8	-0.2071799
90	0xbe946828	-0.28985715
91	0x3c2a079d	0.010377792
92	0xbf0ac29a	-0.5420319
93	0xbec032be	-0.37538713
94	0xbe4dfd6f	-0.20116208
95	0xbeb10187	-0.34571478
96	0xbd843c4d	-0.06456814
97	0xbedc6db8	-0.4305246
98	0x3d932ad7	0.071859054
99	0x3d33f3c1	0.043933634
100	0xbd7e4094	-0.062073305
101	0xbe3acf3c	-0.18243116
102	0xbe9210fd	-0.28528586
103	0xbe440eb6	-0.19146237
104	0xbe405004	-0.18780524
105	0xbe865ffa	-0.262451
106	0xbdac7514	-0.084207684
107	0xbc948157	-0.01812808
108	0x3d7d8a02	0.061899193
109	0x3d27e54d	0.040990163
110	0xbe9e0935	-0.308664
111	0xbf2a277e	-0.6646651
112	0x3fab5aa3	1.3387035
113	0x3fb91ce0	1.4461937
114	0xbf944353	-1.1583046
115	0xbf92f4c5	-1.1480948
116	0xbf827e40	-1.0194778
117	0xbf66d264	-0.9016478
118	0xbe54cc48	-0.20781052
119	0xbe14e4d0	-0.1454041
120	0x3d1a5b21	0.037684564
121	0xbe40da8c	-0.18833369
122	0xbe88dec6	-0.26732463
123	0xbe3f4325	-0.18677957
124	0xbca92f7c	-0.020652525
125	0x3e15716b	0.14594047
126	0x3c891d7d	0.016737694
127	0xbd5208f8	-0.051278085
128	0x3c4063e6	0.011742568
129	0xbdb24854	-0.08705202
130	0xbd7dc4e9	-0.061955366
131	0xbd842003	-0.06451418
132	0x3f8cd749	1.10032
133	0x3f9d8293	1.2305473
134	0xbefc2ba8	-0.49252057
135	0xbea73ebb	-0.32665047
136	0xbf9e7562	-1.2379572
137	0xbf897d6c	-1.0741401
138	0xbfce4c5e	-1.6117055
139	0xbf84740c	-1.0347915
140	0xc007d219	-2.1221983
141	0x3f726c37	0.9469637
142	0x3f3de7a2	0.7418157
143	0xbe971a2b	-0.29512152
144	0xc00922ac	-2.1427412
145	0xc0172e3b	-2.3621967
146	0x3e3dd88a	0.18539634
147	0xbf9755cb	-1.1823057
148	0x3f320307	0.6953587
149	0xbf7449bd	-0.95425016
150	0x3e2b8635	0.16750415
151	0xbeee8e8a	-0.46593124
152	0x3f754262	0.9580442
153	0xbfec8911	-1.8479329
154	0x3f1054a3	0.56379145
155	0x3f84d4a7	1.0377396
156	0xbf4c689b	-0.79847115
157	0xbf1f5af5	-0.62248164
158	0xbeb529ac	-0.35383356
159	0xbea0eff2	-0.31433064
160	0xbe81acb6	-0.2532708
161	0xbe7f338f	-0.24922012
162	0xbfd3bc95	-1.6541926
163	0xbe542064	-0.20715481
164	0xbf95994f	-1.1687411
165	0x3e8b424f	0.27199027
166	0x3e81be91	0.25340703
167	0x3c9ba390	0.018998891
168	0xbf696734	-0.911731
169	0xbfa52655	-1.2902323
170	0xbfa0a1b5	-1.2549349
171	0xbfb3e34f	-1.4053744
172	0xbfa33c27	-1.2752732
173	0xc01c3650	-2.440815
174	0x3f3421ad	0.70363885
175	0xbdc06081	-0.09393407
176	0x3faac659	1.3341781
177	0x3fc5d8d9	1.5456802
178	0xbefb0471	-0.49026826
179	0xbe8526f1	-0.26006272
180	0xbfc21a1e	-1.516422
181	0xbf983c7e	-1.1893461
182	0xbfeaf8dc	-1.8357196
183	0xbf993bea	-1.1971409
184	0xc025a660	-2.5882797
185	0x3e8cc115	0.2749106
186	0x3f84317b	1.03276
187	0x3f84a55d	1.0362965
188	0x3f51bdda	0.81930315
189	0xbee37a88	-0.4442942
190	0xbf486323	-0.7827627
191	0xbf88afa7	-1.0678605
192	0xbf502434	-0.8130524
193	0xbf83adbf	-1.0287398
194	0xbf83c0b0	-1.0293179
195	0xc02e69b7	-2.7252023
196	0x3f659607	0.8968205
197	0xbeb78b46	-0.35848445
198	0x3f511ba9	0.8168283
199	0x3f86adff	1.0521849
200	0xbf2fee44	-0.6872294
201	0xbf28e960	-0.659811
202	0xbfb2aa27	-1.3958176
203	0xbfd63ff5	-1.6738268
204	0xbfc141d0	-1.5098209
205	0xbfd69bd3	-1.6766304
206	0xbff62a4b	-1.9231657
207	0x3e99ed18	0.300637
208	0x3f206c78	0.6266551
209	0xbee550b4	-0.44788134
210	0x3e073455	0.13203557
211	0xbfb519e0	-1.4148521
212	0x3f09ed1f	0.53877443
213	0xbfa7f587	-1.3121804
214	0xbe8d441c	-0.27591026
215	0xbf9ba817	-1.2160672
216	0xbf424d0a	-0.758988
217	0xc0170e57	-2.3602502
218	0xbe977d24	-0.29587662
219	0xbe962844	-0.29327595
220	0x3f8e3ada	1.111171
221	0x3fa4cc4d	1.2874848
222	0xbedd1064	-0.43176568
223	0xbeafd35c	-0.34340942
224	0xbfc42891	-1.532488
225	0xbfd6c77f	-1.6779631
226	0xbfc1d251	-1.5142308
227	0xbfbde5e5	-1.4835783
228	0xc01ea26a	-2.478663
229	0x3efa1ad1	0.48848584
230	0x3f23f0a5	0.6403907
231	0x3f727bd8	0.9472022
232	0x3f9ea5e4	1.2394376
233	0xbe5e2d51	-0.21696974
234	0xbef5f120	-0.48035526
235	0xbff9dbf3	-1.9520248
236	0xbfed4c05	-1.8538824
237	0xbfc47202	-1.5347292
238	0xbfdb88c1	-1.7151109
239	0xc02b102a	-2.6728616
240	0x3f36f900	0.71473694
241	0xbf1c5c5f	-0.6107845
242	0x3f742e60	0.9538326
243	0x3fbe38e2	1.4861109
244	0xbf3a2d26	-0.7272514
245	0xbe06a978	-0.13150585
246	0xbfc1454c	-1.5099273
247	0xbf9f91ce	-1.2466371
248	0xbfe4fe55	-1.7890116
249	0xbfb9f324	-1.4527326
250	0xc01638f6	-2.3472266
251	0x3f4b662f	0.79452795
252	0x3f034201	0.5127259
253	0xbe55f74a	-0.20895115
254	0xbe53368f	-0.20626281
255	0x3d0c5023	0.03425611

layer1.weight_sigma f4 [256, 11]
0	0xbfa85c98	-1.3153257
1	0xbffc974a	-1.973367
2	0xbf32c829	-0.6983667
3	0x3d54740a	0.051868476
4	0xbe650efe	-0.22369
5	0xbe91ac24	-0.28451645
6	0xbdb208e9	-0.08693106
7	0xbcbe8f1d	-0.023261601
8	0xbf6ae575	-0.91756374
9	0x3f931fa8	1.1494036
10	0xbfc102f9	-1.5079032
11	0xc0046430	-2.068615
12	0x3fda7575	1.7067095
13	0xbe63729c	-0.22211689
14	0xbd54a81b	-0.05191813
15	0xbe5bc18b	-0.2146055
16	0xbd280189	-0.04101709
17	0x3d91fe06	0.07128529
18	0xbd51c611	-0.05121428
19	0xbd037cac	-0.03210132
20	0xbf31dd76	-0.6947855
21	0xbea790aa	-0.32727557
22	0x3fee2441	1.8604814
23	0xbfe429f3	-1.7825302
24	0x3ed38d11	0.41318563
25	0x3e7304cd	0.237323
26	0xbe260663	-0.16213374
27	0xbb4bc3b8	-0.0031092
28	0xbd6a4175	-0.05719133
29	0xbbd61ba5	-0.006534057
30	0xbee93fc1	-0.45556453
31	0x3f94fd46	1.1639793
32	0xbf4ca681	-0.79941565
33	0x3fadf072	1.3589003
34	0x3fc20276	1.5157001
35	0xbecf3bd7	-0.40475342
36	0xbc0c18e0	-0.008550853
37	0x3ec2741e	0.37979215
38	0x3ee11344	0.4396001
39	0x3ed4b3cc	0.41543424
40	0x3ecd4fb0	0.4009986
41	0xbe56cda9	-0.2097689
42	0x3ecd5a6f	0.40108058
43	0x3f52b839	0.8231235
44	0xbedbc59f	-0.4292421
45	0xbe4a2215	-0.19739564
46	0x3d431637	0.047628608
47	0xbd17ffca	-0.037109174
48	0x3cde2a22	0.0271197
49	0x3d655c37	0.055996146
50	0xbdcb773c	-0.099348515
51	0x3d092f92	0.033492632
52	0xbe276a67	-0.16349183
53	0xbdc92edf	-0.09823393
54	0x3dd6f8af	0.104966514
55	0xbf94cf40	-1.1625748
56	0x3fb4cad2	1.4124396
57	0xbe4c428e	-0.19947264
58	0x3c75da2c	0.0150056295
59	0xbf58e9ce	-0.8473176
60	0x3eb562d0	0.3542695
61	0x3f487b46	0.783131
62	0x3e6ab9c8	0.22922432
63	0x3e595803	0.2122498
64	0xbf7da0de	-0.9907359
65	0x3f818924	1.0119977
66	0xbd203924	-0.039116994
67	0xbc87168d	-0.016490245
68	0x3c8efc4d	0.01745429
69	0x3df08e18	0.11745852
70	0xbc0926f0	-0.0083711
71	0xbd12e346	-0.035861276
72	0x3cd6e436	0.026231866
73	0x3c4ceb7c	0.012507316
74	0x3c85ba4a	0.016324181
75	0x3ca5beab	0.02023252
76	0x3d05bafd	0.03264903
77	0x3e5d1c2a	0.21592775
78	0x3e11decf	0.14245151
79	0xbd825a04	-0.06364825
80	0x3bb8bb43	0.0056375577
81	0x3dbbe795	0.0917503
82	0xbe0f6b45	-0.14005764
83	0x3d9714d4	0.073770195
84	0x3bace2e8	0.005276073
85	0xbe0bd7be	-0.13656518
86	0xbe1e1d5a	-0.15440884
87	0xbe8209ab	-0.25398
88	0x3d451742	0.048117884
89	0x3ceb302a	0.02870949
90	0x3b0b888d	0.0021291107
91	0x3bd932f4	0.0066283885
92	0xbd67651b	-0.056492906
93	0x3e22c0d2	0.15893868
94	0x3dc52fd6	0.096282646
95	0xbd655e1f	-0.055997964
96	0xbd57ae58	-0.0526565
97	0xbd7c61bc	-0.061616644
98	0x3c4a25d5	0.012338121
99	0xbca62cbf	-0.020285008
100	0x3ba7f56e	0.005125693
101	0x3ba7f56e	0.005125693
102	0x3ba7f56e	0.005125693
103	0x3ba7f56e	0.005125693
104	0x3ba7f56e	0.005125693
105	0x3ba7f56e	0.005125693
106	0x3ba7f56e	0.005125693
107	0xbcda3bab	-0.02663978
108	0xbcd76e5d	-0.026297743
109	0x3baa6d75	0.0052010366
110	0x3e0e8780	0.13918877
111	0xbdaa7d11	-0.08324636
112	0x3cff6b77	0.031179173
113	0xbdaf6a1b	-0.0856516
114	0x3d9a768a	0.07542141
115	0xbd955534	-0.07291642
116	0xbd2a95a8	-0.04164663
117	0xbd047607	-0.032339122
118	0xbcd76dbe	-0.026297446
119	0xbcb9ddd7	-0.02268879
120	0x3d1a8201	0.037721638
121	0xbc0bdbc4	-0.008536283
122	0x3ba7f56e	0.005125693
123	0xbcc6b37d	-0.024255509
124	0xbb81360a	-0.0039432095
125	0x3bf946cd	0.007607317
126	0xbbec43fd	-0.0072102533
127	0xbd0a3f7a	-0.033751942
128	0x3d15e0dd	0.0365914
129	0x3c26018e	0.010132207
130	0xbcf0e180	-0.029404402
131	0xbc8ad5a9	-0.016947584
132	0x3fc32972	1.5247023
133	0xbfb69a5c	-1.4265857
134	0x3db33944	0.08751157
135	0x3d87027d	0.065922715
136	0xbe320e05	-0.1738816
137	0x3d723067	0.05912819
138	0x3ea31f08	0.31859612
139	0xbee5ccf7	-0.44882938
140	0xbd9b3375	-0.07578174
141	0x3fc635b9	1.5485145
142	0x3e4145f9	0.18874349
143	0xbd0cdbb7	-0.034389224
144	0xbd8ee7ee	-0.06977831
145	0xbd97ab2b	-0.074056946
146	0xbba14a15	-0.0049221613
147	0x3d144d5b	0.036206584
148	0x3dc5d5e8	0.0965994
149	0xbc275519	-0.01021316
150	0xbe0b0800	-0.1357727
151	0xbc5a6e18	-0.013331912
152	0x3bac720b	0.0052626184
153	0xbe8acda5	-0.2711002
154	0xbf8b165c	-1.0866199
155	0x3f980195	1.1875483
156	0x3d27e1d3	0.040986847
157	0x3dfeb12d	0.12436137
158	0x3e5e37fd	0.21701045
159	0x3f127a0b	0.5721747
160	0x3e0a2889	0.13492025
161	0x3ec52007	0.38500997
162	0xbdbbac9f	-0.09163784
163	0x3ee6c097	0.4506881
164	0x3ecc49c1	0.3990002
165	0x3f165507	0.5872349
166	0x3f420ab1	0.75797564
167	0xbe94ab1c	-0.29036796
168	0x3d4c0bf2	0.04981608
169	0x3eccdde9	0.40013054
170	0xbe39e816	-0.1815494
171	0x3ef3b114	0.47596037
172	0x3d010869	0.03150216
173	0xbc353eab	-0.0110623045
174	0x3e538642	0.20656684
175	0xbedf11d5	-0.43568292
176	0xbfec024c	-1.8438201
177	0xc0002d1b	-2.002753
178	0xbd871fc2	-0.06597854
179	0x3c87eab9	0.016591417
180	0x3e8e5ee0	0.2780676
181	0xbe4ca61a	-0.19985238
182	0xbedca357	-0.43093368
183	0xbd7ba0b2	-0.061432548
184	0xbcc67ca2	-0.024229351
185	0x3f3a8dce	0.72872627
186	0xbf0e5498	-0.5559783
187	0x3f84eea3	1.0385326
188	0x3fc3a26a	1.528394
189	0x3c978245	0.018494735
190	0x3e103f60	0.14086676
191	0xbf00d496	-0.5032438
192	0x3e8438a0	0.2582445
193	0xbeb49068	-0.35266423
194	0x3e062121	0.13098575
195	0x3d4b78d9	0.049675796
196	0x3d1c4467	0.03815117
197	0xbe57c694	-0.21071845
198	0xbfc695c1	-1.5514451
199	0x3fbbaab0	1.4661465
200	0x3e751ef2	0.23937586
201	0xbd76d610	-0.06026274
202	0xbd9474c8	-0.07248837
203	0x3d31aace	0.043375783
204	0x3e33c209	0.17554487
205	0x3e7be68e	0.24599668
206	0x3c9f54b2	0.019449566
207	0x3ee0fe75	0.43944135
208	0x3eb7e870	0.35919523
209	0x3d7a789b	0.061150175
210	0xbd46d678	-0.048544377
211	0x3e1166b0	0.14199328
212	0xbad3bf7a	-0.0016155087
213	0xbc12acf7	-0.008952371
214	0xbd4be60e	-0.049779944
215	0x3d8c5b24	0.06853321
216	0x3da08629	0.07838089
217	0x3dd290ae	0.10281502
218	0x3d3db6b9	0.046316836
219	0x3d7b8bc6	0.061412595
220	0x3fb05ad2	1.3777716
221	0x3fc41508	1.5318918
222	0x3ea5b7ba	0.32366735
223	0x3e3d0d7f	0.1846218
224	0x3f02fee8	0.51170206
225	0xbc860b47	-0.0163628
226	0x3e52252a	0.2052199
227	0xbeaa35da	-0.3324421
228	0x3dfae7fa	0.12251277
229	0xbeb524ce	-0.35379642
230	0x3eed8981	0.4639397
231	0x3fc7979e	1.5593145
232	0xbfa5e94f	-1.2961825
233	0xbee16377	-0.44021198
234	0xbe66c0bb	-0.22534458
235	0x3e89db6c	0.26925218
236	0x3e18ad67	0.14909898
237	0x3d5816d1	0.052756134
238	0x3e1e4e21	0.15459491
239	0x3ce59f86	0.028030168
240	0xbf87607f	-1.0576323
241	0xbf156e63	-0.5837156
242	0x3fb51f3b	1.4150156
243	0xbf9327b1	-1.1496488
244	0xbdd66528	-0.10468513
245	0x3cb80c0d	0.022466684
246	0xbe196450	-0.14979672
247	0xbe02497a	-0.12723342
248	0xbe87c97a	-0.26520902
249	0x3ea8b587	0.32950994
250	0xbeb22bb6	-0.34798974
251	0x3f2c4ccc	0.6730468
252	0xbf474f3d	-0.77855283
253	0x3dc918af	0.09819161
254	0x3d90dc4a	0.07073267
255	0xbd1759a8	-0.036950737

layer1.bias_mu f4 [256]
0	0xc0559d6e	-3.3377337
1	0xc087e0a0	-4.24617
2	0xc0516605	-3.2718518
3	0xc055734d	-3.3351624
4	0xbe72e7a7	-0.23721181
5	0xc05a2f43	-3.4091346
6	0xbf26999e	-0.6507815
7	0xbf6052ed	-0.87626535
8	0xbed72888	-0.4202311
9	0xbebe3710	-0.37151384
10	0xbd8f9e2b	-0.0701259
11	0xbe8b44f7	-0.27201054
12	0xc065e132	-3.5918698
13	0x3edba9cd	0.42902985
14	0xc00e0dde	-2.2195964
15	0xc04c60d3	-3.1934097
16	0xc08f326f	-4.4749064
17	0xc05c363b	-3.44081
18	0xc037a965	-2.869714
19	0x3fc0cc07	1.5062264
20	0xc06f2867	-3.736841
21	0xc02cf1c5	-2.7022564
22	0xc05b90f0	-3.4307213
23	0xbee85339	-0.45375994
24	0xbef80337	-0.48439953
25	0xbfaad2a5	-1.3345534
26	0xc0615167	-3.5205934
27	0xc0796cce	-3.897266
28	0xc052ad70	-3.2918358
29	0xc045a695	-3.0882924
30	0xc01d5db1	-2.4588435
31	0xc05d9e75	-3.4627964
32	0xc0298065	-2.6484616
33	0xc03d8e02	-2.9617925
34	0xc0560639	-3.3441298
35	0xc0870d08	-4.2203407
36	0xc066a6f8	-3.603941
37	0x3eb6fb7b	0.3573874
38	0xc0290d76	-2.6414466
39	0xc04e503b	-3.2236469
40	0xc07428e4	-3.8149958
41	0xc02c0ee0	-2.688408
42	0xc04ea04f	-3.2285345
43	0xbfee0c54	-1.8597512
44	0xbfd02fe2	-1.6264613
45	0xc05052a4	-3.255044
46	0xc0508ed0	-3.2587166
47	0x3db5b201	0.08871842
48	0xc079a346	-3.9005904
49	0xc04ee17e	-3.232513
50	0xbef7cfcf	-0.48400733
51	0xbf402491	-0.75055796
52	0xc067597c	-3.6148367
53	0xc0802464	-4.004442
54	0xc038e49a	-2.8889527
55	0xc05875f6	-3.3821998
56	0xc06badc7	-3.6824815
57	0xc05f2768	-3.4867802
58	0xc05de4f1	-3.4670985
59	0xc0823de1	-4.0700536
60	0xbe5bbc14	-0.21458465
61	0xc068eb80	-3.6393738
62	0xc068f12f	-3.6397207
63	0xbf86053d	-1.0470349
64	0xc0480446	-3.1252608
65	0xbf425b6c	-0.7592075
66	0xbd95d7d6	-0.07316558
67	0xc04efcb3	-3.2341735
68	0xbe971215	-0.29505983
69	0xc04cdeeb	-3.2011058
70	0xbecfb11e	-0.40564817
71	0xbeed72f5	-0.46376768
72	0xbfce158a	-1.6100323
73	0xc060ee49	-3.5145438
74	0xc06a0ebc	-3.6571493
75	0xbfdccce6	-1.725003
76	0xc008b37a	-2.1359544
77	0xbf86f4ef	-1.0543498
78	0xc041b2c4	-3.026536
79	0xbe2bfad8	-0.16794908
80	0xc067847e	-3.6174617
81	0xbf6c11e8	-0.9221482
82	0xbf89327b	-1.071853
83	0xc077867f	-3.867584
84	0xc08a36e6	-4.3192015
85	0xbeeab9dd	-0.45844927
86	0xc05719a2	-3.3609395
87	0xc0762ab4	-3.8463564
88	0xc051a049	-3.275408
89	0xc06d1fed	-3.7050736
90	0xc088eb85	-4.27875
91	0xbf0481d3	-0.51760596
92	0xc03b26bd	-2.9242394
93	0xbeb3229a	-0.34987336
94	0xc07224b2	-3.7834897
95	0xbecda858	-0.401675
96	0xc022c7fc	-2.543456
97	0xbccc784b	-0.024959704
98	0xbf85a17b	-1.0439905
99	0xc05977b8	-3.397932
100	0xc00d6823	-2.209481
101	0xc0465cfc	-3.0994253
102	0xc06c8515	-3.6956227
103	0xbf1946e1	-0.5987378
104	0xc047be1c	-3.1209784
105	0xbe7e6b7a	-0.24845687
106	0xc01baaeb	-2.432307
107	0x3e12ad71	0.14323975
108	0xbeadce12	-0.33946282
109	0xbf0ff058	-0.5622611
110	0xc062ccad	-3.5437424
111	0xc02fa90a	-2.7446923
112	0xbecda204	-0.4016267
113	0xc06b13ff	-3.6730955
114	0xbf2690a8	-0.6506448
115	0xc05834c1	-3.3782198
116	0xbfe9219e	-1.8213384
117	0xc051d132	-3.2783933
118	0xc07770cf	-3.8662603
119	0xbef27c5a	-0.47360498
120	0xc043cbf1	-3.0593226
121	0xc05487de	-3.3207927
122	0xc03718b5	-2.860883
123	0xc03a02a2	-2.9064107
124	0xbf408f0f	-0.7521829
125	0xc03c23c9	-2.9396842
126	0xc04c1f51	-3.1894114
127	0xc05f5b66	-3.4899535
128	0xc05f33ab	-3.4875286
129	0xbf4879d7	-0.7831091
130	0xc00f2a52	-2.236958
131	0xc078ac06	-3.8854995
132	0xbe983eaf	-0.29735324
133	0xc0150d24	-2.328927
134	0xc06075bc	-3.507186
135	0xc007b7fe	-2.120605
136	0xbf61a8cf	-0.88148206
137	0xbddc2a76	-0.10750286
138	0xc053e63d	-3.3109276
139	0xc05a2629	-3.408579
140	0xc0597075	-3.3974888
141	0xbec420bb	-0.3830622
142	0xbf0c976e	-0.54918563
143	0xbf318584	-0.69344354
144	0xbe81834f	-0.25295493
145	0xbf2c939d	-0.6741274
146	0xc05d59d2	-3.4586072
147	0xc03b2a13	-2.924443
148	0xbf181c90	-0.5941858
149	0xbf07f4dd	-0.53108007
150	0xc04d2b75	-3.2057774
151	0xc08753e8	-4.2289925
152	0xbee9a321	-0.4563227
153	0xc04ae13f	-3.169998
154	0xbe3ef091	-0.18646456
155	0xc0428106	-3.039125
156	0xbfb9e3df	-1.4522666
157	0xc05b3662	-3.4251943
158	0xc018936b	-2.3839977
159	0xc01c8597	-2.4456537
160	0xbf0ca7bd	-0.5494345
161	0xbfeef76c	-1.8669257
162	0xc066f3f3	-3.6086395
163	0xc07ffb2d	-3.9997056
164	0xc03498eb	-2.8218334
165	0xbf69ddf3	-0.9135429
166	0xc03deecb	-2.9676998
167	0xbff4a19c	-1.9111819
168	0xc07f7640	-3.9915924
169	0xbf748085	-0.95508605
170	0xc01a7808	-2.4135761
171	0xc084cb9a	-4.1498537
172	0xbf64d2c2	-0.8938409
173	0xbf50ceed	-0.81565744
174	0xbed929f5	-0.42414823
175	0xc0667e99	-3.601477
176	0xc05e5943	-3.474198
177	0xc0545507	-3.3176897
178	0xc05bc037	-3.4336069
179	0xbf8adec2	-1.084923
180	0xbe89741f	-0.26846406
181	0xc0304c4b	-2.7546566
182	0xc061debd	-3.5292199
183	0xbffa1d5f	-1.9540213
184	0xbf169222	-0.5881673
185	0xc00d1259	-2.2042449
186	0xc067515c	-3.6143408
187	0xbe7dfae6	-0.24802741
188	0xbfb1440c	-1.3848891
189	0xc05c27d0	-3.43993
190	0xc0639ed1	-3.5565684
191	0x402a5bae	2.6618457
192	0xbd7d682e	-0.06186693
193	0xc04cf241	-3.202286
194	0xbf4703e6	-0.77740324
195	0xc05718d1	-3.3608897
196	0xc01fc095	-2.4961293
197	0xc03e1cf1	-2.9705164
198	0xbf891d72	-1.0712111
199	0xc03afe21	-2.9217608
200	0xc0486233	-3.1309936
201	0x3f328bdd	0.69744664
202	0xbe3582a8	-0.17725623
203	0xbf508a90	-0.8146143
204	0xc082458d	-4.07099
205	0xc04c3e03	-3.191285
206	0xbfefc3ca	-1.8731625
207	0xc0653aee	-3.5817218
208	0xc0594b49	-3.39522
209	0xc05efc91	-3.4841654
210	0xc08b6463	-4.356004
211	0xc061def9	-3.5292342
212	0x3fe52269	1.7901126
213	0xc045772a	-3.0853982
214	0xc0646cb6	-3.5691352
215	0xc05ef5bd	-3.4837487
216	0x3dec5ee9	0.1154154
217	0xc0511222	-3.2667317
218	0xc0302784	-2.7524118
219	0xbdaeeb35	-0.08540956
220	0xc03f6b41	-2.9909213
221	0xc068191e	-3.626533
222	0xc0387e50	-2.8827095
223	0xc050a349	-3.2599661
224	0xbf580752	-0.8438617
225	0xc0339aed	-2.806331
226	0xc04d0735	-3.203565
227	0xc050370c	-3.2533598
228	0xbeb97ced	-0.36228123
229	0xc04e88fa	-3.2271104
230	0xc02252bc	-2.5362997
231	0xbecbf943	-0.3983861
232	0xc05196b4	-3.2748232
233	0xbf9c79b8	-1.2224646
234	0xc07c7408	-3.944582
235	0xbdb1f5a9	-0.08689434
236	0xbfa8ef8f	-1.3198107
237	0xbf92b909	-1.1462718
238	0xc04b9651	-3.1810496
239	0xbf960b1b	-1.1722139
240	0xbf9e1c8f	-1.2352465
241	0xbe3e45d2	-0.18581322
242	0xc05b9648	-3.4310474
243	0xc025f824	-2.5932703
244	0xc0354fb9	-2.832991
245	0xbedc329b	-0.4300736
246	0xc0700b6a	-3.7506967
247	0xbf9ffa2d	-1.2498223
248	0xc07b2529	-3.924143
249	0xc03dc68c	-2.9652433
250	0xc06cb3c3	-3.6984718
251	0xc02f544a	-2.7395196
252	0xc0337119	-2.803778
253	0xbee0b53a	-0.43888265
254	0xc0868b87	-4.204532
255	0xbfc4f65b	-1.5387682

layer1.bias_sigma f4 [256]
0	0xbe0a9b75	-0.13535865
1	0xbf927ddb	-1.1444658
2	0x3f3e8b6f	0.7443151
3	0x3e97359f	0.29533097
4	0xbce2798c	-0.027645849
5	0x3efcf060	0.49402142
6	0xbc045099	-0.008075857
7	0xbd4cad15	-0.04996975
8	0xbd0e7f50	-0.034789383
9	0x3bde4cd7	0.0067840624
10	0xbd78978a	-0.060691394
11	0x3c042bf7	0.008067123
12	0xbe241c13	-0.16026334
13	0x3cddc67b	0.027072182
14	0x3ec7d2d7	0.39028046
15	0xbce68971	-0.028141709
16	0x3edf5207	0.4361727
17	0x3f1d630b	0.6147925
18	0xbf5296a4	-0.8226111
19	0xbd273966	-0.040826224
20	0xbf06f1d3	-0.52712744
21	0x3da61966	0.08110313
22	0x3f121994	0.5707028
23	0xbc33e910	-0.010980859
24	0x3ca0df13	0.01963762
25	0x3ee20aa2	0.44148737
26	0xbdcdc0ac	-0.10046515
27	0xbe7772fe	-0.2416496
28	0x3e3ffc33	0.1874855
29	0xbf485a3a	-0.78262675
30	0xbcbe93cd	-0.023263836
31	0x3f0a102f	0.53930944
32	0xbf5975ef	-0.8494558
33	0xbee19a3a	-0.44062978
34	0xbe45cc3c	-0.1931619
35	0x3dc6fa0e	0.09715663
36	0xbe7dcc4e	-0.24784967
37	0xbc8d39b3	-0.017239427
38	0x3f05cbb0	0.5226393
39	0x3ed018d2	0.40643936
40	0xbf45990d	-0.7718666
41	0x3e99cc17	0.3003852
42	0x3e7dc2ca	0.24781337
43	0x3f688c1b	0.90838784
44	0xbd4ca6b7	-0.04996368
45	0xbee6b25f	-0.4505796
46	0xbecd0820	-0.4004526
47	0xbd5189de	-0.05115687
48	0xbe7475d3	-0.23873071
49	0x3e539f4c	0.20666236
50	0xbca33059	-0.019920515
51	0x3b61dff6	0.0034465767
52	0xbf3aa45e	-0.72907054
53	0xbf3e8ca0	-0.74433327
54	0x3e97cc06	0.29647845
55	0xbf04899e	-0.5177249
56	0xbee85827	-0.45379755
57	0xbf17af21	-0.592516
58	0xbf12cc50	-0.57343006
59	0x3f5df1e8	0.86697245
60	0x3ba7f56e	0.005125693
61	0xbf0d1b90	-0.5512018
62	0x3fa43f52	1.2831824
63	0x3ef2a735	0.47393194
64	0x3e4b48f0	0.19852042
65	0x3cba29f6	0.022725087
66	0x3e243c2f	0.16038583
67	0x3f2f26de	0.6841868
68	0x3ba7f56e	0.005125693
69	0xbe52c3a1	-0.20582439
70	0x3cbb9af9	0.022901045
71	0xbd26efc7	-0.040756013
72	0xbf17548b	-0.5911338
73	0xbf4500b3	-0.7695419
74	0x3e75117e	0.23932454
75	0xbea1502e	-0.31506485
76	0xbf1a9215	-0.60379153
77	0x3d7051e6	0.058671854
78	0x3ddbe5de	0.10737203
79	0xbaba9d4d	-0.0014237553
80	0x3e7bfd94	0.24608451
81	0xbcb6a5d7	-0.022295875
82	0xbcd69e17	-0.02619843
83	0xbf02b532	-0.5105773
84	0xbf5adfbe	-0.85497653
85	0xbcc3ba14	-0.02389244
86	0x3e99162e	0.29899734
87	0xbf19ed28	-0.60127497
88	0x3ee06eff	0.43834683
89	0xbe9a0654	-0.30082953
90	0x3f89ed12	1.0775473
91	0x3bab5256	0.005228321
92	0xbcebeb9c	-0.02879887
93	0x3aeaa6e6	0.0017902523
94	0xbe9338a7	-0.2875416
95	0xbcc5892c	-0.02411326
96	0x3ee673aa	0.4501012
97	0x3b896f3a	0.0041941674
98	0xbb9ce53f	-0.0047880705
99	0x3ee5fff0	0.44921827
100	0xbde36922	-0.11104037
101	0xbf8a74ec	-1.0816932
102	0x3e620a3c	0.22074217
103	0x3ce34faf	0.027747957
104	0xbf3fe4cb	-0.74958485
105	0x3cbdf723	0.023189133
106	0xbf167fd0	-0.58788776
107	0xbcb1201e	-0.02162176
108	0xbbaeddd9	-0.005336505
109	0xbdb3dcf4	-0.08782378
110	0xbf44b293	-0.7683498
111	0x3ee7dd1c	0.4528588
112	0xbc0ebc59	-0.008711898
113	0x3f07efbb	0.53100175
114	0x3c0c9e1b	0.008582617
115	0xbc9cc320	-0.019136012
116	0x3f5266a5	0.82187873
117	0x3dbca907	0.09211927
118	0x3ef90341	0.48635295
119	0x3c3bdbdc	0.011465993
120	0xbeb50109	-0.35352352
121	0x3ed05ece	0.4069733
122	0x3f7fbf14	0.9990094
123	0xbf413fd1	-0.75488
124	0x3f1a6508	0.6031041
125	0xbe6ca882	-0.23111156
126	0x3f4ae198	0.7925048
127	0xbf244ffe	-0.6418456
128	0xbf668681	-0.90048987
129	0x3bf60c11	0.0075087626
130	0x3c9c38dd	0.019070083
131	0x3f03e655	0.51523334
132	0x3d5f78fd	0.054558743
133	0x3dbc54e9	0.09195883
134	0xbf0b0013	-0.5429699
135	0x3d2a5bc4	0.04159142
136	0x3da97635	0.08274499
137	0x3ba7f56e	0.005125693
138	0xbf50be5a	-0.81540453
139	0xbe4fd027	-0.20294248
140	0xbe7d419f	-0.24732064
141	0x3cf6f478	0.030145869
142	0xbabd45a4	-0.001444031
143	0xbdab4e4e	-0.08364545
144	0x3d02df10	0.03195101
145	0x3c0bcea7	0.0085331565
146	0xbdd28d3a	-0.10280843
147	0xbed7a4eb	-0.4211801
148	0xbbbfcd40	-0.005853325
149	0x3c74e1ad	0.014946383
150	0xbce873eb	-0.028375586
151	0x3dc27e6a	0.09496768
152	0xbca5836e	-0.020204272
153	0xbe986443	-0.29763994
154	0x3ba7f56e	0.005125693
155	0x3e137360	0.14399481
156	0xbee14df3	-0.44004783
157	0x3ecf7a86	0.40523165
158	0xbe18a38e	-0.14906141
159	0xbf956520	-1.1671486
160	0xbd0b2bea	-0.033977427
161	0x3c37e079	0.011222952
162	0xbece3008	-0.4027102
163	0x3ecf1ee8	0.40453267
164	0xbece9217	-0.40345833
165	0xbee53f24	-0.44774735
166	0xbf41691e	-0.7555102
167	0xbe10c086	-0.14135942
168	0xbee0a6ea	-0.43877345
169	0xbe139f3a	-0.14416209
170	0x3b83dbd0	0.0040240064
171	0x3f3977c6	0.72448385
172	0x3d8ee016	0.06976335
173	0xbd645107	-0.055741336
174	0xbbb8815d	-0.0056306557
175	0x3d2190ee	0.039444856
176	0xbf0d2990	-0.55141544
177	0x3eb6dce9	0.35715416
178	0xbcd0ada3	-0.025473421
179	0x3c204283	0.009781483
180	0xbce6c410	-0.028169662
181	0x3ec8b350	0.39199305
182	0xbf26640a	-0.649964
183	0x3f1db4d7	0.61604065
184	0xbdb64fc5	-0.089019336
185	0x3ec30061	0.38086227
186	0x3f9eb499	1.2398864
187	0x3ba7f56e	0.005125693
188	0xbe246557	-0.16054283
189	0xbf851863	-1.0398067
190	0x3e84b002	0.25915533
191	0x3c4a52b4	0.0123488195
192	0xbd7a5b55	-0.061122257
193	0x3ef28bc0	0.47372246
194	0xbce0c8af	-0.027439443
195	0xbe5447f4	-0.20730573
196	0x3f1bddee	0.6088551
197	0x3f1725ca	0.59042037
198	0x3d23cd30	0.039990604
199	0xbbcf3289	-0.006323163
200	0x3f080985	0.53139526
201	0xbdc6fa2a	-0.09715684
202	0xbc75c6fb	-0.015001054
203	0xbd03771b	-0.03209601
204	0xbe25265c	-0.16127914
205	0x3ef545f5	0.47904935
206	0xbf558446	-0.8340496
207	0x3eabb229	0.33534363
208	0xbdc8f1d7	-0.09811752
209	0xbf14dded	-0.5815113
210	0xbf1381ea	-0.5762011
211	0xbde27879	-0.110581346
212	0x3aecfedc	0.0018081325
213	0x3f42a870	0.76038265
214	0xbef6dbd9	-0.48214605
215	0x3f4c92c8	0.7991147
216	0x3b3ea271	0.0029088522
217	0x3f2b63a7	0.6694893
218	0xbf75f348	-0.9607434
219	0x3cb241f1	0.021759959
220	0xbea209b2	-0.31648022
221	0x3e4e2f0a	0.20135131
222	0x3ebc14aa	0.36734515
223	0x3d85343f	0.06504106
224	0x3bbc17df	0.0057401503
225	0x3ef17277	0.47157642
226	0x3f6ffa97	0.93741745
227	0xbf158fb1	-0.5842238
228	0x3d5b3953	0.053521466
229	0xbf758c18	-0.9591689
230	0x3e37db38	0.17954719
231	0xbd287622	-0.041128285
232	0xbd2b9f6a	-0.041900076
233	0x3eaef508	0.3417132
234	0x3f1608eb	0.5860736
235	0x3c134758	0.008989178
236	0x3de6f394	0.112769276
237	0x3d40f720	0.047110677
238	0x3ed242be	0.41066545
239	0xbed82505	-0.42215744
240	0x3d5d591e	0.054040067
241	0x3ba7f56e	0.005125693
242	0x3f66a8e8	0.9010148
243	0x3e2e59ec	0.1702649
244	0xbf0f574d	-0.55992585
245	0xbcc99e4f	-0.02461162
246	0xbf4042e0	-0.75102043
247	0xbf726b1e	-0.946947
248	0x3e8ab885	0.27093902
249	0xbc5432e2	-0.0129515845
250	0xbd187610	-0.03722197
251	0xbf08a617	-0.53378433
252	0x3dc92b03	0.09822657
253	0xbc98f7da	-0.018672872
254	0xbbd57081	-0.0065136557
255	0xbf3fd82e	-0.7493924

layer2.weight_mu f4 [3, 256]
0	0xbe6ad3b7	-0.22932325
1	0xbe2fd774	-0.17172033
2	0xbe1c16c2	-0.15243056
3	0xbd0bb858	-0.03411135
4	0xbd67a2da	-0.05655179
5	0x3c2baa50	0.010477617
6	0x3d9c6de1	0.07638145
7	0xbc777dc5	-0.015105669
8	0x3d8b413c	0.06799552
9	0x3c174949	0.009233781
10	0xc017b767	-2.370569
11	0x3cff79cd	0.031186009
12	0xbd70e93e	-0.058816187
13	0x3e830978	0.25593162
14	0xbe4eda97	-0.20200573
15	0xbdd97dfc	-0.10619733
16	0xbaea9595	-0.0017897362
17	0xbd722b67	-0.059123423
18	0xbda06d02	-0.078332916
19	0x3f0547a1	0.5206242
20	0x3d690e13	0.056898188
21	0xbdd2ae72	-0.10287179
22	0xbe0ce8d3	-0.1376069
23	0xbdeda600	-0.116039276
24	0x3ba12767	0.004918027
25	0xbe2ddc07	-0.16978465
26	0x3d11aeca	0.035567082
27	0xbcc0a051	-0.023513945
28	0xbe1f0e28	-0.15532744
29	0xbe4ba377	-0.19886576
30	0xbe54ae96	-0.20769724
31	0xbde5d4c2	-0.11222221
32	0xbe530499	-0.20607223
33	0xbdd0bf72	-0.10192765
34	0xbe4792e2	-0.19489625
35	0xbe138199	-0.14404906
36	0x3d0d5d42	0.034512766
37	0xbde95f2d	-0.113951065
38	0xbe1f9006	-0.15582284
39	0xbe288cfc	-0.16460031
40	0xbe390794	-0.18069297
41	0xbdfb7f94	-0.12280193
42	0xbdb92b61	-0.09041477
43	0xbd760427	-0.060062554
44	0xbfb114f6	-1.3834522
45	0xbe2e09e4	-0.1699596
46	0xbe7cf2ef	-0.24702047
47	0x3c34d263	0.011036488
48	0xbe224b59	-0.15849055
49	0xbdd4ec63	-0.1039665
50	0x3c28a245	0.010292594
51	0x3c26e73a	0.010186965
52	0xbc92aa55	-0.017903486
53	0xbc41ba4b	-0.011824201
54	0xbd1560e4	-0.036469355
55	0x3d893d56	0.06701152
56	0xbd1ad421	-0.03779996
57	0xbd93c61d	-0.072155215
58	0x3c770773	0.01507746
59	0xbd6b94b8	-0.057514876
60	0xbd674d76	-0.056470357
61	0xbde51ff6	-0.11187737
62	0xbdd25884	-0.10270789
63	0xbe30e556	-0.17274985
64	0xbdf9a19d	-0.121890284
65	0xbccfd854	-0.025371708
66	0xc08325cd	-4.0983644
67	0xbe15fb9b	-0.14646761
68	0x3b9c3ba0	0.00476785
69	0xbd117958	-0.035516113
70	0xbc6b81e7	-0.014374233
71	0x3cc738d5	0.024319092
72	0xbe8003cd	-0.250029
73	0xbd29b492	-0.04143197
74	0xbe2356ef	-0.15951131
75	0xbedeee1f	-0.43541047
76	0xbdd0ca97	-0.10194891
77	0xbe2e4c06	-0.17021188
78	0xbd939d91	-0.07207788
79	0xbcc57f9a	-0.024108697
80	0xbe0775c3	-0.13228516
81	0x3cfbd77a	0.030742396
82	0xbc67b2d8	-0.014141761
83	0xbe258525	-0.16164072
84	0xbe663a7a	-0.22483245
85	0xbdf59d97	-0.119929485
86	0xbd6ccbb7	-0.057811465
87	0xbdac879b	-0.08424302
88	0xbe1b4f51	-0.15166976
89	0xbdce2266	-0.10065155
90	0xbd30b704	-0.043143287
91	0xbee62af1	-0.44954637
92	0x3d81569d	0.06315348
93	0x3b840a80	0.004029572
94	0xbcdac321	-0.026704373
95	0xbda81a61	-0.082081564
96	0xbd3b58c7	-0.04573896
97	0x3c8cfeeb	0.017211398
98	0xbbfb8954	-0.007676283
99	0xbdce8ab7	-0.100850515
100	0x3d964965	0.07338218
101	0xbb925c06	-0.0044665365
102	0xbe36feb2	-0.17870596
103	0xbc5a6bdf	-0.013331383
104	0xbd894a3a	-0.06703611
105	0x3dc26a99	0.09492988
106	0xbde6d7d2	-0.11271633
107	0x3d8dedde	0.06930135
108	0xbda225e3	-0.079173826
109	0x3d23adff	0.039960857
110	0xbd7f0bf8	-0.062267274
111	0xbc8b6f8a	-0.01702096
112	0xc02e4801	-2.7231448
113	0xbe08f625	-0.13375147
114	0xbd0b8cc3	-0.034069788
115	0xbe00370d	-0.12521
116	0xbe70946c	-0.23494118
117	0xbdc46596	-0.095896885
118	0xbe9014c4	-0.28140843
119	0xbdfa7e11	-0.122310765
120	0xbbfea6c7	-0.0077713463
121	0xbe064609	-0.13112654
122	0xbe28bfc7	-0.16479407
123	0xbd2b5ab0	-0.041834533
124	0xbefc1754	-0.49236548
125	0xbe186a2f	-0.14884256
126	0xbde1b69b	-0.11021157
127	0xbcde2fde	-0.027122434
128	0xbc424ac4	-0.011858646
129	0xbdcc74b0	-0.09983194
130	0xbf01ca17	-0.5069899
131	0xbe492e79	-0.19646634
132	0x3d0dc7cc	0.03461437
133	0xbcd846a3	-0.02640087
134	0xbd8ef0e9	-0.06979544
135	0xbf65b364	-0.89726853
136	0xbd22cb43	-0.039744627
137	0xbcc28e00	-0.023749352
138	0xbd9016f6	-0.070356295
139	0xbd56d5f3	-0.05245013
140	0xbd051053	-0.03248627
141	0xbbfdfd1f	-0.0077511217
142	0xbc13789e	-0.009000925
143	0x3e3124ce	0.17299196
144	0x3c634026	0.013870275
145	0xbdc746a7	-0.09730273
146	0x3d596b87	0.05308106
147	0xbd93dcbe	-0.072198376
148	0x3dfab82c	0.12242159
149	0xbd5a23da	-0.053256847
150	0xbda4d795	-0.080489315
151	0xbe457482	-0.19282725
152	0x3d33e860	0.043922782
153	0x3bd471e9	0.0064833057
154	0xba108000	-0.00055122375
155	0x3d5bd0b1	0.05366582
156	0xbe0942c2	-0.13404372
157	0xbdcf1856	-0.101120636
158	0xbc9db5ad	-0.019251669
159	0xbe3bcb2a	-0.1833922
160	0x3c12866c	0.0089431815
161	0x3e8c6411	0.27420095
162	0xbde99424	-0.11405209
163	0xbe4797a0	-0.19491434
164	0xbdf00fdb	-0.11721774
165	0xbe8640a4	-0.26221192
166	0xbe05f32e	-0.13081047
167	0xbe35ac7a	-0.17741576
168	0xbd067fc7	-0.0328367
169	0xbd66ea22	-0.05637563
170	0xbb8c7990	-0.0042869523
171	0xbe1b2ee3	-0.15154605
172	0x3bf23e6c	0.007392695
173	0xbd8ef059	-0.069794364
174	0xbdb1195d	-0.08647416
175	0xbe38a8ff	-0.18033217
176	0xbcb75905	-0.022381315
177	0xbe22ae90	-0.15886903
178	0xbd97298e	-0.07380973
179	0xbc3a21cb	-0.011360596
180	0x3bcb2a21	0.0062000905
181	0xbe0a0448	-0.13478196
182	0xbd9a4f19	-0.07534618
183	0xbdcd21b5	-0.10016195
184	0x3decc594	0.115611225
185	0xbe46bf88	-0.19409001
186	0xbdbd2a19	-0.09236545
187	0x3d2754b4	0.040852264
188	0xbda918ca	-0.08256681
189	0xbdb83a4b	-0.089954935
190	0x3d577679	0.05260322
191	0x3fae5e26	1.3622482
192	0xbd5897a3	-0.052878987
193	0xbe40901c	-0.18804973
194	0xbd460264	-0.048342124
195	0x3d1cc3af	0.038272556
196	0xbd5fc93a	-0.054635264
197	0xbe2770f4	-0.16351682
198	0xbe2a7aad	-0.1664836
199	0x3dd64633	0.10462608
200	0xbe341942	-0.1758776
201	0xbe4808ce	-0.19534609
202	0xbd6cfd09	-0.0578585
203	0x3d0bb51d	0.03410827
204	0x3d76bb7d	0.060237397
205	0xbdb6a07f	-0.08917331
206	0xbe79e594	-0.24403983
207	0xbe04bc2c	-0.12962407
208	0xbdc446bf	-0.09583806
209	0x3e2a8c88	0.16655171
210	0x3d3347e6	0.04376974
211	0xbe17d2c6	-0.14826497
212	0x3eb973b2	0.3622108
213	0xbe0b2029	-0.13586487
214	0xbd47e849	-0.04880551
215	0xbcc562c9	-0.024094956
216	0x3e5f8664	0.2182861
217	0xbdc204ef	-0.09473597
218	0xbe3d8a05	-0.18509682
219	0x3ce2a69e	0.02766734
220	0x3dd8ed6e	0.10592161
221	0xbcbff055	-0.023430029
222	0x3de68f39	0.11257786
223	0xbc8e369a	-0.01736002
224	0x3e0b19d9	0.13584079
225	0xbdb0cb75	-0.08632556
226	0xbd0c4d39	-0.034253333
227	0x3cc4377b	0.023952236
228	0xbc0c9c16	-0.008582136
229	0xbe021e23	-0.12706809
230	0xbe07bc79	-0.1325549
231	0xbe84b1a9	-0.25916794
232	0xbd2e0e3e	-0.04249405
233	0x3d58cb8c	0.052928492
234	0xbe9e11a3	-0.3087283
235	0x3cc60d50	0.02417627
236	0x3c8af5e7	0.016962958
237	0xbc9b43d3	-0.01895324
238	0x3c97df91	0.018539222
239	0xbde20dd0	-0.11037791
240	0xbd85cf8b	-0.06533726
241	0x3d48893e	0.04895901
242	0xbcf7436b	-0.030183515
243	0xbde67c28	-0.1125415
244	0xbd0e79a3	-0.03478397
245	0xbdb95c99	-0.09050865
246	0xbd045195	-0.032304365
247	0xbe883d51	-0.2660928
248	0xbe1ddd63	-0.15416484
249	0xbd84cdf0	-0.06484592
250	0xbe3cb85d	-0.18429704
251	0xbe145210	-0.1448443
252	0xbd632039	-0.05545065
253	0x3cc52e30	0.024069875
254	0xbd9e65d9	-0.0773427
255	0xbe348913	-0.17630415

layer2.weight_sigma f4 [3, 256]
0	0x3d06601e	0.03280651
1	0xbc015172	-0.007892953
2	0xbbc4e243	-0.006008418
3	0xbd18df9e	-0.037322633
4	0xbe2457d2	-0.16049126
5	0x3d9fe892	0.07808031
6	0x3d792439	0.06082556
7	0x3cda7c5d	0.02667063
8	0x3d3e6bfc	0.0464897
9	0xb9d541de	-0.000406756
10	0x3d5647ec	0.052314684
11	0x3d53f6be	0.051748984
12	0x3d65973d	0.056052435
13	0x3d0a6e17	0.033796396
14	0x3d2d9f0f	0.04238802
15	0x3c01ceb8	0.007922821
16	0x3d30b219	0.043138597
17	0xbda1a849	-0.07893426
18	0xbd51ca4f	-0.051218327
19	0x3d122f94	0.035689905
20	0xbdb495f1	-0.088176616
21	0x3d65fc70	0.056148946
22	0x3c8b544a	0.017007966
23	0x3dae52f4	0.08511916
24	0x3cda31f2	0.026635144
25	0x3cbe09f2	0.023198102
26	0xbdd27614	-0.10276428
27	0x3d0428dd	0.032265533
28	0xbccd4fa3	-0.025062388
29	0xbd51b13c	-0.051194414
30	0x3dbd8d85	0.09255508
31	0x3d77e0ac	0.060517
32	0xbdad344c	-0.084572405
33	0xbd3817e8	-0.044944674
34	0xbcfdc903	-0.030979639
35	0x3c9c5680	0.019084215
36	0x3d7fdb48	0.062464982
37	0xbd1ad14c	-0.037797257
38	0xbdc17484	-0.09446052
39	0xbd263ffe	-0.04058837
40	0xbc9b763b	-0.018977275
41	0xbc98db66	-0.018659305
42	0x3df83ec2	0.12121345
43	0xbdff1e6a	-0.12456973
44	0x3d89ca78	0.06728071
45	0x3c5200d5	0.012817581
46	0xbc171a70	-0.009222612
47	0xbd84c3e1	-0.064826734
48	0xbd292aaa	-0.041300453
49	0xbce9bdf2	-0.028532956
50	0xbc9fbbb3	-0.019498682
51	0x38846712	6.313449e-05
52	0xbcf55e0d	-0.029952073
53	0x3de4f5d0	0.111796975
54	0xbc4d4a85	-0.012529974
55	0x3db8f8e7	0.09031849
56	0x3d0f53ab	0.0349919
57	0xbd9c9800	-0.07646179
58	0xbda60443	-0.081062816
59	0xbe2c64fa	-0.16835395
60	0x3a8b4396	0.0010625
61	0xbd533ba6	-0.051570557
62	0x3c87a2ed	0.016557181
63	0xbbd329f1	-0.006444209
64	0xbe22c66e	-0.15896007
65	0xbcd5dc78	-0.026106104
66	0xbe212621	-0.15737201
67	0x3c845241	0.016152503
68	0x3a8b4396	0.0010625
69	0x3c4dfdd0	0.012572721
70	0x3be008d3	0.0068369894
71	0x3c01088e	0.007875575
72	0xbe137f85	-0.14404114
73	0x3e164e4c	0.14678305
74	0x3cf7b361	0.030236902
75	0x3d78a660	0.060705543
76	0xbdd7924a	-0.10525949
77	0x3e46cd66	0.19414291
78	0x3cb95274	0.022622325
79	0x3d5fd8fa	0.054650284
80	0x3d1527f7	0.036415067
81	0xbdae290e	-0.08503924
82	0x3ce2c39d	0.027681166
83	0x3e03ca8b	0.12870233
84	0x3cbaec77	0.022817833
85	0xbd56f51e	-0.052479856
86	0xbd335967	-0.043786433
87	0xbdafca4b	-0.08583506
88	0xbbc6bbe0	-0.006064877
89	0x3d8a8f70	0.0676564
90	0xbe0edf01	-0.13952257
91	0xbd82116f	-0.063509814
92	0xbce4299b	-0.02785187
93	0x3d3c48d7	0.045967903
94	0x3d930a3a	0.07179685
95	0x3c155078	0.0091134235
96	0x3daaf7f7	0.08348077
97	0x3dbe1999	0.09282226
98	0x3d336c04	0.043804184
99	0x3d327b79	0.043574784
100	0xbe4168b6	-0.188876
101	0x3e0a6242	0.13514045
102	0x3c907938	0.017635927
103	0xbc50da4c	-0.0127473585
104	0xbd5f157d	-0.054463852
105	0xbd857525	-0.06516484
106	0x3da6179e	0.08109973
107	0xbdf7b396	-0.120948
108	0x3d2cbad8	0.042170376
109	0x3d816757	0.06318539
110	0x3dc9402e	0.098266944
111	0xbc94a967	-0.018147184
112	0xbdef558b	-0.11686238
113	0xbc80d07b	-0.015724411
114	0x3b898b34	0.0041975025
115	0x3d24f516	0.040272795
116	0xbda92f0b	-0.08260926
117	0xbd281634	-0.0410368
118	0xbd3a5e06	-0.045499824
119	0xbdcc8dd6	-0.099879906
120	0xbd46170f	-0.048361834
121	0x3db93272	0.09042825
122	0x3c251ecb	0.010078142
123	0x3d6f8b49	0.058482442
124	0xbe8b94ce	-0.27261966
125	0xbd84b40b	-0.06479653
126	0xbccca7b1	-0.024982305
127	0x3d2760d1	0.040863816
128	0x3cb21e62	0.021743003
129	0xbd47d365	-0.048785586
130	0xbc6f8446	-0.014618939
131	0x3cf5b58a	0.029993791
132	0x3c1f3e7b	0.009719486
133	0xbcdde6ac	-0.027087532
134	0xbd2c53b6	-0.04207202
135	0xbcd39c47	-0.025831355
136	0x3cca2da0	0.024679959
137	0x3a8b4396	0.0010625
138	0xba3f44ac	-0.00072963047
139	0xbbb1ae27	-0.005422372
140	0x3d4bd795	0.049766142
141	0xbdbc7c77	-0.09203427
142	0x3b2c4b20	0.0026289895
143	0x3ca2b7a0	0.01986295
144	0x3c7c9a2c	0.015417617
145	0xbcd81d2c	-0.026381098
146	0xbc72ac65	-0.01481161
147	0xbc4e8865	-0.012605761
148	0x3ddeb140	0.108736515
149	0xbc925836	-0.017864328
150	0x3d9565b0	0.07294786
151	0x3c2b8f01	0.0104711065
152	0x3d7e2784	0.062049404
153	0x3dd2b298	0.1028797
154	0x3a8b4396	0.0010625
155	0xbdb9421e	-0.09045814
156	0xbd5e7dd3	-0.054319214
157	0xbd8bb3ec	-0.06821427
158	0x3df015e7	0.117229275
159	0xbc75a7fc	-0.014993664
160	0xbd0103c8	-0.031497747
161	0x3da5efd5	0.08102385
162	0xbd111cc9	-0.035427842
163	0x3dfdbacd	0.12389145
164	0xbc876bd8	-0.016530916
165	0xbbea499b	-0.0071498877
166	0x3d97b2ef	0.07407176
167	0x3d2c634c	0.042086884
168	0xbcfec56b	-0.031099996
169	0x3e2a37b3	0.1662281
170	0xbca3f708	-0.020015255
171	0xbdd5e833	-0.10444679
172	0xbe1eb3d8	-0.15498292
173	0xbd022e55	-0.031782467
174	0x3d0e5697	0.034750547
175	0x3cfb7aa6	0.030698132
176	0x3d980bfc	0.07424161
177	0x3e3176bb	0.17330448
178	0x3cfb2450	0.030656964
179	0xbcacf7f9	-0.021114336
180	0x3c8ffd14	0.017576732
181	0x3cf47d37	0.029844863
182	0xbdd3c164	-0.10339621
183	0xbd9b1c63	-0.07573774
184	0xbdc296b7	-0.09501403
185	0xbdb8dd17	-0.090265445
186	0xbd6c988b	-0.057762664
187	0x3a8b4396	0.0010625
188	0x3dcf5dac	0.10125288
189	0x3d2b1c68	0.041775137
190	0xbdd110a1	-0.1020825
191	0xbc6853c0	-0.014180124
192	0x3c1c38a4	0.009534989
193	0xbd8b0025	-0.06787137
194	0x3d8126a1	0.06306196
195	0x3c1595c0	0.009129941
196	0xbdcf435f	-0.10120272
197	0xbde6bde2	-0.11266686
198	0xbe4245e9	-0.18971981
199	0xbb89ba9c	-0.004203154
200	0xbb74fe49	-0.003738301
201	0xbd4d024e	-0.050051026
202	0x3d922319	0.071356006
203	0x3d190dac	0.037366554
204	0x3dd6f8d5	0.1049668
205	0x3e4a1387	0.19734012
206	0x3e3cde80	0.18444252
207	0x3df783aa	0.1208566
208	0xbc9e9b19	-0.019361066
209	0xbd4fd7c1	-0.05074287
210	0xbbaf40d5	-0.0053483048
211	0x3e00b7b9	0.12570085
212	0xbc740909	-0.014894732
213	0x3cd30c67	0.02576275
214	0xbd5632d5	-0.05229457
215	0xbcad9d38	-0.021193132
216	0xbca64475	-0.020296315
217	0xbd6f2759	-0.058387134
218	0xbd982e7b	-0.074307404
219	0xbcface21	-0.030615868
220	0x3cbbf9c4	0.022946246
221	0xbcd79200	-0.026314735
222	0xbd4ed021	-0.050491456
223	0x3c9fe598	0.019518659
224	0x3d8e5643	0.06950047
225	0xbc7225c3	-0.014779511
226	0xbb77d27b	-0.0037814665
227	0xbd870c9f	-0.06594204
228	0x3cc08519	0.023500966
229	0x3e077c0b	0.13230912
230	0xbca519ab	-0.020153841
231	0xbe154624	-0.14577538
232	0xbc7fc317	-0.015610478
233	0xbd01d164	-0.03169383
234	0xbd5106ef	-0.051032003
235	0xbc8883f3	-0.01666448
236	0xbcfa5107	-0.030556215
237	0xbcf3f485	-0.029779682
238	0x3e07f79e	0.13278052
239	0xbd77302f	-0.060348686
240	0x3e023136	0.12714085
241	0x3a8b4396	0.0010625
242	0xbdcb5d9a	-0.099299625
243	0x3daf1d79	0.08550543
244	0x3d6232d0	0.05522424
245	0x3d880f00	0.06643486
246	0x3cabda4f	0.020978121
247	0x3dea2742	0.11433269
248	0x3e4b0713	0.19826917
249	0x3c9c3bfe	0.019071575
250	0x3bace7aa	0.00527664
251	0x3d20d648	0.039266855
252	0x3b2ce932	0.0026384112
253	0xbd6f79a7	-0.058465626
254	0x391c646e	0.00014914732
255	0xbd428ba7	-0.047496464

layer2.bias_mu f4 [3]
0	0x403776ca	2.8666253
1	0x4024e468	2.5764408
2	0x4023946b	2.5559337

layer2.bias_sigma f4 [3]
0	0xbceacb52	-0.028661404
1	0xbadde0ca	-0.0016927954
2	0x3d63beb5	0.055601794
