Code Submission/DDQN_models/noisy-model1-snapshot-score-2.pth (torch, 33771 bytes, 8 tensors)

layer1.weight_mu f4 [256, 11]
0.22977756 0.037736803 0.23773357 0.2497981 0.08968085 0.19231214 -0.24751604 0.21538912
0.0053529814 0.22051884 -0.16347058 -0.27401876 0.2640629 -0.30530328 0.2548123 -0.21306248
0.10720946 0.1123061 0.08194784 0.2425121 3.662553e-05 -0.104170404 -0.16727977 0.03225848
-0.29271325 -0.09828151 -0.118919134 0.031321935 -0.12534213 -0.07229434 0.13002321 -0.17779404
-0.23488605 0.1877381 -0.022889648 -0.11789061 -0.14062701 -0.22162099 -0.20051682 -0.110834904
0.25761116 0.23369735 -0.073838666 0.17943443 0.17375161 0.21478005 0.1021165 -0.18334703
0.085381255 -0.09531007 0.07943231 0.25404513 -0.025069209 0.05091025 0.35019737 0.17976303
0.09492979 0.19316873 0.25206846 -0.09793098 0.11675377 0.28740227 -0.22144651 -0.028872047
-0.084050104 0.2722117 0.27628666 -0.08431633 0.22147782 0.10178385 0.038986467 0.26053458
0.20263068 0.2261865 -0.15565848 0.09717967 -0.20961267 -0.23584266 0.11707806 0.28686795
-0.10197523 -0.063753866 -0.32418343 0.2596533 0.092801586 0.2526098 -0.09940777 -0.23400097
0.052852266 0.013460817 0.10279785 0.176333 -0.11042313 0.094813935 0.23044775 0.1244866
0.11275218 -0.11704988 0.090770125 0.15999639 -0.062073305 -0.18243116 -0.28528586 -0.19146237
-0.18780524 -0.262451 -0.084207684 0.013637543 0.15661728 0.10367864 -0.06925936 0.09583985
0.3863143 0.11354427 -0.32826394 -0.26621705 -0.18943326 -0.01976945 -0.05259907 -0.21068789
-0.24558827 -0.18833369 -0.26732463 -0.18677957 0.048293095 0.19331193 0.076598346 -0.0039067836
0.07160318 -0.07241188 -0.060761545 0.017944697 0.14349772 0.37283227 -0.23724973 0.15122476
0.2561411 -0.23873824 -0.1176015 -0.19939184 -0.25111404 -0.038445897 -0.3183852 0.1523847
-0.22986549 -0.21243726 0.08911773 -0.25273556 0.27334195 -0.024678944 -0.25450954 -0.13707794
0.23895364 -0.2811615 0.111029394 0.22097793 0.30748704 -0.13249043 -0.055157296 0.012544565
0.04540149 0.07766051 -0.2004728 -0.11729784 -0.2604396 -0.083607815 -0.05913904 0.11452127
-0.09604418 0.21710344 0.23297532 0.10196396 0.21263544 -0.01795229 0.18557206 0.152888
0.23499669 -0.112066574 -0.044761967 0.16395657 0.18065096 0.23945795 -0.13865073 0.23166202
-0.01584543 -0.08462963 0.010812106 0.16376273 -0.09808359 -0.15254304 -0.26174873 0.25070485
-0.03050648 0.28982294 -0.24678084 -0.25219277 0.11732881 0.06957687 -0.16616021 -0.16887607
0.2589449 0.1338957 0.12499457 0.05613003 0.010978743 0.05332701 0.12082835 -0.21145412
-0.26960224 -0.012099126 0.19127111 -0.26694378 0.19706832 -0.036653448 0.27240348 0.059456047
-0.2106805 -0.25147286 -0.1428221 0.15574406 -0.03472206 0.0045272037 -0.1738258 -0.03518268
0.13193344 0.051971518 0.15018602 0.24635679 0.20900917 -0.21785992 -0.07646331 -0.18588729
0.09790579 0.110623166 -0.10988457 -0.18022239 0.03882401 0.23707551 0.1776016 -0.0068126703
-0.10445151 0.08331736 0.13538806 -0.07840856 0.06034797 0.053731825 0.25622508 0.0020137439
-0.022848459 -0.2040794 0.15934204 0.1791447 0.101538464 -0.022383586 -0.106594555 0.19923028
00000000: cf4a 6b3e e891 1a3d 6e70 733e 13cb 7f3e
00000010: 98aa b73d 79ed 443e d874 7dbe f78e 5c3e
00000020: 1068 af3b b1cf 613e d564 27be 304c 8cbe
00000030: 4133 873e b650 9cbe c276 823e 0d2d 5abe
00000040: a290 db3d be00 e63d 45d4 a73d 1855 783e
00000050: 5d9e 1938 4b57 d5bd 634b 2bbe 7821 043d
00000060: 83de 95be d147 c9bd e08b f3bd 6e4b 003d
00000070: b059 00be 0e0f 94bd ce24 053e a40f 36be
00000080: f885 70be 6b3e 403e 1283 bbbc a270 f1bd
00000090: 8700 10be 9df0 62be 4854 4dbe 69fd e2bd
000000a0: 9ce5 833e 5c4e 6f3e ba38 97bd a9bd 373e
000000b0: f1eb 313e 4def 5b3e 7522 d13d 53bf 3bbe
000000c0: 5edc ae3d ed31 c3bd 68ad a23d 3412 823e
000000d0: f15d cdbc 4487 503d 124d b33e cd13 383e
000000e0: 8d6a c23d 06ce 453e 1e0f 813e 0a90 c8bd
000000f0: 9a1c ef3d 6426 933e e0c2 62be 1285 ecbc
00000100: 7622 acbd 555f 8b3e 7275 8d3e 0aae acbd
00000110: 15cb 623e 0d74 d03d 46b0 1f3d ca64 853e
00000120: 6b7e 4f3e 6f9d 673e f064 1fbe 2306 c73d
00000130: b4a4 56be bd80 71be 9fc6 ef3d 5be0 923e
00000140: 64d8 d0bd 6391 82bd 5ffb a5be 47f1 843e
00000150: c20e be3d 1256 813e 4d96 cbbd f39d 6fbe
00000160: 9e7b 583d c28a 5c3c ae87 d23d a390 343e
00000170: 8625 e2bd cf2d c23d 7ffa 6b3e d5f2 fe3d
00000180: 9dea e63d d9b7 efbd b0e5 b93d 18d6 233e
00000190: 9440 7ebd 3ccf 3abe fd10 92be b60e 44be
000001a0: 0450 40be fa5f 86be 1475 acbd 0070 5f3c
000001b0: 4860 203e 7855 d43d dad7 8dbd af47 c43d
000001c0: fdca c53e e689 e83d 3612 a8be 9a4d 88be
000001d0: cbfa 41be 8bf3 a1bc 1f72 57bd 91be 57be
000001e0: 7e7b 7bbe 8cda 40be c6de 88be 2543 3fbe
000001f0: fbce 453d 90f3 453e 98df 9c3d 7a04 80bb
00000200: b0a4 923d ae4c 94bd 19e1 78bd c200 933c
00000210: 11f1 123e dfe3 be3e 98f1 72be aada 1a3e
00000220: ed24 833e cc77 74be 0ed9 f0bd 602d 4cbe
00000230: 0592 80be 7279 1dbd 6303 a3be bc0a 1c3e
00000240: dc61 6bbe 2789 59be 5b83 b63d 8e66 81be
00000250: 7af3 8b3e 7f2b cabc 134f 82be 295e 0cbe
00000260: 43b0 743e 66f4 8fbe 6163 e33d 0a48 623e
00000270: f16e 9d3e 92ab 07be 9eec 61bd b887 4d3c
00000280: eaf6 393d 790c 9f3d be48 4dbe da39 f0bd
00000290: 5758 85be 933a abbd c73b 72bd 218a ea3d
000002a0: d0b2 c4bd 5d50 5e3e 1591 6e3e 7bd2 d03d
000002b0: 1bbd 593e ae10 93bc 9a06 3e3e ac8e 1c3e
000002c0: f9a2 703e 2983 e5bd 5358 37bd 3be4 273e
000002d0: 91fc 383e 7734 753e 75fa 0dbe cf38 6d3e
000002e0: 46ce 81bc 4d52 adbd 4225 313c 6bb1 273e
000002f0: 0de0 c8bd 3e34 1cbe ee03 86be 635c 803e
00000300: bae8 f9bc ac63 943e 1eb4 7cbe 691f 81be
00000310: 164a f03d 517e 8e3d e725 2abe d9ed 2cbe
00000320: 6d94 843e f41b 093e 27fd ff3d 9ae8 653d
00000330: 30e0 333c 6c6d 5a3d db74 f73d 6e87 58be
00000340: 4e09 8abe 6a3b 46bc 93dc 433e dbac 88be
00000350: 47cc 493e ed21 16bd 7878 8b3e 2f88 733d
00000360: a1bc 57be 0dc1 80be f53f 12be 5f7b 1f3e
00000370: b838 0ebd f058 943b 64ff 31be b71b 10bd
00000380: 8f19 073e 16e0 543d 5dca 193e f444 7c3e
00000390: 8006 563e ac16 5fbe cc98 9cbd 3d59 3ebe
000003a0: d582 c83d 668e e23d 290b e1bd 388c 38be
000003b0: ed05 1f3d ecc3 723e 32dd 353e d23c dfbb
000003c0: acea d5bd 4ba2 aa3d 2ba3 0a3e ab94 a0bd
000003d0: 6f2f 773d e715 5c3d ef2f 833e 04f9 033b
000003e0: b12c bbbc 31fa 50be 8f2a 233e b571 373e
000003f0: 66f3 cf3d c85d b7bc 3f4e dabd 0603 4c3e

layer1.weight_sigma f4 [256, 11]
0.02094522 0.047490235 -0.058162715 -0.02223778 0.025475975 -0.025410693 0.018718757 0.012790656
0.04668375 0.04243832 -0.00634172 0.005125693 0.036057934 0.042655203 -0.004597541 -0.0043187803
-0.0038612403 -0.06847013 0.02915565 -0.062896155 0.07391561 -0.01785662 0.006523713 0.015828637
0.005125693 0.024739608 0.005125693 -0.017624285 0.005125693 0.02796916 -0.015820477 0.005125693
0.023920383 0.032703646 0.022312747 0.02288417 0.007950359 -0.007824044 -0.034045797 0.0034578207
0.024074694 0.005688342 0.021584572 -0.0020665824 -0.030601004 0.013881177 0.004789674 -0.039500065
-0.0057034567 0.017217148 0.047986504 -0.025947863 0.02848512 -0.021750832 -0.039896343 0.031033814
-0.010478958 0.00065974094 -0.09240166 -0.0083517255 0.05139657 -0.0008798778 0.018294064 -0.058199707
-0.05324763 -0.00483564 0.0034428635 0.028125314 0.033060692 0.06163077 0.00859952 0.054385062
0.05240952 0.021998653 0.014582288 -0.0139207095 0.05331169 -0.008334563 0.032135904 -0.00053760497
0.01009225 -0.00068482145 0.0025657061 0.015072058 0.005910686 -0.020628281 -0.028650694 0.050314385
0.0143703725 -0.04544081 0.008022878 -0.089940615 -0.011274304 -0.004297465 -0.004854409 0.021731291
0.027166115 0.013373877 -0.029631004 0.005125693 0.005125693 0.005125693 0.005125693 0.005125693
0.005125693 0.005125693 0.005125693 0.005125693 0.005125693 0.005125693 -0.002543186 -0.035868846
-0.107070304 -0.0054808995 0.022171337 0.08917194 0.013948239 0.0059479605 0.021770561 -0.008858961
-0.03909382 -0.008536283 0.005125693 -0.024255509 -0.01762591 -0.010031677 -0.033507142 -0.019107329
0.011022348 -0.020733256 -0.028075801 -0.026203074 0.040866695 -0.08591138 0.005125693 0.014441332
0.1277517 0.005125693 0.040751953 0.005125693 0.054744575 0.016162852 0.017858006 -0.014085019
0.07173543 -0.028722197 0.078152075 0.012059453 0.020452816 0.031240357 0.08220948 -0.010933806
0.027754763 0.032284334 0.035514314 -0.024343869 -0.024094025 -0.003480003 -0.007884289 0.008415934
0.009316011 0.011503039 0.015737522 -0.020524582 -0.011578241 -0.08630287 0.016271213 0.012471
-0.0010247009 -0.05372199 -0.00032025485 -0.027039245 0.046869185 0.039074432 -0.029047372 0.027761338
-0.00532422 0.029207729 0.028308708 0.077637225 0.019783732 0.038135324 -0.0028970235 0.014269387
0.007293992 -0.011354186 -0.0015376516 0.031429227 0.053509947 0.03733221 0.007223298 -0.009226806
-0.04665327 -0.039354507 0.040443275 -0.01884033 0.07461684 -0.042875826 0.024359146 -0.00543959
-0.039299875 -0.06515106 0.08190387 0.00963848 -0.0028196527 0.031680558 0.014368579 0.032434005
0.0003402414 -0.020390566 -0.008817028 -0.02441473 0.032359965 0.07554345 -0.05749342 0.029973181
0.10427238 0.060105775 -0.028217833 -0.0114788115 0.018053217 0.050629485 -0.0062142997 0.073651105
-0.0017068671 0.029326877 -0.022409683 0.03482391 0.025321946 0.029166635 -0.064825915 -0.024278002
0.016378878 0.00026623358 -0.10070756 -0.0013760787 0.056344736 -0.01847931 0.04773639 -0.033370156
-0.00031922842 -0.013723881 0.0034960804 -0.0030126888 0.06349768 -0.03984679 0.015061796 0.018925458
-0.028995262 -0.021990094 0.010743538 0.017936634 0.07340864 -0.04504468 -0.019250955 0.049825296
00000000: 4f95 ab3c 1f85 423d 073c 6ebd 012c b6bc
00000010: feb2 d03c 162a d0bc 1458 993c e68f 513c
00000020: 7637 3f3d ced3 2d3d 34ce cfbb 6ef5 a73b
00000030: 7cb1 133d 39b7 2e3d f8a6 96bb 8e84 8dbb
00000040: dd0c 7dbb 113a 8cbd d4d7 ee3c b3cf 80bd
00000050: 1161 973d 0c48 92bc dfc4 d53b 0fab 813c
00000060: 6ef5 a73b b8aa ca3c 6ef5 a73b ce60 90bc
00000070: 6ef5 a73b 941f e53c f299 81bc 6ef5 a73b
00000080: aef4 c33c 42f4 053d 39c9 b63c 9577 bb3c
00000090: 3942 023c 6b30 00bc 9b73 0bbd 9b9c 623b
000000a0: 4b38 c53c 4565 ba3b 21d2 b03c 806f 07bb
000000b0: f5ae fabc e06d 633c b3f2 9c3b d2ca 21bd
000000c0: 10e4 babb fa0a 8d3c 7f8d 443d 9d90 d4bc
000000d0: a059 e93c cd2e b2bc 596a 23bd a03a fe3c
000000e0: efaf 2bbc 77f2 2c3a 153d bdbd add5 08bc
000000f0: 3685 523d 9aa7 66ba 6fdd 953c d162 6ebd
00000100: 301a 5abd 4a74 9ebb aaa1 613b 0f67 e63c
00000110: a66a 073d 8c70 7c3d 00e5 0c3c dfc2 5e3d
00000120: 5dab 563d 8536 b43c 8dea 6e3c b013 64bc
00000130: 5c5d 5a3d b18d 08bc f0a0 033d 0fee 0cba
00000140: f759 253c 9785 33ba 6825 283b cbf0 763c
00000150: 6eae c13b a4fc a8bc dcb4 eabc 7516 4e3d
00000160: b671 6b3c 2520 3abd 6472 033c c932 b8bd
00000170: dcb7 38bc c0d1 8cbb bc11 9fbb d205 b23c
00000180: 798b de3c 1b1e 5b3c b8bc f2bc 6ef5 a73b
00000190: 6ef5 a73b 6ef5 a73b 6ef5 a73b 6ef5 a73b
000001a0: 6ef5 a73b 6ef5 a73b 6ef5 a73b 6ef5 a73b
000001b0: 6ef5 a73b 6ef5 a73b 95ab 26bb 36eb 12bd
000001c0: ad47 dbbd 1e99 b3bb aaa0 b53c c79f b63d
000001d0: 2887 643c 1ce7 c23b 2d58 b23c 2d25 11bc
000001e0: d720 20bd c4db 0bbc 6ef5 a73b 7db3 c6bc
000001f0: 3664 90bc e75b 24bc c93e 09bd f986 9cbc
00000200: 1497 343c cad8 a9bc 39ff e5bc d4a7 d6bc
00000210: d663 273d 4ef2 afbd 6ef5 a73b 569b 6c3c
00000220: 57d1 023e 6ef5 a73b 85eb 263d 6ef5 a73b
00000230: d93b 603d f567 843c f44a 923c dac4 66bc
00000240: 06ea 923d d04a ebbc 320e a03d 0395 453c
00000250: aa8c a73c c7eb ff3c 725d a83d b523 33bc
00000260: f55d e33c 943c 043d 7577 113d cb6c c7bc
00000270: d560 c5bc c310 64bb 1b2d 01bc fce2 093c
00000280: 2fa2 183c 3e77 3c3c faeb 803c 2b23 a8bc
00000290: aab2 3dbc 8fbf b0bd 354b 853c 2a53 4c3c
000002a0: 424f 86ba 970b 5cbd e1e7 a7b9 6881 ddbc
000002b0: e7f9 3f3d 830c 203d c1f4 edbc bf6b e33c
000002c0: cb76 aebb 0c45 ef3c aae7 e73c 4400 9f3d
000002d0: 7e11 a23c c933 1c3d fddb 3dbb 26ca 693c
000002e0: 7102 ef3b e806 3abc 078b c9ba efbb 003d
000002f0: 3f2d 5b3d a9e9 183d 6ab1 ec3b 082c 17bc
00000300: 8017 3fbd 3132 21bd d9a7 253d 0957 9abc
00000310: b7d0 983d 909e 2fbd d58c c73c 973e b2bb
00000320: e8f8 20bd eb6d 85bd 37bd a73d b7ea 1d3c
00000330: ecc9 38bb 79c3 013d 306a 6b3c 85d9 043d
00000340: 6d62 b239 1e0a a7bc 4c75 10bc 6601 c8bc
00000350: e28b 043d 86b6 9a3d 387e 6bbd 518a f53c
00000360: c28c d53d 7931 763d 1629 e7bc a011 3cbc
00000370: 57e4 933c dd60 4f3d 53a1 cbbb 64d6 963d
00000380: f5b8 dfba eb3e f03c 8394 b7bc 84a3 0e3d
00000390: f86f cf3c deee ee3c 73c3 84bd a9e2 c6bc
000003a0: ff2c 863c 4495 8b39 c43f cebd 8a5d b4ba
000003b0: bdc9 663d ec61 97bc 3c87 433d 25af 08bd
000003c0: 1d5e a7b9 21da 60bc 7f1e 653b 8870 45bb
000003d0: 120b 823d 6336 23bd c0c5 763c 9009 9b3c
000003e0: 7987 edbc 9224 b4bc aa05 303c d9ef 923c
000003f0: 4557 963d c580 38bd 2eb4 9dbc 9c15 4c3d

layer1.bias_mu f4 [256]
-0.22511503 -0.21106982 -0.096666664 0.16180104 0.16729845 0.21069384 -0.2719873 -0.20312746
0.078212194 -0.2554516 0.16343707 -0.20311101 -0.15292333 0.09743258 0.21560818 -0.029042624
-0.07761302 -0.13967907 -0.06894019 -0.03970882 -0.018900739 0.05328971 -0.09690347 -0.07328957
-0.16300973 0.18271597 0.07252976 0.05520401 -0.1509267 0.23163058 0.20050254 -0.18566418
0.18511724 0.23510641 -0.2804391 0.08664746 0.086492285 0.26135123 0.2908699 0.20659678
-0.043230344 0.17961663 0.18928938 0.06415154 -0.0012592428 -0.12155606 -0.18344477 0.117845125
0.028536567 0.15381087 -0.22065255 -0.020036822 0.22327897 -0.05605627 0.088898994 -0.25604263
-0.15630855 -0.0582653 -0.23006341 0.25841025 -0.21458465 0.042785197 0.0053933957 0.28247726
-0.17740285 -0.16811366 0.09257806 0.10508158 -0.29505983 0.26350754 -0.34336108 -0.30567005
-0.1786963 -0.06923046 -0.06874828 -0.17700127 -0.0725655 -0.017769447 0.15577714 0.019212864
0.14786735 0.26062295 0.08135361 -0.12574998 0.00070545904 0.0797254 -0.19210306 -0.20440878
0.22389702 0.09483168 0.06774139 0.2206666 0.0025996086 -0.1617697 0.061453927 -0.17204696
0.015524015 0.20493147 0.037439317 -0.0066120597 0.19853963 -0.26405695 0.17134765 0.0587484
0.057368416 0.0057706903 0.2206251 0.16842858 -0.08443268 0.0534782 0.09368304 0.16994973
-0.16785905 -0.09225478 -0.1514745 0.21428074 0.04694406 0.12559226 -0.10841192 -0.25487947
-0.13322134 -0.023677193 0.0753562 -0.2502585 -0.08279627 -0.11292869 0.24782966 -0.27836552
0.008208929 0.07191576 -0.037379067 -0.23125605 0.05876141 -0.122007966 0.009527471 0.2197303
-0.039913345 -0.10750286 -0.12643594 0.0056215073 -0.11936662 0.2867754 -0.24228305 0.14747623
0.14255878 0.23692024 0.25399777 -0.040928565 -0.2515216 -0.19062121 -0.07690134 -0.26873806
-0.32951477 -0.09907976 -0.18646456 0.2804121 0.21357694 -0.05817426 -0.012185839 0.15492672
-0.1537168 -0.31642565 0.08128861 -0.24492273 0.07625432 0.28161833 0.19244117 -0.12224192
-0.19464158 0.20846833 -0.32511902 0.036033742 -0.3476944 -0.05882253 -0.11142452 -0.12277252
0.024393465 -0.052321706 0.17089242 -0.17514987 0.21865793 -0.1420999 -0.09096738 0.23274775
-0.06370398 0.037215054 -0.08573392 -0.24802741 0.13530356 -0.12657177 0.18783662 0.25224972
0.16173194 -0.27937728 -0.07792215 0.20322807 0.085543774 -0.06955321 -0.1192463 0.18687098
0.09038333 0.2494138 0.13580231 0.0140090035 -0.13507493 -0.22683202 -0.23964156 -0.07378722
-0.025412232 -0.24876554 -0.10584923 0.23742951 0.2781248 0.047069907 -0.12325119 -0.26923347
-0.08170831 0.009490361 0.23076218 -0.058908448 0.07633222 0.17280564 0.24509206 0.22072391
0.25285864 0.06105354 0.20444821 -0.18479571 -0.058338396 -0.11005719 -0.038767073 0.1332533
0.25340945 -0.27913776 -0.22642574 0.2353764 -0.038466834 -0.31321874 0.2618088 -0.17502047
0.23754612 -0.18581322 -0.16326591 0.26769686 -0.1109711 -0.1581658 0.12319359 -0.00884513
-0.15987621 0.019352872 0.078867316 -0.064821064 -0.0727343 -0.33039376 -0.2332145 -0.009092893
00000000: 8e84 66be b022 58be 2cf9 c5bd 2caf 253e
00000010: 4950 2b3e 20c0 573e eb41 8bbe a500 50be
00000020: b72d a03d 8dca 82be 0c5c 273e 55fc 4fbe
00000030: ef97 1cbe bc8a c73d 64c8 5c3e ccea edbc
00000040: 93f3 9ebd 0808 0fbe 8430 8dbd b7a5 22bd
00000050: b9d5 9abc 5046 5a3d 5475 c6bd d818 96bd
00000060: 06ec 26be e519 3b3e 7c8a 943d 9a1d 623d
00000070: 878c 1abe 9130 6d3e 8a50 4d3e c01e 3ebe
00000080: 608f 3d3e bcbf 703e b795 8fbe 3974 b13d
00000090: de22 b13d d4cf 853e e6ec 943e 1b8e 533e
000000a0: 4d12 31bd 6ced 373e 13d5 413e e261 833d
000000b0: 2d0d a5ba 62f2 f8bd f2d8 3bbe c958 f13d
000000c0: 85c5 e93c 9980 1d3e bef2 61be 4324 a4bc
000000d0: 3ea3 643e 429b 65bd ad10 b63d 0518 83be
000000e0: 590f 20be 98a7 6ebd be95 6bbe 594e 843e
000000f0: 14bc 5bbe 883f 2f3d 15bb b03b dca0 903e
00000100: 18a9 35be fd25 2cbe 9199 bd3d 0335 d73d
00000110: 1512 97be 76ea 863e 06cd afbe c980 9cbe
00000120: 2afc 36be b3c8 8dbd e6cb 8cbd d23f 35be
00000130: 399d 94bd 3b91 91bc 0b84 1f3e 4c64 9d3c
00000140: 8a6a 173e 5f70 853e b99c a63d 9ac4 00be
00000150: 8eee 383a 1247 a33d aab6 44be 8950 51be
00000160: 4345 653e 1d37 c23d ffbb 8a3d 6df6 613e
00000170: 325e 2a3b f5a6 25be 1db7 7b3d 142d 30be
00000180: 7058 7e3c 8ed9 513e f859 193d faa9 d8bb
00000190: f94d 4b3e 7932 87be c275 2f3e 2aa2 703d
000001a0: 25fb 6a3d 0f18 bd3b 8ceb 613e 8b78 2c3e
000001b0: 0aeb acbd f50b 5b3d e5dc bf3d 4d07 2e3e
000001c0: 3ee3 2bbe 13f0 bcbd 221c 1bbe 696c 5b3e
000001d0: 6a48 403d 429b 003e 1207 debd 907f 82be
000001e0: 2d6b 08be acf6 c1bc 5a54 9a3d e221 80be
000001f0: 1791 a9bd 2847 e7bd 0fc7 7d3e ed85 8ebe
00000200: be7e 063c 9248 933d cb1a 19bd 63ce 6cbe
00000210: ceaf 703d 50df f9bd 1c19 1c3c fb00 613e
00000220: 2d7c 23bd 762a dcbd 6c78 01be 9f34 b83b
00000230: 7d76 f4bd 3ad4 923e 0c19 78be 0204 173e
00000240: eefa 113e 389b 723e ff0b 823e b6a4 27bd
00000250: 70c7 80be 3532 43be 737e 9dbd 0998 89be
00000260: 29b6 a8be 54ea cabd 91f0 3ebe 2d92 8f3e
00000270: eab3 5a3e 2248 6ebd 1da7 47bc 1ca5 1e3e
00000280: f067 1dbe 8b02 a2be a57a a63d 06cd 7abe
00000290: 3a2b 9c3d 4730 903e 4c0f 453e f959 fabd
000002a0: 1f50 47be b978 553e 0076 a6be 1e98 133d
000002b0: 0005 b2be e5ef 70bd 8a32 e4bd 2970 fbbd
000002c0: ced4 c73c 494f 56bd 6cfe 2e3e 7d5a 33be
000002d0: dde7 5f3e a382 11be 1b4d babd 6d55 6e3e
000002e0: 3b77 82bd d06e 183d 4495 afbd e6fa 7dbe
000002f0: 048d 0a3e 089c 01be 3e58 403e e026 813e
00000300: 0f9d 253e 8a0a 8fbe a695 9fbd 051b 503e
00000310: 9331 af3d ea71 8ebd 6737 f4bd 1b5b 3f3e
00000320: e51a b93d 5566 7f3e c30f 0b3e 0586 653c
00000330: 1551 0abe a746 68be 9964 75be c11d 97bd
00000340: 502d d0bc 65bc 7ebe 7bc7 d8bd b920 733e
00000350: 6066 8e3e 60cc 403d 1f6b fcbd f8d8 89be
00000360: b056 a7bd 767d 1b3c ec4c 6c3e fc49 71bd
00000370: 1154 9c3d f6f3 303e 6af9 7a3e 7305 623e
00000380: b076 813e 4713 7a3d df5a 513e 163b 3dbe
00000390: 3ef4 6ebd aa65 e1bd 39ca 1ebd 8e73 083e
000003a0: e2be 813e 25eb 8ebe 26dc 67be 8306 713e
000003b0: 668f 1dbd 355e a0be ce0b 863e 9138 33be
000003c0: 4a3f 733e d245 3ebe 2e2f 27be 900f 893e
000003d0: d144 e3bd 37f6 21be ec4c fc3d 2aeb 10bc
000003e0: 97b6 23be ea89 9e3c 3085 a13d e8c0 84bd
000003f0: b8f5 94bd 5f29 a9be c8cf 6ebe 5cfa 14bc

layer1.bias_sigma f4 [256]
-0.007840987 -0.0905975 0.009169824 0.011950061 0.015780896 -0.028515318 0.021170223 0.007577281
0.017643845 0.005125693 -0.030775566 0.02263744 -0.020583328 0.034762308 0.076021895 0.001652943
0.007975585 -0.06368814 -0.0021350125 0.009489783 0.025110329 0.040174536 -0.023355125 -0.040351003
0.018350787 -0.032409444 -0.021681953 -0.024146903 -0.011459434 0.0016819405 -0.0066432715 0.0036961013
0.013998074 0.044781137 0.032668542 0.004474231 0.054420393 -0.0701479 -0.053694654 -0.025395535
-0.0061554275 0.05073179 -0.015084954 0.00826616 0.010567126 0.00060332933 0.013666154 0.061839383
-0.054394003 0.017175252 0.038767196 0.036993623 -0.004799244 0.007782901 -0.016277963 -0.018466817
-0.052506983 -0.06227671 0.0056059067 0.09826573 0.005125693 0.03850906 0.050604288 -0.024071794
0.03843563 -0.027261239 0.01299155 -0.017791266 0.005125693 -0.00266638 0.008364894 0.01655981
0.059974864 -0.047400545 -0.033228777 0.07545962 0.0011195926 0.006433203 -0.004072048 -0.042043403
-0.018130556 0.04724205 0.063237056 0.009571904 -0.05779841 -0.004926071 0.0032633238 -0.0054481914
-0.01836373 0.018563751 0.06767637 0.025876785 -0.021913879 0.0052572843 0.0070869448 0.0042258315
-0.019914515 0.023073556 0.029274434 -0.034161698 0.03750153 -0.0015689102 0.00014136566 -0.021418458
0.020555092 0.031017127 -0.023999253 0.044156346 0.026439346 -0.09643228 0.015442215 -0.067574926
0.031198056 -0.07973924 0.007839397 -7.335485e-05 0.010885317 0.001619991 -0.05929467 -0.044920933
-0.016297258 0.06092977 -0.01745259 0.019165237 -0.0008739653 -0.020125905 0.03713878 -0.022851963
0.047978263 -0.050397858 0.004668784 -0.008006196 0.03624577 0.027318247 0.01568836 0.023629494
0.019721117 0.005125693 -0.047294848 -0.079390824 0.03976994 -0.0048304074 0.028148122 -0.0228523
-0.044600666 0.033114154 -0.026917897 0.059608202 0.00756605 -0.0052396217 -0.053449076 0.0026998026
0.014066948 0.046018206 0.005125693 0.018437501 -0.011163521 0.021155769 -0.05379337 0.018180301
0.04313698 0.030177202 -0.012402516 0.035398636 0.08391123 0.010568024 -0.022937661 0.049840733
-0.0012434067 -0.0046634935 -0.028282635 0.037827548 -0.008694065 0.047882065 0.050689902 0.01910041
-0.011098236 -0.0057239914 0.012321361 -0.040986575 -0.011142921 0.047762826 0.07688867 -0.039969962
0.029045615 -0.009636051 0.116442695 0.005125693 0.019939223 -0.0551086 0.025382482 0.035592325
-0.023380402 -0.030079708 -0.019385966 -0.05948858 -0.058708988 0.028002342 0.007998233 0.04562933
-0.03168063 0.008275441 -0.04573264 -0.0074237874 0.035271507 -0.018958323 0.032978006 0.022864677
0.024015717 0.037716534 -0.009619524 0.014401212 0.01149078 -0.05777292 0.0049414355 0.005125693
-0.017377848 -0.019220727 0.018237954 -0.0067629367 0.049170345 0.017162658 0.037710257 0.00580605
-0.03557179 -0.009732012 0.02071611 0.09761928 0.06473187 -0.041668028 0.019743154 0.04810076
0.034978766 0.055917762 0.03371444 -0.051731315 0.01361217 0.029851591 0.00033048025 0.010966254
-0.033486318 0.005125693 -0.029379567 -0.015817063 0.0299299 0.027088052 0.068349145 0.037859812
0.04933078 0.00029877466 0.009695843 0.034099877 0.021460745 -0.0024156235 0.028678916 0.04038664
00000000: 7c77 00bc 2f8b b9bd 083d 163c 30ca 433c
00000010: f046 813c f598 e9bc 2d6d ad3c d74a f83b
00000020: d389 903c 6ef5 a73b 0a1d fcbc 2772 b93c
00000030: 5e9e a8bc ec62 0e3d 5eb1 9b3d 90a7 d83a
00000040: 07ac 023c ed6e 82bd 91eb 0bbb 097b 1b3c
00000050: 2db4 cd3c 0e8e 243d 3f53 bfbc 1847 25bd
00000060: 6454 963c c4bf 04bd 5a9e b1bc bacf c5bc
00000070: 5ac0 3bbc 8f74 dc3a cdaf d9bb 4a3a 723b
00000080: 2e58 653c 6d6c 373d 73cf 053d 929c 923b
00000090: ebe7 5e3d b4a9 8fbd edee 5bbd 4c0a d0bc
000000a0: 78b3 c9bb 23cc 4f3d e226 77bc ca6e 073c
000000b0: bd21 2d3c bf28 1e3a 01e8 5f3c 4b4b 7d3d
000000c0: 3fcc 5ebd 1db3 8c3c 5aca 1e3d a086 173d
000000d0: fa42 9dbb b507 ff3b 5d59 85bc b947 97bc
000000e0: 9011 57bd dd15 7fbd c1b1 b73b 8b3f c93d
000000f0: 6ef5 a73b adbb 1d3d 7146 4f3d 3632 c5bc
00000100: ae6e 1d3d f652 dfbc 83da 543c fdbe 91bc
00000110: 6ef5 a73b 6fbe 2ebb e90c 093c 70a8 873c
00000120: 34a8 753d 1327 42bd e61a 08bd 938a 9a3d
00000130: 4bbf 923a 9ecd d23b d06e 85bb b435 2cbd
00000140: 8886 94bc e180 413d 6e82 813d 7ad3 1c3c
00000150: 07be 6cbd e16a a1bb 7ddd 553b be86 b2bb
00000160: 886f 96bc 0213 983c e999 8a3d 8dfb d33c
00000170: bc84 b3bc 4c45 ac3b 9a39 e83b d878 8a3b
00000180: c423 a3bc c104 bd3c f0d0 ef3c 23ed 0bbd
00000190: 349b 193d e4a3 cdba 8e3b 1439 c375 afbc
000001a0: 2763 a83c a117 fe3c 159a c4bc 49dd 343d
000001b0: 5497 d83c 4a7e c5bd 5801 7d3c b964 8abd
000001c0: 1193 ff3c 544e a3bd d070 003c 16d6 99b8
000001d0: 5458 323c e155 d43a f8de 72bd 03ff 37bd
000001e0: d481 85bc 7f91 793d bcf8 8ebc 6a00 9d3c
000001f0: d21a 65ba 15df a4bc d51e 183d 0a34 bbbc
00000200: db84 443d fc6d 4ebd 99fc 983b 6b2c 03bc
00000210: 7276 143d 84ca df3c e084 803c a492 c13c
00000220: 2e8e a13c 6ef5 a73b 3eb8 41bd a897 a2bd
00000230: cee5 223d 6548 9ebb e496 e63c bf34 bbbc
00000240: 30af 36bd b5a2 073d ec82 dcbc bb27 743d
00000250: a1ec f73b 22b1 abbb 6bed 5abd 2cef 303b
00000260: 0e79 663c 967d 3c3d 6ef5 a73b 3e0a 973c
00000270: 33e7 36bc dd4e ad3c 7056 5cbd dbee 943c
00000280: 67b0 303d 2e36 f73c ec33 4bbc 29fe 103d
00000290: a7d9 ab3d 8125 2d3c c3e7 bbbc cc25 4c3d
000002a0: cef9 a2ba 38d0 98bb fcb0 e7bc 0ff1 1a3d
000002b0: 8d71 0ebc fc1f 443d 37a0 4f3d 7778 9c3c
000002c0: 60d5 35bc 5290 bbbb 89df 493c 8ae1 27bd
000002d0: cc90 36bc f4a2 433d cf77 9d3d 8bb7 23bd
000002e0: 12f1 ed3c 87e0 1dbc 8279 ee3d 6ef5 a73b
000002f0: 9557 a33c 8eb9 61bd ecee cf3c 42c9 113d
00000300: 4288 bfbc b869 f6bc 51cf 9ebc 4caa 73bd
00000310: d678 70bd 2b65 e53c 050b 033c d2e5 3a3d
00000320: 8cc3 01bd b795 073c 2652 3bbd 3e43 f3bb
00000330: db78 103d 7c4e 9bbc f213 073d b44e bb3c
00000340: 9cbc c43c a77c 1a3d 359b 1dbc 10f3 6b3c
00000350: d343 3c3c 4ca3 6cbd c4eb a13b 6ef5 a73b
00000360: fd5b 8ebc c974 9dbc c367 953c a09b ddbb
00000370: d866 493d b498 8c3c 1276 1a3d ad40 be3b
00000380: bab3 11bd 0473 1fbc d5b4 a93c 9eec c73d
00000390: 2592 843d 18ac 2abd 65bc a13c 4d05 453d
000003a0: e545 0f3d 060a 653d 2718 0a3d 37e4 53bd
000003b0: 9405 5f3c 538b f43c 4f44 ad39 ceab 333c
000003c0: f328 09bd 6ef5 a73b 6bad f0bc c992 81bc
000003d0: 8d2f f53c c3e7 dd3c a3fa 8b3d e412 1b3d
000003e0: 120f 4a3d dba4 9c39 50db 1e3c 50ac 0b3d
000003f0: 72ce af3c 704f 1ebb 0cf0 ea3c 766c 253d

layer2.weight_mu f4 [3, 256]
-0.023554036 0.10364651 0.011829168 -0.061321426 -0.056099925 0.051571596 -0.026252294 0.054373782
0.015438807 0.010938577 0.02478194 -0.021951584 0.11477368 0.12841487 0.062401943 0.0013296262
-0.07432998 -0.0014080248 0.048807662 0.07425701 -0.015048357 0.019751975 0.0021294707 0.025364347
0.038976997 -0.006339207 0.065384395 -0.0041810647 0.06782085 0.028286105 0.026483037 0.0005359812
-0.007294462 0.057611246 -0.005653632 -0.024479717 0.08138308 0.03846212 -0.06068387 -0.020761492
-0.033240546 0.10143088 -0.029036168 0.026858594 -0.02961325 0.074476555 -0.03838009 0.010322184
0.049807817 -0.029027205 0.062095616 -0.027951896 -0.05040943 -0.056728177 -0.0024282068 0.050550476
0.023105929 -0.00030510922 0.0329173 0.01723031 -0.056470357 0.021510452 -0.028885335 0.07901058
-0.066741236 0.09067364 -0.09960986 -0.0061037038 0.00476785 0.009841443 0.01568505 0.0055564716
0.054670546 0.014189771 -0.018605653 0.13983457 -0.0056603653 -0.025544459 0.050253518 -0.06083996
-0.014931439 0.0012608567 0.050358366 -0.0764122 0.07716074 -0.005107021 0.010377221 -0.048726913
-0.009346452 -0.009638724 0.02736227 0.0434319 0.054520342 -0.012798125 -0.032210853 -0.024468321
0.08483645 0.11370393 0.012413817 -0.0044877543 -0.027641425 0.06017725 -0.06571236 0.00965197
-0.050602347 0.010124189 0.045798615 0.14424558 -0.107123 0.073979445 0.0238784 0.0035018427
-0.08997713 -0.05257256 -0.011628875 -0.051652286 0.016589763 0.013825995 -0.020777995 -0.03433877
0.014953484 -0.011839401 -0.080086455 -0.04267925 -0.07896376 -0.05541557 0.059151083 0.02691463
-0.033237997 -0.0012375305 0.0053222976 0.022659453 0.016301462 0.009065454 0.0011311929 -0.049853455
-0.04347718 -0.023749352 -0.017359124 -0.0032627408 0.009973714 0.07209653 0.030597946 -0.03971202
0.03560787 0.106911615 0.021892782 0.1024476 -0.019581081 -0.011883362 -0.08643413 0.09822733
0.011338063 0.14414114 -0.00055122375 0.051356554 -0.012310574 0.012620337 0.027205782 0.059730615
0.15732285 0.12133814 -0.03777578 0.00659751 0.07122914 0.0483653 -0.008598277 0.12283404
0.06254327 -0.062025487 -0.0012990858 -0.027795348 0.010530324 0.04669225 0.003990236 0.037050012
-0.004594278 -0.0032884586 -0.02469939 0.025560599 0.04510712 -0.014217636 0.0732646 -0.037338424
0.05805184 -0.03174278 0.047756724 0.040852264 -0.018703187 -0.09631078 -0.009629059 0.034886632
0.030319043 0.049424674 0.047541026 0.049209785 -0.035792436 -0.01861329 0.03085498 0.019641772
0.012407593 0.061535653 0.0028244937 -0.063967586 0.004455807 0.05231545 -6.988247e-05 -0.0047372924
0.0008774288 -0.0037040561 0.034255728 -0.05553618 -0.0048899334 -0.017760908 -0.057037443 -0.033889472
-0.06566929 0.010375845 0.06717921 0.059344947 -0.08189708 0.019583467 -0.020171715 -0.018569777
-0.05280917 -0.046166733 0.03605917 0.06616965 0.014830749 -0.012661397 -0.00447082 -0.01943534
0.039320838 -0.02242802 0.05805108 0.029997375 0.0033461018 -0.0076339045 0.004793361 0.018416233
0.084570825 0.04895901 0.050945997 -0.08760877 -0.06854122 0.04006573 -0.050000858 0.040408593
-0.04437707 0.067688555 0.018376162 0.008161796 0.07619431 0.008438275 -0.027017623 0.032324087
00000000: 65f4 c0bc 9f44 d43d 20cf 413c 2d2c 7bbd
00000010: 09c9 65bd bd3c 533d 0d0f d7bc 0bb7 5e3d
00000020: 0df3 7c3c b837 333c 7f03 cb3c cfd3 b3bc
00000030: 770e eb3d 307f 033e 2e99 7f3d da46 ae3a
00000040: 513a 98bd 798d b8ba 8bea 473d 0f14 983d
00000050: 628d 76bc e5ce a13c 978e 0b3b e4c8 cf3c
00000060: 58a6 1f3d 1fb9 cfbb 41e8 853d 5001 89bb
00000070: a8e5 8a3d 43b8 e73c f4f2 d83c 1781 0c3a
00000080: 6206 efbb c5f9 6b3d 1a42 b9bb b089 c8bc
00000090: 2cac a63d 758a 1d3d a68f 78bd 0114 aabc
000000a0: 3d27 08bd feba cf3d 42dd edbc 8e06 dc3c
000000b0: 7d97 f2bc 2a87 983d 7134 1dbd 611e 293c
000000c0: 4803 4c3d 76ca edbc f957 7e3d 60fb e4bc
000000d0: 1e7a 4ebd ce5b 68bd 8d22 1fbb 040e 4f3d
000000e0: a548 bd3c 11f7 9fb9 4ad4 063d 9426 8d3c
000000f0: 764d 67bd b036 b03c f0a0 ecbc 4dd0 a13d
00000100: a1af 88bd 1ab3 b93d 4100 ccbd 9401 c8bb
00000110: a03b 9c3b 013e 213c ef7d 803c 1013 b63b
00000120: 39ee 5f3d 377c 683c e26a 98bc cb30 0f3e
00000130: 967a b9bb 9d42 d1bc a2d6 4d3d 5233 79bd
00000140: ffa2 74bc 5543 a53a 9344 4e3d 007e 9cbd
00000150: 7306 9e3d cc58 a7bb 3805 2a3c df95 47bd
00000160: dc21 19bc bdeb 1dbc d726 e03c a6e5 313d
00000170: b950 5f3d 3aaf 51bc 87ef 03bd ca71 c8bc
00000180: bcbe ad3d 9bdd e83d 5363 4b3c 030e 93bb
00000190: 4570 e2bc 6c7c 763d 3494 86bd 4c23 1e3c
000001a0: 6844 4fbd eddf 253c 5497 3b3d 1db5 133e
000001b0: 4e63 dbbd 8982 973d a29c c33c 2c7f 653b
000001c0: ee45 b8bd 5356 57bd 0987 3ebc 5991 53bd
000001d0: 41e7 873c 6d86 623c 9d36 aabc cfa6 0cbd
000001e0: 75ff 743c 0cfa 41bc 5e04 a4bd 70d0 2ebd
000001f0: c0b7 a1bd 70fb 62bd 6848 723d 127c dc3c
00000200: 9124 08bd a234 a2ba ab66 ae3b 51a0 b93c
00000210: a58a 853c 4587 143c 8944 943a 2333 4cbd
00000220: 2115 32bd 008e c2bc b934 8ebc b5d3 55bb
00000230: ca68 233c 58a7 933d 8ba8 fa3c 12a9 22bd
00000240: 8fd9 113d 7af4 da3d 7e58 b33c 0cd0 d13d
00000250: 8168 a0bc 6fb2 42bc 6104 b1bd 692b c93d
00000260: 48c3 393c bc99 133e 0080 10ba 405b 523d
00000270: 4ab2 49bc 88c5 4e3c a9de de3c 17a8 743d
00000280: 3e19 213e 2180 f83d c7ba 1abd ed2f d83b
00000290: 95e0 913d b11a 463d cadf 0cbc 6a90 fb3d
000002a0: b016 803d 700e 7ebd 1646 aaba 12b3 e3bc
000002b0: 6187 2c3c 5f40 3f3d 87c0 823b c1c1 173d
000002c0: 998b 96bb 2e83 57bb 6056 cabc 7664 d13c
000002d0: 3ec2 383d 16f1 68bc c00b 963d 2df0 18bd
000002e0: c4c7 6d3d b804 02bd 8e9c 433d b454 273d
000002f0: 6d37 99bc 963e c5bd 33c3 1dbc 49e5 0e3d
00000300: a45f f83c 8771 4a3d 61ba 423d 3390 493d
00000310: 179b 12bd e67a 98bc 95c3 fc3c c8e7 a03c
00000320: 3849 4b3c cf0c 7c3d 241b 393b 7001 83bd
00000330: 0502 923b ba48 563d de8d 92b8 4a3b 9bbb
00000340: 4003 663a c0bf 72bb bc4f 0c3d e879 63bd
00000350: bc3b a0bb 537f 91bc 18a0 69bd b0cf 0abd
00000360: 9f7d 86bd 73ff 293c 4195 893d b013 733d
00000370: a8b9 a7bd 826d a03c 273f a5bc a51f 98bc
00000380: 6e4e 58bd 5419 3dbd c8b2 133d f483 873d
00000390: abfc 723c c071 4fbc f57f 92bb dd36 9fbc
000003a0: e30e 213d f8ba b7bc f8c6 6d3d 0ebd f53c
000003b0: 464a 5b3b d525 fabb a011 9d3b a4dd 963c
000003c0: 7833 ad3d 3e89 483d c0ac 503d 3a6c b3bd
000003d0: 575f 8cbd f71b 243d b3cd 4cbd 7b83 253d
000003e0: bbc4 35bd 4ca0 8a3d 9b89 963c 0eb9 053c
000003f0: c30b 9c3d b140 0a3c 1054 ddbc 4366 043d

layer2.weight_sigma f4 [3, 256]
0.04064112 -0.041435335 0.007892432 -0.0024025713 -0.026518177 0.003001613 -0.0029273164 0.010118112
0.012577206 0.0010625 -0.015539313 0.02257138 0.00048901926 0.0037868244 -0.02636464 0.009961521
0.037160505 0.0070828404 0.0003590291 0.008150444 0.03242492 0.024307614 -0.0020100381 0.008170138
-0.02818004 0.015316588 0.016655331 0.02944882 0.02212961 0.023086317 0.0070472695 0.031825192
0.012321183 0.020228362 -0.02372327 -0.026308458 -0.0073500387 -0.02107603 0.032092657 -0.020403782
-0.019597925 -0.07916722 -0.005671182 -0.032032963 -0.036688194 0.008752669 0.0045236503 -0.0346297
0.0023505457 -0.009790654 -0.05452709 0.020626204 0.0077577657 -0.015643707 0.0044759326 0.0010625
0.014151082 -0.00035643275 0.011425385 0.02032178 0.0010625 -0.013539745 -0.011980641 -0.01760429
-0.0009932113 0.029186165 -0.034887627 0.012024239 0.0010625 -0.0065842113 -0.024027396 0.0010625
0.022797475 -0.002270281 0.06119272 0.04449541 0.019649956 -0.005744425 0.007906473 0.0010625
0.0018015273 0.02819851 -0.02770526 -0.002603234 -0.013968393 -0.011973096 0.011373823 -0.0061243935
0.0003633175 0.01724415 0.016447838 -0.018835125 -0.011480687 -0.025283337 -0.001737929 0.011609359
-0.015135084 -0.019833036 -0.021095393 -0.035471812 -0.031312924 0.0010625 0.047362607 -0.0044704173
-0.05118626 -0.017861681 -0.017539648 0.020327266 -0.00014485119 -0.003866975 0.06257746 0.032218758
0.022857374 -0.027354242 -0.035584524 0.039445437 0.018432476 -0.03701711 -0.022264734 0.036964223
-0.023070028 0.012864392 0.012188826 0.01931829 0.019749979 0.050477553 0.012741313 -0.019861437
0.016721675 -0.003362553 -0.018042458 0.008350166 0.05371483 0.025488002 0.014531954 -0.032828115
0.021258472 0.0010625 0.010809175 0.007549014 0.007420944 0.008096112 -0.022921873 -0.019544996
0.0056344513 -0.038775705 0.019270401 -0.049259644 -0.010032343 0.023260118 0.01728489 0.045197286
0.0010625 0.033166077 0.0010625 -0.018673668 0.029764744 0.023378149 0.028865336 0.0034698271
0.0093428325 -0.014185758 0.017284194 0.0014245433 0.050897542 0.024720002 -0.0030958746 -0.029600441
0.007422157 0.01004456 -0.019249583 -0.0024749725 0.03586747 -0.0039630593 0.013262574 0.026520114
0.0231683 -0.013444732 -0.023504255 -0.008006497 0.029995987 0.011791869 -0.015464699 0.0125930365
-0.015488221 -0.0006201131 0.03219838 0.0010625 0.0048174285 0.0021600432 0.0027417573 0.0041944566
0.012785699 0.0014202723 -0.009407117 0.035088316 0.042934008 0.0033476665 -0.026070356 -0.005601812
0.00744385 -0.009040466 0.04505039 -0.0024959897 -0.022117833 -0.006652185 0.016117826 0.023491351
0.015776906 0.012653149 0.023123853 -0.020512436 0.0037081365 -0.013886944 0.0064888983 0.0010625
-0.014086726 0.013977417 -0.005618328 0.0010625 0.011294211 0.008972347 0.033013795 -0.0070344117
0.03787226 0.02216694 -0.0065246024 0.01748894 -0.00708395 0.028475571 -0.0035799297 -0.0040108506
-0.012072175 0.0010625 0.0010625 0.004420558 -0.021033952 -0.02665383 -0.038313005 0.0011273002
-0.0014406045 0.0010625 -0.0013083323 0.033696897 -0.006933862 -0.012603014 -0.028341334 -0.0025360482
-0.021105763 0.00034550374 -0.05405062 -0.0038430293 0.07016075 -0.0035226063 0.010247574 0.027995903
00000000: 4e77 263d 19b8 29bd 424f 013c 7574 1dbb
00000010: a63c d9bc b6b6 443b 38d8 3fbb 70c6 253c
00000020: a010 4e3c 9643 8b3a 9a98 7ebc 9de7 b83c
00000030: 8731 003a 5f2c 783b a8fa d7bc a635 233c
00000040: 9d35 183d 2c17 e83b 123c bc39 7189 053c
00000050: fecf 043d c320 c73c d8ba 03bb 0bdc 053c
00000060: d4d9 e6bc 6df2 7a3c c370 883c a73e f13c
00000070: 2849 b53c 841f bd3c c8ec e63b 225b 023d
00000080: cade 493c f3b5 a53c 4e57 c2bc d684 d7bc
00000090: 98d8 f0bb a3a7 acbc 9773 033d d525 a7bc
000000a0: d48b a0bc 6c22 a2bd 53d5 b9bb ff34 03bd
000000b0: 5c46 16bd 5b67 0f3c 213b 943b dfd7 0dbd
000000c0: 9d0b 1a3b fb68 20bc cc57 5fbd 49f8 a83c
000000d0: db34 fe3b 3b27 80bc d8aa 923b 9643 8b3a
000000e0: f1d9 673c 98df bab9 8a31 3b3c dd79 a63c
000000f0: 9643 8b3a ced5 5dbc 734a 44bc df36 90bc
00000100: a42e 82ba d317 ef3c 54e6 0ebd 5001 453c
00000110: 9643 8b3a 5ec0 d7bb 1ad5 c4bc 9643 8b3a
00000120: c5c1 ba3c ffc8 14bb 38a5 7a3d d240 363d
00000130: f2f8 a03c bb3b bcbb 278a 013c 9643 8b3a
00000140: 3a21 ec3a 9000 e73c 24f6 e2bc 059b 2abb
00000150: b0db 64bc ce2a 44bc 4559 3a3c 23af c8bb
00000160: a67b be39 9b43 8d3c 9ebd 863c 1f4c 9abc
00000170: 7e19 3cbc 001f cfbc 38cb e3ba 2e35 3e3c
00000180: 25f9 77bc e478 a2bc 3fd0 acbc e44a 11bd
00000190: fb41 00bd 9643 8b3a 4bff 413d 947c 92bb
000001a0: afa8 51bd a952 92bc 4faf 8fbc 5e85 a63c
000001b0: 32e3 17b9 136d 7dbb 9d28 803d d1f7 033d
000001c0: 633f bb3c 0116 e0bc 14c1 11bd 8a91 213d
000001d0: b4ff 963c 419f 17bd 8864 b6bc cc67 173d
000001e0: 5bfd bcbc 2cc5 523c a4b3 473c 6441 9e3c
000001f0: b5ca a13c 8dc1 4e3d f1c0 503c 74b4 a2bc
00000200: e5fb 883c 475e 5cbb c7cd 93bc 22cf 083c
00000210: 1504 5c3d 37cc d03c 6f17 6e3c c676 06bd
00000220: 3f26 ae3c 9643 8b3a f718 313c b85d f73b
00000230: 642b f33b 8ea5 043c a7c6 bbbc d41c a0bc
00000240: 34a1 b83b 46d3 1ebd f6dc 9d3c 7bc4 49bd
00000250: b25e 24bc 018c be3c 0b99 8d3c ca20 393d
00000260: 9643 8b3a 27d9 073d 9643 8b3a 85f9 98bc
00000270: 31d5 f33c 8883 bf3c ff76 ec3c 0a66 633b
00000280: ae12 193c 626b 68bc 9597 8d3c beb7 ba3a
00000290: f179 503d 9a81 ca3c 28e4 4abb a07c f2bc
000002a0: 9135 f33b f091 243c 4db1 9dbc 2633 22bb
000002b0: c5e9 123d 8ddc 81bb 444b 593c b640 d93c
000002c0: 72cb bd3c 4b47 5cbc ff8b c0bc af2d 03bc
000002d0: 25ba f53c af32 413c a65f 7dbc 0653 4e3c
000002e0: 4fc2 7dbc 168f 22ba 73e2 033d 9643 8b3a
000002f0: 85db 9d3b 838f 0d3b 0eaf 333b a771 893b
00000300: 1c7b 513c 6e28 ba3a 4f20 1abc c4b8 0f3d
00000310: 92db 2f3d 8664 5b3b 8091 d5bc 688f b7bb
00000320: 8aeb f33b 761e 14bc c286 383d c293 23bb
00000330: 7530 b5bc 93fa d9bb 8809 843c ef70 c03c
00000340: 923e 813c 274f 4f3c 3c6e bd3c b209 a8bc
00000350: 3504 733b 1186 63bc d3a0 d43b 9643 8b3a
00000360: 03cc 66bc 8901 653c f419 b8bb 9643 8b3a
00000370: 5b0b 393c c000 133c 7939 073d ec80 e6bb
00000380: f11f 1b3d 7197 b53c 55cc d5bb f744 8f3c
00000390: 7b20 e8bb 9a45 e93c 419d 6abb 746d 83bb
000003a0: 5fca 45bc 9643 8b3a 9643 8b3a 54da 903b
000003b0: 654f acbc 2259 dabc 19ee 1cbd ebc1 933a
000003c0: aad2 bcba 9643 8b3a 597c abba c205 0a3d
000003d0: 7335 e3bb df7c 4ebc 162c e8bc d433 26bb
000003e0: fee5 acbc ba24 b539 2f64 5dbd 55db 7bbb
000003f0: 70b0 8f3d 87db 66bb 71e5 273c aa57 e53c

layer2.bias_mu f4 [3]
0.050407838 -0.0015471022 0.015988858
00000000: 7378 4e3d 23c8 caba 11fb 823c

layer2.bias_sigma f4 [3]
-0.006501261 0.019593302 0.0449318
00000000: 8808 d5bb 2282 a03c 680a 383d
