Code Submission/DDQN_models/noisy-model2-snapshot-score-6.pth (torch, 33771 bytes, 8 tensors)

layer1.weight_mu f4 [256, 11]
0	0x3e645ecc	0.22301787
1	0x3e38c05a	0.18042126
2	0xba764eae	-0.00093958795
3	0x3d9a90f8	0.07547182
4	0x3bcd1a29	0.006259222
5	0x3c26547c	0.010151979
6	0xbea9709c	-0.33093727
7	0x3d081b1e	0.033228986
8	0xbdb7fe5c	-0.08984062
9	0x3e910568	0.28324437
10	0xbeb82d47	-0.35972044
11	0xbe82b0b8	-0.2552545
12	0x3e74dac0	0.23911572
13	0xbe6e7db8	-0.23290145
14	0x3e7a8127	0.2446333
15	0xbe3c9184	-0.18414885
16	0x3da2f9b1	0.07957781
17	0x3e109bf6	0.14121994
18	0x3d5e7aa0	0.054316163
19	0x3e966463	0.29373464
20	0x3d27ce19	0.040968034
21	0x3bbbef21	0.0057352935
22	0xbe2a746f	-0.16645978
23	0xbc191cf8	-0.009345286
24	0xbe95de83	-0.29271325
25	0xbe2cc0a9	-0.16870369
26	0xbe0610fa	-0.13092414
27	0x3d0c49d6	0.034250103
28	0xbe0ca4bb	-0.13734715
29	0xbd8e0fcf	-0.06936609
30	0x3e285751	0.16439559
31	0xbe450f8e	-0.19244215
32	0xbe348d83	-0.17632107
33	0xbd4557ef	-0.048179563
34	0xbdc953e0	-0.09830451
35	0xbe7b6c88	-0.2455312
36	0xbd68bd52	-0.056821175
37	0xbe528298	-0.2055763
38	0xbe9cc647	-0.30620024
39	0xbdc2214a	-0.09479006
40	0x3e1b935f	0.15192936
41	0x3eef7395	0.4676787
42	0x3d838583	0.0642195
43	0x3ecfc081	0.40576556
44	0xbd80c772	-0.06288041
45	0x3d93dae3	0.07219484
46	0xbd24be3c	-0.040220484
47	0xbe8e806b	-0.2783235
48	0xbd8483cb	-0.0647045
49	0xbe0c30d8	-0.13690507
50	0xbd90b2d1	-0.070653565
51	0x3e598cd2	0.21245125
52	0xbdb0d6c0	-0.0863471
53	0x3d8ec748	0.06971604
54	0x3f07ebe0	0.5309429
55	0x3e05cc73	0.13066272
56	0x3db58986	0.08864121
57	0xbc6cc6ed	-0.0144517245
58	0xba88d42a	-0.0010439206
59	0xbeba1d29	-0.36350372
60	0x3d90d139	0.07071156
61	0x3cb2d4ea	0.021830041
62	0xbe88f46b	-0.26748976
63	0xbd9b3f9e	-0.075804934
64	0xbe205265	-0.15656431
65	0x3edc968e	0.43083614
66	0x3e88c357	0.26711532
67	0x3d9e6df6	0.07735817
68	0x3e4dbdc1	0.20091917
69	0x3e6493cf	0.2232201
70	0x3dd5e514	0.10444084
71	0x3e5ce5dd	0.21572061
72	0x3e894265	0.26808468
73	0x3e39b9d2	0.18137291
74	0x3c8966f3	0.016772723
75	0x3dff23de	0.12458013
76	0xbea61e15	-0.32444826
77	0xbe9f315c	-0.31092346
78	0x3e09183a	0.13388148
79	0x3ead33f8	0.33828712
80	0xbb2030fd	-0.0024443262
81	0xbded0369	-0.11572916
82	0xbeb59a04	-0.35469067
83	0x3e54a9d2	0.20767906
84	0x3d7f29f0	0.062295854
85	0x3ead6958	0.33869433
86	0xbd5f5649	-0.054525647
87	0xbce15704	-0.027507313
88	0x3d036a51	0.032083813
89	0xbcf6ac4b	-0.030111453
90	0xbdf475a0	-0.11936498
91	0x3dd37480	0.10324955
92	0xbdd9e958	-0.1064021
93	0xbd19ab7d	-0.03751706
94	0x3e7018be	0.23446938
95	0xbc008779	-0.007844799
96	0xbc3c6b60	-0.01150021
97	0xbe47e023	-0.19519095
98	0x3e03b849	0.12863268
99	0x3daddd21	0.084894426
100	0xbd7e4094	-0.062073305
101	0xbe3acf3c	-0.18243116
102	0xbe9210fd	-0.28528586
103	0xbe440eb6	-0.19146237
104	0xbe405004	-0.18780524
105	0xbe865ffa	-0.262451
106	0xbdac7514	-0.084207684
107	0x3c5f7000	0.013637543
108	0x3de5f350	0.11228049
109	0x3d93f908	0.07225233
110	0xbe428a89	-0.1899816
111	0xbdf048e4	-0.11732653
112	0x3ee28c36	0.44247597
113	0x3ea3c8d1	0.31989148
114	0xbeb408a2	-0.35162836
115	0xbef3f8c7	-0.4765074
116	0xbe59e7a5	-0.21279772
117	0xbe6b94e0	-0.2300601
118	0xbe2d2ec2	-0.16912368
119	0xbe457173	-0.19281559
120	0xbe3c6380	-0.18397331
121	0xbe6bac82	-0.23015025
122	0xbeb94b60	-0.3619032
123	0xbe15bf8c	-0.1462385
124	0x3e030a14	0.12796813
125	0x3e240c91	0.16020419
126	0x3dd51a6c	0.1040543
127	0xbd179d1e	-0.037015073
128	0x3dcadf87	0.09905916
129	0xbe851ed6	-0.26000088
130	0x3b9bf5b4	0.0047595147
131	0x3d89c09b	0.0672619
132	0xbd85efdf	-0.065398924
133	0x3ee6b47c	0.45059574
134	0xbe9972b3	-0.2997032
135	0x3e6a61cb	0.22888868
136	0xbd4847f3	-0.04889674
137	0xbe972186	-0.29517764
138	0xbed8642b	-0.42263922
139	0xbe82fc54	-0.25583136
140	0xbe7d5015	-0.2473758
141	0xbe9b5fad	-0.30346432
142	0xbed1c15a	-0.40967828
143	0x3e93682f	0.28790423
144	0xbe8863d2	-0.26638657
145	0xbe0014db	-0.12507956
146	0xbd1408da	-0.036141254
147	0xbe9b5e3a	-0.30345327
148	0x3e8e9c29	0.27853516
149	0xbd9a6a2b	-0.07539781
150	0xbe7f4c4c	-0.24931449
151	0xbe7c493b	-0.2463731
152	0x3ed787dc	0.4209584
153	0xbe4a06b5	-0.19729121
154	0x3e3197c1	0.17343046
155	0x3e9ebe94	0.31004775
156	0x3eb9a372	0.3625751
157	0x3dcd48d9	0.1002366
158	0xbdfd3c29	-0.1236499
159	0x3ab5c317	0.0013867345
160	0xbcbd2983	-0.023091083
161	0x3d883205	0.066501655
162	0xbe7075a6	-0.2348238
163	0xbe650836	-0.22366413
164	0xbe9a457e	-0.30131143
165	0xbe9745a0	-0.29545307
166	0xbd99e8f6	-0.07515137
167	0xbdf385d9	-0.11890764
168	0xbe374a0b	-0.17899339
169	0x3dd8407d	0.10559175
170	0x3dc61f0e	0.09673892
171	0xbc1c72e7	-0.009548879
172	0x3d9c771f	0.07639908
173	0x3d4419d9	0.047876213
174	0x3e7e1b1f	0.24815033
175	0x3ea77f2d	0.32714215
176	0x3d95b5a3	0.07310035
177	0xbd6e1eec	-0.05813496
178	0xbdf70d60	-0.12063098
179	0x3d622ff0	0.055221498
180	0x3e04961d	0.12947889
181	0x3da11b8e	0.07866584
182	0xbe42610b	-0.18982331
183	0x3d91244b	0.070870005
184	0x3dc49ac6	0.09599833
185	0x3cd87fc8	0.026428118
186	0xbd444986	-0.04792168
187	0x3e28d605	0.16487892
188	0xbe1f5cc9	-0.15562738
189	0xbe9238b9	-0.285589
190	0xbec9f804	-0.39447033
191	0x3e35d0e6	0.1775547
192	0x3d8317ac	0.064009994
193	0x3e5ddf94	0.2166732
194	0xbe1beb10	-0.15226388
195	0xbeaac7fc	-0.333557
196	0x3e1a697b	0.150793
197	0xbd08cf27	-0.03340068
198	0xbe1782cc	-0.14795989
199	0xbe430c4b	-0.19047658
200	0x3e7ebd08	0.24876797
201	0x3dca0cca	0.098657206
202	0xbc8b1c9d	-0.016981417
203	0xbc8a83be	-0.016908523
204	0xbe062415	-0.13099702
205	0xbca17a06	-0.019711506
206	0x3d2bb849	0.041923795
207	0xbe0b123a	-0.13581172
208	0xbe84ee8c	-0.25963247
209	0xbdb1c425	-0.0867999
210	0x3e58e7e4	0.21182209
211	0xbe925443	-0.28579912
212	0x3eb2e930	0.34943533
213	0xbe22ff8e	-0.15917799
214	0x3e90c12c	0.28272378
215	0xbd812a4c	-0.063068956
216	0xbe4d2b5f	-0.20036076
217	0xbe943e47	-0.28953764
218	0xbe001378	-0.12507427
219	0x3e8acbd7	0.27108642
220	0xbdf368d7	-0.11885231
221	0x3c49ca0b	0.012316237
222	0xbe1a37e0	-0.15060377
223	0xbe65eaa5	-0.22452791
224	0xbb805247	-0.003916058
225	0xbda69e22	-0.0813563
226	0x3c6ae39f	0.014336496
227	0x3de77b98	0.113028705
228	0x3dcc8e6c	0.09988102
229	0xbe714fee	-0.23565647
230	0xbe368cca	-0.17827144
231	0xbea12d74	-0.3147999
232	0x3e2cf801	0.16891481
233	0xbe347ea4	-0.17626435
234	0xbde47598	-0.11155242
235	0xbe6145c7	-0.21999274
236	0xbda13aa6	-0.078725144
237	0x3e4a0a47	0.19730483
238	0x3d75f9b9	0.060052607
239	0x3d2a2280	0.041536808
240	0xbe167b8d	-0.14695568
241	0xbd64d585	-0.05586769
242	0x3d097a41	0.033563856
243	0xbd0b7512	-0.034047194
244	0x3db0b3b9	0.086280294
245	0xbdaf7c27	-0.08568602
246	0x3e599e0c	0.21251696
247	0xbc8e0b69	-0.017339425
248	0xbd884ebd	-0.06655643
249	0xbe64cb8a	-0.22343269
250	0x3e9a0b82	0.30086905
251	0x38496e24	4.802471e-05
252	0x3cae671e	0.021289404
253	0x3bf49bd0	0.0074648634
254	0xbe822a0d	-0.25422707
255	0x3d669bd4	0.056300953

layer1.weight_sigma f4 [256, 11]
0	0x3d092028	0.033477932
1	0xbe0f10c5	-0.13971241
2	0x3d8bc305	0.068243064
3	0x3c73e467	0.014885998
4	0x3c4d769e	0.012540488
5	0x3c555509	0.013020762
6	0xbc9a2a3e	-0.01881897
7	0x3d1035b2	0.035207458
8	0x3dee004d	0.11621151
9	0xbdc43515	-0.09580437
10	0x3d54af3f	0.05192494
11	0xbd14968a	-0.036276378
12	0x3d60fb80	0.05492735
13	0x3d23f161	0.04002512
14	0x3e0dac76	0.1383532
15	0x3c5b91b6	0.013401439
16	0x3c6dc518	0.014512323
17	0xbd8c4038	-0.06848186
18	0xbe0e70ca	-0.13910213
19	0xbd7bfcd7	-0.061520424
20	0xbd9baaca	-0.07600935
21	0xbdb887a6	-0.09010248
22	0xbd5fd1c1	-0.054643396
23	0x3d44f379	0.048083756
24	0x3ba7f56e	0.005125693
25	0xbb4fd248	-0.003171103
26	0xbb821f01	-0.003970981
27	0x3d053a08	0.032526046
28	0xbc6c5770	-0.014425144
29	0x3cfc3277	0.030785782
30	0x3d8b881d	0.06813071
31	0xbc509b3c	-0.012732323
32	0x3e0c5f40	0.1370821
33	0x3ce18f6f	0.027534215
34	0x3deae8ca	0.11470182
35	0xbc995faa	-0.018722374
36	0x3c80a277	0.01570247
37	0x3cc5067a	0.02405094
38	0x3addb99a	0.0016916275
39	0xbc21a4e5	-0.009865974
40	0x3ca103d6	0.01965515
41	0xbdb48872	-0.088150874
42	0x3d911e6f	0.07085883
43	0xbdd5b3ef	-0.1043471
44	0xbdba9477	-0.09110349
45	0xbb2a2190	-0.0025959946
46	0x3b53c6bb	0.0032314498
47	0xbd2ccf63	-0.042189967
48	0xbd54f47c	-0.05199097
49	0xbc6960ce	-0.014244271
50	0x3db4bcf8	0.088251054
51	0xbda9d002	-0.082916275
52	0x3dfeb6b4	0.124371916
53	0x3da53977	0.08067601
54	0xbcf7a5e6	-0.030230474
55	0xbde472ca	-0.11154707
56	0x3c9b629c	0.018967919
57	0xbd844218	-0.06457919
58	0xbc2b91be	-0.010471759
59	0xbcdab56c	-0.026697837
60	0x3be92c43	0.007115872
61	0x3c901ec7	0.0175928
62	0x3d4b4aed	0.049632
63	0x3d829297	0.06375616
64	0x3dae3330	0.08505857
65	0x3d4aa7d7	0.04947647
66	0xbd340826	-0.043953083
67	0xb8a91630	-8.062681e-05
68	0xbdb03ec9	-0.08605725
69	0xbe006a45	-0.12540539
70	0x3cd82235	0.026383499
71	0xbbc7091b	-0.0060740835
72	0x3d988cde	0.07448743
73	0x3c1c4747	0.009538478
74	0xbdc7f5e6	-0.09763698
75	0xbda06140	-0.07831049
76	0x3d176f26	0.036971234
77	0xbc4fddab	-0.012687127
78	0xbd1003ee	-0.035159998
79	0xbd8771f3	-0.06613531
80	0x3e2d2244	0.16907603
81	0x3dc60c6b	0.09670337
82	0x3dc266d3	0.094922684
83	0xbe2636de	-0.16231868
84	0xbd18ef31	-0.037337486
85	0x3c65cb9f	0.014025598
86	0x3d98ce23	0.074611925
87	0x3e76d815	0.24105866
88	0xbd2cc7cd	-0.042182732
89	0xbda44c84	-0.08022407
90	0xbd3e5ed4	-0.046477154
91	0x3d4fc134	0.050721362
92	0xbe2742a9	-0.16334023
93	0x3d7f0927	0.062264588
94	0x3d643104	0.055710807
95	0x3c8572b0	0.016290039
96	0xbd766e2c	-0.06016366
97	0x3e475385	0.19465454
98	0xbdb91bd6	-0.090385124
99	0x3bd1d440	0.006403476
100	0x3ba7f56e	0.005125693
101	0x3ba7f56e	0.005125693
102	0x3ba7f56e	0.005125693
103	0x3ba7f56e	0.005125693
104	0x3ba7f56e	0.005125693
105	0x3ba7f56e	0.005125693
106	0x3ba7f56e	0.005125693
107	0x3ba7f56e	0.005125693
108	0xbc29488e	-0.01033224
109	0x3d15b457	0.03654894
110	0x3c8560bd	0.01628148
111	0xbd335f19	-0.043791864
112	0x3cc1214d	0.02357545
113	0x3c5633ea	0.013073901
114	0xbd8dbc7e	-0.06920718
115	0x3b372eb7	0.0027951428
116	0x3d5d8947	0.054085996
117	0x3c92e65f	0.017932115
118	0x3b8ed7f6	0.0043592406
119	0xbc748351	-0.014923886
120	0x3e4ffb1d	0.20310636
121	0xbcd7e1bf	-0.026352761
122	0xbb821488	-0.0039697327
123	0xbdc2382e	-0.09483372
124	0x3dc97635	0.09836999
125	0xbdcc3b88	-0.09972292
126	0xbe165785	-0.14681824
127	0xbd866d18	-0.06563777
128	0xbc3e3748	-0.01160986
129	0x3c2c7e13	0.010528105
130	0xbd56ffc6	-0.05249002
131	0x3e280b39	0.16410531
132	0x3bd8be97	0.006614517
133	0x3d5ba578	0.0536246
134	0x3ba489a5	0.0050212913
135	0xbd887654	-0.06663194
136	0xbda7a29f	-0.081853144
137	0xbc9a331a	-0.018823195
138	0x3d4978e1	0.049187545
139	0x3d22ebdf	0.039775725
140	0x3d8b316d	0.067965366
141	0x3c8c654d	0.017138148
142	0xbca1db62	-0.01975793
143	0x3d6b6f85	0.0574794
144	0xbcfb2578	-0.030657515
145	0xbc5c25fd	-0.0134367915
146	0x3d81dc81	0.06340886
147	0x3d737a1d	0.05944263
148	0xbcd74b89	-0.026281135
149	0xbd55d460	-0.05220449
150	0xbd95f953	-0.073229454
151	0x3cbefc23	0.023313588
152	0xbdddfbaf	-0.108390205
153	0xbcdd2a49	-0.026997702
154	0xbd6a738c	-0.0572391
155	0x3dd65000	0.104644775
156	0x3c8b7fc9	0.017028706
157	0x3d3d67da	0.04624162
158	0xbc95fc57	-0.018308802
159	0x3d51d784	0.051230922
160	0x3d0213fb	0.031757336
161	0x3d1b4f11	0.0379172
162	0x3d9d17ba	0.07670541
163	0x3cd131ae	0.025536384
164	0x3cba9378	0.022775397
165	0x3d659655	0.05605157
166	0xbdc604b9	-0.096688695
167	0xbca3d4f6	-0.019999009
168	0xbc2e37be	-0.010633407
169	0x3e187773	0.14889316
170	0x3e183ca6	0.14866886
171	0xbc42da34	-0.011892844
172	0x3cf0d857	0.029400034
173	0x3db244c8	0.08704525
174	0xbc33ae16	-0.010966798
175	0xbdb3a8df	-0.08772444
176	0xbe249415	-0.16072114
177	0x3d2d2ad1	0.04227716
178	0xb9f1fae6	-0.00046154036
179	0xbd044241	-0.032289747
180	0xbd7a6403	-0.061130535
181	0xbd87a152	-0.06622566
182	0x3cf21854	0.029552616
183	0x3d3f21d7	0.04666313
184	0xbdb59e32	-0.08868064
185	0xbcc7c414	-0.02438549
186	0x3d7f9d36	0.062405787
187	0x3d463913	0.048394274
188	0x3e05bca1	0.13060237
189	0x3df3bf28	0.119016945
190	0x3bf3d965	0.007441687
191	0x3cba38aa	0.022732098
192	0x3e198e20	0.14995623
193	0x3d36d770	0.04463905
194	0x3d51478a	0.051093616
195	0x3ce9d90d	0.02854588
196	0xbc475ca7	-0.012168086
197	0xbdb56d91	-0.08858789
198	0xbc3398ef	-0.010961755
199	0x3d7e8220	0.062135816
200	0x3e3b52dc	0.18293327
201	0xbda155f8	-0.07877725
202	0x3da49d8b	0.080378614
203	0x3da06567	0.07831841
204	0xbca548aa	-0.02017625
205	0x3bccfdb0	0.006255828
206	0x3dbfbef3	0.093625925
207	0xbe297851	-0.16549803
208	0xbcdd93d5	-0.02704803
209	0x3af74d5b	0.0018867658
210	0xbd01e49a	-0.031712152
211	0x3d92c52e	0.07166515
212	0xbd424f5e	-0.04743897
213	0xbbe9f132	-0.0071393484
214	0x3db62860	0.0889442
215	0x3a5fdb50	0.0008539455
216	0x3cb5034b	0.022096297
217	0xbd4f42d5	-0.050600845
218	0x3d746bdd	0.05967318
219	0xbe95011c	-0.2910241
220	0xbbe643d6	-0.0070271296
221	0x3d7e3c0f	0.062068995
222	0xbe18f9eb	-0.14939086
223	0xbd0d7140	-0.03453183
224	0xbcfee91b	-0.031117013
225	0x3d505d9e	0.05087053
226	0x3bce0e99	0.0062883613
227	0x3ca5593f	0.020184157
228	0x3c195fdc	0.009361234
229	0xbd5efb9d	-0.054439176
230	0xbda5c3e7	-0.08094006
231	0x3d15bc50	0.036556542
232	0x3c8188e2	0.015812341
233	0x3ad76e67	0.0016436101
234	0xbce830b2	-0.028343532
235	0xbdfc42e0	-0.12317443
236	0xbde33969	-0.110949345
237	0x3c6494d6	0.013951501
238	0xbdd316be	-0.10307072
239	0xbdc04799	-0.09388656
240	0x3cf8cb95	0.030370513
241	0xbd4c69b3	-0.04990549
242	0xbcc68480	-0.024233103
243	0xbd741d0d	-0.059598017
244	0x3e0c6f27	0.13714276
245	0x3c9d4259	0.019196676
246	0xbe2416f7	-0.16024385
247	0xbbb6eab5	-0.0055821785
248	0xbd69a2d9	-0.05704007
249	0x3dd46d9e	0.1037247
250	0x3dfe32dc	0.124120444
251	0x3d513190	0.051072657
252	0x3decf1fc	0.11569592
253	0x3e39d98c	0.18149394
254	0xbca89fad	-0.020583952
255	0xbd2e714e	-0.042588525

layer1.bias_mu f4 [256]
0	0xbeaa60b9	-0.3327692
1	0xbe9119b5	-0.28339925
2	0xbe2dfb29	-0.16990341
3	0xbb88bb17	-0.0041726935
4	0xbc256553	-0.010094958
5	0x3d6693f3	0.05629344
6	0xbe67870c	-0.2261011
7	0xbe885fd4	-0.2663561
8	0xbda67e25	-0.08129529
9	0xbea93e4c	-0.3305534
10	0x3e1f5238	0.15558708
11	0xbe08705e	-0.13324115
12	0xbe077b6c	-0.13230675
13	0x3dc2ea84	0.095173866
14	0x3eb0b8a4	0.3451587
15	0xbdc441d7	-0.095828705
16	0xbe6aaff2	-0.2291868
17	0xbe79abff	-0.24382018
18	0xbe1bef07	-0.152279
19	0x3d992b4f	0.074789636
20	0xbe774555	-0.24147542
21	0xbcba34f7	-0.022730334
22	0xbe2669ee	-0.16251346
23	0xbd7d2688	-0.061804324
24	0xbe6f388d	-0.23361416
25	0x3e815915	0.25263277
26	0x3e2938d8	0.1652559
27	0x3d2cc5f9	0.04218099
28	0xbe83fa58	-0.25776935
29	0x3e19d51f	0.15022705
30	0x3e199e64	0.15001827
31	0xbe5d9610	-0.21639276
32	0x3d46f35f	0.04857194
33	0x3e1dda25	0.15415247
34	0xbea174c7	-0.31534407
35	0x3e8644c4	0.2622434
36	0x3e8f956f	0.28043696
37	0x3e10d251	0.1414273
38	0x3c9a8541	0.018862369
39	0x3de33d3c	0.11095664
40	0x3e0a154a	0.13484684
41	0x3e35eae4	0.17765385
42	0x3ea2e966	0.31818694
43	0xbc66cb75	-0.014086594
44	0xbdf2b58b	-0.11851033
45	0xbe389e65	-0.18029173
46	0xbe923066	-0.2855255
47	0x3ea50dee	0.3223719
48	0xbd0b09b2	-0.033944793
49	0x3dd03c74	0.101677805
50	0xbeb4890f	-0.35260817
51	0xbd8b3273	-0.06796732
52	0x3d206e51	0.039167706
53	0xbde685e4	-0.11256006
54	0x3b4298bb	0.0029693085
55	0xbe9a965e	-0.30192846
56	0x3af87691	0.0018956234
57	0xbde77250	-0.113011
58	0xbec67197	-0.38758537
59	0xbd40b593	-0.047048163
60	0xbe5bbc14	-0.21458465
61	0xbd49219a	-0.04910431
62	0xbafe6a00	-0.0019410253
63	0x3eb4ccb7	0.35312435
64	0xbebc13ad	-0.3673376
65	0xbe231ac7	-0.15928183
66	0xbdb1e9a5	-0.08687142
67	0x3df681ca	0.12036474
68	0xbe971215	-0.29505983
69	0x3d8a0b02	0.06740381
70	0xbec7c606	-0.39018267
71	0xbe9a55cc	-0.30143583
72	0xbe14a238	-0.14515007
73	0xbd81f40f	-0.063453786
74	0xbdca9b79	-0.09892935
75	0xbd944407	-0.07239538
76	0xbd0c4d3c	-0.034253344
77	0xbda18334	-0.07886353
78	0x3ed07b69	0.40719154
79	0xbe012065	-0.12610014
80	0x3e83d764	0.25750268
81	0x3e6365b6	0.22206768
82	0x3db262fa	0.087102845
83	0xbe3598a7	-0.17734013
84	0xbd545785	-0.051841278
85	0xbdc3e63e	-0.095653996
86	0xbe308315	-0.17237504
87	0xbe88ecc2	-0.26743132
88	0x3bcd9363	0.0062736734
89	0xbd0063bd	-0.031345118
90	0x3c949bd7	0.018140716
91	0x3dc4f337	0.09616702
92	0xbd4dc571	-0.050237123
93	0xbe8a0e94	-0.26964247
94	0xbcfb221c	-0.030655913
95	0xbe0a59ac	-0.1351077
96	0x3e63bb5e	0.22239444
97	0x3e9cc00b	0.30615267
98	0xbdccb449	-0.09995324
99	0xbceb5bf0	-0.028730363
100	0xbd356f39	-0.044295523
101	0xbe379fff	-0.17932127
102	0x3c9fcccd	0.019506836
103	0xba29f70b	-0.00064836506
104	0x3d98b5ac	0.07456526
105	0x3dad86ee	0.084730014
106	0x3eae71b0	0.34071112
107	0x3e4fc6b9	0.2029065
108	0xbd854fa6	-0.06509332
109	0x3e6ffb6a	0.2343575
110	0xbbb791af	-0.0056020836
111	0x3e7e1d26	0.24815807
112	0xbe7643c3	-0.24049287
113	0xbe97254f	-0.29520652
114	0xbe291dd5	-0.16515286
115	0x3e1adb50	0.15122724
116	0xbe2d665a	-0.16933575
117	0x3d25ffc4	0.04052712
118	0xbde14e75	-0.110012926
119	0xbed07727	-0.40715906
120	0xbe1e84a2	-0.15480283
121	0xbddd2d62	-0.10799672
122	0xbe407779	-0.18795575
123	0xbe4df666	-0.20113525
124	0xbe07e239	-0.13269891
125	0xbe7acbb5	-0.2449177
126	0x3ec96a31	0.3933883
127	0xbed57005	-0.41687027
128	0xbda0d127	-0.07852393
129	0x3e087291	0.13324954
130	0xbb2158b5	-0.0024619524
131	0xbea18e73	-0.31553993
132	0x3e08fd00	0.13377762
133	0xbe4f96dd	-0.20272394
134	0xbc835a59	-0.016034292
135	0x3dc5cc59	0.09658117
136	0x3db5a2f5	0.08868972
137	0xbddc2a76	-0.10750286
138	0xbe1507dd	-0.14553781
139	0x3da275da	0.07932635
140	0x3e2c89e9	0.16849484
141	0x3ebcfec4	0.3691312
142	0xbe919368	-0.28432775
143	0xbcc1ece2	-0.023672525
144	0x3d4e2f2f	0.050337967
145	0x3eab41ad	0.33448544
146	0x3ea7e1d5	0.32789484
147	0xbe5b6ff9	-0.21429433
148	0xbe548e15	-0.20757325
149	0xbe744c76	-0.23857293
150	0xbd99fa03	-0.07518389
151	0xbe15c464	-0.14625698
152	0xbe5a4b43	-0.21317773
153	0xbe949554	-0.29020178
154	0xbe3ef091	-0.18646456
155	0x3e32ebd3	0.17472772
156	0x3e8f7b2b	0.28023657
157	0xbe7898ab	-0.24276988
158	0xbdd97783	-0.10618498
159	0x3d640a3b	0.05567382
160	0xbe34816b	-0.17627494
161	0xbe81bba0	-0.2533846
162	0x3dad9887	0.08476358
163	0xbc4c8951	-0.012483911
164	0x3e1cc8c2	0.15310958
165	0x3ec4a064	0.38403618
166	0x3dcb15d8	0.09916276
167	0xbe889a7f	-0.2668037
168	0xbe5ca275	-0.21546347
169	0x3dd1c524	0.1024268
170	0xbec8f2f6	-0.39247864
171	0x3d8172b9	0.0632071
172	0xbea6ca7b	-0.32576355
173	0xbe12dd99	-0.14342345
174	0xbda391ad	-0.0798677
175	0x3d311781	0.043235306
176	0xbdc4c363	-0.096075796
177	0xbd0b1acd	-0.033961106
178	0xbce04b01	-0.027379515
179	0xbe551dc0	-0.2081213
180	0x3dcad575	0.09903995
181	0xbc9c5f8f	-0.019088535
182	0xbcbefa88	-0.023312822
183	0x3d80edc5	0.06295351
184	0xbe4063ff	-0.18788145
185	0x3e89f866	0.26947325
186	0x3b282af9	0.002566038
187	0xbe7dfae6	-0.24802741
188	0xbdca80c4	-0.09887841
189	0xbe0a34b0	-0.13496661
190	0x3e2f8a3f	0.1714258
191	0x3e9c76cc	0.30559385
192	0x3dfde2b5	0.123967566
193	0xbe24849c	-0.16066211
194	0xbe5b7012	-0.2142947
195	0x3ee31a6e	0.44356102
196	0x3d0ad3cd	0.033893395
197	0xbe214fe9	-0.1575314
198	0xbe5d275a	-0.21597043
199	0x3d9bc7b6	0.07606451
200	0x3e87cb9b	0.26522526
201	0x3e87687d	0.26446906
202	0xbdaedef1	-0.085386164
203	0xbdcd395b	-0.10020705
204	0xbdfc56bc	-0.12321231
205	0xbda72472	-0.08161248
206	0xbe92e600	-0.286911
207	0xbdcca090	-0.09991562
208	0xbe257ce4	-0.16160923
209	0xbe8100d7	-0.25195953
210	0xbdc499c5	-0.09599642
211	0x3dd035e5	0.101665296
212	0x3e770c78	0.2412585
213	0xbdc3e08a	-0.09564312
214	0xbe950a92	-0.29109627
215	0xbe2c45d7	-0.16823517
216	0xbe0d689f	-0.13809441
217	0xbca5e2b6	-0.020249706
218	0x3f018ddc	0.50607085
219	0xbd800602	-0.06251146
220	0x3d8aa384	0.067694694
221	0x3e950ac0	0.29109764
222	0x3d7ce41b	0.061740976
223	0x3e10380b	0.14083879
224	0x3e67ff95	0.2265609
225	0x3b90e07b	0.0044212914
226	0xbaa69aaa	-0.0012710888
227	0xbeab3bd8	-0.33444095
228	0x3df0da69	0.117604084
229	0xbe39c817	-0.18142734
230	0xbdf09984	-0.11748031
231	0x3e63d3ae	0.22248718
232	0x3e34a599	0.17641295
233	0xbec25570	-0.3795581
234	0xbe7abe53	-0.24486665
235	0x3e0a1d6e	0.13487789
236	0x3e5248c1	0.20535566
237	0xbea9daa0	-0.3317461
238	0x3e77e26a	0.24207464
239	0x3df7f578	0.12107366
240	0x3ef1c109	0.47217587
241	0xbe3e45d2	-0.18581322
242	0x3c7f4b24	0.01558188
243	0x3e098295	0.1342872
244	0xbd6382f0	-0.055544794
245	0xbe553c32	-0.20823744
246	0xbcc766b0	-0.024340957
247	0xbd7ff602	-0.06249047
248	0xbe8622d6	-0.26198453
249	0xbdbc4132	-0.091921225
250	0xbdb9c4ff	-0.09070777
251	0xbde2c0cb	-0.110719286
252	0x3e018c3b	0.1265115
253	0xbea6bec3	-0.32567415
254	0xbe99cfc5	-0.30041328
255	0x3e42d74a	0.19027439

layer1.bias_sigma f4 [256]
0	0xbddb56b6	-0.10709898
1	0x3e342ba6	0.17594776
2	0x3bd94562	0.0066305855
3	0xbc5aec6f	-0.013362034
4	0x3dbe6e5c	0.09298393
5	0x3e4a29f2	0.19742563
6	0x39ba49a3	0.00035531548
7	0x3d927d0a	0.071527556
8	0xbd30eaa3	-0.043192517
9	0x3c1a284d	0.0094090225
10	0x3d890076	0.06689541
11	0x3c340316	0.010987064
12	0xbdc13a66	-0.09434967
13	0x3c070f32	0.008243369
14	0x3d5f50f9	0.05452058
15	0x3d89b51b	0.06723996
16	0xbdd9fc4b	-0.10643824
17	0x3c1edfcd	0.009696913
18	0xbdea27cd	-0.11433373
19	0xbd89a96c	-0.06721768
20	0x3c4e2d5d	0.012584058
21	0xbc186e6e	-0.009303672
22	0x3d0a0e50	0.033705056
23	0xbd71168a	-0.058859386
24	0x3bc02dd2	0.005864837
25	0x3ba23b13	0.00495089
26	0x3e46fa3b	0.19431393
27	0x3d8199f5	0.06328193
28	0xbd21fe58	-0.0395492
29	0xbdd5ecbb	-0.104455434
30	0x3d26c658	0.0407165
31	0xbd5921fa	-0.05301092
32	0x3db7f63c	0.08982512
33	0x3c04f78e	0.008115662
34	0xbd6bd52a	-0.057576336
35	0xbcbd3980	-0.023098707
36	0x3de30c71	0.110863574
37	0x3d17c3e4	0.03705205
38	0xbd25d444	-0.040485635
39	0x3d1618c1	0.0366447
40	0x3e1cf9df	0.15329693
41	0xbd9e4765	-0.07728461
42	0xbd8eec5d	-0.069786765
43	0x3e10c81d	0.14138837
44	0xbd07293a	-0.0329983
45	0xbde65d72	-0.11248292
46	0xbc748815	-0.014925023
47	0xbc432bbf	-0.011912285
48	0xb99097ea	-0.00027579005
49	0x3e08acd2	0.13347176
50	0x3d98605e	0.074402556
51	0x3d6a5b8e	0.05721622
52	0xbd5ec565	-0.05438747
53	0x3d9d18c0	0.07670736
54	0x3cd33968	0.02578421
55	0xbd3f7177	-0.046739068
56	0xbdfcd6f2	-0.12345685
57	0xbc6f5294	-0.0146070905
58	0xbd67c8db	-0.056588035
59	0x3d71307e	0.058884136
60	0x3ba7f56e	0.005125693
61	0xbcfaaf39	-0.03060113
62	0xbe0688ac	-0.13138074
63	0x3d7160d2	0.058930226
64	0x3ce72064	0.028213687
65	0x3c01158d	0.007878673
66	0x3d246344	0.04013373
67	0xbd74d2cd	-0.059771348
68	0x3ba7f56e	0.005125693
69	0xbd9f68c8	-0.07783657
70	0xbc78f66a	-0.015195468
71	0x3d906fcc	0.070525736
72	0xbd291cc0	-0.041287184
73	0xbdf45623	-0.11930492
74	0xbc818f49	-0.015815394
75	0xbdbd18fb	-0.0923328
76	0xbc660848	-0.01404006
77	0xba5c79e9	-0.00084105
78	0x3d2fcaf6	0.042918168
79	0x3ba58386	0.005051079
80	0x3b876268	0.004131604
81	0x3cb39ab3	0.021924352
82	0x3d7d22b1	0.061800662
83	0x3cad328e	0.02114227
84	0x3d9b8e78	0.07595533
85	0xbd36b816	-0.04460915
86	0x3e266e6c	0.1625306
87	0xbb4a6c12	-0.0030887169
88	0xbd14d4dc	-0.03633581
89	0xbccbe04d	-0.024887228
90	0xbd8e191a	-0.069383815
91	0x3cff73f0	0.031183213
92	0xbdc09309	-0.09403045
93	0x3c17962f	0.009252115
94	0xbd3f89b0	-0.04676217
95	0x3daaca20	0.083393335
96	0xbc9b3e9b	-0.018950751
97	0x3d9dd97c	0.077074975
98	0xbd854987	-0.06508165
99	0x3be905da	0.0071112933
100	0x3df2d056	0.11856143
101	0x3decf9eb	0.115711056
102	0xbd4e12f7	-0.050311055
103	0xbe28f2a0	-0.16498804
104	0xbddec24b	-0.10876902
105	0x3c80bbf2	0.01571462
106	0xbe151d06	-0.14561853
107	0xbe49ecd1	-0.19719245
108	0xbc9daa73	-0.019246316
109	0xbd91a296	-0.07111089
110	0x3bdc9f8b	0.006732886
111	0xbdefb824	-0.11705044
112	0xbd3e3d7d	-0.04644536
113	0x3d81cb60	0.06337619
114	0x3d846e3f	0.0646634
115	0xbe089ffe	-0.13342282
116	0xbcf4ca74	-0.029881693
117	0xbd1af6d1	-0.03783304
118	0x3d134e54	0.03596337
119	0xbc5f9cb1	-0.013648198
120	0x3d71d68c	0.0590425
121	0x3c0cb1da	0.008587325
122	0x3d20445c	0.039127693
123	0x3e116aa3	0.14200835
124	0xbdb5b13f	-0.08871698
125	0xbcd34c9a	-0.025793362
126	0x3df521b2	0.119693175
127	0xbda90a55	-0.08253924
128	0x3cc77422	0.024347369
129	0xbcab1118	-0.020882174
130	0xbdbf53e5	-0.093421735
131	0xbc9dcd2c	-0.019262873
132	0x3d244469	0.040104304
133	0xbd7a07c8	-0.061042577
134	0x3c93179f	0.0179556
135	0xbc95bba1	-0.018277945
136	0x3e05fcb5	0.13084681
137	0x3ba7f56e	0.005125693
138	0xbd918906	-0.07106213
139	0xbd04cee4	-0.03242387
140	0x3da8d392	0.08243479
141	0x3cdab54b	0.026697775
142	0xbd1a7a78	-0.03771445
143	0x3c859d9e	0.01631051
144	0x3ce58f14	0.028022327
145	0x3d653b0a	0.055964507
146	0x3df79407	0.12088781
147	0x3b98b037	0.0046596783
148	0x3d8d5229	0.069004364
149	0xbd32af75	-0.04362436
150	0x3e7ef92f	0.24899743
151	0xbd81133c	-0.06302497
152	0x3bdc3802	0.006720544
153	0x3d77ef5e	0.060531013
154	0x3ba7f56e	0.005125693
155	0x3cc798e6	0.0243649
156	0x3df722ac	0.1206716
157	0x3ca95a78	0.020673022
158	0x3d714072	0.05889935
159	0xbd8c4025	-0.06848172
160	0x3c34c14f	0.0110324165
161	0xbbb0274d	-0.005375779
162	0x3c465ca3	0.012107047
163	0xbd302303	-0.04300214
164	0xbdb4760e	-0.0881158
165	0xbdc20c3e	-0.09474991
166	0xbc158c97	-0.0091277575
167	0xbd12c365	-0.035830874
168	0x3e3c061d	0.18361707
169	0x3e01d76b	0.12679832
170	0xbc27fc99	-0.010253095
171	0x3dacf53e	0.08445214
172	0x3d259412	0.040424414
173	0xbd4e486c	-0.050362036
174	0xbe19e32b	-0.15028064
175	0x3d1ccca6	0.038281105
176	0xbd3e114b	-0.04640321
177	0xbd2541a2	-0.040345795
178	0xbd71d668	-0.059042364
179	0x3ba98508	0.0051733293
180	0xbe2ed73c	-0.17074293
181	0x3cf796fb	0.03022336
182	0xbe504a86	-0.20340928
183	0xbe29ef1a	-0.16595116
184	0xbc8ca44a	-0.017168183
185	0x3da128ea	0.07869132
186	0x3e3d32ef	0.18476461
187	0x3ba7f56e	0.005125693
188	0xbd959e11	-0.073055394
189	0xbd7bb922	-0.061455853
190	0xbd262743	-0.040564787
191	0x3d413ff6	0.04718014
192	0xbda560df	-0.08075117
193	0x3b8dfcd8	0.00433312
194	0x3ce8b15b	0.028404882
195	0x3d21bac3	0.03948475
196	0xbd284a69	-0.041086588
197	0x3cc44281	0.023957493
198	0xbd42cc24	-0.047557965
199	0xbd27617d	-0.040864456
200	0xbdbcd7c0	-0.092208385
201	0x3d44b471	0.048023645
202	0xbdc02ce7	-0.093835644
203	0xbd6d39cf	-0.05791646
204	0x3d93c4f0	0.07215297
205	0x3e009bbb	0.12559406
206	0x3ddb6de5	0.1071432
207	0x3d9f91f0	0.07791507
208	0x3e30063d	0.1718988
209	0x3d8f2fc9	0.06991536
210	0xbd85bc1b	-0.06530019
211	0xbb9c5559	-0.0047709164
212	0xbcc72e0b	-0.024313947
213	0x3dac05e7	0.08399563
214	0xbdd5fe25	-0.10448865
215	0xbd21ad31	-0.03947181
216	0x3bc242ce	0.005928374
217	0x3cc22dad	0.02370342
218	0x3cbb35ea	0.022852857
219	0x3dfe7eaf	0.12426507
220	0x3d9b10d9	0.07571573
221	0xbd08cc71	-0.033398096
222	0xbe1fdd82	-0.15611842
223	0xbd7305ca	-0.059331693
224	0x3dac836a	0.08423503
225	0x3de59dc9	0.11211736
226	0xbcb15de8	-0.021651223
227	0xbd6e3c52	-0.058162995
228	0xbde0350e	-0.109476194
229	0xbd231dff	-0.03982353
230	0x3d49f6ff	0.04930782
231	0x3d8f4547	0.069956355
232	0x3c29013f	0.0103152385
233	0xbbba0494	-0.0056768153
234	0xbde7fe94	-0.11327854
235	0xbdd7380f	-0.10508739
236	0x3d59f517	0.05321225
237	0xba71051a	-0.00091941806
238	0x3dc815ef	0.097698085
239	0x3b775b5e	0.0037743668
240	0xbd2f0bfd	-0.042736042
241	0x3ba7f56e	0.005125693
242	0xbdd6b638	-0.10483974
243	0xbd167979	-0.03673694
244	0xbdc1bb4d	-0.09459553
245	0xbd9a74c6	-0.07541804
246	0x3daba57f	0.08381175
247	0x3cc1d5b3	0.02366147
248	0x3c62abc3	0.0138348965
249	0xbc8a4f16	-0.016883414
250	0x3bf70ae9	0.0075391424
251	0x3d879faf	0.06622254
252	0xbe040b9a	-0.1289505
253	0x3ba83ddb	0.005134327
254	0x3cbaa551	0.022783907
255	0xbd389db4	-0.045072272

layer2.weight_mu f4 [3, 256]
0	0xbc1988bd	-0.00937098
1	0xbc784431	-0.015152977
2	0x3d39d347	0.045367505
3	0xbe0283f7	-0.12745653
4	0xbd3248c4	-0.043526426
5	0x3e2ed723	0.17074256
6	0x3bdd0b35	0.0067457207
7	0x3dfe7658	0.12424916
8	0xbd7d2c98	-0.061810106
9	0x3c3337b8	0.010938577
10	0x3bd84cee	0.0066009676
11	0x3e2e04cc	0.16994017
12	0x3e5162ad	0.20447798
13	0x3e4e6c3a	0.20158473
14	0x3e8648b7	0.26227352
15	0x3c74fd9b	0.014953042
16	0xbd5fdc0a	-0.054653205
17	0xbd498557	-0.04919943
18	0x3d8ecd76	0.06972782
19	0x3e4e8b60	0.20170355
20	0x3cbce5b0	0.023058742
21	0x3d043e36	0.03228589
22	0xbd2f4523	-0.042790543
23	0x3e1a5de2	0.15074876
24	0x3c180752	0.009279089
25	0xbd1240c3	-0.035706293
26	0x3e401330	0.1875732
27	0xbdd5b120	-0.104341745
28	0x3dd96319	0.106146045
29	0x3da22695	0.07917515
30	0x3e0a2cdb	0.13493674
31	0x3d2c423c	0.042055354
32	0xbdd99ab4	-0.106252104
33	0x3d4c1385	0.049823303
34	0xbd6f881b	-0.05847941
35	0x3e3ccf0f	0.18438362
36	0x3da3d2d6	0.07999198
37	0xbc716720	-0.01473406
38	0xbdca212b	-0.098696075
39	0xbd89ebcb	-0.06734427
40	0x3dff1ca9	0.12456638
41	0x3e997105	0.2996904
42	0x3d32883c	0.043586954
43	0x3c53ac8d	0.012919557
44	0xbe0e4633	-0.13893966
45	0x3d574a38	0.052561015
46	0x3d70859a	0.058721162
47	0x3e3e6408	0.18592846
48	0x3d8eaa76	0.069661066
49	0x3e4493b3	0.19196968
50	0xbd2bdd4b	-0.04195909
51	0x3d4bc4f1	0.049748365
52	0xbd2143da	-0.03937135
53	0xbdbf635c	-0.09345123
54	0x3d53802a	0.0516359
55	0xbbb33825	-0.0054693394
56	0xbdad7773	-0.08470049
57	0xbe03bb83	-0.12864499
58	0xbd9fe002	-0.07806398
59	0x3bba51c1	0.0056860154
60	0xbd674d76	-0.056470357
61	0x3be44252	0.006965914
62	0xbd87d04c	-0.06631526
63	0x3e6df46e	0.23237774
64	0xbd49ede6	-0.049299143
65	0xbcbcc8ff	-0.023045061
66	0xbd970e74	-0.073758036
67	0x3e46042f	0.19337533
68	0x3b9c3ba0	0.00476785
69	0x3db2319a	0.08700867
70	0x3cac7b4b	0.021054884
71	0xbce63c67	-0.028104974
72	0x3e992025	0.29907337
73	0xbde8686a	-0.113480404
74	0xbd89e145	-0.0673242
75	0x3e4a55bc	0.19759268
76	0x3c6e0d5f	0.014529555
77	0xbd014d4f	-0.031567868
78	0x3e7a749b	0.24458544
79	0x3ca4fb35	0.020139316
80	0x3e18693b	0.14883892
81	0xbde66ee5	-0.1125162
82	0xbd338368	-0.04382649
83	0xbe5b7050	-0.21429563
84	0x3c3ba120	0.011451989
85	0xbd82082c	-0.06349215
86	0xbd6657d0	-0.05623609
87	0xbe0bb1a9	-0.1364199
88	0x3d40d7d0	0.047080815
89	0xbcdb5a23	-0.026776379
90	0x3e1b2f1d	0.15154691
91	0x3d49b60a	0.04924587
92	0xbc0308af	-0.007997676
93	0xbd29f7ac	-0.041495964
94	0x3d18a4ea	0.03726665
95	0x3d69e997	0.057107534
96	0x3ea45008	0.3209231
97	0x3e4e3f83	0.20141415
98	0xbdef3a9a	-0.11681099
99	0x3d868196	0.06567685
100	0xbdae8504	-0.085214645
101	0x3e118eb5	0.14214595
102	0xbd9e655c	-0.077341765
103	0xbd92ab06	-0.071615264
104	0x3e9a75d7	0.3016803
105	0x3d56157f	0.052266594
106	0x3ea2a8a8	0.317693
107	0x3ea745ca	0.32670432
108	0x3e3d495d	0.18485017
109	0x3e2a4804	0.16629034
110	0x3d3ecdd9	0.04658303
111	0xbcdca58e	-0.026934411
112	0xbe232e73	-0.15935688
113	0x3cb1f0fb	0.021721354
114	0xbca0db98	-0.01963596
115	0xbdab349b	-0.08359643
116	0x3c0a9263	0.008457753
117	0xbc0332fc	-0.008007761
118	0xbdf83058	-0.12118596
119	0x3d0d45a1	0.03449023
120	0xbe35c35a	-0.17750302
121	0x3d315a18	0.04329881
122	0xbd851cd2	-0.06499638
123	0xbda60f44	-0.081083804
124	0xbe1b85f8	-0.15187824
125	0xbdc4b951	-0.09605659
126	0x3e3e06a3	0.18557219
127	0x3d81b118	0.06332606
128	0xbddf0ea8	-0.10891467
129	0x3e239b23	0.15977149
130	0x3c8c1396	0.017099183
131	0xbac73e45	-0.0015201053
132	0x3cf534e4	0.029932447
133	0x399374d3	0.00028125066
134	0xbccb84a0	-0.024843514
135	0xbd9ea823	-0.07746913
136	0xbe157960	-0.14597082
137	0xbcc28e00	-0.023749352
138	0xbd1c82f4	-0.038210824
139	0x3e62ba5a	0.221414
140	0x3e547c3d	0.20750518
141	0x3e58e1cf	0.21179889
142	0xbe2c309c	-0.16815418
143	0xbe0765ea	-0.13222471
144	0x3e5f3c60	0.21800375
145	0x3cda9c77	0.026685936
146	0x3da22f3a	0.07919164
147	0x3d1b0a66	0.037851714
148	0x3e08f8eb	0.13376205
149	0xbd2c1b91	-0.042018477
150	0xbe4d5555	-0.20052083
151	0x3e201604	0.15633398
152	0x3bdd0ef1	0.006746166
153	0x3d9bdb53	0.07610192
154	0xba108000	-0.00055122375
155	0x3e198182	0.1499081
156	0x3dabd982	0.08391096
157	0xbd088b1a	-0.033335783
158	0x3dbae42f	0.09125554
159	0x3d8d5767	0.06901436
160	0x3e7cd63d	0.246911
161	0x3e807de3	0.25096044
162	0x3dbf8e98	0.093533695
163	0x3e81ef5f	0.25377938
164	0x3e829faf	0.25512454
165	0x3e1583dc	0.14601082
166	0x3e2572d0	0.16157079
167	0xbcd25f72	-0.025680277
168	0x3d63bc25	0.05559935
169	0xbd201bc9	-0.039088998
170	0xbb6900b6	-0.0035553402
171	0xbe1c2a0f	-0.15250419
172	0xbd4d0c48	-0.05006054
173	0xbbfd214e	-0.0077249175
174	0x3c1ae18b	0.009453188
175	0x3e8c38c6	0.27387065
176	0xbdd40bf4	-0.103538424
177	0x3d0cf355	0.034411747
178	0xbd375a9e	-0.044764154
179	0x3e2cebff	0.168869
180	0x3e1cdb39	0.15318002
181	0x3dcf790c	0.1013051
182	0x3d5cac7f	0.053875443
183	0xbd768a06	-0.060190223
184	0x3d1c8bfc	0.038219437
185	0x3e8ddb99	0.27706602
186	0x3dd4347c	0.10361573
187	0x3d2754b4	0.040852264
188	0xbd83e914	-0.064409405
189	0xbe21e175	-0.15808661
190	0x3db67b39	0.089102216
191	0x3e6a7136	0.22894749
192	0x3e089d2b	0.13341205
193	0x3dc5bcb3	0.09655132
194	0x3c2afee7	0.01043675
195	0x3eac9182	0.33704764
196	0xbdd629c2	-0.104571834
197	0xbc252d92	-0.010081666
198	0x3d437363	0.047717463
199	0x3d4b1bbb	0.049586993
200	0x3e9373ef	0.28799388
201	0x3e7e1a98	0.24814832
202	0xbd3bd860	-0.04586065
203	0xbdebcf1e	-0.11514114
204	0x3e5e9e5d	0.21740098
205	0x3e465ae3	0.19370608
206	0x3d984d19	0.0743658
207	0xbd93b640	-0.07212496
208	0xbd2dad87	-0.042401817
209	0x3d9169e2	0.07100274
210	0xbe3886a4	-0.18020111
211	0xbd686f0f	-0.05674654
212	0x3da4701d	0.080291964
213	0xbd81e5df	-0.063426726
214	0xbd90a4c1	-0.07062674
215	0xbd837637	-0.06419032
216	0xbda6c04f	-0.08142149
217	0x3e1ebc22	0.15501454
218	0x3e89026e	0.26759666
219	0x3de68815	0.11256424
220	0xbda3e84f	-0.08003294
221	0x3e0b4d01	0.13603593
222	0xbd2d0893	-0.042244505
223	0xbd0e532f	-0.0347473
224	0x3d97fa94	0.07420841
225	0xbe22dc54	-0.15904361
226	0xbbd68446	-0.00654653
227	0x3cb6f140	0.022331834
228	0x3e35256e	0.1769006
229	0xbc0828ea	-0.008310536
230	0xbd895870	-0.06706321
231	0xbd896944	-0.06709531
232	0x3dce11d2	0.10061993
233	0xbdc90328	-0.09815055
234	0xbd6c7124	-0.057725087
235	0x3dfcd345	0.12344984
236	0x3e5aa008	0.2135011
237	0xbddb696e	-0.107134685
238	0x3c330928	0.010927476
239	0x3de1b1a4	0.110202104
240	0x3eae4af6	0.34041566
241	0x3d48893e	0.04895901
242	0x3e5a37dc	0.21310371
243	0xbdb3fce1	-0.08788467
244	0xbe5e7810	-0.21725488
245	0xbdd067fa	-0.10176082
246	0xbc30b453	-0.01078518
247	0x3d8a2933	0.067461394
248	0x3d24d3fe	0.040241234
249	0x3c6b1687	0.014348633
250	0x3c799d77	0.015235296
251	0x3ca67536	0.020319562
252	0x3eb39675	0.35075727
253	0xbc8c6847	-0.017139567
254	0x3e02350a	0.12715545
255	0x3d1f94c4	0.038960233

layer2.weight_sigma f4 [3, 256]
0	0x3dd8c961	0.10585285
1	0xbd97c063	-0.07409742
2	0x3de2a6dc	0.11066982
3	0xbd92ce5f	-0.071682684
4	0xbd0efa86	-0.034906887
5	0xbd84cecd	-0.064847566
6	0x3bb5f851	0.0055532833
7	0x3b28aa4b	0.0025736268
8	0xbdbb3a50	-0.091419816
9	0x3a8b4396	0.0010625
10	0x3c0c872d	0.00857715
11	0x3d876491	0.066109784
12	0x3e0f351b	0.13985102
13	0x3d2646ad	0.040594745
14	0x3d43c245	0.04779269
15	0xbd0911b6	-0.033464156
16	0xbd517931	-0.051140968
17	0x3d225b06	0.039637588
18	0xbd549f47	-0.05190971
19	0xbc05dc5e	-0.008170215
20	0x3c87d2e2	0.016580049
21	0x3d98dbb1	0.07463778
22	0xbd360592	-0.044438906
23	0x3dbcf445	0.09226278
24	0xbc512d2e	-0.012767119
25	0x3dd2efb7	0.10299628
26	0xbccfc6b5	-0.025363306
27	0xbd2f1abe	-0.042750113
28	0xbcb78263	-0.02240104
29	0x3d20f0b7	0.039292064
30	0x3cc1c54b	0.023653647
31	0xbdbb7684	-0.091534644
32	0xbd26c108	-0.040711433
33	0x3d503a0a	0.0508366
34	0x3d01c7a3	0.03168453
35	0x3db7e9fc	0.08980176
36	0x3ce9cc50	0.028539807
37	0xbd2f8b1a	-0.042857267
38	0x3d4304fe	0.047612183
39	0xbdb719eb	-0.0894049
40	0xbc8337ce	-0.01601782
41	0x3d967025	0.073456086
42	0x3da833f7	0.082130365
43	0xbdb6d02e	-0.08926426
44	0xbd48d4f9	-0.04903123
45	0x3ca78ef3	0.020453906
46	0xbdcc418d	-0.0997344
47	0xbdea1cce	-0.11431275
48	0xbd1cc236	-0.03827115
49	0xbbf16f07	-0.007367972
50	0xbcc338db	-0.023830822
51	0x3b90b1ce	0.004415727
52	0xbbeb672e	-0.007183931
53	0xbdbe9ef9	-0.093076654
54	0xbcbde49b	-0.023180297
55	0x3bc39c45	0.0059695565
56	0x3e0f6bfb	0.14006035
57	0x3d400914	0.046883658
58	0x3b14898b	0.002266499
59	0xbd37f899	-0.044914816
60	0x3a8b4396	0.0010625
61	0x3d9521ab	0.07281812
62	0xbc88fc67	-0.016721917
63	0xbbe6b634	-0.0070407633
64	0x3c97e176	0.018540125
65	0x3cca1891	0.024669917
66	0xbc1d7fc7	-0.009612984
67	0xbe2c9361	-0.16853096
68	0x3a8b4396	0.0010625
69	0x3d07a02c	0.033111736
70	0x3c9bd27c	0.019021265
71	0xbc54abc0	-0.0129804015
72	0xbd81d195	-0.06338803
73	0xbd877fd7	-0.066161804
74	0x3c8623be	0.016374465
75	0x3e0358da	0.12826863
76	0x3dce8c92	0.100854054
77	0x3d8297b3	0.063765906
78	0xbad31d13	-0.0016106687
79	0x3d640c1f	0.055675622
80	0xbd1fbdf0	-0.038999498
81	0xbdaba3f4	-0.08380881
82	0x3cfa492f	0.030552475
83	0x3d31a7e7	0.043373015
84	0xbc64820f	-0.013947024
85	0x3c0e70fc	0.00869393
86	0x3d8f7720	0.07005143
87	0xbd43c089	-0.047791038
88	0xbb4bb127	-0.0031080933
89	0xbcd61d6e	-0.02613708
90	0x3c396abf	0.011316954
91	0xbe157ff8	-0.14599597
92	0x3d3a0427	0.045414116
93	0xbd50ea32	-0.051004596
94	0xbdaa09d1	-0.083026536
95	0x3e1305cd	0.14357682
96	0x3b2bc720	0.0026211217
97	0x3da42428	0.08014709
98	0xbc9320a8	-0.017959908
99	0xbcdae9e1	-0.02672285
100	0xbc57de9a	-0.013175631
101	0xbe226c96	-0.15861735
102	0xbda7928a	-0.08182247
103	0x3cb340da	0.02188151
104	0x3cad5ba9	0.021161871
105	0xbb9d8242	-0.0048067877
106	0x3d2d2b2b	0.042277496
107	0x3c84260c	0.016131423
108	0xbd0c7cc5	-0.034298677
109	0xbd17fb37	-0.03710481
110	0x3c18a7fc	0.009317394
111	0x3d7782d6	0.06042751
112	0x3e2bac48	0.16764939
113	0xbd47a2f3	-0.048739385
114	0x3d93069c	0.07178995
115	0x3bc11035	0.0058918246
116	0xbce707ec	-0.02820202
117	0xbcff2a7b	-0.031148186
118	0x3d8130f3	0.063081644
119	0x3c824347	0.015901221
120	0x3c1f8b0c	0.009737741
121	0xba4daf9f	-0.0007846299
122	0xbcdba296	-0.026810925
123	0xbda568a4	-0.08076599
124	0x3c6ca36c	0.01444326
125	0x3d4a57a7	0.049399998
126	0x3dadc35e	0.08484529
127	0x3c546ed5	0.012965878
128	0xbc703e48	-0.0146632865
129	0xbddaff8d	-0.10693274
130	0xbd2ee7cd	-0.04270153
131	0xbc8d1a05	-0.017224321
132	0xbd52b0ee	-0.051438265
133	0xbd59b39d	-0.05314981
134	0x3dde2e6f	0.108487
135	0xbd1dbeb6	-0.038511954
136	0x3d8a12be	0.06741856
137	0x3a8b4396	0.0010625
138	0x3bc4998c	0.0059997495
139	0x3d2e591e	0.042565458
140	0x3e0d2248	0.13782609
141	0xbc2ccc6e	-0.010546787
142	0x3d72a584	0.05923988
143	0x3d6fd004	0.05854799
144	0x3c8cf422	0.017206255
145	0xbdf71ae0	-0.12065673
146	0xbe071562	-0.1319175
147	0xbc1f87b2	-0.009736942
148	0x3dae32a8	0.08505756
149	0xbc76fcfa	-0.015074963
150	0x3a336f41	0.0006844886
151	0xbc9e4017	-0.01931767
152	0x3d08bfd9	0.033386085
153	0x3d118dbb	0.035535555
154	0x3a8b4396	0.0010625
155	0xbd95c6d3	-0.07313313
156	0x3d237ff8	0.039916962
157	0xbc5ccded	-0.013476831
158	0x3d8c267a	0.06843276
159	0x3d8ed4f8	0.06974214
160	0x3d90082b	0.07032808
161	0x3db0cf4d	0.086332895
162	0x3d1838ce	0.03716355
163	0x3db03cd2	0.086053506
164	0x3d4b83a6	0.049686097
165	0xbd6f5ca6	-0.058437966
166	0x3c132d91	0.008983032
167	0x3e44eb0b	0.19230287
168	0x3d943f5b	0.072386466
169	0x3cc9e152	0.024643574
170	0xbdb78612	-0.08961119
171	0xbd2523c4	-0.040317312
172	0x3d558002	0.05212403
173	0x3d4a2339	0.049349997
174	0xbdae2f82	-0.08505155
175	0x3d911c19	0.07085437
176	0x3c46a4e0	0.01212427
177	0x3c1ced96	0.009578129
178	0x3d401bd6	0.046901546
179	0x3bdfe7a0	0.006833032
180	0xbd53c1c8	-0.051698476
181	0xbc7fc56c	-0.015611034
182	0x3e4c3dc9	0.19945444
183	0x3c7d45f5	0.015458574
184	0xbcf72752	-0.030170117
185	0x3ce1f6ab	0.02758344
186	0xbd870a13	-0.065937184
187	0x3a8b4396	0.0010625
188	0xbd083cb0	-0.033261
189	0xbccbfb83	-0.024900204
190	0xbd4d9a39	-0.050195906
191	0x3a452d6c	0.0007521722
192	0x3d5982e8	0.053103358
193	0xbccb9085	-0.024849186
194	0xbd88666c	-0.066601604
195	0xbcb4dd84	-0.022078283
196	0xbd9f0fcd	-0.07766686
197	0xbd391312	-0.045184202
198	0xbd0fecd8	-0.03513798
199	0xbc9037df	-0.017604766
200	0x3e038b60	0.12846136
201	0xbe021887	-0.12704669
202	0xbccee4b0	-0.025255531
203	0xbd59fe90	-0.053221285
204	0xbda4bc0b	-0.08043679
205	0xbc8fef36	-0.01757012
206	0xbcf5e776	-0.030017596
207	0xbd9a4511	-0.075327046
208	0xbc5f22e0	-0.013619155
209	0xbc56837a	-0.01309287
210	0x3e1148f6	0.14187989
211	0x3d259112	0.040421553
212	0x3cc83437	0.02443896
213	0xbdc49a3e	-0.09599732
214	0x3d0ca555	0.03433736
215	0xbd279bc4	-0.040920034
216	0xbd25cf2b	-0.040480774
217	0x3d8997ea	0.067184284
218	0x3caabcc1	0.020841958
219	0xbdc214f6	-0.09476654
220	0x3c9d277d	0.019183869
221	0x3c90ba80	0.017667055
222	0x3d7ce7d6	0.061744533
223	0xbd8d169b	-0.06889077
224	0xbd28f2aa	-0.041247047
225	0xba0f14b9	-0.0005458105
226	0xbca33ebf	-0.01992738
227	0x39a0181f	0.0003053555
228	0x3cd09743	0.025462752
229	0x3d0675df	0.032827254
230	0xbc4dd92d	-0.012563986
231	0xbcb03f59	-0.021514582
232	0x3ce9ddaf	0.02854809
233	0xbdbfe47c	-0.09369752
234	0xbe180425	-0.14845331
235	0x3d8d7f86	0.06909089
236	0x3e003150	0.12518811
237	0x3ddb6bdd	0.10713933
238	0x3dc725c8	0.09724003
239	0xbcf665dc	-0.030077867
240	0xbd60fe4b	-0.054930013
241	0x3a8b4396	0.0010625
242	0xbd2baada	-0.041910984
243	0xbc1a5ff7	-0.009422294
244	0x3d34ec85	0.044170875
245	0x3e04c6d5	0.12966473
246	0xbe0da03a	-0.13830653
247	0x3dae63ac	0.08515105
248	0x3c2fa75a	0.010721052
249	0x3c4f03f7	0.012635223
250	0x3d5c3927	0.053765442
251	0x3c205049	0.0097847665
252	0xbc893847	-0.016750468
253	0x3c33d3db	0.010975803
254	0x3bdce020	0.006740585
255	0x3ce8e7e0	0.02843088

layer2.bias_mu f4 [3]
0	0x3e09dba2	0.1346269
1	0x3d792832	0.06082935
2	0x3d319319	0.043353174

layer2.bias_sigma f4 [3]
0	0x3d33f362	0.04393328
1	0xbce7bf82	-0.02828956
2	0xbc414db0	-0.011798307
