Code Submission/DDQN_models/noisy-model2-snapshot-score-20.pth (torch, 33781 bytes, 8 tensors)

layer1.weight_mu f4 [256, 11]
0	0x3e9730cc	0.29529417
1	0x3ecf2750	0.4045968
2	0xbecd3af9	-0.40084055
3	0xbe95150e	-0.29117626
4	0x3dd176bc	0.10227725
5	0xbdcd9396	-0.100379154
6	0xbe708eaf	-0.2349193
7	0xbd9e50d8	-0.077302635
8	0x3e203d0a	0.15648285
9	0x3f2cf190	0.67556095
10	0xbe8c3cbc	-0.27390087
11	0x3e2ddd11	0.16978861
12	0x3ddd9c10	0.10820782
13	0x3e71cc46	0.2361308
14	0x3eeda027	0.4641125
15	0xbf5236c7	-0.82114834
16	0xbec333a0	-0.38125324
17	0xbefdd66d	-0.49577656
18	0xbed02286	-0.4065134
19	0x3eca5184	0.39515316
20	0xbea321b6	-0.31861657
21	0x3e3a1887	0.18173419
22	0x3d9312ce	0.07181321
23	0x3d33f9f9	0.043939564
24	0xbf06780f	-0.52526945
25	0xbee80bfd	-0.45321646
26	0xbecfedc0	-0.40611076
27	0xbe8155fc	-0.25260913
28	0xbed33790	-0.41253328
29	0xbeb66339	-0.35622576
30	0xbe3f0af8	-0.18656528
31	0xbc99a585	-0.018755684
32	0xbc98df7f	-0.018661259
33	0x3e277c0a	0.16355911
34	0xbef77b5c	-0.48336303
35	0xbec8ca99	-0.3921707
36	0x3d26b50c	0.040700004
37	0xbdb23dab	-0.087031685
38	0xbea14656	-0.31498975
39	0x3cc294db	0.02375262
40	0x3e1292f9	0.14313878
41	0x3fa5101c	1.2895541
42	0xbdc7df75	-0.09759418
43	0x3ee38808	0.4443972
44	0xbbee56d0	-0.0072735325
45	0xbf16a947	-0.58852047
46	0x3e4a4a38	0.19754875
47	0xbf00ab0b	-0.5026099
48	0x3bf29eab	0.0074041686
49	0xbdfc53d0	-0.123206735
50	0x3abeb1d1	0.0014548843
51	0x3e67932e	0.22614738
52	0xbf0a7cd4	-0.5409672
53	0xbef2caee	-0.47420448
54	0x3f8d9d90	1.1063709
55	0x3e4326d7	0.19057785
56	0xbdba57ea	-0.090987995
57	0xbd3186cb	-0.04334144
58	0xbeb0b944	-0.34516346
59	0xbf0db799	-0.5535827
60	0x3d024282	0.031801708
61	0xbe2c4a0d	-0.16825123
62	0xbe9ce0a4	-0.30640137
63	0xbf1ac6b2	-0.60459435
64	0xbd63970e	-0.05556398
65	0x3f8a51c9	1.0806209
66	0x3ec793f1	0.38980058
67	0xbe4558c0	-0.19272137
68	0x3ec58c76	0.38583726
69	0xbe1dae98	-0.15398633
70	0xbe0d0574	-0.13771611
71	0x3eb47039	0.3524187
72	0x3cd46897	0.025928779
73	0x3ea2da39	0.31807116
74	0x3eaf5015	0.34240785
75	0x3e99c704	0.3003465
76	0xbf647a22	-0.8924886
77	0x3d9824c5	0.07428888
78	0x3eb9376e	0.36175102
79	0x3dc69dd0	0.09698069
80	0xbe9cc185	-0.30616394
81	0xbf4724ec	-0.77790713
82	0xbf02b6ef	-0.51060385
83	0xbee8b3c0	-0.45449638
84	0xbdbfbdf3	-0.09362402
85	0xbe46a090	-0.19397187
86	0x3c74833f	0.01492387
87	0x3e84f359	0.2596691
88	0xbdba4b3d	-0.09096382
89	0xbe9e2c50	-0.30893183
90	0xbeaace29	-0.33360413
91	0xbd8fa3d6	-0.07013671
92	0xbeefb360	-0.4681654
93	0xbe07de11	-0.13268305
94	0xbe025963	-0.12729411
95	0xbdd2f7d2	-0.10301174
96	0x3deff2da	0.11716242
97	0xbed60c58	-0.41806293
98	0x3e5dc1a6	0.21655902
99	0x3d59a0ee	0.05313199
100	0xbd7e4094	-0.062073305
101	0xbe3acf3c	-0.18243116
102	0xbe9210fd	-0.28528586
103	0xbe440eb6	-0.19146237
104	0xbe405004	-0.18780524
105	0xbe865ffa	-0.262451
106	0xbdac7514	-0.084207684
107	0x3c5f7000	0.013637543
108	0x3da4e6a3	0.08051803
109	0x3d25d8b9	0.040489886
110	0xbe9687db	-0.29400524
111	0xbebf1099	-0.3731735
112	0x3f1cd633	0.6126434
113	0x3f202b83	0.62566394
114	0xbf3bf7e0	-0.734251
115	0xbf36dcc3	-0.71430606
116	0xbf186d9c	-0.5954225
117	0xbeef8ae6	-0.4678566
118	0xbe54f6db	-0.20797293
119	0xbd679d57	-0.056546535
120	0xbe527f33	-0.20556335
121	0xbe937565	-0.28800502
122	0xbeae9638	-0.34098983
123	0xbe4a035d	-0.19727845
124	0xbd5aa0df	-0.053376075
125	0x3b5d1342	0.0033733402
126	0xbcb03051	-0.021507414
127	0xbe467f9c	-0.19384617
128	0xbcd91be9	-0.026502566
129	0xbe9e66c0	-0.30937767
130	0xbde2a806	-0.11067204
131	0xbd0af572	-0.03392548
132	0xbe85f045	-0.26159874
133	0x3df94fad	0.121734
134	0xbea9aaa3	-0.33137998
135	0x3d9f3ce6	0.07775287
136	0xbe78bd07	-0.24290858
137	0xbeccf637	-0.40031597
138	0xbf1ddcb6	-0.61664903
139	0xbeb8d105	-0.3609697
140	0xbe4aa5f8	-0.19789875
141	0xbd8cb582	-0.06870557
142	0xbf1b23e0	-0.60601616
143	0x3eaa0199	0.33204344
144	0xbe050de4	-0.1299358
145	0xbea7d30f	-0.32778212
146	0x3e120bdb	0.14262335
147	0xbe90afaf	-0.28259036
148	0x3eaadc46	0.3337118
149	0xbd5f5ded	-0.054532934
150	0xbe46ca37	-0.19413076
151	0xbf17a73e	-0.59239566
152	0x3f9fd24d	1.2486054
153	0xbecc2d15	-0.39878145
154	0x3e76a500	0.2408638
155	0x3efd3ccd	0.4946045
156	0x3e9c1494	0.3048445
157	0x3e65d353	0.22443895
158	0xbe478b7b	-0.19486801
159	0xbe969dd4	-0.29417288
160	0xbdc12499	-0.094308086
161	0xbe6a8ecb	-0.22906034
162	0xbf0a8b2d	-0.54118615
163	0xbf1627b9	-0.5865436
164	0xbec15b68	-0.3776505
165	0xbe90fd22	-0.28318125
166	0xbeee680e	-0.46563762
167	0x3cad3b71	0.021146508
168	0xbf54cad4	-0.8312199
169	0xbdefea87	-0.117146544
170	0x3d45880f	0.04822546
171	0xbe6ddc9d	-0.23228689
172	0x3ce47175	0.027886132
173	0xbdaf388a	-0.08555706
174	0x3e1351fa	0.1438674
175	0x3f5eb918	0.8700118
176	0x3e3bbc0b	0.18333451
177	0xbe977602	-0.2958222
178	0xbde4f029	-0.111786194
179	0xbdf5185f	-0.11967539
180	0x3ca086d8	0.019595549
181	0x3df1b547	0.11802154
182	0xbe99732e	-0.29970688
183	0x3de1be23	0.11022594
184	0x3f32b44f	0.6980638
185	0x3ef2558f	0.473309
186	0x3de797df	0.11308264
187	0xbd0ed24f	-0.034868535
188	0xbe4980a2	-0.19677976
189	0xbeace173	-0.33765754
190	0xbf061606	-0.52377355
191	0x3cc6cf1b	0.024268677
192	0x3c790ebb	0.015201266
193	0x3d81d12c	0.063387245
194	0xbe4de5d4	-0.20107204
195	0xbe815fb0	-0.25268316
196	0xbe02dc09	-0.12779249
197	0xbd869304	-0.0657101
198	0xbe97539f	-0.29555985
199	0xbeaeeafd	-0.34163657
200	0x3ed810a7	0.42200205
201	0xbe32d1a2	-0.17462781
202	0xbea93f63	-0.33056173
203	0xbeac4e71	-0.33653596
204	0xbee39fad	-0.4445776
205	0xbeadbdd3	-0.33933887
206	0xbe9faef5	-0.3118817
207	0xbdd37710	-0.10325444
208	0xbf2a3ac8	-0.66495943
209	0xbd6a8df7	-0.057264294
210	0x3df97581	0.12180615
211	0xbefc2227	-0.49244806
212	0xbd609d19	-0.05483732
213	0xbdbb311c	-0.09140226
214	0xbe1680a8	-0.14697516
215	0x3b9a3590	0.004706092
216	0xbf214bb1	-0.6300612
217	0xbe86561b	-0.26237568
218	0xbed2e4b4	-0.41190112
219	0x3ded7d24	0.11596134
220	0xbdf368d7	-0.11885231
221	0xbd43c63f	-0.047796484
222	0xbe3b0f70	-0.18267608
223	0xbe65eaa5	-0.22452791
224	0xbca66c4b	-0.02031531
225	0xbe21c366	-0.15797195
226	0xbb072f6f	-0.0020627638
227	0x3d1525dd	0.036413062
228	0x3d6b1b66	0.057399176
229	0xbe714fee	-0.23565647
230	0xbe570a59	-0.21000041
231	0xbed179da	-0.40913278
232	0xbd9f67ab	-0.07783445
233	0xbe894f03	-0.26818094
234	0xbe839f13	-0.25707301
235	0xbe866579	-0.26249292
236	0xbe1afa6e	-0.15134594
237	0x3e1e854b	0.15480535
238	0xbc4de964	-0.012567852
239	0xbe282314	-0.16419631
240	0x3d02c65e	0.03192746
241	0xbe23a115	-0.15979417
242	0x3ec49d8e	0.38401455
243	0xbe59f63a	-0.21285334
244	0xbea27f4c	-0.31737745
245	0xbe3ac6b2	-0.18239859
246	0xbc755c85	-0.014975672
247	0xbc843256	-0.016137283
248	0xbe968d3a	-0.29404622
249	0xbe6390f4	-0.22223264
250	0x3f9b3add	1.2127339
251	0x3e3ec8d1	0.18631293
252	0x3d551b39	0.052027915
253	0xbf06fbc9	-0.52727944
254	0xbf202e66	-0.625708
255	0x3e108992	0.14114979

layer1.weight_sigma f4 [256, 11]
0	0x3e03586f	0.12826703
1	0xbd9b53ce	-0.07584344
2	0x3dfb6b09	0.12276275
3	0x3d4593ba	0.048236586
4	0x3e54f18f	0.20795272
5	0x3e196ce0	0.14982939
6	0x3dec1a9c	0.11528513
7	0x3e1bc717	0.15212665
8	0xbaf11c42	-0.0018395262
9	0xbe582e8f	-0.2111151
10	0x3dc7a165	0.097475804
11	0xbef98d63	-0.48740682
12	0x3e9e0851	0.3086572
13	0x3f2deaa5	0.67936164
14	0x3ed01198	0.40638423
15	0xbe28d5fa	-0.16487876
16	0xbe09ec03	-0.13468938
17	0x3d0a9b4c	0.03383951
18	0xbe82c2eb	-0.25539336
19	0x3dae85f1	0.08521641
20	0x3e11e40c	0.14247149
21	0xbe14df64	-0.14538342
22	0xbe80abc4	-0.25131047
23	0x3e470254	0.19434482
24	0xbd1ace41	-0.037794355
25	0xbcb355c4	-0.021891482
26	0x3d82f1fc	0.06393811
27	0xbdb97fd6	-0.09057586
28	0xbe10e2fd	-0.14149089
29	0xbceeaa54	-0.029133953
30	0xbe20fd4c	-0.15721625
31	0xbcc90ab2	-0.024541233
32	0xbe94a659	-0.29033163
33	0x3e909146	0.28235835
34	0x3ddceaca	0.1078697
35	0x3eaf37c1	0.34222224
36	0x3de442d6	0.111455604
37	0x3e578b25	0.21049173
38	0x3e7491a3	0.23883681
39	0x3e1e826f	0.15479444
40	0xbe6a8946	-0.22903928
41	0x3e67df35	0.2264374
42	0xbda27a22	-0.07933451
43	0x3c52e0f5	0.012871017
44	0xbbb376e4	-0.0054768194
45	0xbe20836c	-0.15675133
46	0x3ddb6901	0.10713387
47	0xbc726784	-0.014795188
48	0xbde4d1d8	-0.11172837
49	0x3d19c889	0.03754476
50	0xbe3aea47	-0.18253432
51	0x3e46a598	0.19399107
52	0x3d8dff52	0.06933464
53	0xbc8bd092	-0.017067228
54	0xbe437341	-0.19086935
55	0xbb01ea72	-0.0019823578
56	0x3d2617fc	0.040550217
57	0xbdddfddb	-0.10839435
58	0xbd3b2b70	-0.045695722
59	0x3c76ac84	0.015055779
60	0xbc9ceca7	-0.019155813
61	0x3d07d862	0.033165343
62	0xbdc06f90	-0.09396279
63	0xbd5ab820	-0.05339825
64	0x3e6d2b15	0.23160966
65	0xbe0e518f	-0.138983
66	0xbd69bb7b	-0.05706356
67	0xbdfbdfa2	-0.12298514
68	0x3aaf3824	0.0013368172
69	0xbdc7c5db	-0.09754535
70	0xbe53a1f7	-0.20667253
71	0xbd7a3b78	-0.06109187
72	0xbddd637d	-0.108099915
73	0x3c2447c0	0.010026872
74	0xbe0a8f0d	-0.13531132
75	0x3b885527	0.0041605416
76	0x3e67ba4e	0.22629663
77	0xbef18aad	-0.47176114
78	0xbdc3a57d	-0.09553049
79	0x3cdf865e	0.027285751
80	0xbe84f6d2	-0.2596956
81	0x3c5085ff	0.01272726
82	0xbdaeb0d9	-0.08529825
83	0x3d20df2b	0.03927533
84	0x3d0ff342	0.035144098
85	0x3de694b1	0.112588294
86	0xbd19364a	-0.03740529
87	0x3e782872	0.24234179
88	0x3dc9dc13	0.09856429
89	0xbddfad78	-0.109217584
90	0x3dd30772	0.103041545
91	0x3e63d63a	0.2224969
92	0x3d5a8fa4	0.053359643
93	0x3d12d4a3	0.035847317
94	0x3d296591	0.041356627
95	0x3c845dfc	0.016158096
96	0xbe882738	-0.26592422
97	0x3dee2280	0.11627674
98	0x3db895e7	0.090129666
99	0x3d1c527e	0.03816461
100	0x3ba7f56e	0.005125693
101	0x3ba7f56e	0.005125693
102	0x3ba7f56e	0.005125693
103	0x3ba7f56e	0.005125693
104	0x3ba7f56e	0.005125693
105	0x3ba7f56e	0.005125693
106	0x3ba7f56e	0.005125693
107	0x3ba7f56e	0.005125693
108	0xbd2c64aa	-0.04208819
109	0x3b9ccaf8	0.004784938
110	0x3e35f4cf	0.17769168
111	0xbc2501de	-0.010071246
112	0x3dd3d91d	0.103441454
113	0x3d33e28a	0.043917216
114	0xbbb886e0	-0.0056313127
115	0x3df0ff57	0.11767452
116	0xbda8924d	-0.0823103
117	0x3d4e2422	0.050327428
118	0xbe0bee73	-0.1366518
119	0xbd1b2bce	-0.037883572
120	0xbe2d26c7	-0.16909324
121	0xbd7d0856	-0.061775528
122	0xbdac46dd	-0.084119536
123	0xbd82d033	-0.06387367
124	0x3d3f61ff	0.046724316
125	0xbb6095db	-0.0034269008
126	0x3bdd12aa	0.0067466097
127	0xbc6bfa9d	-0.014403013
128	0x3d0bab96	0.034099184
129	0xbd3c0739	-0.045905326
130	0xbdb12619	-0.08649845
131	0x3d9e32b0	0.077245116
132	0x3d883d12	0.06652273
133	0x3db1bff8	0.08679193
134	0xbdb8a8bb	-0.09016558
135	0xbe11e8c1	-0.14248945
136	0x3dd5cb22	0.10439135
137	0x3b0f8b7d	0.002190321
138	0x3d1b18e8	0.03786555
139	0x3b80ce3f	0.0039308365
140	0x3e2425d6	0.16030058
141	0xbe5b37c5	-0.21407993
142	0xbcf1d0ee	-0.02951857
143	0x3af68046	0.0018806539
144	0x3dcc97ac	0.099898666
145	0x3c0bad99	0.008525276
146	0x3d8e5c7a	0.06951232
147	0xbc8c4fdd	-0.017127926
148	0x3d2756bb	0.040854197
149	0xbdc14731	-0.09437407
150	0x3b57da3e	0.003293648
151	0xbddfd5f3	-0.109294794
152	0x3d255ce1	0.04037178
153	0xbdeef33f	-0.11667489
154	0x3d665195	0.056230146
155	0xbcf8a36e	-0.030351367
156	0xbaec4d94	-0.0018028491
157	0xbd0b018e	-0.03393703
158	0x3d0568e6	0.032570742
159	0xbd1af19a	-0.037828065
160	0x3cdee9ee	0.027211156
161	0xbe1fe96b	-0.15616386
162	0x3d39f1e1	0.04539669
163	0x3d99c6a1	0.075085886
164	0xbd181d9c	-0.037137613
165	0xbdcd6c56	-0.10030429
166	0x3e1746a2	0.14773038
167	0x3ca05428	0.019571379
168	0x3db28579	0.08716864
169	0xbe54d53b	-0.20784466
170	0x3dec5991	0.11540521
171	0xbd1a3a94	-0.03765352
172	0x3e423ae1	0.18967773
173	0x3dce1911	0.10063375
174	0xbda823ba	-0.08209939
175	0x3d27e086	0.040985607
176	0xbe829944	-0.25507557
177	0x3d9d9429	0.07694275
178	0xbd59c68e	-0.053167872
179	0xbd91efc2	-0.07125808
180	0x3dbe6ce0	0.0929811
181	0xbe0c1147	-0.13678466
182	0x3e795958	0.24350488
183	0x3cb16b67	0.021657659
184	0x3d849f91	0.064757474
185	0xbe2bb50b	-0.16768281
186	0xbd535690	-0.051596224
187	0x3d40d0d4	0.047074154
188	0x3da0117e	0.07815836
189	0x3df77cd3	0.12084355
190	0x3c5405ec	0.012940865
191	0x3d794a25	0.060861725
192	0x3df6aeff	0.120450966
193	0x3c448a76	0.011995902
194	0x3ca944e2	0.020662729
195	0xbcefd3c3	-0.02927578
196	0xbd374aff	-0.044749256
197	0xbcfa1559	-0.030527757
198	0xbdf1e145	-0.11810545
199	0xbb10d0f6	-0.0022097207
200	0xbdbdbe7a	-0.09264846
201	0xbdfa45f3	-0.12220373
202	0xbb8fa272	-0.0043833787
203	0xbbc21609	-0.005923037
204	0xbd0c2c77	-0.034222092
205	0x3d037870	0.03209728
206	0x3e52d40c	0.20588702
207	0xbde8055a	-0.11329146
208	0xbc94b6f8	-0.018153653
209	0x3cb3b741	0.021937968
210	0xbde5b34d	-0.112158395
211	0x3de1684e	0.11006223
212	0xbc9978b2	-0.01873431
213	0xbdd3f157	-0.10348766
214	0xbd8c382b	-0.06846651
215	0xbde81872	-0.113327876
216	0xbcba67cc	-0.022754572
217	0xbe8b36b2	-0.27190167
218	0x3e3dfee4	0.18554264
219	0x3e4b2fec	0.198425
220	0xbbe643d6	-0.0070271296
221	0x3d136722	0.035987027
222	0xbdec3e34	-0.11535302
223	0xbd0d7140	-0.03453183
224	0xbbc21418	-0.0059228055
225	0x3c080639	0.008302265
226	0x388f14f7	6.8226764e-05
227	0xbcb37b6b	-0.021909436
228	0xbca65bed	-0.020307506
229	0xbd5efb9d	-0.054439176
230	0xbd497e7a	-0.049192883
231	0xbe0a1e5d	-0.13488145
232	0x3b0f6072	0.0021877554
233	0x3dfd3a42	0.123646274
234	0xbd90a537	-0.07062762
235	0xbdb31e89	-0.087460585
236	0xbd901a2d	-0.07036243
237	0x3d3fee3b	0.046858054
238	0x3bbd5a52	0.0057785893
239	0xbb5037f8	-0.0031771641
240	0xbdb97bcb	-0.09056815
241	0xbd8f54da	-0.06998606
242	0xbe703aba	-0.23459902
243	0x3e72479b	0.23660128
244	0x3ea31f5f	0.31859872
245	0xbd1ffdbb	-0.039060336
246	0x3d13e2f7	0.036105122
247	0xbe25695b	-0.16153471
248	0x3c54253b	0.01294833
249	0xbdd68072	-0.10473718
250	0xbdfbadd3	-0.12289014
251	0x3eb7acb5	0.35873953
252	0xbe000d9d	-0.12505193
253	0x3d91a5d1	0.07111705
254	0xbbfa8495	-0.0076451995
255	0xbc3b042e	-0.011414571

layer1.bias_mu f4 [256]
0	0xbec32acd	-0.38118592
1	0xbee9edf7	-0.45689365
2	0xbeee39c8	-0.4652846
3	0xbe4a170f	-0.19735359
4	0xbe4c52a5	-0.19953401
5	0xbcf9d1a6	-0.030495476
6	0xbead9a09	-0.33906582
7	0xbe8964f7	-0.26834843
8	0xbeeb9048	-0.46008515
9	0xbeb98175	-0.3623158
10	0x3e19c855	0.15017827
11	0xbea45663	-0.32097158
12	0xbeff3ed1	-0.49852613
13	0x3e930eaa	0.28722125
14	0x3f1d736d	0.6150425
15	0xbe6e00d7	-0.23242508
16	0xbe97c9a4	-0.29646027
17	0xbee2f1cf	-0.4432511
18	0xbd9e0848	-0.07716423
19	0x3d5c497b	0.053781014
20	0xbe9c8ea0	-0.30577564
21	0xbeb6f084	-0.35730374
22	0xbe88d420	-0.2672434
23	0xbeac64e5	-0.33670726
24	0xbeafd313	-0.34340724
25	0x3d8c4a32	0.06850089
26	0xbe75fef6	-0.24023041
27	0xbe16dff2	-0.14733866
28	0xbf0a8b9e	-0.5411929
29	0xbd46f0a7	-0.048569348
30	0x3d244e08	0.04011348
31	0xbec0e644	-0.3767568
32	0xbea9368c	-0.33049428
33	0xbe7714c5	-0.24129017
34	0xbedf6d81	-0.43638232
35	0xbe3fcc70	-0.1873033
36	0xbd0d40be	-0.03448557
37	0x3d8917b2	0.06693973
38	0xbedaca67	-0.42732546
39	0xbdd6af04	-0.104826
40	0xbdb97f8e	-0.09057532
41	0x3e17d641	0.14827825
42	0x3e897029	0.26843384
43	0xbeb6eee1	-0.35729125
44	0xbec2ae77	-0.3802373
45	0xbef6cc2f	-0.48202655
46	0xbf0083b7	-0.5020098
47	0x3f37e21a	0.7182938
48	0xbee3261e	-0.4436502
49	0xbea91976	-0.33027238
50	0xbf1d37eb	-0.6141345
51	0xbe340a5f	-0.17582081
52	0xbe872a15	-0.26399294
53	0xbed92e2f	-0.42418048
54	0x3cb7b197	0.022423549
55	0xbe9a965e	-0.30192846
56	0xbe556ebb	-0.20843022
57	0xbe92a093	-0.28638133
58	0xbed6b523	-0.4193507
59	0xbeb4524a	-0.35219032
60	0xbe5bbc14	-0.21458465
61	0xbed060f1	-0.4069896
62	0xbecd9ccb	-0.40158686
63	0x3ed4fa8d	0.41597405
64	0xbef61a93	-0.4806715
65	0xbe8e7c80	-0.2782936
66	0xbeaa71f7	-0.33290073
67	0x3d88b286	0.06674676
68	0xbe971215	-0.29505983
69	0xbe871b90	-0.26388216
70	0xbeef7519	-0.46769026
71	0xbecf3ae2	-0.40474612
72	0xbec313c5	-0.3810102
73	0xbd47df0e	-0.048796706
74	0xbe97feea	-0.29686671
75	0xbefbd79c	-0.49187934
76	0xbec1e9e4	-0.37873757
77	0xbee1d3d2	-0.4410692
78	0x3f16effa	0.58959925
79	0xbe359833	-0.1773384
80	0x3ed05093	0.40686473
81	0x3ca6e1ea	0.020371396
82	0xbe7453d9	-0.2386011
83	0xbeb5b6bd	-0.3549098
84	0xbe287f76	-0.16454872
85	0xbed6a7a8	-0.41924787
86	0xbed1ec09	-0.41000393
87	0xbe34348f	-0.17598175
88	0xbe435df4	-0.19078809
89	0xbdd7a2db	-0.10529109
90	0xbeb6a0b6	-0.35669488
91	0xbe759fea	-0.23986784
92	0xbe8486a1	-0.25883964
93	0xbf0497b3	-0.51793975
94	0xbeaf0d30	-0.3418975
95	0xbee72234	-0.45143282
96	0x3f098eb2	0.5373336
97	0x3ecc12fd	0.39858237
98	0xbe832c67	-0.25619814
99	0xbd3b0566	-0.045659445
100	0xbe580b0b	-0.21097963
101	0xbed05b77	-0.40694782
102	0xbe499408	-0.19685376
103	0xbeba9f1a	-0.3644951
104	0x3d849ca8	0.06475192
105	0xbe539383	-0.2066174
106	0x3ef1f7d6	0.47259396
107	0x3e8a19dc	0.26972854
108	0xbe5ee38a	-0.21766487
109	0xbd21b7c9	-0.03948191
110	0xbd85bd40	-0.06530237
111	0x3dbe7450	0.092995286
112	0xbecbd019	-0.39807203
113	0xbf11f159	-0.5700889
114	0xbdb20b48	-0.08693558
115	0xbe405621	-0.18782856
116	0xbf1fd25b	-0.6243035
117	0xbe5c0d01	-0.21489336
118	0xbeb90dcc	-0.3614334
119	0xbee0b9d4	-0.43891776
120	0xbecd0095	-0.40039507
121	0xbe8b92a2	-0.2726031
122	0xbf0e25bc	-0.5552633
123	0xbeead280	-0.45863724
124	0xbe8c65db	-0.2742146
125	0xbecf6a8c	-0.40510976
126	0x3f14d1a9	0.58132416
127	0xbf0bfeb7	-0.5468554
128	0xbf23f0e7	-0.6403946
129	0xbdca1ee4	-0.09869173
130	0xbeef279b	-0.46709904
131	0xbea18e73	-0.31553993
132	0xbe15d5e8	-0.1463238
133	0xbed684e5	-0.41898265
134	0xbec3b3cc	-0.38223112
135	0xbdb69850	-0.0891577
136	0xbe79923c	-0.2437219
137	0xbddc2a76	-0.10750286
138	0xbec3a1a3	-0.38209257
139	0x3e822313	0.25417385
140	0xbe01d372	-0.12678316
141	0x3e8172c1	0.25282863
142	0xbf003c78	-0.5009227
143	0xbebe457e	-0.37162393
144	0xbe80758d	-0.25089684
145	0x3da8a1df	0.082339995
146	0x3e16b5fc	0.14717859
147	0xbe5b6ff9	-0.21429433
148	0xbe6eed22	-0.23332646
149	0xbeda3358	-0.42617297
150	0xbe8245b8	-0.25443816
151	0xbe83aa68	-0.25715947
152	0xbe4f1379	-0.20222272
153	0xbef0f86c	-0.4706453
154	0xbe3ef091	-0.18646456
155	0x3cba57d5	0.02274696
156	0xbbb8e826	-0.0056429086
157	0xbf0fff65	-0.56249076
158	0xbed03a9c	-0.40669715
159	0x3d8e40ae	0.069459304
160	0xbe6825f4	-0.22670728
161	0xbea73bde	-0.32662863
162	0xbe9daa53	-0.3079401
163	0xbe4b3a57	-0.19846474
164	0xbe32ce67	-0.17461549
165	0x3f0c2e26	0.54757917
166	0xbe3a7006	-0.18206796
167	0xbeeff0f3	-0.46863517
168	0xbf11dae0	-0.569746
169	0xbdf4d4ac	-0.119546264
170	0xbf3fc8b8	-0.7491565
171	0xbe374a3c	-0.17899412
172	0xbf284763	-0.6573393
173	0xbec8fb5d	-0.39254275
174	0xbeabd19e	-0.33558363
175	0x3bcb9609	0.006212954
176	0xbeda9fa6	-0.42699927
177	0xbea7a6b9	-0.32744387
178	0xbef343ea	-0.47512752
179	0xbe9aa689	-0.3020518
180	0xbdecefb2	-0.11569156
181	0xbe17de76	-0.14830956
182	0xbe0dd6d5	-0.13851483
183	0xbec5562b	-0.38542303
184	0xbf031b55	-0.5121358
185	0x3f16ac05	0.5885623
186	0xbf06a5f0	-0.5259695
187	0xbe7dfae6	-0.24802741
188	0xbed5022c	-0.4160322
189	0xbebb3b38	-0.36568618
190	0xbd249974	-0.040185407
191	0x3eff56c8	0.49870896
192	0xbe8dfb75	-0.2773091
193	0xbf013b3e	-0.5048102
194	0xbe887957	-0.26655075
195	0x3f3adb31	0.7299071
196	0xbebd4105	-0.36963668
197	0xbe8d359f	-0.27579972
198	0xbec90add	-0.392661
199	0xbd84e2d6	-0.06488578
200	0x3ea01a2f	0.31269976
201	0x3eb2e651	0.34941342
202	0xbebaf533	-0.36515197
203	0xbe8b9bf4	-0.2726742
204	0xbe350b48	-0.17680085
205	0xbe9f4d57	-0.31113693
206	0xbe522570	-0.20522094
207	0xbef5d38d	-0.48012963
208	0xbeee2648	-0.4651358
209	0xbe97059c	-0.29496467
210	0xbea53fa2	-0.3227511
211	0xbd95ea5f	-0.07320093
212	0x3ec0b59b	0.37638554
213	0xbee8cafa	-0.4546736
214	0xbed7de4b	-0.42161784
215	0xbeaf1221	-0.3419352
216	0xbed65fea	-0.41870052
217	0xbed4cd88	-0.41563058
218	0x3f52dd41	0.82368857
219	0xbead0d6a	-0.33799297
220	0xbebe1ff3	-0.3713375
221	0xbd8be3bc	-0.06830546
222	0xbeaa7e02	-0.3329926
223	0xbe36de0f	-0.17858146
224	0xbd5b74a5	-0.053578038
225	0xbec69669	-0.3878663
226	0xbe48e548	-0.19618714
227	0xbf106374	-0.56401753
228	0xbe1cb0db	-0.1530184
229	0xbe39c817	-0.18142734
230	0xbe903398	-0.28164363
231	0x3d22e5db	0.03976999
232	0xbe439a62	-0.19101861
233	0xbf68f983	-0.91005725
234	0xbf05ddbb	-0.5229146
235	0xbe00d626	-0.12581691
236	0xbe2f08f7	-0.17093264
237	0xbef54572	-0.47904545
238	0xbe2da37a	-0.16956893
239	0x3edd2b0c	0.43196905
240	0x3f262087	0.6489338
241	0xbe3e45d2	-0.18581322
242	0xbe0635d7	-0.13106476
243	0xbe6d5428	-0.23176634
244	0xbe43961f	-0.19100235
245	0xbec000c4	-0.37500584
246	0xbe889b68	-0.26681066
247	0xbde6a3fe	-0.11261748
248	0xbecacdd0	-0.39610147
249	0xbdd229d7	-0.102618866
250	0xbe260549	-0.16212954
251	0xbf3b0585	-0.730553
252	0x3e8c2748	0.2737372
253	0xbf277257	-0.65408844
254	0xbf045e39	-0.5170627
255	0x3f081ddc	0.5317056

layer1.bias_sigma f4 [256]
0	0x3e6e7d8a	0.23290077
1	0xbeab88ad	-0.33502713
2	0xbe789660	-0.24276114
3	0xbe478d78	-0.1948756
4	0x3d528850	0.05139953
5	0x3cc22c9b	0.02370291
6	0x3ca46e22	0.020072047
7	0x3eabd9cf	0.33564612
8	0x3c564665	0.013078307
9	0xbcb720b3	-0.02235446
10	0xbc3b903b	-0.011447961
11	0xbac0e12d	-0.0014715545
12	0x3d8dae84	0.06918052
13	0xbd518cae	-0.051159553
14	0xbbf6714d	-0.0075208307
15	0xbe1887c6	-0.14895543
16	0x3d972b1a	0.07381268
17	0x3d2a3340	0.041552782
18	0x3d49d526	0.04927554
19	0xbd68cdca	-0.05683688
20	0xbcde7155	-0.02715365
21	0x3d34c6bc	0.04413484
22	0x3e38e03a	0.18054286
23	0x3cb5725b	0.022149255
24	0x3d4f0ec3	0.050551187
25	0x3e493aea	0.1965138
26	0xbe1b77d4	-0.1518243
27	0x3ecee3c9	0.4040816
28	0x3ce8482c	0.028354727
29	0xbe6b7c8e	-0.22996733
30	0x3d8c68c3	0.06855919
31	0xbc64afa9	-0.013957896
32	0x3d1b50e7	0.03791895
33	0x3d82175b	0.06352111
34	0xbe3ebfb2	-0.18627813
35	0xbd86ad1c	-0.06575987
36	0xbd6c96f4	-0.057761148
37	0x3d3e7fc7	0.046508577
38	0xbe3850e0	-0.17999601
39	0xbde96687	-0.11396509
40	0x3e1b532c	0.15168446
41	0xbd448c1a	-0.047985174
42	0xbc628d07	-0.013827569
43	0x3d135c3f	0.035976645
44	0xbe54bbae	-0.20774719
45	0xbea3330b	-0.3187488
46	0xbd87d55a	-0.066324905
47	0xbda1644c	-0.07880458
48	0xb99067a3	-0.00027543036
49	0x3ea1e2a3	0.31618223
50	0x3e07e12e	0.13269493
51	0x3d988f69	0.07449228
52	0x3e47ab0e	0.19498846
53	0xbe1338eb	-0.14377181
54	0x3b780008	0.0037841816
55	0xbd3f7177	-0.046739068
56	0xbe588f0f	-0.21148323
57	0x3e89165f	0.2677488
58	0xbccb5843	-0.02482236
59	0xbd8135e6	-0.063091084
60	0x3ba7f56e	0.005125693
61	0xbd6cc807	-0.05780795
62	0xbd3582e0	-0.044314265
63	0xbdc9c5d9	-0.098521896
64	0xbd57dad0	-0.05269891
65	0xbd162a4f	-0.036661442
66	0x3e3107d3	0.17288141
67	0xbdb40619	-0.087902255
68	0x3ba7f56e	0.005125693
69	0xbd935fae	-0.07195984
70	0x3e27e54f	0.16396068
71	0xbbc2c7db	-0.005944235
72	0xbcce80af	-0.025207845
73	0xbe71991d	-0.23593564
74	0x3dba9e81	0.091122635
75	0x3d3c0b0c	0.045908973
76	0xbe946a31	-0.28987268
77	0xbd7d496f	-0.06183761
78	0x3de08525	0.10962895
79	0x3cdc1037	0.0268632
80	0x3da4e2c6	0.08051066
81	0x3d8b43d3	0.06800046
82	0x3de6f501	0.112771995
83	0x3e0299b8	0.12753952
84	0x3ce238b2	0.027614925
85	0x3e859b31	0.26094964
86	0x3ec5a7fb	0.3860472
87	0xbc8a6624	-0.016894408
88	0xbcab7f17	-0.020934625
89	0xbe94789c	-0.28998268
90	0xbdd08e6c	-0.10183415
91	0x3d77bf80	0.060485363
92	0x3c6955ae	0.014241619
93	0xbda51c3e	-0.080620274
94	0x3b956243	0.004558833
95	0xbe7d8138	-0.24756324
96	0xbd6d0be9	-0.057872687
97	0x3d078813	0.033088755
98	0x3dcdbb75	0.1004552
99	0xbe409cf6	-0.18809876
100	0xbdb6a376	-0.089178964
101	0x3dc1baf1	0.09459484
102	0xbe75a8f7	-0.23990236
103	0x3deda2fb	0.11603352
104	0xbcf0d13b	-0.029396644
105	0xbb3cc06f	-0.0028801223
106	0x3df51dc1	0.11968566
107	0xbd9d8e24	-0.07693127
108	0xbe5ec23a	-0.21753779
109	0xbd5b7800	-0.053581238
110	0xbe8c9c2a	-0.27462894
111	0x3dafd7db	0.08586093
112	0xbc92dda9	-0.017927961
113	0xbdfef416	-0.124488994
114	0x3e056079	0.13025083
115	0xbdfd21c5	-0.12359957
116	0xbd8f2c33	-0.06990852
117	0x3e99a8d3	0.30011615
118	0x3e93b350	0.28847742
119	0xbd39f0ae	-0.045395546
120	0xbe99c403	-0.30032358
121	0xbcf0e0a4	-0.029403992
122	0xbc1ef564	-0.00970206
123	0xbdd15a46	-0.102222964
124	0x3d018ff6	0.031631432
125	0xbcd6812b	-0.026184639
126	0xbcf63bca	-0.030057807
127	0x3c7b9202	0.015354635
128	0x3d3121f3	0.043245267
129	0x3dddcf02	0.10830499
130	0x3ced9ed3	0.029006397
131	0xbc9dcd2c	-0.019262873
132	0x3e8367e0	0.25665188
133	0x3cc58602	0.024111751
134	0xbd7b31a5	-0.06132664
135	0x3df3205d	0.11871407
136	0xbdcd1dc1	-0.10015441
137	0x3ba7f56e	0.005125693
138	0x3d0ef8d8	0.034905285
139	0x3d70783d	0.05870842
140	0xbe49978d	-0.19686718
141	0x3da50acf	0.08058702
142	0xbb11b3c4	-0.0022232393
143	0x3e1f3b75	0.15550025
144	0x3d114a91	0.035471503
145	0x3e205a55	0.15659459
146	0x3e077986	0.13229951
147	0x3b98b037	0.0046596783
148	0x3db58869	0.08863909
149	0x3e98590c	0.29755437
150	0x3d0aac7c	0.0338559
151	0x3bdb2443	0.0066876723
152	0xbc7b5244	-0.015339438
153	0xbe99fc18	-0.30075145
154	0x3ba7f56e	0.005125693
155	0x3d5704a0	0.052494645
156	0x3cf90b67	0.030400945
157	0x3daa4281	0.08313466
158	0x3a58a5cd	0.00082644523
159	0x3d9be78b	0.07612523
160	0x3ceb0173	0.028687214
161	0xbc195487	-0.009358532
162	0xbd04d065	-0.032425303
163	0xbcd3e6a2	-0.02586681
164	0xbd6bdfc0	-0.05758643
165	0xbd9a90b9	-0.07547135
166	0x3dd2ffdd	0.10302708
167	0xbd72264a	-0.059118547
168	0x3e48e2de	0.19617793
169	0xbe4a48b3	-0.19754295
170	0xbd9b843f	-0.07593583
171	0x3c439ff7	0.011939994
172	0x3da73df0	0.081661105
173	0xbe0e42b0	-0.13892627
174	0xbece22f2	-0.40261036
175	0xbc8bcffb	-0.017066946
176	0xbd1d783f	-0.038444754
177	0xbd023b1f	-0.031794664
178	0x3de9592d	0.11393962
179	0xbb6ecd4c	-0.0036438284
180	0xbe4a288a	-0.19742027
181	0x3ec7663f	0.38945195
182	0xbcafb572	-0.021448825
183	0x3e11bf34	0.14233094
184	0xbac85ed7	-0.0015287054
185	0x3dac6347	0.08417373
186	0xbd71439d	-0.05890237
187	0x3ba7f56e	0.005125693
188	0x3e4e40c2	0.2014189
189	0x3e0bdc23	0.13658194
190	0x3c911c1d	0.0177136
191	0xbe110335	-0.1416138
192	0xbcb75e2b	-0.02238377
193	0xb9e65018	-0.00043928693
194	0x3ce253ca	0.027627844
195	0x3d03a362	0.032138236
196	0x3e9da6b1	0.30791238
197	0x3e7ccc0e	0.24687216
198	0xbd46f9a3	-0.048577916
199	0x3e6241b0	0.2209537
200	0x3dc50c90	0.09621537
201	0x3df48b5d	0.11940644
202	0x3e0808b3	0.13284568
203	0x3c8b1eae	0.016982403
204	0xba7f7c7c	-0.00097460276
205	0x3e6cc2c2	0.23121169
206	0x3d81e222	0.063419595
207	0x3d832fb7	0.06405585
208	0xbe0618ce	-0.130954
209	0x3db39912	0.0876943
210	0xbe024d4f	-0.12724803
211	0x3db71c41	0.08940936
212	0x3c0e75be	0.008695064
213	0xbe6771e8	-0.22602046
214	0x3d5a46b9	0.053290103
215	0xbea18bb7	-0.31551906
216	0x3d2fc209	0.042909656
217	0xbe002f7c	-0.12518114
218	0xbda197b2	-0.07890262
219	0xbdba3d94	-0.09093776
220	0x3e0419b3	0.12900428
221	0xbc569289	-0.01309646
222	0x3d20074a	0.03906945
223	0xbe11a350	-0.14222455
224	0xbc72ad61	-0.014811845
225	0x3ec002da	0.37502176
226	0x3d669918	0.056298345
227	0x389d9396	7.5138334e-05
228	0x3e1e122f	0.15436624
229	0xbd231dff	-0.03982353
230	0x3c37e8b0	0.011224911
231	0x3d767c32	0.060177036
232	0x3e65922d	0.22419043
233	0xbe3719ca	-0.17880931
234	0x3c67b4df	0.014142244
235	0x3d43e593	0.04782636
236	0x3e85cd7d	0.26133338
237	0xbdeb439e	-0.11487506
238	0xbd18eaeb	-0.03733341
239	0x3ccfcaaf	0.025365202
240	0x3d4336b5	0.047659595
241	0x3ba7f56e	0.005125693
242	0x3cd23623	0.02566058
243	0xbe05e349	-0.13074984
244	0xbc870341	-0.016481044
245	0x3e4db8f5	0.20090087
246	0x3e672a65	0.22574766
247	0xbd398bac	-0.045299217
248	0x3c07c510	0.008286729
249	0x3da0849a	0.07837792
250	0x3cf4eecd	0.029899025
251	0x3d5043ea	0.050846018
252	0xbd100f0c	-0.0351706
253	0xbd8b9d3d	-0.068171
254	0x3e2d2b33	0.1691101
255	0x3da1f458	0.07907933

layer2.weight_mu f4 [3, 256]
0	0xbe101639	-0.14070977
1	0xbe7a21e2	-0.24426988
2	0xbcd82eae	-0.026389446
3	0xbf0cffa3	-0.5507757
4	0x3dab7e24	0.08373669
5	0x3e4e5c7e	0.2015247
6	0x3bd516a8	0.006502945
7	0xba1d9590	-0.0006011361
8	0x3d34a97f	0.044106957
9	0xbcaa9605	-0.020823488
10	0xbeae2caf	-0.34018466
11	0x3dad165d	0.08451531
12	0xbd2239e9	-0.03960601
13	0x3eb546eb	0.3540567
14	0x3eaeae9e	0.34117597
15	0xbd5061d5	-0.05087455
16	0xbe86c7fe	-0.26324457
17	0xbc62d485	-0.013844614
18	0xbf20bddd	-0.6278971
19	0x3d9908ba	0.074723676
20	0xbc30f394	-0.010800261
21	0x3c92a900	0.017902851
22	0xbedc0916	-0.42975682
23	0xbdd976ab	-0.10618337
24	0xbd7d14a0	-0.061787248
25	0xbe5091fe	-0.20368192
26	0xbde40974	-0.111346155
27	0xbf08ce7a	-0.5344006
28	0x3dd36156	0.103213
29	0xbe26922a	-0.16266695
30	0x3df62e63	0.12020566
31	0xbc534190	-0.012894049
32	0xbeb8a402	-0.36062628
33	0xbe526738	-0.20547187
34	0xbe549fe8	-0.20764124
35	0xbd388517	-0.0450488
36	0xbde6da8d	-0.11272154
37	0x3dd8f419	0.10593433
38	0xbe3156bc	-0.17318243
39	0xbeb565e5	-0.35429302
40	0xbd824259	-0.06360311
41	0x3e93d811	0.28875783
42	0xbe48ebcc	-0.196212
43	0xbe06c369	-0.1316048
44	0xbdfa14a5	-0.12210969
45	0xbea72d9b	-0.32651982
46	0x3dd246fe	0.10267447
47	0x3ec8fb02	0.39254004
48	0x3d561757	0.052268352
49	0xbe59d57d	-0.21272846
50	0xbd470758	-0.048590988
51	0x3d81de28	0.06341201
52	0x3e00b78f	0.12570022
53	0xbe1d4a47	-0.15360366
54	0x3d90e8a7	0.07075625
55	0xbbb33825	-0.0054693394
56	0xbe25cbeb	-0.1619107
57	0xbe011b0e	-0.12607977
58	0xbd9fe002	-0.07806398
59	0xbd0dc560	-0.03461206
60	0xbd674d76	-0.056470357
61	0xbe27703e	-0.16351411
62	0xbcd7a1c7	-0.026322259
63	0x3ed24089	0.4106486
64	0xbd1b7d37	-0.03796121
65	0x3d893771	0.06700028
66	0xbe802019	-0.2502449
67	0x3e727b3e	0.23679826
68	0x3b9c3ba0	0.00476785
69	0xbe0783e9	-0.13233913
70	0xbe4342d2	-0.19068459
71	0x3cb3cc85	0.021948108
72	0x3d7064e8	0.05868998
73	0xbe297e28	-0.16552031
74	0x3df6eccb	0.120568834
75	0xbd79f151	-0.061021153
76	0xbe90aa9b	-0.28255162
77	0xbe598171	-0.21240784
78	0x3eadbbe2	0.33932406
79	0x3ca4fb35	0.020139316
80	0x3e2eafd1	0.17059256
81	0xbe6a3093	-0.22870092
82	0xbd7f6294	-0.06234987
83	0xbeb80099	-0.35937956
84	0xbd540ae1	-0.051768187
85	0xbe8434c8	-0.2582152
86	0xbe748d80	-0.23882103
87	0xbf0f6622	-0.5601522
88	0x3d6212d4	0.055193737
89	0xbe7fb844	-0.24972636
90	0xbdf224c0	-0.11823416
91	0xbc89639a	-0.016771127
92	0x3d351951	0.044213597
93	0xbe16fcd3	-0.14744882
94	0xbc36bbbd	-0.011153159
95	0xbe1e1857	-0.15438972
96	0x3eff2457	0.49832413
97	0x3e8d25b5	0.2756783
98	0xbece39c8	-0.4027846
99	0xbdd39cdf	-0.10332655
100	0xbd4164c3	-0.047215234
101	0xbe42a75a	-0.19009152
102	0xbe4b23fc	-0.19837946
103	0xbebb405d	-0.36572543
104	0x3e182f05	0.14861687
105	0xbcc1581d	-0.023601586
106	0x3ed6a884	0.41925442
107	0x3e906236	0.2819993
108	0x3dd81305	0.10550503
109	0xbb97ed8c	-0.004636472
110	0xbe1f6dbf	-0.15569209
111	0xbde9ed4f	-0.11422216
112	0xbef1f973	-0.47260627
113	0xbe7da3f1	-0.2476957
114	0xbdcd801e	-0.10034202
115	0xbe23fbbc	-0.16013998
116	0xbc8edf43	-0.017440444
117	0xbe125040	-0.14288425
118	0xbebceadc	-0.36897933
119	0x3d0d45a1	0.03449023
120	0xbe317db8	-0.17333114
121	0x3d22a043	0.03970362
122	0xbdb6e1fb	-0.08929821
123	0xbe094b43	-0.13407616
124	0xbea46bc0	-0.32113457
125	0xbe09b2c3	-0.13447098
126	0x3e29a1de	0.16565654
127	0xbd6e170a	-0.05812744
128	0xbd7bd993	-0.06148679
129	0x3e01c8e4	0.1267429
130	0x3d646402	0.055759437
131	0xbac73e45	-0.0015201053
132	0xbe1139ad	-0.14182158
133	0xbc2215dc	-0.009892907
134	0xbdddab27	-0.1082366
135	0xbeadb7dd	-0.3392934
136	0xbde0b6ff	-0.10972404
137	0xbcc28e00	-0.023749352
138	0xbd71a980	-0.05899954
139	0x3ed26b3f	0.41097447
140	0xbdcae8f6	-0.09907715
141	0x3e34e02e	0.17663643
142	0x3d2e3e56	0.042539917
143	0xbe8b20c1	-0.27173427
144	0xbcd0132b	-0.025399765
145	0xbdccb58c	-0.09995565
146	0xbd03f3d6	-0.032214962
147	0x3d1b0a66	0.037851714
148	0xba3bdc7e	-0.000716634
149	0xbe414354	-0.1887334
150	0xbcb9a1e8	-0.02266021
151	0x3de91f98	0.11382979
152	0x3e3af6ec	0.18258256
153	0xbd06f3e8	-0.03294745
154	0xba108000	-0.00055122375
155	0x3db3e83a	0.08784528
156	0x3e4c3e16	0.19945559
157	0xbe8f760c	-0.2801975
158	0x3d27cdf3	0.040967893
159	0x3c824d35	0.015905956
160	0x3e23a5f1	0.1598127
161	0x3e9a6e30	0.3016219
162	0x3c42c2cf	0.011887266
163	0x3dc915dd	0.09818623
164	0x3d67dc04	0.056606308
165	0x3e7f6782	0.24941829
166	0xbe16cd8b	-0.14726846
167	0xbde93d84	-0.11388686
168	0x3d950090	0.07275498
169	0xbdc0233f	-0.09381723
170	0xbdb842b3	-0.08997097
171	0xbefed350	-0.49770594
172	0xbdd9ead5	-0.10640494
173	0xbd8d6f78	-0.069060266
174	0xbdbf5105	-0.09341625
175	0x3dc3c4c4	0.095590144
176	0xbde2a57b	-0.11066719
177	0xbd5ba04f	-0.05361968
178	0x3dbd0b2d	0.09230647
179	0x3d4ce6aa	0.050024666
180	0xbddf4b0c	-0.10902986
181	0xbe649d43	-0.22325616
182	0xbdb5c75b	-0.08875915
183	0xbe0f0ea6	-0.13970432
184	0x3bbcf9b1	0.00576707
185	0x3ec61e8b	0.38695177
186	0xbdc11022	-0.09426905
187	0x3d2754b4	0.040852264
188	0xbe4ea7bf	-0.20181178
189	0xbe65cca4	-0.22441345
190	0x3cdc3625	0.026881287
191	0x3ed4455f	0.41459176
192	0x3d03e58a	0.032201327
193	0xbdb0089d	-0.08595393
194	0x3c02c556	0.007981619
195	0x3ef8e81e	0.4861459
196	0xbdf0b8ce	-0.11753999
197	0xbe14adc4	-0.14519411
198	0xbd54977f	-0.05190229
199	0xbdd35ee6	-0.10320835
200	0x3eabcdaa	0.33555347
201	0x3edf95d7	0.43669006
202	0xbe259f9d	-0.16174169
203	0xbeff34d8	-0.49845004
204	0x3e825e66	0.25462645
205	0xbe5a5f1d	-0.21325345
206	0x3e1ef26d	0.15522166
207	0xbe5297e2	-0.20565751
208	0xbea9fae7	-0.33199236
209	0x3d93127e	0.071812615
210	0xbe680447	-0.22657882
211	0xbe62fbe8	-0.22166407
212	0x3da76bb7	0.08174842
213	0xbd8eb10c	-0.06967363
214	0xbe3b5923	-0.18295722
215	0xbe516244	-0.20447642
216	0xbd07240e	-0.03299337
217	0xbe202226	-0.15638027
218	0x3ed1f7a8	0.4100926
219	0x3d3566c1	0.044287447
220	0xbe363f32	-0.17797545
221	0xbbf6ade0	-0.0075280517
222	0xbc39cbd5	-0.011340101
223	0xbe290166	-0.1650444
224	0xbe053663	-0.13009028
225	0xbe4e8bbb	-0.2017049
226	0xbdeb9a20	-0.115040064
227	0xbd43a4cd	-0.04776459
228	0x3daddc6e	0.08489309
229	0xbc0828ea	-0.008310536
230	0xbe08f50f	-0.13374732
231	0xbdbd8f9c	-0.09255907
232	0xbe2fcc85	-0.17167862
233	0xbd5c3d77	-0.053769555
234	0x3d2165e4	0.03940381
235	0x3d98f603	0.07468798
236	0xbe3739c3	-0.17893128
237	0xbc3d6f34	-0.011562157
238	0xbdb79ae2	-0.089650884
239	0x3e34e5dd	0.17665811
240	0x3eeb8842	0.46002394
241	0x3d48893e	0.04895901
242	0x3dcb53bb	0.0992808
243	0xbe82e8bb	-0.25568184
244	0xbf466be6	-0.7750839
245	0xbe347e61	-0.17626335
246	0xbdda11d8	-0.10647935
247	0x3deceaea	0.11568244
248	0x3d54e440	0.05197549
249	0xbd931ccc	-0.07183227
250	0x3c9c2a60	0.019063175
251	0xbd1e08b4	-0.03858252
252	0x3ee0a473	0.43875465
253	0xbd50a885	-0.050941963
254	0xbd3188ba	-0.043343283
255	0x3df8fd8e	0.12157737

layer2.weight_sigma f4 [3, 256]
0	0x3e119f96	0.14221033
1	0x3e26cd07	0.16289149
2	0xbc4a8024	-0.012359653
3	0x3d9b54f5	0.07584564
4	0x3d0f0689	0.03491834
5	0x3d134ff7	0.035964932
6	0xbd47bf3c	-0.04876636
7	0x3dbbb6a8	0.09165698
8	0xbd6ba452	-0.057529755
9	0xbcfb805c	-0.030700855
10	0xbdcf3550	-0.101175904
11	0x3d3a0aae	0.04542034
12	0x3b391b83	0.0028245158
13	0xbd905632	-0.070476905
14	0xbc9ffcc7	-0.019529713
15	0xbcca3b2c	-0.024686418
16	0xbd65fb59	-0.056147907
17	0x3e1416d1	0.14461829
18	0xbdaa807b	-0.08325287
19	0x3ad7ebb8	0.0016473448
20	0xbc0bae4a	-0.0085254405
21	0x3d4b90f4	0.049698785
22	0xbcfec69a	-0.03110056
23	0x3c7936ec	0.015210848
24	0x3bd383f7	0.0064549404
25	0x3e70e18b	0.23523538
26	0xbd9ac989	-0.07557971
27	0xbdea68fe	-0.11445807
28	0xbde05b32	-0.10954894
29	0xbd4c347e	-0.049854748
30	0x3d265293	0.040606093
31	0x3c7d7def	0.015471919
32	0xbd5253a4	-0.051349297
33	0xbc897965	-0.016781518
34	0x3d3e919d	0.046525586
35	0xbe1a69b5	-0.15079387
36	0xbcab671f	-0.020923195
37	0xbd7afc98	-0.06127605
38	0x3d71aa22	0.059000142
39	0xbd99caea	-0.07509406
40	0x3d82a8bc	0.0637984
41	0xbdd1a67b	-0.10236832
42	0x3dce5841	0.10075427
43	0x3d1f43df	0.038883086
44	0xbd4359e1	-0.047693137
45	0xb9b6108e	-0.0003472608
46	0x3ae1478c	0.001718746
47	0xbcb6b3de	-0.022302564
48	0x3ce6c876	0.02817176
49	0x3d360cfb	0.044445973
50	0x3c78347f	0.015149235
51	0xbd014e7d	-0.031568993
52	0xbd297ab8	-0.0413768
53	0x3d935e3a	0.07195707
54	0x3caf7109	0.021416204
55	0x3bc39c45	0.0059695565
56	0xbdc874fb	-0.09787937
57	0xbdb54e67	-0.08852845
58	0x3b14898b	0.002266499
59	0x3d683371	0.056689683
60	0x3a8b4396	0.0010625
61	0x3dd34cbb	0.103173696
62	0xbc570628	-0.013124026
63	0xbbc0760a	-0.0058734464
64	0xbdc2c611	-0.095104344
65	0xbd014026	-0.031555317
66	0x3e064ff2	0.13116434
67	0xbde314eb	-0.11087974
68	0x3a8b4396	0.0010625
69	0xbd01ff0b	-0.03173737
70	0x3d2b141b	0.04176722
71	0x3b04f902	0.0020290022
72	0x3cd7e6a0	0.026355088
73	0x3d3db8ac	0.046318695
74	0x3c5a3255	0.013317664
75	0x3c97e731	0.018542858
76	0x3e3e711a	0.18597832
77	0xbdf530d3	-0.11972203
78	0x3cd24ce5	0.025671432
79	0x3d640c1f	0.055675622
80	0x3c8e98a6	0.017406773
81	0xbcbc229f	-0.022965727
82	0x3e1084cb	0.14113156
83	0xbe56ebac	-0.20988339
84	0x3e15d019	0.14630164
85	0xbc0aa4a4	-0.008462105
86	0x3d766ad7	0.060160484
87	0xbc87feef	-0.016601054
88	0xbc65ba02	-0.0140213985
89	0xbd0cd833	-0.03438587
90	0xbd221bda	-0.039577343
91	0x3d0b7833	0.034050178
92	0xbc8d3de3	-0.017241424
93	0xbd3fdb99	-0.046840284
94	0xbcc8c4be	-0.024507876
95	0xbd64a91e	-0.055825345
96	0x3d24d6d5	0.040243942
97	0xbcfce9a2	-0.030873124
98	0x3d840dd8	0.06447953
99	0x3da64796	0.08119123
100	0xbd71bcc4	-0.05901791
101	0xbccaae89	-0.024741428
102	0xbd88ce6b	-0.06679996
103	0xbd0449c4	-0.03229691
104	0x3d869724	0.065717965
105	0x3ca63f64	0.020293899
106	0x3ce40682	0.027835134
107	0x3d0685ed	0.032842565
108	0xbe7665a9	-0.24062218
109	0xbd1469a9	-0.036233578
110	0x3de069eb	0.10957702
111	0x3e0ee03a	0.13952723
112	0x3d37f2c0	0.04490924
113	0xbd45204e	-0.04812651
114	0xbde2ddd0	-0.110774636
115	0x3c79e5fe	0.015252588
116	0x3e078db7	0.13237654
117	0xbd0c8824	-0.03430952
118	0x3d27e89c	0.040993318
119	0x3c824347	0.015901221
120	0xbdf84215	-0.12121979
121	0x3c1cdd70	0.009574279
122	0xbbac1972	-0.0052520568
123	0x3c8f4ba2	0.01749212
124	0xbe0bcec5	-0.13653095
125	0xbe354d42	-0.17705253
126	0x3bac7a53	0.0052636056
127	0x3e1aac93	0.15104894
128	0xbcd869d3	-0.026417648
129	0xbbd87b92	-0.0066065276
130	0x3d2d45fc	0.04230307
131	0xbc8d1a05	-0.017224321
132	0x3e07652d	0.13222189
133	0xbd2c11c4	-0.04200913
134	0x3d51b98d	0.051202346
135	0xbb95da65	-0.004573154
136	0xbd215765	-0.039389987
137	0x3a8b4396	0.0010625
138	0x3b15b0c3	0.0022840954
139	0xbc73ee51	-0.014888362
140	0x3e7f8703	0.24953847
141	0xbc302742	-0.010751547
142	0xbc30a4fa	-0.010781521
143	0xbdea33eb	-0.11435684
144	0x3c90fd74	0.01769898
145	0xbdb9cce2	-0.090722814
146	0x3d89a219	0.06720371
147	0xbc1f87b2	-0.009736942
148	0x3be1b96d	0.0068885596
149	0x3d7cd54c	0.061726853
150	0x3df21c20	0.11821771
151	0x3d84b8f4	0.064805895
152	0xbd78183b	-0.060569983
153	0x3e0bfecf	0.1367142
154	0x3a8b4396	0.0010625
155	0xbe1749c0	-0.14774227
156	0xbe0476b3	-0.12935905
157	0x3d944abb	0.07240816
158	0xb9ac21f6	-0.000328317
159	0x3e177df9	0.14794149
160	0xbdf19608	-0.11796194
161	0x3bfc1580	0.0076929927
162	0x3cf9757f	0.030451534
163	0x3c506876	0.012720218
164	0x3dabb712	0.08384527
165	0x3d7a09d7	0.06104454
166	0x3b90f839	0.0044241217
167	0x3d207109	0.0391703
168	0xbdc1bbdb	-0.09459659
169	0x3e002e85	0.12517746
170	0x3dfeb97a	0.124377206
171	0xbd9e56c5	-0.07731394
172	0x3d997a16	0.07493989
173	0x3d4e5408	0.050373107
174	0x3dc44d3b	0.09585043
175	0xbccf154a	-0.025278706
176	0xbd957085	-0.07296852
177	0xbd677bb9	-0.056514475
178	0x3d3d959b	0.046285253
179	0xbc92e8e9	-0.017933326
180	0x3e0f645d	0.1400313
181	0xbe3120e7	-0.17297707
182	0xbe3b87ac	-0.18313473
183	0x3c01b66e	0.00791703
184	0xbe0307bb	-0.12795918
185	0x3b5b5352	0.003346641
186	0x3d61aa23	0.055093896
187	0x3a8b4396	0.0010625
188	0xbcda7374	-0.02666638
189	0x3e520aab	0.20511882
190	0xbd7a7e0f	-0.061155375
191	0xbd78f9fa	-0.06078527
192	0xbd925647	-0.07145362
193	0xbc5e979a	-0.013585949
194	0xbd8063c0	-0.06269026
195	0x3c9bdfc7	0.019027604
196	0x3cdd11b0	0.026985973
197	0x3d9fa247	0.07794624
198	0x3c05d906	0.008169418
199	0x3d3073bc	0.043079123
200	0xbc260b10	-0.010134473
201	0x39be9166	0.00036347954
202	0x3d8af1ca	0.06784399
203	0x3e868c16	0.26278752
204	0x3df5247f	0.11969852
205	0xbd0f7f76	-0.035033666
206	0x3d2e392d	0.042534996
207	0xbc46e2f6	-0.012139073
208	0xbba0ffdf	-0.0049133147
209	0x3d8064f9	0.06269259
210	0x3e0e82e0	0.13917112
211	0xbc3addc1	-0.011405409
212	0x3cc3b01c	0.023887686
213	0xbc94bb46	-0.018155705
214	0x3c22474b	0.009904693
215	0x3d870b87	0.065939955
216	0x39e88ccf	0.000443554
217	0xbd9e68f6	-0.077348635
218	0x3ca630b5	0.020286897
219	0xbd8228bc	-0.06355426
220	0x3d596067	0.053070452
221	0xbcab8bd7	-0.020940704
222	0xbe042dec	-0.12908143
223	0x3b05b65e	0.0020402889
224	0xbdeb45fd	-0.114879586
225	0xbdb2daac	-0.087331146
226	0x3d8fc70d	0.07020388
227	0x3dd401de	0.10351919
228	0xbcfa8537	-0.0305811
229	0x3d0675df	0.032827254
230	0x3ca8b33c	0.020593278
231	0x3da87e35	0.08227197
232	0x3d4ac4c3	0.049504053
233	0xbd297bc7	-0.04137781
234	0x3bc223cd	0.005924678
235	0xbc86d025	-0.016456673
236	0x3c95d8bc	0.018291824
237	0xbe05d672	-0.13070086
238	0xbcbbc4ab	-0.022920927
239	0x3d5bbba0	0.05364573
240	0x3cd736ab	0.026271185
241	0x3a8b4396	0.0010625
242	0xbdaa182e	-0.08305393
243	0x3d55ded1	0.052214447
244	0x3db3d6e6	0.08781223
245	0x3d23ca29	0.039987717
246	0x3e35cfcd	0.17755051
247	0x3d920bd1	0.0713116
248	0xbb382de2	-0.002810352
249	0x3ddf5df1	0.1090659
250	0x3c80cd73	0.015722966
251	0x3d2c5c5d	0.042080272
252	0x3d239840	0.03994012
253	0xbd7609d8	-0.06006798
254	0xbe3c110e	-0.18365881
255	0xbd53d309	-0.05171493

layer2.bias_mu f4 [3]
0	0x3ef481a0	0.47755146
1	0x3e4388fa	0.19095221
2	0x3e7095c3	0.2349463

layer2.bias_sigma f4 [3]
0	0x3c42b8d8	0.0118848905
1	0x3c95d6cf	0.018290905
2	0x3d4d4d38	0.05012247
