Code Submission/DDQN_models/noisy-model1-snapshot-score-40.pth (torch, 33781 bytes, 8 tensors)

layer1.weight_mu f4 [256, 11]
0	0x3eec8088	0.46191812
1	0x3f0eea42	0.558262
2	0xbd74e1e9	-0.059785757
3	0xbea1c9e9	-0.31599358
4	0xbf8c83ed	-1.097776
5	0xbfa545cb	-1.2911924
6	0xbfb7ad9d	-1.4349858
7	0xbfa251ba	-1.2681191
8	0xbff9abe9	-1.9505588
9	0x3fb2f0b3	1.3979706
10	0xbf54d603	-0.83139056
11	0x3f2b2d2b	0.66865796
12	0x3f51e4b7	0.81989616
13	0xbf2ac549	-0.66707283
14	0xbe851c26	-0.25998038
15	0xbfcb26d6	-1.5871227
16	0xbfaef036	-1.3667057
17	0xbfa18128	-1.261754
18	0xbfb22bec	-1.3919654
19	0xbfd60b6d	-1.6722237
20	0x3ecf8e40	0.40538216
21	0x3f49fd2f	0.7890195
22	0x3f0fc019	0.5615249
23	0x3f2ccbbf	0.6749839
24	0xbf0482a5	-0.5176185
25	0xbf4f3cf7	-0.809524
26	0xbfa666c9	-1.3000118
27	0xbfa7e59d	-1.3116947
28	0xbfa7394f	-1.3064364
29	0xbfb528c6	-1.4153068
30	0xc0028435	-2.0393193
31	0x3f2919ad	0.66054803
32	0x3e01ab52	0.1266301
33	0x3f4b2fea	0.79369986
34	0x3e9d91e4	0.30775368
35	0xbf347dfb	-0.7050473
36	0xbecdfbdd	-0.4023122
37	0xbf42c85e	-0.76086986
38	0xbf9bdce0	-1.2176781
39	0xbf266c5a	-0.6500908
40	0xbf427305	-0.75956756
41	0xbf8e6ce9	-1.1126987
42	0x3dca87d1	0.09889186
43	0x3ed4fe3f	0.41600224
44	0xbfa68446	-1.3009117
45	0xbfb5398e	-1.4158189
46	0xbfd3b94b	-1.6540922
47	0xbf8ac20e	-1.0840471
48	0x3ea86987	0.3289301
49	0xbdbf604d	-0.0934454
50	0x3ea55dc8	0.32298112
51	0x3e8305dd	0.2559041
52	0x3e037c87	0.12840472
53	0x3e9167e0	0.28399563
54	0x400fa1f1	2.244259
55	0x3e596855	0.21231206
56	0x3eb76504	0.35819256
57	0xbf4567db	-0.77111596
58	0xbf40010c	-0.750016
59	0xbf1eb2c0	-0.619915
60	0xbf4b8932	-0.7950622
61	0xbe703348	-0.23457062
62	0xbf910ef0	-1.1332684
63	0xbfb31e56	-1.3993633
64	0x3eeddca6	0.46457404
65	0x3e467472	0.19380358
66	0x3da058ed	0.07829461
67	0xbe02a834	-0.12759477
68	0xbc93a1bf	-0.018021462
69	0x3cc22179	0.023697602
70	0xbdbe1c21	-0.09282709
71	0xbbd041ba	-0.0063554915
72	0x3d9108c1	0.07081748
73	0xbd26ba40	-0.040704966
74	0xbe3611eb	-0.17780273
75	0x3dcf6405	0.10126499
76	0xbe8c957c	-0.27457798
77	0xbe629b4d	-0.22129555
78	0xbe0cf074	-0.137636
79	0x3d49c04f	0.049255665
80	0xbee15009	-0.44006374
81	0xbf059d9b	-0.5219361
82	0xbf1e4556	-0.6182455
83	0xbe4b4af7	-0.19852816
84	0xbe4e17fd	-0.20126338
85	0xbdb98a01	-0.09059525
86	0xbe7b039d	-0.24513097
87	0xbf05d605	-0.5227969
88	0xbd64567d	-0.055746544
89	0xbe5426f8	-0.2071799
90	0xbe946828	-0.28985715
91	0x3d2c221b	0.042024713
92	0xbf0ac29a	-0.5420319
93	0xbec032be	-0.37538713
94	0xbe4dfd6f	-0.20116208
95	0xbeb10187	-0.34571478
96	0xbd06d866	-0.032921217
97	0xbedc6db8	-0.4305246
98	0x3dd3faf0	0.10350597
99	0x3d33f3c1	0.043933634
100	0xbd7e4094	-0.062073305
101	0xbe3acf3c	-0.18243116
102	0xbe9210fd	-0.28528586
103	0xbe440eb6	-0.19146237
104	0xbe405004	-0.18780524
105	0xbe865ffa	-0.262451
106	0xbdac7514	-0.084207684
107	0xbc948157	-0.01812808
108	0x3d7d8a02	0.061899193
109	0x3d27e54d	0.040990163
110	0xbf0afc51	-0.54291254
111	0xbf028bcd	-0.5099457
112	0x3f5d6ac0	0.8649101
113	0x3f878ece	1.0590456
114	0xbf903274	-1.1265397
115	0xbf92f4c5	-1.1480948
116	0xbf7cdabf	-0.9877128
117	0xbf66d264	-0.9016478
118	0xbe9a0f5a	-0.30089837
119	0x3e284531	0.16432644
120	0xbdff9493	-0.1247951
121	0xbe40da8c	-0.18833369
122	0xbe88dec6	-0.26732463
123	0xbe3f4325	-0.18677957
124	0xbca92f7c	-0.020652525
125	0x3e15716b	0.14594047
126	0x3c891d7d	0.016737694
127	0xbd5208f8	-0.051278085
128	0x3c4063e6	0.011742568
129	0xbdb24854	-0.08705202
130	0xbd7dc4e9	-0.061955366
131	0xbd842003	-0.06451418
132	0x3ea0eb3f	0.3142948
133	0x3f555b02	0.8334199
134	0xbedde35a	-0.43337518
135	0xbe52113e	-0.2051439
136	0xbf7bf1ee	-0.9841603
137	0xbf831dc7	-1.0243462
138	0xbfadcff6	-1.357909
139	0xbf7c28e2	-0.9849988
140	0xbfbf2e89	-1.4936076
141	0x3da24145	0.079226054
142	0x3f08ab3a	0.5338627
143	0x3e5fb45d	0.21846147
144	0xbfe23816	-1.7673366
145	0xbfeb3bea	-1.8377659
146	0x3ed3ad0f	0.4134297
147	0xbf83055d	-1.0236012
148	0x3f090cf1	0.5353537
149	0xbf4ba8e2	-0.7955457
150	0x3bf59b13	0.007495293
151	0xbf71edaa	-0.9450327
152	0x3ec9f20f	0.3944249
153	0xbf1e4eaf	-0.6183881
154	0x3dd28c61	0.102806814
155	0x3e0c3220	0.13690996
156	0xbf2be2cc	-0.6714294
157	0xbf33c036	-0.70215166
158	0xbf26af42	-0.6511117
159	0xbf3db27f	-0.7410049
160	0xbf0cf0f8	-0.5505519
161	0xbf2d0779	-0.6758953
162	0xbfa84377	-1.3145589
163	0xbfa6945a	-1.3014023
164	0xbfb476ea	-1.409879
165	0x3f4b0420	0.7930317
166	0x3f14ce53	0.58127326
167	0xbe05fd2a	-0.13084856
168	0xbf693e30	-0.91110516
169	0xbf314443	-0.69244784
170	0xbf78c1a3	-0.97170466
171	0xbf4ebe4d	-0.80759126
172	0xbf7df68a	-0.99204314
173	0xc0020767	-2.0317018
174	0x3f556ecc	0.8337219
175	0xbd4288df	-0.04749381
176	0x3f440bf4	0.7658074
177	0x3f179ac7	0.59220546
178	0xbf05a3fb	-0.5220334
179	0xbe8526f1	-0.26006272
180	0xbfa9de4d	-1.3270966
181	0xbfafa143	-1.3721088
182	0xbfd2bd03	-1.6463932
183	0xbfb0a0af	-1.3799037
184	0xbffe5ade	-1.987148
185	0xbe8ab8e4	-0.27094185
186	0x3f474370	0.77837276
187	0x3f2a0075	0.6640695
188	0x3edd3148	0.4320166
189	0xbed255e0	-0.41081142
190	0xbf42abed	-0.7604359
191	0xbf83c641	-1.0294877
192	0xbf1eef99	-0.62084347
193	0xbf7d88d8	-0.9903693
194	0xbf564d37	-0.8371157
195	0xbfe90c3f	-1.8206862
196	0x3f2f818c	0.6855705
197	0x3e9e0a07	0.30867025
198	0x3e77ee20	0.24211931
199	0x3eb11f47	0.34594175
200	0xbefcd2fc	-0.49379718
201	0xbeaf31e9	-0.34217766
202	0xbf9aaf03	-1.2084659
203	0xbf91c2f3	-1.1387619
204	0xbfa946c1	-1.3224717
205	0xbf921ed1	-1.1415654
206	0xbf4f860a	-0.810639
207	0x3f10a54c	0.56502223
208	0x3f1e058f	0.6172723
209	0xbe852d66	-0.260112
210	0x3f065201	0.5246888
211	0xbf97f704	-1.1872258
212	0x3f3eca50	0.74527454
213	0xbfa06689	-1.2531291
214	0xbd15e49a	-0.036594965
215	0xbf941918	-1.1570158
216	0xbf0509db	-0.51968163
217	0xbfe893a4	-1.8170056
218	0xbd865b1c	-0.065603465
219	0x3ce450f9	0.027870642
220	0x3f51ef87	0.82006115
221	0x3ec59667	0.3859131
222	0xbe8051cb	-0.25062403
223	0xbe9ea084	-0.3098184
224	0xbf631703	-0.8870699
225	0xbf711fb0	-0.94188976
226	0xbf5e6ac9	-0.8688169
227	0xbf3f5c44	-0.7475016
228	0xbf23b9eb	-0.63955563
229	0xbd182752	-0.037146874
230	0x3e910d2b	0.2833036
231	0x3ec7c66c	0.3901857
232	0x3f0127c6	0.50451314
233	0xbed2ccdb	-0.41171917
234	0xbed3de60	-0.41380596
235	0xbf8a290b	-1.0793775
236	0xbf3bbae2	-0.73332036
237	0xbf297e4e	-0.6620835
238	0xbf183402	-0.5945436
239	0xbfd622a7	-1.6729325
240	0x3e9a5fec	0.30151308
241	0xbe62185f	-0.2207961
242	0x3f260784	0.6485522
243	0x3f89ef06	1.0776069
244	0xbf320ca2	-0.69550526
245	0xbe221e69	-0.15831913
246	0xbf3d3221	-0.73904616
247	0xbf7cb541	-0.9871407
248	0xbf825218	-1.0181303
249	0xbf98bbd6	-1.1932323
250	0xbfb147d7	-1.3850049
251	0x3defca61	0.117085226
252	0x3e50ca17	0.20389591
253	0xbe55f74a	-0.20895115
254	0xbe53368f	-0.20626281
255	0x3d873663	0.0660217

layer1.weight_sigma f4 [256, 11]
0	0xbf657f69	-0.8964754
1	0xbfb24a36	-1.3928897
2	0xbd290540	-0.041264772
3	0x3e847f4d	0.25878373
4	0x3dbbdbfa	0.091728166
5	0xbd5872cf	-0.052843865
6	0x3e367de2	0.17821458
7	0x3dc90bd8	0.09816712
8	0xbebc8015	-0.3681647
9	0x3f1ab45c	0.60431457
10	0xbf0ba107	-0.54542583
11	0xbf937f1a	-1.1523163
12	0x3f7b51c6	0.9817165
13	0xbe81fc32	-0.25387722
14	0xbe373430	-0.17891002
15	0x3d0daa0f	0.03458601
16	0xbce8a196	-0.028397363
17	0x3e4693a2	0.19392255
18	0x3e69ac89	0.22819723
19	0x3e5ccf91	0.21563555
20	0xbf319744	-0.6937144
21	0xbe71063c	-0.23537534
22	0x3f9b30ba	1.2124245
23	0xbf68da70	-0.9095831
24	0x3e8db91e	0.27680296
25	0x3d83a531	0.06427992
26	0xbea0a6e1	-0.31377319
27	0x3e49f332	0.19721678
28	0xbe3ea6a3	-0.18618254
29	0x3e21b906	0.15793237
30	0xbecc86a0	-0.3994646
31	0x3f97a06a	1.184583
32	0xbf4dd8ea	-0.8040911
33	0x3f717475	0.94318324
34	0x3f8d3254	1.1030984
35	0xbe8e34b5	-0.27774587
36	0xbc5f8093	-0.013641494
37	0x3e544e2f	0.2073295
38	0x3d990bed	0.07472978
39	0x3f1bd4f1	0.608718
40	0x3c0788ba	0.008272344
41	0x3e73d68e	0.23812315
42	0x3b8319f9	0.004000899
43	0x3f21109d	0.62915975
44	0x3e0de9a0	0.13858652
45	0x3e848745	0.25884452
46	0x3bf01638	0.0073268674
47	0xbd1d2034	-0.03836079
48	0x3d9c1a0b	0.07622155
49	0x3e07828e	0.13233396
50	0xbdc97399	-0.09836502
51	0xbdaca0dc	-0.08429119
52	0xbbc180c0	-0.005905241
53	0x3cc492d0	0.023995787
54	0x3e1c86f9	0.15285863
55	0xbf575636	-0.8411592
56	0x3f85c34c	1.0450225
57	0x3d9564a8	0.07294589
58	0xbd878d20	-0.06618714
59	0xbe4e629f	-0.20154808
60	0x3e4584ab	0.1928889
61	0xbe7e689f	-0.24844597
62	0x3e0cb93b	0.13742535
63	0xbeb1828a	-0.34669906
64	0xbf5d2f16	-0.8639997
65	0x3e484011	0.1955569
66	0xbd203924	-0.039116994
67	0xbc87168d	-0.016490245
68	0x3c8efc4d	0.01745429
69	0x3df08e18	0.11745852
70	0xbc0926f0	-0.0083711
71	0xbd12e346	-0.035861276
72	0x3cd6e436	0.026231866
73	0x3c4ceb7c	0.012507316
74	0x3c85ba4a	0.016324181
75	0x3ca5beab	0.02023252
76	0x3d05bafd	0.03264903
77	0x3e5d1c2a	0.21592775
78	0x3e11decf	0.14245151
79	0xbd825a04	-0.06364825
80	0x3bb8bb43	0.0056375577
81	0x3dbbe795	0.0917503
82	0xbe0f6b45	-0.14005764
83	0x3d9714d4	0.073770195
84	0x3bace2e8	0.005276073
85	0xbe0bd7be	-0.13656518
86	0xbe1e1d5a	-0.15440884
87	0xbe8209ab	-0.25398
88	0x3d451742	0.048117884
89	0x3ceb302a	0.02870949
90	0x3b0b888d	0.0021291107
91	0xbccccdf4	-0.02500055
92	0xbd67651b	-0.056492906
93	0x3e22c0d2	0.15893868
94	0x3dc52fd6	0.096282646
95	0xbd655e1f	-0.055997964
96	0xbdacd294	-0.08438602
97	0xbd7c61bc	-0.061616644
98	0xbc9a301d	-0.01882177
99	0xbca62cbf	-0.020285008
100	0x3ba7f56e	0.005125693
101	0x3ba7f56e	0.005125693
102	0x3ba7f56e	0.005125693
103	0x3ba7f56e	0.005125693
104	0x3ba7f56e	0.005125693
105	0x3ba7f56e	0.005125693
106	0x3ba7f56e	0.005125693
107	0xbcda3bab	-0.02663978
108	0xbcd76e5d	-0.026297743
109	0x3baa6d75	0.0052010366
110	0x3d038e21	0.032117967
111	0xbe848e33	-0.2588974
112	0x3c8e1f0e	0.017348792
113	0x3d21f8ec	0.03954403
114	0x3ddb84ee	0.10718714
115	0xbd955534	-0.07291642
116	0xbc21e39b	-0.0098809255
117	0xbd047607	-0.032339122
118	0x3e6084ca	0.21925655
119	0x3d9c0125	0.07617406
120	0xbd893d16	-0.06701104
121	0xbc0bdbc4	-0.008536283
122	0x3ba7f56e	0.005125693
123	0xbcc6b37d	-0.024255509
124	0xbb81360a	-0.0039432095
125	0x3bf946cd	0.007607317
126	0xbbec43fd	-0.0072102533
127	0xbd0a3f7a	-0.033751942
128	0x3d15e0dd	0.0365914
129	0x3c26018e	0.010132207
130	0xbcf0e180	-0.029404402
131	0xbc8ad5a9	-0.016947584
132	0x3f83819c	1.0273929
133	0xbf918cb4	-1.1371064
134	0x3e1b121d	0.15143628
135	0xbd79f31d	-0.061022867
136	0x3d44307e	0.04789781
137	0xbe104b96	-0.14091334
138	0xbe2ae4bf	-0.16688822
139	0xbee71345	-0.4513189
140	0xbd0901ab	-0.033448856
141	0x3f131ba2	0.5746404
142	0x3f0b48dc	0.5440805
143	0xbd778175	-0.060426194
144	0xbc7f5f39	-0.015586668
145	0x3c786da1	0.015162856
146	0xbafad26b	-0.0019136196
147	0xbbea1432	-0.0071435208
148	0x3c78319e	0.015148548
149	0x3d90f613	0.07078185
150	0xbc443f30	-0.011977956
151	0xbd099aa5	-0.033594746
152	0x3d79a33d	0.06094669
153	0xbd047064	-0.032333747
154	0xbf0893dc	-0.53350616
155	0x3ed31af9	0.41231516
156	0x3d281d66	0.04104366
157	0x3db4225e	0.087956175
158	0x3ca7a02b	0.020462116
159	0x3d7c0c72	0.061535306
160	0x3d6735ae	0.056447677
161	0x3cecf822	0.028926913
162	0x3d3f0093	0.046631407
163	0xbc549dfe	-0.012977121
164	0x3d8961f1	0.06708134
165	0x3f88d414	1.0689721
166	0x3f8ae6ad	1.0851647
167	0xbe533a7c	-0.20627779
168	0x3de70af1	0.11281384
169	0x3f0bf042	0.5466348
170	0xbe75d486	-0.24006853
171	0x3ef92fa6	0.48669165
172	0xbc9f5f7b	-0.019454708
173	0x3dfb9cb3	0.122857474
174	0x3ec3ac22	0.38217264
175	0xbeb0034a	-0.3437751
176	0xbf986244	-1.1904988
177	0xbf89c3f0	-1.076292
178	0xbd0c350d	-0.03423028
179	0x3c87eab9	0.016591417
180	0xbdd1150f	-0.10209095
181	0xbeb10c22	-0.3457957
182	0xbe3fe36f	-0.18739103
183	0x3eb69ed7	0.3566806
184	0x3d66bc70	0.05633205
185	0x3edc9866	0.4308502
186	0xbf1f1c3b	-0.6215245
187	0x3f34aabd	0.70573026
188	0x3f984e29	1.1898853
189	0x3baa6f01	0.005201221
190	0x3e2ba32f	0.16761468
191	0xbeb7c53f	-0.35892674
192	0x3e27d75c	0.16390747
193	0xbe0e779a	-0.13912812
194	0xbe086072	-0.13318041
195	0xbdd2d066	-0.10293655
196	0x3e626325	0.22108133
197	0xbf737665	-0.9510253
198	0xbf6854ef	-0.907546
199	0x3f88116c	1.0630317
200	0x3ea72ce8	0.32651448
201	0x3d9fad32	0.07796706
202	0x3c33f5ed	0.010983926
203	0xbc032cf5	-0.008006324
204	0xbd37b31c	-0.044848546
205	0x3e00741b	0.1254429
206	0x3e88c3f4	0.26712
207	0x3f5fbba0	0.8739567
208	0x3e76bf01	0.240963
209	0x3df17039	0.11788983
210	0x38a0ee39	7.673767e-05
211	0x3d61be67	0.055113222
212	0xbdbb3c6c	-0.09142384
213	0xbd4255e0	-0.047445178
214	0x3d2c5cd1	0.042080704
215	0xbb325608	-0.0027211923
216	0x3cf4b21b	0.029870084
217	0x3e03a819	0.12857093
218	0xbd61cafb	-0.055125218
219	0x3e222b36	0.15836796
220	0x3f8c3dd5	1.095637
221	0x3f121205	0.57058746
222	0x3f07a30b	0.5298316
223	0x3e54641d	0.20741315
224	0x3e6db1d7	0.23212372
225	0xbdae4e3b	-0.08511015
226	0xbcda7807	-0.026668562
227	0xbe73fa12	-0.23825863
228	0xbd63533d	-0.055499304
229	0xbee3df6e	-0.445064
230	0x3da8fe34	0.082516104
231	0x3f38d30f	0.7219705
232	0xbf48932d	-0.7834957
233	0xbeba5cd4	-0.36398947
234	0xbca1d622	-0.019755427
235	0x3c14f43f	0.009091436
236	0xbccadfb6	-0.024764877
237	0x3e1b7a59	0.1518339
238	0xbdc0fdfb	-0.09423443
239	0x3e3a112b	0.18170612
240	0xbf67d566	-0.90559995
241	0xbf1e1627	-0.6175255
242	0x3f98c2d0	1.1934452
243	0xbf642013	-0.8911144
244	0xbd9562cf	-0.07294237
245	0x3d933a9f	0.071889155
246	0xbedb4e75	-0.42833295
247	0xbd809df1	-0.06280125
248	0xbe9613fc	-0.29312122
249	0xbe05ef32	-0.13079527
250	0xbdad00b9	-0.084474035
251	0x3e508aa1	0.20365383
252	0xbf51a29b	-0.8188874
253	0x3dc918af	0.09819161
254	0x3d90dc4a	0.07073267
255	0xbd8cbb3a	-0.06871648

layer1.bias_mu f4 [256]
0	0xbfe8086a	-1.8127568
1	0xc0205eae	-2.5057788
2	0xc007db3b	-2.1227558
3	0xbfe0a23b	-1.7549509
4	0xbe2213d3	-0.15827875
5	0xbfd4e76c	-1.6633124
6	0xbf26999e	-0.6507815
7	0xbf6052ed	-0.87626535
8	0xbec6f482	-0.3885842
9	0xbebe3710	-0.37151384
10	0xbcf11015	-0.029426614
11	0xbe8b44f7	-0.27201054
12	0xc016d5a6	-2.35679
13	0x3f03814b	0.5136916
14	0xbf0d40db	-0.55177087
15	0xc003e843	-2.0610511
16	0xc028cdd6	-2.6375632
17	0xbfe08b79	-1.7542564
18	0xbfd29fee	-1.6455057
19	0x3f85b5c4	1.0446095
20	0xc00fd702	-2.247498
21	0xbfb5612e	-1.4170282
22	0xc001328e	-2.0187106
23	0xbed80fa8	-0.42199445
24	0xbef80337	-0.48439953
25	0xbfb632f1	-1.4234296
26	0xbfc61f78	-1.5478354
27	0xc0089c34	-2.134534
28	0xc0004539	-2.004225
29	0xbfe3af31	-1.7787839
30	0xbfbe3870	-1.4860973
31	0xbfdd6808	-1.7297373
32	0xbfc29215	-1.5200831
33	0xbfa9e7d0	-1.3273869
34	0xc01536b7	-2.3314645
35	0xc01e0414	-2.468999
36	0xc00f0ba6	-2.235086
37	0x3d903de9	0.070430584
38	0xbfd337fe	-1.6501462
39	0xbfe1ed8b	-1.7650617
40	0xc0250246	-2.5782638
41	0xbf9dd3f4	-1.2330308
42	0xbfd71b99	-1.6805297
43	0xbf3339a3	-0.7000982
44	0xbfaa1590	-1.328783
45	0xbfd6ea64	-1.679028
46	0xbfad1252	-1.3521216
47	0x3fa6f1f8	1.3042593
48	0xc010dc2f	-2.263439
49	0xbfe642b4	-1.7989106
50	0xbef7cfcf	-0.48400733
51	0xbf402491	-0.75055796
52	0xbfed6124	-1.854527
53	0xc01e86d6	-2.4769797
54	0xbf9c38a6	-1.2204788
55	0xbfbfc791	-1.4982778
56	0xc00aa7cd	-2.1664917
57	0xc01a1186	-2.4073195
58	0xbff5a37d	-1.9190518
59	0xc01c5fcf	-2.4433477
60	0xbe5bbc14	-0.21458465
61	0xbfe4e0d3	-1.7881111
62	0xc026f35b	-2.6086032
63	0x3f2fddc4	0.6869776
64	0xbfe6e005	-1.8037115
65	0xbf425b6c	-0.7592075
66	0xbeac3324	-0.33632767
67	0xbfb1cc41	-1.3890458
68	0xbe971215	-0.29505983
69	0xbfde0e66	-1.7348144
70	0xbecfb11e	-0.40564817
71	0xbeed72f5	-0.46376768
72	0xbf163a71	-0.58682925
73	0xbff86c7b	-1.9408106
74	0xc01f6270	-2.4903831
75	0xbfc2a952	-1.5207922
76	0xbfaab46f	-1.3336314
77	0xbf86ed7f	-1.0541228
78	0xbfe0cae5	-1.7561918
79	0xbe2bfad8	-0.16794908
80	0xc0060b53	-2.0944412
81	0xbf4734c1	-0.7781487
82	0xbf85219d	-1.0400883
83	0xc008d5af	-2.1380422
84	0xc01ac4da	-2.4182649
85	0xbeeab9dd	-0.45844927
86	0xc006d409	-2.1066916
87	0xbffa7349	-1.9566432
88	0xbfd48997	-1.6604489
89	0xbfe4645d	-1.7843128
90	0xc03181bc	-2.7735434
91	0xbe1e8fd9	-0.15484561
92	0xbfdbd41d	-1.7174107
93	0xbeb3229a	-0.34987336
94	0xc00d9bb7	-2.212629
95	0xbecda858	-0.401675
96	0xbf2c349f	-0.67267793
97	0xbccc784b	-0.024959704
98	0xbf85a17b	-1.0439905
99	0xbfcfa4aa	-1.6222126
100	0xbfa1eec3	-1.2650989
101	0xbffa3f8b	-1.9550642
102	0xc0094bcb	-2.145251
103	0xbf1946e1	-0.5987378
104	0xbfef40ed	-1.8691689
105	0xbe7e6b7a	-0.24845687
106	0xbf988b4c	-1.191751
107	0x3f542bf2	0.82879555
108	0xbeadce12	-0.33946282
109	0xbf0ff058	-0.5622611
110	0xbfb1768e	-1.3864305
111	0xbffa03e2	-1.9532435
112	0xbf3df95f	-0.74208635
113	0xc02e6762	-2.72506
114	0xbf2690a8	-0.6506448
115	0xbfe554e8	-1.7916536
116	0xbfbc93a1	-1.4732553
117	0xbfd37544	-1.6520162
118	0xc02a3fdb	-2.6601474
119	0xbef27c5a	-0.47360498
120	0xbfd480d6	-1.6601818
121	0xbfacd18e	-1.3501451
122	0xbfd7de31	-1.6864682
123	0xbfcc7570	-1.5973339
124	0xbf274596	-0.65340555
125	0xc0031193	-2.0479476
126	0xbfca6d75	-1.5814654
127	0xc00220eb	-2.0332592
128	0xbfc7563d	-1.5573193
129	0xbf43580b	-0.7630622
130	0xbfa3e831	-1.2805234
131	0xc0205ea6	-2.505777
132	0xbe881570	-0.26578856
133	0xbe96bf67	-0.29442903
134	0xc00ff044	-2.2490396
135	0xbff1bc49	-1.8885585
136	0xbf61a8cf	-0.88148206
137	0xbddc2a76	-0.10750286
138	0xbfd8f59b	-1.6949953
139	0xc00007c2	-2.0004735
140	0xbfe44101	-1.7832338
141	0xbec3d6fa	-0.38249952
142	0xbf0c976e	-0.54918563
143	0xbf296186	-0.66164434
144	0xbe81834f	-0.25295493
145	0xbf2471d8	-0.6423621
146	0xbffc5342	-1.9712908
147	0xbfcfb79a	-1.6227906
148	0xbf181c90	-0.5941858
149	0xbe8c1b4b	-0.27364573
150	0xbfff6765	-1.9953429
151	0xc012b568	-2.2923222
152	0xbee9a321	-0.4563227
153	0xbfdfb348	-1.7476587
154	0xbe3ef091	-0.18646456
155	0xbfc9dfd6	-1.5771434
156	0xbe7f4437	-0.24928366
157	0xbff368b1	-1.9016324
158	0xbec74ed1	-0.3892732
159	0xbfb43fe6	-1.4082
160	0xbf0ca7bd	-0.5494345
161	0xbfbc8c2d	-1.4730278
162	0xc00ccbc6	-2.1999373
163	0xc0246bc7	-2.5690782
164	0xbf7fcb10	-0.99919224
165	0x3eae2d33	0.3401886
166	0xbfcceb0e	-1.6009233
167	0xc001cf1e	-2.0282664
168	0xc0230448	-2.5471363
169	0xbf748750	-0.9551897
170	0xbf91042b	-1.1329397
171	0xc006d3a1	-2.1066668
172	0xbf64d2c2	-0.8938409
173	0xbf50ceed	-0.81565744
174	0xbed929f5	-0.42414823
175	0xbfe68ffa	-1.8012688
176	0xbfe5e2d3	-1.7959846
177	0xbffaf9d1	-1.9607488
178	0xc014c7c2	-2.3246922
179	0xbf8adec2	-1.084923
180	0xbe89741f	-0.26846406
181	0xbfca01f9	-1.5781852
182	0xbff927f9	-1.9465324
183	0xbf4e925c	-0.80692077
184	0xbf169222	-0.5881673
185	0xbfecdcbe	-1.8504865
186	0xc01a4e6a	-2.411036
187	0xbe7dfae6	-0.24802741
188	0xbfb965b6	-1.4484165
189	0xc0067412	-2.1008344
190	0xbfe29bc2	-1.7703784
191	0x3fdd61ad	1.7295433
192	0x3f3fc82f	0.7491483
193	0xc0038bf7	-2.0554178
194	0xbf34f661	-0.70688444
195	0xbfe2fb21	-1.7732888
196	0xbf69d1b9	-0.91335636
197	0xbfca8432	-1.5821593
198	0xbf891d72	-1.0712111
199	0xbfce2018	-1.6103544
200	0xbfe7bd77	-1.8104695
201	0x3f9309ec	1.1487403
202	0xbe3582a8	-0.17725623
203	0xbf508a90	-0.8146143
204	0xc024868c	-2.570712
205	0xbfd668b1	-1.6750699
206	0xbfe7fa7e	-1.8123319
207	0xc02033ee	-2.5031695
208	0xc0069740	-2.1029816
209	0xbffe57a2	-1.9870493
210	0xc025f189	-2.5928671
211	0xbffc5fc5	-1.9716727
212	0x3fa57abc	1.292808
213	0xbfbf658a	-1.4952862
214	0xbfefb83f	-1.8728102
215	0xc00c6e5a	-2.1942353
216	0xbd7a0f75	-0.061049897
217	0xbff27829	-1.894292
218	0xbfb8fdfb	-1.4452509
219	0xbdaeeb35	-0.08540956
220	0xbfbe4e44	-1.4867635
221	0xc000c391	-2.0119364
222	0xbfa73e23	-1.3065838
223	0xbff730f9	-1.931182
224	0xbf3e4ed8	-0.74339056
225	0xbfb7915d	-1.4341236
226	0xbfeca175	-1.8486773
227	0xc00560a4	-2.0840235
228	0xbeb97ced	-0.36228123
229	0xc004f117	-2.077215
230	0xbfb59493	-1.4185966
231	0xbecbf943	-0.3983861
232	0xbfdc92e1	-1.7232324
233	0xbf966d97	-1.1752194
234	0xc01041c7	-2.2540147
235	0xbdb1f5a9	-0.08689434
236	0xbfa8ef8f	-1.3198107
237	0xbf92b909	-1.1462718
238	0xc00048dd	-2.0044472
239	0xbe881183	-0.2657586
240	0xbf9ac5fb	-1.2091669
241	0xbe3e45d2	-0.18581322
242	0xc010b907	-2.2612932
243	0xbfa97671	-1.323927
244	0xbfc80556	-1.5626628
245	0xbedc329b	-0.4300736
246	0xbfefa5ad	-1.8722435
247	0xbf90fc74	-1.1327043
248	0xc0181252	-2.3761182
249	0xc00a63f5	-2.162351
250	0xbfec84a2	-1.8477976
251	0xbfd718c6	-1.6804435
252	0xbf9d8e04	-1.2308965
253	0xbee0b53a	-0.43888265
254	0xc0205d66	-2.5057006
255	0xbe48d83e	-0.1961374

layer1.bias_sigma f4 [256]
0	0xbec8abc8	-0.3919356
1	0xbf0d04f4	-0.5508568
2	0xbf23def9	-0.64012104
3	0x3f04ba2f	0.51846594
4	0x3d576280	0.05258417
5	0x3f435275	0.76297694
6	0xbc045099	-0.008075857
7	0xbd4cad15	-0.04996975
8	0xbb49fede	-0.0030822079
9	0x3bde4cd7	0.0067840624
10	0x3d2ce855	0.042213757
11	0x3c042bf7	0.008067123
12	0xbe6ee7f9	-0.23330678
13	0xbd8ba6ef	-0.068189494
14	0xbe4d4cf9	-0.20048894
15	0xbedfe1e7	-0.43727037
16	0xbe66ea62	-0.22550347
17	0x3f36627b	0.7124402
18	0xbeedab22	-0.46419626
19	0xbd3adde1	-0.045621756
20	0xbf011bf3	-0.5043327
21	0xbeaf1ab9	-0.34200075
22	0x3d9c027c	0.07617661
23	0xbd2f1134	-0.042741016
24	0x3ca0df13	0.01963762
25	0x3bdc2ab0	0.006718956
26	0xbe025053	-0.12725954
27	0xbf4ff4aa	-0.812327
28	0xbee5825c	-0.4482602
29	0xbe99840d	-0.2998356
30	0xbe3b9fed	-0.18322726
31	0xbf268412	-0.65045273
32	0xbf0e44d3	-0.5557377
33	0xbf4cb498	-0.79963064
34	0xbe7d4831	-0.2473457
35	0x3f94984f	1.1608981
36	0x3da6e634	0.081493765
37	0xbc425922	-0.011862071
38	0xbe9e4795	-0.30913988
39	0xbd70b04c	-0.05876188
40	0x3e3a4e58	0.18193948
41	0x3eaeaf84	0.34118283
42	0x3ed841c6	0.4223768
43	0x3e78c857	0.24295174
44	0xbd04ffe0	-0.032470584
45	0x3f23136b	0.63701504
46	0xbd89781a	-0.06712361
47	0xbd2bd2de	-0.041949145
48	0x3ed5c45f	0.41751382
49	0x3f256ce1	0.6461926
50	0xbca33059	-0.019920515
51	0x3b61dff6	0.0034465767
52	0x3e46e7cb	0.1942436
53	0x3e4bf79d	0.19918676
54	0xbf16e977	-0.5894999
55	0xbf016111	-0.50538737
56	0xbdc022f4	-0.09381667
57	0x3e25432e	0.16138908
58	0xbebe04c0	-0.37113
59	0x3f8fd046	1.1235435
60	0x3ba7f56e	0.005125693
61	0x3e781401	0.24226381
62	0x3ecdcf79	0.40197352
63	0x3d1939bc	0.037408575
64	0x3f20e827	0.62854236
65	0x3cba29f6	0.022725087
66	0xbd963246	-0.07333808
67	0x3ef8ce33	0.48594818
68	0x3ba7f56e	0.005125693
69	0xbdc12ec7	-0.0943275
70	0x3cbb9af9	0.022901045
71	0xbd26efc7	-0.040756013
72	0x3e831c9e	0.2560777
73	0xbdfe90ec	-0.124299854
74	0x3eadfe94	0.3398329
75	0x3db5fcd1	0.088861115
76	0xbb11e9cf	-0.0022264605
77	0x3d70cddb	0.05879007
78	0xbe937203	-0.28797922
79	0xbaba9d4d	-0.0014237553
80	0xbf3a5b6c	-0.7279575
81	0x3cdbb91b	0.026821664
82	0xbd6d6b74	-0.057963803
83	0xbf18f64b	-0.59750813
84	0x3efb3704	0.4906541
85	0xbcc3ba14	-0.02389244
86	0xbc2e4ab6	-0.01063793
87	0x3f009d7e	0.50240314
88	0x3f1772bc	0.59159446
89	0xbeb9a990	-0.36262178
90	0xbede9939	-0.43476275
91	0x3c8a5395	0.016885558
92	0xbe9c1945	-0.3048803
93	0x3aeaa6e6	0.0017902523
94	0xbc9b3090	-0.018944055
95	0xbcc5892c	-0.02411326
96	0x3e7321b2	0.23743322
97	0x3b896f3a	0.0041941674
98	0xbb9ce53f	-0.0047880705
99	0x3e4a1fac	0.19738644
100	0xbe7aa21e	-0.24475905
101	0xbe2ff7ce	-0.17184374
102	0xbee433c7	-0.44570753
103	0x3ce34faf	0.027747957
104	0xbea1d000	-0.31604004
105	0x3cbdf723	0.023189133
106	0x3e82574f	0.25457236
107	0xbdd91a25	-0.1060069
108	0xbbaeddd9	-0.005336505
109	0xbdb3dcf4	-0.08782378
110	0xbe8ded0a	-0.2771991
111	0x3f42095a	0.7579552
112	0x3d8b0444	0.06787923
113	0xbe072da7	-0.13201009
114	0x3c0c9e1b	0.008582617
115	0xbdd9bef8	-0.106321275
116	0xbe08fb81	-0.13377191
117	0xbdb252d0	-0.087072015
118	0xbf1f1116	-0.62135446
119	0x3c3bdbdc	0.011465993
120	0x3f0fb276	0.56131685
121	0x3e680865	0.22659452
122	0x3ea10572	0.31449467
123	0xbe803624	-0.25041306
124	0x3c5cdabc	0.013479885
125	0x3df57456	0.1198508
126	0x3eca4c9d	0.39511576
127	0xbe697cd4	-0.22801524
128	0xbf75121a	-0.95730746
129	0xbbba3e86	-0.005683723
130	0x3cb22392	0.021745477
131	0xbe7f77e4	-0.24948078
132	0x3cc091d2	0.023507033
133	0xbd703e9f	-0.05865347
134	0xbe418cf1	-0.18901421
135	0xbd7792c1	-0.06044269
136	0x3da97635	0.08274499
137	0x3ba7f56e	0.005125693
138	0xbeadaf56	-0.33922833
139	0xbf14af42	-0.5807992
140	0x3f2feb25	0.6871818
141	0x3cfc561f	0.030802784
142	0xbabd45a4	-0.001444031
143	0xbd51cd52	-0.0512212
144	0x3d02df10	0.03195101
145	0xbcbe5093	-0.02323178
146	0xbde701ac	-0.11279616
147	0x3d40e500	0.04709339
148	0xbbbfcd40	-0.005853325
149	0x3cd8ffe3	0.026489204
150	0x3f43ecd6	0.7653326
151	0x3f28f663	0.66000956
152	0xbca5836e	-0.020204272
153	0xbe69f291	-0.22846438
154	0x3ba7f56e	0.005125693
155	0x3d072ddc	0.03300272
156	0x3e28f17c	0.16498369
157	0xbdce9134	-0.10086289
158	0xbe4be498	-0.1991142
159	0xbcedab78	-0.029012427
160	0xbd0b2bea	-0.033977427
161	0xbc801adf	-0.015637813
162	0x3e9265c6	0.28593272
163	0x3ec89d7e	0.39182657
164	0xbf01c2c1	-0.50687796
165	0x3dfae889	0.12251384
166	0x3eaa019d	0.33204356
167	0xbe313fa6	-0.17309436
168	0xbe6a120e	-0.2285845
169	0xbda52eea	-0.08065589
170	0x3e937bf4	0.28805506
171	0x3f4e29b7	0.805324
172	0x3d8ee016	0.06976335
173	0xbd645107	-0.055741336
174	0xbbb8815d	-0.0056306557
175	0x3ec84200	0.39112854
176	0x3ed2b577	0.41154072
177	0x3f175d7e	0.5912703
178	0x3ebe296a	0.3714097
179	0x3c204283	0.009781483
180	0xbce6c410	-0.028169662
181	0x3f2e19e1	0.6800824
182	0xbee67a90	-0.45015383
183	0x3e80872f	0.25103137
184	0xbdb64fc5	-0.089019336
185	0x3dab2d4f	0.08358251
186	0x3def1db8	0.1167559
187	0x3ba7f56e	0.005125693
188	0xbdc6ae58	-0.09701222
189	0xbeea5346	-0.45766658
190	0xbf2babb3	-0.6705887
191	0xbcec90a5	-0.028877566
192	0x3d3521c0	0.04422164
193	0xbe57c097	-0.21069561
194	0xbdc5d5f4	-0.09659949
195	0xbef2f999	-0.47456053
196	0x3ec88924	0.3916713
197	0x3efa8fe6	0.4893791
198	0x3d23cd30	0.039990604
199	0xbd847d29	-0.06469185
200	0xbeeaacc7	-0.45834944
201	0xbcf31706	-0.029674064
202	0xbc75c6fb	-0.015001054
203	0xbd03771b	-0.03209601
204	0x3c025a79	0.007956141
205	0x3eaf986d	0.3429598
206	0x3d2402f8	0.040041894
207	0x3f06514e	0.5246781
208	0x3ed0b6eb	0.40764555
209	0xbf3e5038	-0.74341154
210	0xbf3cc8a0	-0.7374363
211	0xbe9a8f23	-0.3018733
212	0x3ba02e85	0.004888358
213	0x3dace603	0.08442309
214	0xbe5f2079	-0.21789731
215	0x3f3bef25	0.7341178
216	0xbdb34370	-0.08753097
217	0x3e88f589	0.26749828
218	0xbe994b14	-0.29940093
219	0x3cb241f1	0.021759959
220	0x3dcbfff1	0.09960926
221	0x3eafa9f1	0.34309343
222	0x3cf072f0	0.029351681
223	0xbf4ea278	-0.8071666
224	0xbd0e89c9	-0.03479937
225	0x3ec4ae20	0.38414097
226	0x3eb7e49d	0.35916606
227	0xbe37eb75	-0.17960913
228	0x3d5b3953	0.053521466
229	0xbe963b7d	-0.2934226
230	0x3f34ee2e	0.70675933
231	0xbd287622	-0.041128285
232	0xbbf191f6	-0.007372136
233	0x3c90865b	0.01764219
234	0x3efad1be	0.48988146
235	0x3c134758	0.008989178
236	0x3de6f394	0.112769276
237	0x3d40f720	0.047110677
238	0x3de8932e	0.11356197
239	0xbbc29157	-0.005937736
240	0x3d0fcb35	0.035105903
241	0x3ba7f56e	0.005125693
242	0x3f02f184	0.51149774
243	0x3f01edcd	0.5075348
244	0xbf2665a6	-0.64998853
245	0xbcc99e4f	-0.02461162
246	0x3f32478a	0.6964041
247	0x3e6c533c	0.23078626
248	0x3ee66c72	0.45004612
249	0xbea39e4d	-0.3195671
250	0x3eb7971d	0.35857478
251	0xbecb433e	-0.3969974
252	0xbe86f5b2	-0.26359326
253	0xbc98f7da	-0.018672872
254	0x3db5a342	0.088690296
255	0x3d17faed	0.037104536

layer2.weight_mu f4 [3, 256]
0	0xbe14d467	-0.1453415
1	0xbe1baf3d	-0.15203567
2	0xbb50d962	-0.0031867852
3	0xbd03f34d	-0.03221445
4	0xbd1531ac	-0.036424324
5	0xbe2eeafc	-0.17081827
6	0x3d9c6de1	0.07638145
7	0xbc777dc5	-0.015105669
8	0x3d8b413c	0.06799552
9	0x3c174949	0.009233781
10	0xbff7d332	-1.9361327
11	0x3cff79cd	0.031186009
12	0x3d6f1839	0.05837271
13	0x3ec93df8	0.3930509
14	0xbd37117f	-0.04469442
15	0xbe5d595e	-0.21616122
16	0xbe103f31	-0.14086606
17	0xbdf29bf3	-0.11846151
18	0xbe015f5f	-0.12634037
19	0x3f0725dc	0.52792144
20	0xbe110ad8	-0.14164293
21	0xbd4d0228	-0.050050884
22	0xbdcbcb2b	-0.099508606
23	0xbdeda600	-0.116039276
24	0x3ba12767	0.004918027
25	0x3ce0332d	0.027368153
26	0xbdc5124f	-0.09622633
27	0xbe376cad	-0.1791255
28	0xbe8aa05c	-0.2707547
29	0xbdb5612c	-0.08856425
30	0xba925fc2	-0.0011167454
31	0xbe855eea	-0.26048976
32	0xbabc72f3	-0.0014377519
33	0xbd526268	-0.05136338
34	0xbd9c514a	-0.07632692
35	0xbda14ad4	-0.078756005
36	0xbda60ab5	-0.08107511
37	0x3cf6514d	0.030068064
38	0xbe954ec6	-0.29161662
39	0xbe4fb2d8	-0.20283067
40	0xbe5d90f6	-0.2163733
41	0x3cd729fc	0.026265137
42	0xbd585bf2	-0.05282206
43	0xbd2c206c	-0.042023107
44	0xbfd23ebb	-1.6425394
45	0xbdcbcb1b	-0.09950849
46	0xbe371ad0	-0.17881322
47	0x3ee2464c	0.44194257
48	0xbe233565	-0.15938337
49	0xbd9f29d3	-0.07771649
50	0x3c28a245	0.010292594
51	0x3c26e73a	0.010186965
52	0xbd3231f2	-0.043504663
53	0xbe47827c	-0.1948337
54	0xbe0bc14d	-0.13647957
55	0xbe80a3e7	-0.25125048
56	0xbc598489	-0.013276228
57	0xbc709a21	-0.014685185
58	0x3cb35d70	0.02189514
59	0xbe23f00c	-0.1600954
60	0xbd674d76	-0.056470357
61	0xbddbb3d6	-0.1072766
62	0xbd019bad	-0.031642605
63	0x3eaf1951	0.34199002
64	0xbee21a63	-0.44160756
65	0xbccfd854	-0.025371708
66	0xc05eb61b	-3.4798648
67	0xbd47f4a7	-0.048817303
68	0x3b9c3ba0	0.00476785
69	0xbded0680	-0.115735054
70	0xbc6b81e7	-0.014374233
71	0x3cc738d5	0.024319092
72	0xbdc9a7cc	-0.09846458
73	0xbcf0f583	-0.029413944
74	0xbe290e69	-0.16509403
75	0x3db06c8d	0.086144544
76	0xbdf1ec75	-0.11812679
77	0xbe02fefb	-0.1279258
78	0xbdfc3afd	-0.123159386
79	0xbcc57f9a	-0.024108697
80	0xbdf5558c	-0.119792074
81	0x3e23b4b1	0.15986897
82	0x3c905ffa	0.01762389
83	0xbdd2bfe8	-0.102905095
84	0xbe32cbbd	-0.17460532
85	0xbdf59d97	-0.119929485
86	0xbe258d13	-0.16167097
87	0xbe0a1f89	-0.13488592
88	0xbe91a1e8	-0.28443837
89	0xbe37cb05	-0.1794854
90	0xbc4f0442	-0.0126352925
91	0xbe48762e	-0.19576332
92	0x3d630258	0.055422157
93	0x3b840a80	0.004029572
94	0xbd735268	-0.05940476
95	0xbda81a61	-0.082081564
96	0xbd57eb8d	-0.052714873
97	0x3c8cfeeb	0.017211398
98	0xbbfb8954	-0.007676283
99	0xbc855dda	-0.016280103
100	0xbdf2db62	-0.1185825
101	0xbe44f736	-0.19234928
102	0xbe3c75c3	-0.18404298
103	0xbc5a6bdf	-0.013331383
104	0xbded04f8	-0.11573213
105	0x3dc26a99	0.09492988
106	0xbe334847	-0.1750804
107	0x3f013222	0.5046712
108	0xbda225e3	-0.079173826
109	0x3d23adff	0.039960857
110	0xbe590dfb	-0.2119674
111	0xbe3da6a1	-0.18520595
112	0xc010e68c	-2.2640715
113	0xbdae8515	-0.08521477
114	0xbd0b8cc3	-0.034069788
115	0xbdd7e448	-0.10541588
116	0xbe417c62	-0.18895105
117	0xbdc7d759	-0.09757871
118	0xbe160a93	-0.14652471
119	0xbdfa7e11	-0.122310765
120	0xbe0fc912	-0.14041546
121	0xbde470cb	-0.11154326
122	0xbe432759	-0.19057979
123	0xb80055ea	-3.0597592e-05
124	0x3cfedf30	0.031112283
125	0x3d5fa3da	0.05459962
126	0xbe4bfd8c	-0.19920939
127	0x3d45f295	0.048327047
128	0xbe1b060a	-0.15139022
129	0xbdcc74b0	-0.09983194
130	0xbf0dd31d	-0.5540026
131	0xbcc0bef6	-0.023528557
132	0x3b3e22b8	0.0029012393
133	0xbd031248	-0.031999856
134	0xbe3c4014	-0.18383819
135	0xbedceb9e	-0.43148512
136	0xbd22cb43	-0.039744627
137	0xbcc28e00	-0.023749352
138	0xbe0504bf	-0.12990092
139	0xbddc05b9	-0.10743279
140	0xbe4051d2	-0.18781212
141	0x3cc4b978	0.02401422
142	0xbc13789e	-0.009000925
143	0x3e50f4ee	0.20405933
144	0x3c634026	0.013870275
145	0xbdc746a7	-0.09730273
146	0xbe9ea53d	-0.30985442
147	0xbe304e58	-0.17217386
148	0x3dfab82c	0.12242159
149	0xbdd121ec	-0.10211548
150	0xbd1ef19c	-0.038804635
151	0xbd10851e	-0.0352832
152	0x3d33e860	0.043922782
153	0xbd6bc19e	-0.057557695
154	0xba108000	-0.00055122375
155	0xbdcb0441	-0.09912921
156	0xbd0c0008	-0.034179717
157	0xbcd40a48	-0.025883809
158	0xbe43bf6c	-0.1911599
159	0xbe136de8	-0.14397395
160	0x3c12866c	0.0089431815
161	0x3e8cca3c	0.27498043
162	0xbdd4c1e4	-0.10388544
163	0xbe12bf7a	-0.14330855
164	0xbe7fbfe8	-0.2497555
165	0xbe24463f	-0.16042422
166	0xbe279c83	-0.16368298
167	0xbe25e097	-0.16198955
168	0xbc090820	-0.008363754
169	0xbd686193	-0.05673368
170	0xbe6d2204	-0.23157507
171	0xbe14b3d1	-0.1452172
172	0x3bf23e6c	0.007392695
173	0xbd8ef059	-0.069794364
174	0xbdb1195d	-0.08647416
175	0xbe0590d2	-0.13043526
176	0xbdc3bedf	-0.0955789
177	0xbe390c2b	-0.18071048
178	0xbdec62c4	-0.115422755
179	0xbc3a21cb	-0.011360596
180	0x3bcb2a21	0.0062000905
181	0xbd954911	-0.07289327
182	0xbe45224a	-0.19251361
183	0xbe52d608	-0.20589459
184	0x3decc594	0.115611225
185	0xbd118462	-0.03552664
186	0x3d9dbbfd	0.077018715
187	0x3d2754b4	0.040852264
188	0xbc9bf142	-0.01903594
189	0xbcd69c03	-0.026197439
190	0xbdff87a4	-0.12477043
191	0x3f803e3a	1.001899
192	0x3ed9f009	0.42565945
193	0xbdf01d5a	-0.11724348
194	0x3d41446e	0.0471844
195	0xbdab634e	-0.0836855
196	0xbd21089f	-0.039314862
197	0xbdfab712	-0.12241949
198	0xbe2a7aad	-0.1664836
199	0xbcd0ead2	-0.025502596
200	0xbbd176db	-0.0063923425
201	0x3ec2cbdd	0.3804616
202	0xbd6cfd09	-0.0578585
203	0x3d0bb51d	0.03410827
204	0xbcc9293b	-0.024555793
205	0xbd8bb8bb	-0.06822344
206	0x3ca1b8f7	0.019741518
207	0xbd45e634	-0.048315242
208	0xbea3ec1c	-0.32016075
209	0xbaed49e0	-0.0018103682
210	0x3c5c7632	0.013455914
211	0xbda7619b	-0.08172914
212	0x3ef9edb5	0.4881417
213	0x3d3f1c46	0.046657823
214	0xbdce7914	-0.100816876
215	0xbd9730b1	-0.07382334
216	0x3e4354d9	0.19075336
217	0xbe100607	-0.14064799
218	0xbcb3e390	-0.021959096
219	0x3ce2a69e	0.02766734
220	0xbe5b7ebd	-0.21435066
221	0xbe8258c0	-0.25458336
222	0x3d39054a	0.04517106
223	0xbe5671fe	-0.20941922
224	0xbe814922	-0.25251108
225	0xbe8ded12	-0.27719933
226	0xbd9d381b	-0.07676717
227	0xbe9a4b47	-0.30135557
228	0xbc0c9c16	-0.008582136
229	0xbcba7048	-0.022758618
230	0xbe0c226e	-0.13685009
231	0xbe84b1a9	-0.25916794
232	0xbe515f91	-0.20446612
233	0xbc3acda1	-0.011401565
234	0xbdd5087d	-0.1040201
235	0x3cc60d50	0.02417627
236	0x3c8af5e7	0.016962958
237	0xbc9b43d3	-0.01895324
238	0xbdad8934	-0.08473435
239	0xbbd8a045	-0.0066109025
240	0xbb2efa0e	-0.0026699337
241	0x3d48893e	0.04895901
242	0xbe1290e3	-0.14313082
243	0xbea419aa	-0.3205083
244	0xbe410aaf	-0.18851732
245	0xbdb95c99	-0.09050865
246	0xbe263422	-0.16230825
247	0xbe010299	-0.12598647
248	0xbd69eec7	-0.05711248
249	0xbdc77dd0	-0.09740794
250	0x3d496db1	0.049176876
251	0xbdc22ba7	-0.09480982
252	0xbe828ae1	-0.2549658
253	0x3cc52e30	0.024069875
254	0xbe8adb94	-0.2712065
255	0xbdce1f80	-0.10064602

layer2.weight_sigma f4 [3, 256]
0	0x3ce5982c	0.028026663
1	0xbd57fc72	-0.052730985
2	0x3d6d69d0	0.05796224
3	0xbcff2a91	-0.031148227
4	0x3ba61388	0.0050682463
5	0xbcbf86fc	-0.023379795
6	0x3d792439	0.06082556
7	0x3cda7c5d	0.02667063
8	0x3d3e6bfc	0.0464897
9	0xb9d541de	-0.000406756
10	0x3e08733b	0.13325207
11	0x3d53f6be	0.051748984
12	0xbc858e72	-0.016303275
13	0x3cd3faf2	0.025876496
14	0x3d953868	0.07286149
15	0xbd856279	-0.06512923
16	0x3d63959b	0.055562597
17	0x3cc16acc	0.023610495
18	0xbd1d7fe2	-0.038452037
19	0xbc1008d3	-0.008791166
20	0x3e0d58aa	0.13803354
21	0x3bf8c621	0.007591978
22	0x3dfe0fb1	0.12405337
23	0x3dae52f4	0.08511916
24	0x3cda31f2	0.026635144
25	0xbc0976e8	-0.008390166
26	0x3d88f084	0.066865
27	0xbc7c1749	-0.015386411
28	0x3d220012	0.03955085
29	0x3dd62836	0.104568884
30	0xbce1dbda	-0.027570654
31	0x3e171fbc	0.147582
32	0xbc94fe3e	-0.018187638
33	0xbe198847	-0.14993392
34	0x3d39010d	0.045167018
35	0xbd802c26	-0.06258421
36	0xbc1a881b	-0.009431864
37	0x3a88d1f1	0.0010438544
38	0xbd2042f9	-0.03912637
39	0x3a8054d5	0.0009790907
40	0x3d7feb19	0.062480066
41	0xbc1f1e90	-0.0097118765
42	0x3d83fb08	0.06444365
43	0x3dd56ebe	0.10421513
44	0x3c461978	0.012091033
45	0xbd19d8cc	-0.03756027
46	0x3b2bcc56	0.0026214323
47	0xbcc38e93	-0.023871696
48	0x3df17a50	0.117909074
49	0x3db3d563	0.08780935
50	0xbc9fbbb3	-0.019498682
51	0x38846712	6.313449e-05
52	0xbdd652fb	-0.10465046
53	0xbda38bfa	-0.07985683
54	0xbd1f2b0a	-0.038859405
55	0x3c40492c	0.011736196
56	0xbd12e15c	-0.03585945
57	0x3e0ebef7	0.13940035
58	0xbc735e31	-0.014854
59	0x3d7f8adf	0.062388297
60	0x3a8b4396	0.0010625
61	0x3c9321b2	0.017960403
62	0x3d4c38e5	0.049858946
63	0xbcf93409	-0.03042032
64	0x3cec5c7d	0.028852696
65	0xbcd5dc78	-0.026106104
66	0xbd385f4d	-0.04501276
67	0x3d841e44	0.06451085
68	0x3a8b4396	0.0010625
69	0xbdb6ce49	-0.089260645
70	0x3be008d3	0.0068369894
71	0x3c01088e	0.007875575
72	0x3d234296	0.039858423
73	0x3d332615	0.04373749
74	0xbd690c4c	-0.056896493
75	0x3e013c23	0.12620597
76	0xbd812bbb	-0.06307169
77	0x3e6e9b6c	0.23301476
78	0x3d05be23	0.03265203
79	0x3d5fd8fa	0.054650284
80	0x3dfe75a9	0.12424786
81	0xbddbff73	-0.107420824
82	0x3d737e63	0.059446704
83	0xbce849eb	-0.02835556
84	0x3cbd9651	0.023142966
85	0xbd56f51e	-0.052479856
86	0x3c696dbd	0.014247355
87	0xbcde06cb	-0.027102849
88	0xbbe5fe66	-0.007018852
89	0xbac2b5aa	-0.0014855166
90	0x3d9078fd	0.07054327
91	0xbd6bdab2	-0.05758161
92	0x3dc1b15b	0.09457656
93	0x3d3c48d7	0.045967903
94	0x3d21e9a7	0.03952947
95	0x3c155078	0.0091134235
96	0xbd431390	-0.047626078
97	0x3dbe1999	0.09282226
98	0x3d336c04	0.043804184
99	0xbe15e867	-0.14639436
100	0x3d440fc5	0.0478666
101	0x3d2b14cf	0.04176789
102	0x3d012a7e	0.031534664
103	0xbc50da4c	-0.0127473585
104	0xbd70696d	-0.05869429
105	0xbd857525	-0.06516484
106	0xbcde61b6	-0.027146202
107	0x3d98f38f	0.0746833
108	0x3d2cbad8	0.042170376
109	0x3d816757	0.06318539
110	0xbc08526b	-0.008320431
111	0xbe1ba7ba	-0.15200701
112	0xbe0758fa	-0.13217536
113	0x3d6c7128	0.0577251
114	0x3b898b34	0.0041975025
115	0xbd3498c8	-0.044091016
116	0x3e03c5d2	0.12868431
117	0x3ad1cf64	0.0016007242
118	0xbb81f606	-0.003966096
119	0xbdcc8dd6	-0.099879906
120	0x3d04fafc	0.03246592
121	0x3ca6c7a0	0.02035886
122	0xbcb3c4d7	-0.021944446
123	0x3c307e92	0.010772364
124	0xbdc2d879	-0.09513945
125	0xbe255307	-0.16144954
126	0x3d31d8c7	0.043419626
127	0xbd42600c	-0.04745488
128	0xbd727693	-0.059195112
129	0xbd47d365	-0.048785586
130	0xbd116e5f	-0.03550565
131	0x3e27fa73	0.16404133
132	0xbcb34e5d	-0.021887952
133	0x3d1547c9	0.036445413
134	0x3d2c0f7e	0.042006962
135	0x3d65216b	0.055940073
136	0x3cca2da0	0.024679959
137	0x3a8b4396	0.0010625
138	0xbd55ff09	-0.052245174
139	0x3cdf19b6	0.02723394
140	0xbd80b809	-0.06285102
141	0xbd76ddc2	-0.06027008
142	0x3b2c4b20	0.0026289895
143	0x3de07eb9	0.109616704
144	0x3c7c9a2c	0.015417617
145	0xbcd81d2c	-0.026381098
146	0x3d35cb13	0.04438312
147	0xbd43ce79	-0.04780433
148	0x3ddeb140	0.108736515
149	0xbce4d0d3	-0.027931606
150	0xbd8d768a	-0.06907375
151	0x3c97cf33	0.018531417
152	0x3d7e2784	0.062049404
153	0xbe100443	-0.14064126
154	0x3a8b4396	0.0010625
155	0xbd384226	-0.04498496
156	0x3da34a75	0.07973186
157	0xbdbfb1dc	-0.09360096
158	0x3d3e1dc7	0.046415117
159	0x3d13df87	0.036101844
160	0xbd0103c8	-0.031497747
161	0x3d0e40d5	0.034729797
162	0xba080a85	-0.0005189556
163	0xbc5caf5f	-0.013469546
164	0xbd2dbe1d	-0.042417634
165	0x3d2875b3	0.04112787
166	0x3d12d443	0.03584696
167	0x3e1fe9ca	0.15616527
168	0x3d3e23dc	0.046420917
169	0x3dd2cbdf	0.102927916
170	0x3da7e364	0.08197668
171	0x3e00cf73	0.12579136
172	0xbe1eb3d8	-0.15498292
173	0xbd022e55	-0.031782467
174	0x3d0e5697	0.034750547
175	0x3ce3b2e4	0.027795263
176	0xbd292a62	-0.041300185
177	0x3d601f50	0.054717362
178	0x3d943f78	0.07238668
179	0xbcacf7f9	-0.021114336
180	0x3c8ffd14	0.017576732
181	0x3d7cdac3	0.061732065
182	0x3d78fc19	0.060787294
183	0x3d8c82f8	0.06860918
184	0xbdc296b7	-0.09501403
185	0xbc9c5fb1	-0.019088598
186	0x3dd9000b	0.10595711
187	0x3a8b4396	0.0010625
188	0x3d1a8242	0.03772188
189	0xbd86a241	-0.06573916
190	0x3e007ab3	0.12546806
191	0xbc681780	-0.014165759
192	0x3c3dcfab	0.011585156
193	0xbd74e5a3	-0.05978931
194	0x3d066378	0.032809705
195	0x3ced732b	0.02898558
196	0x3c566d19	0.013087534
197	0xbd773f3c	-0.06036304
198	0xbe4245e9	-0.18971981
199	0xbcac2432	-0.021013353
200	0x3d5cc0db	0.05389486
201	0xbd2dea67	-0.04245987
202	0x3d922319	0.071356006
203	0x3d190dac	0.037366554
204	0x3da904b0	0.08252847
205	0x3d00bb8d	0.031428862
206	0x3bfb0022	0.007659928
207	0x3e007288	0.1254369
208	0xbcc40eb8	-0.0239328
209	0xbd8cb1bb	-0.06869837
210	0x3dd70553	0.104990624
211	0x3cf2c720	0.029635966
212	0xbcf73000	-0.030174255
213	0x3c20c0a1	0.009811551
214	0xbc106983	-0.008814218
215	0x3e4042ae	0.18775436
216	0xbd88b4a8	-0.066750824
217	0x3dab4426	0.08362608
218	0xbdbeb730	-0.09312284
219	0xbcface21	-0.030615868
220	0xbbb65d53	-0.0055653243
221	0x3c761c2d	0.015021366
222	0xbc7209e6	-0.014772868
223	0xbd40df7e	-0.04708814
224	0xbddd54a1	-0.10807157
225	0x3e514e64	0.2044006
226	0xbd8c2fc7	-0.0684505
227	0xbd5a825c	-0.053346977
228	0x3cc08519	0.023500966
229	0x3e057a5d	0.13034959
230	0xbaeb6c04	-0.0017961268
231	0xbe154624	-0.14577538
232	0x3d3028ab	0.043007534
233	0xbc456542	-0.0120480675
234	0xbdbbfc54	-0.09178987
235	0xbc8883f3	-0.01666448
236	0xbcfa5107	-0.030556215
237	0xbcf3f485	-0.029779682
238	0xbd4d61d4	-0.050142124
239	0x3ca3052c	0.019899927
240	0x3dea5dba	0.11443658
241	0x3a8b4396	0.0010625
242	0xbda54175	-0.080691256
243	0xbd41f15d	-0.047349323
244	0x3d82d26d	0.06387792
245	0x3d880f00	0.06643486
246	0x3ba9599b	0.0051681525
247	0x3dac160f	0.08402645
248	0xbdb44527	-0.08802252
249	0xbd4e12c2	-0.050310858
250	0xbcc0ac5f	-0.023519693
251	0xbd4bd906	-0.049767517
252	0xbd36e69a	-0.044653513
253	0xbd6f79a7	-0.058465626
254	0xbdcadc93	-0.099053524
255	0xbdd9d3f7	-0.10636132

layer2.bias_mu f4 [3]
0	0x400085f0	2.008175
1	0x3fcc9760	1.5983696
2	0x3fbaf5a6	1.4606216

layer2.bias_sigma f4 [3]
0	0x3d079cee	0.033108644
1	0x3d16ff3c	0.036864504
2	0xbcfd6b16	-0.030934852
