Code Submission/DDQN_models/noisy-model2-snapshot-score-32.pth (torch, 33781 bytes, 8 tensors)

layer1.weight_mu f4 [256, 11]
0.9240026 0.7337576 -0.77584374 -0.4108716 -0.6120221 -0.8354719 -0.94921505 -0.8123959
-0.7261031 0.44478345 -1.4525003 1.0980186 0.6323807 -0.29740793 0.4385554 -1.4942154
-1.5358179 -1.1688571 -1.5610769 -1.3602614 0.94288284 0.79404426 -0.13930699 -0.13590607
-0.5158749 -0.4926833 -0.85744005 -0.56801707 -0.8638627 -0.67163527 -0.9100058 0.04174467
0.19163099 0.459054 -0.3855807 -1.4532905 0.13319723 -0.8853951 -1.180394 -0.7746224
-0.7222822 0.3278734 0.42755446 -0.0030788071 -0.84210515 -1.0961751 -1.0070612 -1.3374239
-0.15916099 -0.3780802 -0.16510952 -0.028735712 0.15867867 0.25533375 2.0612178 0.15770335
0.39542958 -0.630124 -0.77278364 -0.7665255 -0.37180138 -0.38118875 -0.709995 -1.1510459
-0.12703773 0.5072204 1.067977 -1.5460854 0.944542 -0.5193767 -0.743631 0.6243152
-0.5799866 0.58996814 0.6204716 0.80131555 -1.3631026 0.15311639 0.26262563 0.2248746
-0.6099477 -1.0619799 -0.8644145 -0.7385683 -0.4474331 -0.7327271 -0.37984416 -0.15441366
-0.36351505 -0.34921527 -0.4606485 -0.32756722 -0.44703424 -0.21193424 -0.1061633 -0.18226296
0.017009212 -0.44990426 0.06350128 -0.011372154 -0.062073305 -0.18243116 -0.28528586 -0.19146237
-0.18780524 -0.262451 -0.084207684 0.032657016 0.07781247 0.044654265 -0.591294 -0.07187741
1.5045983 1.2697737 -1.0338825 -1.1651218 -0.89505476 -0.91867566 0.041972995 -0.54940784
-0.2149871 -0.28800502 -0.34098983 -0.19727845 -0.053376075 0.0033733402 -0.021507414 -0.19384617
-0.026502566 -0.30937767 -0.11067204 -0.03392548 0.5156546 0.32997933 -0.5569544 0.41587725
-0.1972144 -0.2802505 -0.5709456 -0.240902 -1.0020267 0.04852104 -0.20398913 -0.2178171
-1.5986447 -1.2728752 0.4733526 -1.2069836 0.17670785 -0.9789263 -0.35113332 -0.40188769
1.4874327 -0.42691687 -0.3736401 -0.27533144 -0.28230965 -0.72479177 -0.71091145 -0.84472984
-0.61034876 -0.7796173 -1.0522622 -0.90798515 -1.0522128 0.121751785 -0.018592115 -0.79152787
-0.8670096 -0.7551533 -0.91544324 -0.8702911 -0.93577987 -0.6363763 -0.09093789 1.0296426
0.46963736 -0.10344087 0.54750955 -0.14623609 -0.09459867 -0.7167211 -0.41389483 -0.72451633
-0.6454413 0.1948703 -0.01654385 -0.034868535 -0.19677976 -0.33765754 -0.52377355 0.024268677
0.015201266 0.063387245 -0.20107204 -0.25268316 -0.12779249 -0.0657101 0.17887741 0.40011433
0.06941004 -0.20355059 -0.8133192 -1.0943832 -0.92733526 -1.097186 -1.2049297 0.3685146
-0.58243 0.50102174 0.29205173 -0.10613525 0.2820532 -0.5588713 -0.63009506 -0.46276414
-1.1131785 -1.1068692 -0.038589746 -0.20404029 -0.11885231 -0.047796484 -0.18267608 -0.22452791
-0.02031531 -0.15797195 -0.0020627638 0.036413062 0.057399176 -0.23565647 -0.21000041 -0.40913278
-0.10954921 -0.26818094 -0.25707301 -0.29420763 -0.15134594 0.123090595 -0.012567852 -0.16419631
0.0002127133 -0.15979417 0.6255102 0.4265935 -0.49967626 -0.5180899 -0.86185455 -0.43660325
-1.1409259 -0.6427014 0.49309713 0.87862694 -1.045114 -0.8128683 -0.13252084 -0.8379829
00000000: 6f8b 6c3f 8ad7 3b3f b29d 46bf c35d d2be
00000010: 7bad 1cbf 7de1 55bf c2ff 72bf 2df9 4fbf
00000020: e5e1 39bf a8ba e33e 88eb b9bf e08b 8c3f
00000030: b4e3 213f da45 98be 558a e03e 7342 bfbf
00000040: ae95 c4bf 1c9d 95bf 5ed1 c7bf 0c1d aebf
00000050: c560 713f 7c46 4b3f 7ea6 0ebe f62a 0bbe
00000060: 6110 04bf fc40 fcbe 3181 5bbf 9169 11bf
00000070: 1b26 5dbf 4af0 2bbf 24f6 68bf 76fc 2a3d
00000080: ea3a 443e 2009 eb3e d56a c5be 6c05 babf
00000090: db64 083e 41a9 62bf 2717 97bf a74d 46bf
000000a0: 7ce7 38bf 06df a73e 6be8 da3e d0c5 49bb
000000b0: 3494 57bf 774f 8cbf 62e7 80bf b530 abbf
000000c0: 19fb 22be ba93 c1be 7812 29be 2867 ebbc
000000d0: a97c 223e 1bbb 823e feea 0340 fd7c 213e
000000e0: bf75 ca3e ce4f 21bf 26d5 45bf 043b 44bf
000000f0: c05c bebe 2c2b c3be 3bc2 35bf 7955 93bf
00000100: 2e16 02be 32d9 013f 78b3 883f 20e6 c5bf
00000110: 81cd 713f dff5 04bf 9a5e 3ebf 1fd3 1f3f
00000120: 007a 14bf 2708 173f 3ad7 1e3f 0423 4d3f
00000130: 257a aebf 8bca 1c3e de76 863e 8745 663e
00000140: 8825 1cbf f5ee 87bf 454a 5dbf d012 3dbf
00000150: f415 e5be 0194 3bbf ef7a c2be 9d1e 1ebe
00000160: a51e babe 58cc b2be 1fda ebbe e4b6 a7be
00000170: ace1 e4be 4a05 59be 256c d9bd 24a3 3abe
00000180: e756 8b3c da59 e6be f60c 823d 4552 3abc
00000190: 9440 7ebd 3ccf 3abe fd10 92be b60e 44be
000001a0: 0450 40be fa5f 86be 1475 acbd 5dc3 053d
000001b0: 255c 9f3d 64e7 363d 0b5f 17bf 7734 93bd
000001c0: ad96 c03f f287 a23f 4356 84bf b622 95bf
000001d0: 4f22 65bf 542e 6bbf e0eb 2b3d fea5 0cbf
000001e0: 9425 5cbe 6575 93be 3896 aebe 5d03 4abe
000001f0: dfa0 5abd 4213 5d3b 5130 b0bc 9c7f 46be
00000200: e91b d9bc c066 9ebe 06a8 e2bd 72f5 0abd
00000210: f101 043f 0df3 a83e 9094 0ebf dded d43e
00000220: 92f2 49be fe7c 8fbe 7e29 12bf 04af 76be
00000230: 6942 80bf ffbd 463d 87e2 50be 720b 5fbe
00000240: 64a0 ccbf 93ed a2bf 465b f23e 707e 9abf
00000250: e7f2 343e ea9a 7abf bfc7 b3be 39c4 cdbe
00000260: 3264 be3f d994 dabe c14d bfbe 3ef8 8cbe
00000270: e48a 90be f48b 39bf 4bfe 35bf 3740 58bf
00000280: d13f 1cbf 0095 47bf 87b0 86bf b771 68bf
00000290: e9ae 86bf 0059 f93d 7e4e 98bc 92a1 4abf
000002a0: 57f4 5dbf ba51 41bf 7d5a 6abf 66cb 5ebf
000002b0: 458f 6fbf 8fe9 22bf a53d babd 54cb 833f
000002c0: 4f74 f03e cfd8 d3bd 9629 0c3f eabe 15be
000002d0: f3bc c1bd 097b 37bf 06ea d3be e779 39bf
000002e0: a43b 25bf 148c 473e f886 87bc 4fd2 0ebd
000002f0: a280 49be 73e1 acbe 0616 06bf 1bcf c63c
00000300: bb0e 793c 2cd1 813d d4e5 4dbe b05f 81be
00000310: 09dc 02be 0493 86bd a42b 373e c9db cc3e
00000320: da26 8e3d 916f 50be b035 50bf c014 8cbf
00000330: d865 6dbf 9770 8cbf 233b 9abf f2ad bc3e
00000340: 221a 15bf f642 003f ce87 953e 705d d9bd
00000350: 4769 903e 3112 0fbf e94d 21bf 6cef ecbe
00000360: a27c 8ebf e4ad 8dbf 4810 1ebd f0ef 50be
00000370: d768 f3bd 3fc6 43bd 700f 3bbe a5ea 65be
00000380: 4b6c a6bc 66c3 21be 6f2f 07bb dd25 153d
00000390: 661b 6b3d ee4f 71be 590a 57be da79 d1be
000003a0: 565b e0bd 034f 89be 139f 83be 62a2 96be
000003b0: 6efa 1abe ec16 fc3d 64e9 4dbc 1423 28be
000003c0: cb0b 5f39 15a1 23be 7021 203f 776a da3e
000003d0: 91d5 ffbe 8aa1 04bf 80a2 5cbf 768a dfbe
000003e0: dc09 92bf 1488 24bf 3a77 fc3e b2ed 603f
000003f0: 4cc6 85bf 2318 50bf 8bb3 07be 0c86 56bf

layer1.weight_sigma f4 [256, 11]
-0.7319249 -1.218631 0.07985972 0.45178372 -0.3373523 -0.025256611 0.052306253 -0.17598014
-0.21081759 0.58137804 0.3831079 -1.3250159 0.7944524 0.13501228 0.0329499 0.3254126
-0.1535763 -0.26733696 -0.043217305 0.1090052 -0.3364494 0.16156857 -0.24164243 0.19717664
-0.076826304 -0.07513709 0.022743303 0.4614954 -0.059447885 0.17080136 -0.03367985 -0.25288734
-0.3328171 1.1790575 0.7236148 0.05874381 -0.45643553 0.27901766 0.087304205 0.25035965
-0.14465939 0.11453732 0.28939277 0.13048455 0.038102053 -0.15839459 -0.104326166 0.09164094
0.03818876 -0.12386175 0.02073156 0.028202776 0.03774115 0.05257695 -0.028889274 0.8754361
0.9439561 0.033403717 -0.033672724 0.16242021 0.49551472 0.15080416 0.6022722 0.097365566
-0.11932599 -0.17915936 0.1709906 0.010775442 0.14676811 0.31204572 0.014703396 -0.030951733
-0.028207647 -0.017956331 0.1072129 -0.054950148 0.13193206 -0.16361097 -0.17839748 -0.142159
-0.28491235 -0.23384012 -0.09517575 0.21321435 -0.105190754 0.10277121 0.042678963 0.21372959
0.19228305 -0.07783047 0.10299617 0.122605786 0.08555364 0.039485876 0.04194316 0.0050259577
-0.2072527 0.14776152 -0.035666678 0.055989426 0.005125693 0.005125693 0.005125693 0.005125693
0.005125693 0.005125693 0.005125693 -0.018473867 -0.033749357 0.034663476 0.113668546 -0.11255372
-0.06710317 0.04609557 -0.11295271 0.02135838 -0.088903874 0.15425907 -0.059810836 0.018721793
-0.0015065904 -0.061775528 -0.084119536 -0.06387367 0.046724316 -0.0034269008 0.0067466097 -0.014403013
0.034099184 -0.045905326 -0.08649845 0.077245116 0.663078 0.27761495 -0.04093738 -0.47669786
-0.3372345 -0.3069671 0.18860568 -0.45396975 0.07021395 -0.50895673 -0.016133912 0.031042358
-0.010987772 -0.041166093 -0.105378844 0.05050552 -0.043457825 -0.04067345 -0.016222008 0.13789152
0.079630785 -0.107494526 -0.047510676 0.09984719 0.14496705 0.0033410008 0.027742432 0.026950343
0.11319011 -0.0011351828 0.017888373 0.063940726 -0.012916918 -0.8591719 0.6056191 0.49305552
0.42147988 -0.3020295 -0.28116882 0.36059752 0.19973327 0.24124204 -0.19873823 -0.2274045
-0.8064571 0.4317919 0.69484943 0.09418553 0.57114726 0.051775593 -0.5313741 -0.24312627
0.05459053 -0.21615246 0.07602389 0.047074154 0.07815836 0.12084355 0.012940865 0.060861725
0.120450966 0.011995902 0.020662729 -0.02927578 -0.044749256 -0.030527757 -0.7614578 -0.909455
0.5689653 -0.122929364 -0.08734314 -0.22625536 0.18021594 0.16554944 -0.10257325 -0.6801346
-0.19191466 -1.1077908 0.8758709 0.41275164 0.6022918 0.10269517 -0.10479077 0.0093379365
-0.12457826 -0.13820173 0.843886 0.4799978 -0.0070271296 0.035987027 -0.11535302 -0.03453183
-0.0059228055 0.008302265 6.8226764e-05 -0.021909436 -0.020307506 -0.054439176 -0.049192883 -0.13488145
0.033875115 0.123646274 -0.07062762 -0.055715714 -0.07036243 0.015122335 0.0057785893 -0.0031771641
-0.058828175 -0.06998606 -0.7282284 -0.7361515 -0.090116 -0.2516811 0.0924424 0.36443144
0.047276925 -0.5111515 -0.054438546 -0.33537224 0.41509414 0.3111442 0.5219212 0.016462767
00000000: 6e5f 3bbf 1afc 9bbf 7e8d a33d 3250 e73e
00000010: 71b9 acbe f4e6 cebc 153f 563d 2334 34be
00000020: 91e0 57be 31d5 143f b826 c43e 1f9a a9bf
00000030: 3c61 4b3f a940 0a3e 79f6 063d 7b9c a63e
00000040: 1b43 1dbe 64e0 88be a104 31bd 1e3e df3d
00000050: 1943 acbe 3b72 253e 1d71 77be ace8 493e
00000060: 1c57 9dbd 7ae1 99bd 2a50 ba3c 2049 ec3e
00000070: a07f 73bd 8de6 2e3e e2f3 09bd 737a 81be
00000080: 0167 aabe 5beb 963f d23e 393f 599d 703d
00000090: ebb1 e9be 67db 8e3e 8ccc b23d 242f 803e
000000a0: 9721 14be 8b92 ea3d 4a2b 943e be9d 053e
000000b0: e610 1c3d 3132 22be f5a8 d5bd 3fae bb3d
000000c0: d16b 1c3d 3bab fdbd 3cd5 a93c 8209 e73c
000000d0: 7796 1a3d ee5a 573d 33a9 ecbc 951c 603f
000000e0: 1ba7 713f 56d2 083d 69ec 09bd 7c51 263e
000000f0: 1bb4 fd3e 686c 1a3e 832e 1a3f 9967 c73d
00000100: 2f61 f4bd 8d75 37be 2918 2f3e 7b8b 303c
00000110: 614a 163e 75c4 9f3e 83e6 703c 7d8e fdbc
00000120: b913 e7bc 2819 93bc 7092 db3d 6813 61bd
00000130: 3319 073e a289 27be d4ad 36be 2192 11be
00000140: 08e0 91be c973 6fbe 81eb c2bd dd54 5a3e
00000150: 406e d7bd b679 d23d 23d0 2e3d eedb 5a3e
00000160: d9e5 443e 9565 9fbd a8ef d23d be18 fb3d
00000170: bf36 af3d f1bb 213d 97cc 2b3d cab0 a43b
00000180: 0d3a 54be cc4e 173e 3917 12bd 2b55 653d
00000190: 6ef5 a73b 6ef5 a73b 6ef5 a73b 6ef5 a73b
000001a0: 6ef5 a73b 6ef5 a73b 6ef5 a73b 8256 97bc
000001b0: c43c 0abd 4afb 0d3d 0ecb e83d 9182 e6bd
000001c0: 636d 89bd b5ce 3c3d c053 e7bd c5f7 ae3c
000001d0: 3c13 b6bd 17f6 1d3e 35fc 74bd 725e 993c
000001e0: c978 c5ba 5608 7dbd dd46 acbd 33d0 82bd
000001f0: ff61 3f3d db95 60bb aa12 dd3b 9dfa 6bbc
00000200: 96ab 0b3d 3907 3cbd 1926 b1bd b032 9e3d
00000210: 7bbf 293f 8c23 8e3e f4ad 27bd be11 f4be
00000220: 00aa acbe cb2a 9dbe d921 413e b96e e8be
00000230: 55cc 8f3d fd4a 02bf 442b 84bc 8b4c fe3c
00000240: 0e06 34bc c79d 28bd ddd0 d7bd e0de 4e3d
00000250: d500 32bd 3499 26bd 04e4 84bc 6f33 0d3e
00000260: 7715 a33d 1726 dcbd 8e9a 42bd af7c cc3d
00000270: 3e72 143e b1f4 5a3b 1944 e33c f7c6 dc3c
00000280: 37d0 e73d 6aca 94ba a38a 923c 5bf3 823d
00000290: 7ba1 53bc b1f2 5bbf da09 1b3f c671 fc3e
000002a0: 36cc d73e 9ca3 9abe 5cf5 8fbe 3da0 b83e
000002b0: e186 4c3e 2708 773e 0982 4bbe badc 68be
000002c0: f973 4ebf d413 dd3e a7e1 313f 58e4 c03d
000002d0: b536 123f a512 543d 2208 08bf 18f6 78be
000002e0: 529a 5f3d 1257 5dbe 6ab2 9b3d d4d0 403d
000002f0: 7e11 a03d d37c f73d ec05 543c 254a 793d
00000300: ffae f63d 768a 443c e244 a93c c3d3 efbc
00000310: ff4a 37bd 5915 fabc e6ee 42bf 0bd2 68bf
00000320: b6a7 113f 64c2 fbbd f6e0 b2bd 7caf 67be
00000330: 878a 383e cb85 293e ed11 d2bd 4d1d 2ebf
00000340: 4785 44be 17cc 8dbf 1339 603f 2f54 d33e
00000350: cc2f 1a3f d851 d23d 8b9c d6bd 25fe 183c
00000360: e322 ffbd c184 0dbe ea08 583f 46c2 f53e
00000370: d643 e6bb 2267 133d 343e ecbd 4071 0dbd
00000380: 1814 c2bb 3906 083c f714 8f38 6b7b b3bc
00000390: ed5b a6bc 9dfb 5ebd 7a7e 49bd 5d1e 0abe
000003a0: a2c0 0a3d 423a fd3d 37a5 90bd 2936 64bd
000003b0: 2d1a 90bd acc3 773c 525a bd3b f837 50bb
000003c0: d0f5 70bd da54 8fbd 2d6d 3abf 6d74 3cbf
000003d0: bd8e b8bd 58dc 80be 7152 bd3d c296 ba3e
000003e0: 73a5 413d d3da 02bf f4fa 5ebd e9b5 abbe
000003f0: 3887 d43e 4b4e 9f3e a19c 053f eddc 863c

layer1.bias_mu f4 [256]
-1.960502 -1.9478464 -1.534169 -1.8065473 -0.3490011 -1.4983046 -1.4706914 -1.1583436
-0.8301377 -0.42681935 -0.29730964 -0.32097158 -1.0567946 -0.28538364 -0.37345493 -1.5594724
-1.1097366 -0.4432511 -1.4187092 -1.375729 -0.30577564 -0.38901845 -1.6849263 -0.9113606
-0.34340724 -1.6439681 -1.2480837 -1.7903236 -0.57295537 -0.71289825 -0.54180014 -1.5736235
-0.8213143 -0.97786224 -1.6930426 -0.94280416 -1.3665092 0.07827286 -1.6415646 -1.4525257
-1.4431443 -1.4911532 -1.1885666 -1.3909078 -1.8987606 -2.0057874 -0.5020098 1.6957458
-0.5071788 -0.96801 -1.6405895 -1.6511638 -1.5221463 -1.371703 -0.53442824 -0.333662
-1.8086737 -1.6724573 -0.4193507 -1.4768113 -0.21458465 -0.5772 -1.6071422 0.63327193
-2.0866904 -0.9189929 -1.3763998 -0.93467015 -0.29505983 -1.4039277 -0.7639496 -0.40474612
-1.5587441 -1.1201648 -0.6155167 -1.1082429 -1.8249655 -1.3870593 -1.2171292 -0.20905374
-1.4899284 -1.5110153 -1.5190539 -1.5618064 -1.3468044 -1.5774845 -1.4338956 -1.8122953
-1.3544225 -1.5846778 -1.2817028 -1.7233367 -1.0749952 -0.5814004 -1.8468001 -1.7397501
1.1260942 -0.3714227 -2.2021525 -1.7550776 -1.0563313 -1.7354542 -1.9108422 -1.6772996
-0.7828185 -0.49413684 -0.555021 -0.14141905 -1.9553639 -0.22640389 -1.689446 -1.494842
-1.4672812 -1.5475396 -0.8918339 -1.6331435 -1.7750567 -1.8606627 -1.365534 -0.468911
-2.097188 -0.2726031 -1.410997 -1.3851758 -1.2611711 -1.5642662 -1.2446544 -0.8171072
-1.4009941 -0.361784 -0.5756152 -0.34720558 -1.8737899 -0.41898265 -2.1941037 -1.7324023
-1.4556247 -0.10750286 -1.058212 -0.13013917 -2.0151198 -1.374891 -0.53268737 -1.7015476
-0.3144276 -1.9430219 -1.0485538 -0.21429433 -1.0209227 -0.6374031 -1.6882938 -0.27443904
-1.0645258 -1.5264734 -0.18646456 -0.33777857 -0.884075 -1.9594208 -0.5265886 -1.0889441
-0.8616366 -0.7226684 -0.3397052 -0.46641913 -0.22971548 -0.9143096 -1.0245234 -1.6492972
-1.2814244 -1.2878202 -0.9348688 -1.9683323 -1.8098674 -1.7249775 -1.137041 -0.94734704
-1.5346143 -1.3965497 -0.68549925 -0.51527315 -1.6885359 -2.167885 -0.4235312 -1.8834124
-2.33514 0.18493107 -1.9098918 -0.24802741 -1.3884988 -1.9299012 -1.6531581 0.6975796
-0.34810477 -1.3918191 -0.26655075 1.3571138 -1.5771372 -1.7031386 -0.45829228 -1.8103318
-0.7325675 0.44890615 -1.7805699 -0.42492038 -1.3613377 -1.0725526 -0.81308997 -2.0149972
-1.3794662 -1.1333742 -2.043552 -0.7706868 -0.5862757 -1.4878695 -1.8857954 -2.1846645
-1.5242177 -0.97050667 1.6020755 -0.47992694 -0.92640066 -1.0991881 -0.45506132 -1.6827786
-1.0490862 -2.2053463 -2.0414493 -1.1718878 -0.39964253 -0.2131704 -1.7670401 -1.3312508
-1.6194078 -2.6068034 -0.5229146 -0.12581691 -1.902103 -0.91417253 -1.1851374 0.5076274
1.094266 -0.18581322 -1.7019645 -1.5676228 -0.82148 -1.9805 -0.8154112 -1.0770897
-0.4135492 -1.2450689 -0.1936757 -0.9910279 -1.0416794 -1.1603076 -1.851672 -0.59039754
00000000: bbf1 fabf 0853 f9bf a65f c4bf f13c e7bf
00000010: 46b0 b2be 72c8 bfbf 9e3f bcbf 9a44 94bf
00000020: e883 54bf 1188 dabe f838 98be 6356 a4be
00000030: 0c45 87bf ce1d 92be 7c35 bfbe cb9c c7bf
00000040: d90b 8ebf cff1 e2be 4398 b5bf e317 b0bf
00000050: a08e 9cbe 6d2d c7be aaab d7bf ee4e 69bf
00000060: 13d3 afbe 8c6d d2bf 35c1 9fbf 5329 e5bf
00000070: 34ad 12bf 8080 36bf 6ab3 0abf 7f6c c9bf
00000080: a741 52bf 2e55 7abf 9fb5 d8bf 9d5b 71bf
00000090: c6e9 aebf 854d a03d ca1e d2bf 5dec b9bf
000000a0: f4b8 b8bf 1cde bebf f322 98bf 4409 b2bf
000000b0: 960a f3bf d25e 00c0 b783 00bf 330e d93f
000000c0: 78d6 01bf 81cf 77bf d6fe d1bf 5659 d3bf
000000d0: b1d5 c2bf f793 afbf 4ad0 08bf bfd5 aabe
000000e0: 9f82 e7bf 1513 d6bf 23b5 d6be 2708 bdbf
000000f0: 14bc 5bbe 61c3 13bf d6b6 cdbf 1c1e 223f
00000100: 568c 05c0 1e43 6bbf de2d b0bf 8b46 6fbf
00000110: 1512 97be e7b3 b3bf 3392 43bf e23a cfbe
00000120: ed84 c7bf 8f61 8fbf 8192 1dbf e7da 8dbf
00000130: 7898 e9bf 298b b1bf e4ca 9bbf 2f12 56be
00000140: f9b5 bebf f368 c1bf 5c70 c2bf 46e9 c7bf
00000150: 1664 acbf 03eb c9bf e489 b7bf 4bf9 e7bf
00000160: b75d adbf b9d6 cabf d60e a4bf 4c96 dcbf
00000170: 7199 89bf a8d6 14bf f263 ecbf 22b0 debf
00000180: db23 903f 1e2b bebe 11f0 0cc0 62a6 e0bf
00000190: dd35 87bf 5d23 debf 7a96 f4bf c1b1 d6bf
000001a0: cb66 48bf 81ff fcbe db15 0ebf 28d0 10be
000001b0: 5d49 fabf 6cd6 67be c43f d8bf fc56 bfbf
000001c0: dfcf bbbf c715 c6bf 3a4f 64bf d90a d1bf
000001d0: 0f35 e3bf 322a eebf d1c9 aebf 1a15 f0be
000001e0: 5438 06c0 a292 8bbe 8d9b b4bf 714d b1bf
000001f0: 0e6e a1bf e039 c8bf d650 9fbf f02d 51bf
00000200: c653 b3bf c13b b9be 855b 13bf eec4 b1be
00000210: 59d8 efbf e584 d6be 326c 0cc0 5cbf ddbf
00000220: e951 babf 762a dcbd 7e73 87bf 3443 05be
00000230: b9f7 00c0 6efc afbf 335e 08bf 50cc d9bf
00000240: a8fc a0be f1b4 f8bf 0337 86bf f96f 5bbe
00000250: 98ad 82bf d92c 23bf 031a d8bf 4683 8cbe
00000260: 6242 88bf 7b63 c3bf 91f0 3ebe 50f1 acbe
00000270: bd52 62bf 4dce fabf 83ce 06bf 8562 8bbf
00000280: 3794 5cbf cc00 39bf d7ed adbe 7dce eebe
00000290: 893a 6bbe 3210 6abf 9523 83bf 2c1c d3bf
000002a0: b705 a4bf 4bd7 a4bf 9053 6fbf 50f2 fbbf
000002b0: bca9 e7bf 10cc dcbf 8f8a 91bf 5685 72bf
000002c0: 3e6e c4bf 24c2 b2bf e17c 2fbf f1e8 03bf
000002d0: f221 d8bf a1be 0ac0 15d9 d8be a813 f1bf
000002e0: ef72 15c0 925e 3d3e 5677 f4bf e6fa 7dbe
000002f0: 54ba b1bf 0107 f7bf af9a d3bf 9494 323f
00000300: ca3a b2be 2127 b2bf 5779 88be e8b5 ad3f
00000310: a2df c9bf 7200 dabf 49a5 eabe f4b8 e7bf
00000320: 8b89 3bbf 07d7 e53e b7e9 e3bf 2a8f d9be
00000330: 5040 aebf 6749 89bf aa26 50bf b7f5 00c0
00000340: 5992 b0bf 6812 91bf 8ec9 02c0 bb4b 45bf
00000350: 2a16 16bf 8272 bebf be61 f1bf 8bd1 0bc0
00000360: 9119 c3bf 2073 78bf cf10 cd3f fcb8 f5be
00000370: 9828 6dbf 32b2 8cbf ccfd e8be 4a65 d7bf
00000380: 7548 86bf 6524 0dc0 1ba7 02c0 6b00 96bf
00000390: f29d ccbe 5749 5abe 5f2e e2bf 6d66 aabf
000003a0: c148 cfbf ded5 26c0 bbdd 05bf 26d6 00be
000003b0: 1c78 f3bf 3607 6abf 95b2 97bf dff3 013f
000003c0: e910 8c3f d245 3ebe f9d9 d9bf dda7 c8bf
000003d0: 834c 52bf 0681 fdbf cabe 50bf 13de 89bf
000003e0: b9bc d3be 6b5e 9fbf ec52 46be 01b4 7dbf
000003f0: c055 85bf f684 94bf 9703 edbf 4b24 17bf

layer1.bias_sigma f4 [256]
0.56147337 0.22760825 -0.19980101 -0.2737471 -0.089811236 -0.48529327 -0.009389899 -0.007201406
-0.02187364 0.01622904 -0.08502908 -0.0014715545 0.18500465 0.08132594 -0.044107106 0.62875676
0.45877862 0.041552782 -0.4013348 -0.25960532 -0.02715365 0.012406561 0.16623938 0.3535417
0.050551187 0.17861106 0.56831956 0.7943399 -0.0034081442 0.11638201 0.010129791 0.55667174
0.014568616 -0.09410262 -0.21996973 0.4637271 0.553969 -0.02001691 -0.5061315 0.21376114
-0.36261904 -0.32689252 0.1770646 0.23311327 0.7609162 0.4674667 -0.066324905 0.05829428
-0.0002788705 -0.049505565 0.015984062 -0.60582864 -0.27673677 0.4986783 0.03716946 -0.014981429
-0.11919224 0.5757514 -0.02482236 0.026606785 0.005125693 0.011169312 -0.34601918 -0.20331153
-0.45554104 0.22193284 0.11211893 -0.025880165 0.005125693 0.12528388 0.059960797 -0.005944235
0.07150398 0.17981946 0.22488835 -0.026792774 -0.7441063 -0.17967558 -0.16990171 -0.0047795563
0.029284993 0.13994211 0.28027946 -0.118878536 -0.18936758 0.008891835 -0.41774067 -0.05789138
0.42097092 0.053240817 -0.4413128 -0.1684537 0.82392085 -0.017407041 0.29780138 0.565069
-0.08676988 0.07443796 -0.06847616 -0.41930896 0.46340948 0.43644977 -0.8886449 0.5107193
0.36692697 0.016327802 0.20418875 -0.027908156 0.18482354 0.011215793 0.32060912 -0.06466304
0.47938952 0.2713034 0.024941646 -0.46829405 0.02024652 0.4126723 0.514241 -0.014809735
-0.5252689 -0.029403992 0.5624796 -0.5603534 0.03664068 -0.04332667 -0.28660974 0.0059941155
0.43812945 -0.025890766 -0.057155024 -0.050893106 -0.44350585 0.024111751 -0.26519662 0.32498932
0.12052825 0.005125693 0.33030444 0.012296706 -0.5088483 -0.35837647 0.029541647 -0.671352
-0.028059807 -0.19067408 -0.48141378 0.0046596783 -0.02422768 0.10045837 -0.40718606 -0.065572225
0.1925967 -0.47170433 0.005125693 0.07906096 0.15132326 -0.3216572 -0.020135902 -0.25931385
-0.17365173 0.013853588 -0.00065973104 0.0012898619 0.18490401 0.07066688 -0.5823987 -0.3708781
0.43883973 -0.09692325 0.029299257 -0.105131604 0.3011312 0.33302832 -0.057198003 0.22162478
-0.6875685 -0.35860926 0.026938591 0.050689634 0.6160716 0.21753332 -0.07315528 0.22702459
0.5314822 0.46925983 0.24740312 0.005125693 0.38991675 -0.6121799 -0.21520177 -0.0766604
-0.0069514727 0.42702162 0.027627844 -0.06183644 -0.530024 0.5105335 -0.046464358 -0.29873684
0.07851177 -0.008490384 -0.003292625 0.048246983 -0.024504514 -0.05297782 0.39058235 0.3148954
-0.11108221 -0.081476405 0.70850873 0.42944962 0.09981831 0.20050983 0.20465223 -0.044483725
-0.29227492 0.011501897 0.056941308 0.068175785 0.07112303 -0.17928311 -0.0017580322 -0.2606898
-0.38496846 0.051215895 -0.018505925 -0.057001032 0.05873099 -0.00806416 0.19778131 0.42050385
0.1165278 -0.7136484 0.014142244 0.04782636 0.4718418 0.024474613 -0.40079528 -0.046638068
-0.050760444 0.005125693 -0.44988444 0.0599539 0.07914381 -0.060258746 -0.041817877 -0.19365849
-0.0034504025 -0.9181612 -0.0016072311 0.20027168 -0.39254496 -0.5495177 0.2997972 -0.0719189
00000000: b8bc 0f3f 2312 693e a398 4cbe 9428 8cbe
00000010: f4ee b7bd 5c78 f8be 17d8 19bc c6f9 ebbb
00000020: 5930 b3bc c4f2 843c ba23 aebd 2de1 c0ba
00000030: dc71 3d3e 378e a63d a7a9 34bd 34f6 203f
00000040: 08e5 ea3e 4033 2a3d c17b cdbe fdea 84be
00000050: 5571 debc e344 4b3c a83a 2a3e 6b03 b53e
00000060: c30e 4f3d d1e5 363e 647d 113f dc59 4b3f
00000070: 2c5b 5fbb b159 ee3d 6cf7 253c 0a82 0e3f
00000080: 34b1 6e3c e0b8 c0bd bf3f 61be a36d ed3e
00000090: ead0 0d3f 81fa a3bc d591 01bf 33e4 5a3e
000000a0: 34a9 b9be 755e a7be 6c50 353e 3fb5 6e3e
000000b0: 67cb 423f cc57 ef3e 5ad5 87bd fcc5 6e3d
000000c0: 5d35 92b9 59c6 4abd 02f1 823c 9617 1bbf
000000d0: 71b0 8dbe c352 ff3e 013f 183d ab74 75bc
000000e0: 101b f4bd 7264 133f 4358 cbbc 79f6 d93c
000000f0: 6ef5 a73b 7dff 363c 6d29 b1be e630 50be
00000100: ad3c e9be 5d42 633e 9c9e e53d a402 d4bc
00000110: 6ef5 a73b 6b4a 003e 7499 753d dbc7 c2bb
00000120: ae70 923d 9822 383e 2249 663e 857c dbbc
00000130: c07d 3ebf e0fc 37be b7fa 2dbe d39d 9cbb
00000140: 15e7 ef3c fc4c 0f3e ca80 8f3e 9776 f3bd
00000150: 93e9 41be 0faf 113c 1be2 d5be 831f 6dbd
00000160: 8089 d73e 0b13 5a3d c0f3 e1be 207f 2cbe
00000170: 7aec 523f 3699 8ebc 6c79 983e 5da8 103f
00000180: 68b4 b1bd ee72 983d 3b3d 8cbd aaaf d6be
00000190: 0244 ed3e 5876 df3e 3b7e 63bf 80be 023f
000001a0: dadd bb3e e2c1 853c db16 513e a59f e4bc
000001b0: 6242 3d3e 72c2 373c e126 a43e 0e6e 84bd
000001c0: 8b72 f53e 47e8 8a3e 6c52 cc3c 3dc4 efbe
000001d0: 08dc a53c c949 d33e 4ca5 033f 88a4 72bc
000001e0: 0678 06bf a4e0 f0bc aafe 0f3f 5273 0fbf
000001f0: 8a14 163d 4e77 31bd 83be 92be 496a c43b
00000200: 8152 e03e df18 d4bc 631b 6abd 4a75 50bd
00000210: 3313 e3be 0286 c53c dac7 87be 0065 a63e
00000220: 84d7 f63d 6ef5 a73b aa1d a93e 2078 493c
00000230: e243 02bf 1f7d b7be 5301 f23c badd 2bbf
00000240: aedd e5bc 1140 43be de7b f6be 37b0 983b
00000250: 2179 c6bc 1ebd cd3d b17a d0be bb4a 86bd
00000260: 1238 453e 3b83 f1be 6ef5 a73b b6ea a13d
00000270: 7cf4 1a3e 41b0 a4be 0cf4 a4bc c9c4 84be
00000280: c2d1 31be 29fa 623c cdf1 2cba 9510 a93a
00000290: 7a57 3d3e ccb9 903d 1518 15bf bce3 bdbe
000002a0: 9aaf e03e b27f c6bd ff04 f03c 3d4f d7bd
000002b0: de2d 9a3e b082 aa3e 7448 6abd 9bf1 623e
000002c0: 7d04 30bf a29b b7be 52ae dc3c ef9f 4f3d
000002d0: deb6 1d3f 0ec1 5e3e 6fd2 95bd 2279 683e
000002e0: 380f 083f d342 f03e 3e57 7d3e 6ef5 a73b
000002f0: 2ba3 c73e d2b7 1cbf da5d 5cbe 2100 9dbd
00000300: 2ec9 e3bb 94a2 da3e ca53 e23c 3548 7dbd
00000310: a7af 07bf 53b2 023f 6951 3ebd 09f4 98be
00000320: c7ca a03d 401b 0bbc 15c9 57bb a19e 453d
00000330: b1bd c8bc 45ff 58bd 69fa c73e f839 a13e
00000340: 127f e3bd 1add a6bd d460 353f d2e0 db3e
00000350: 8b6d cc3d 7352 4d3e 5b90 513e 9134 36bd
00000360: 0fa5 95be 7472 3c3c 4a3b 693d bf9f 8b3d
00000370: f3a8 913d fe95 37be c66d e6ba 2279 85be
00000380: 961a c5be c2c7 513d bd99 97bc ea79 69bd
00000390: e88f 703d 8a1f 04bc 2f87 4a3e 484c d73e
000003a0: 21a6 ee3d a9b1 36bf dfb4 673c 93e5 433d
000003b0: 4095 f13e fc7e c83c 0a35 cdbe 8f07 3fbd
000003c0: 2fea 4fbd 6ef5 a73b 4157 e6be 3892 753d
000003d0: 2616 a23d e0d1 76bd 3949 2bbd 694e 46be
000003e0: 2620 62bb 9d0c 6bbf baa9 d2ba 0514 4d3e
000003f0: a7fb c8be 31ad 0cbf 057f 993e 374a 93bd

layer2.weight_mu f4 [3, 256]
-0.15695077 -0.047656953 -0.013406418 -0.18009074 -0.070642605 -0.26851368 -0.44402972 0.015817234
-0.070366986 -0.06709698 -1.3986828 0.08451531 -0.032450307 0.15074535 0.09849734 -0.024326015
-0.14422858 -0.013844614 -0.14614268 -0.115306295 -0.010800261 0.017902851 -0.1005895 -0.04606451
-0.061787248 -0.001065401 -0.14830993 -0.08877646 0.103213 -0.2007981 0.0039141416 0.08961582
-1.2461704 -0.046986926 -0.17234468 -0.17502022 -0.05408181 -0.07601352 -0.33190855 -0.17123269
0.23072249 -0.050161656 -0.11110722 -0.08220991 -0.09647202 -0.1351462 0.10267447 0.65659654
0.020503284 0.083406806 -0.27327454 0.099369824 -0.12578085 -0.031629395 -0.08470905 -0.0054693394
-0.24268466 -0.018544875 -0.07806398 -0.26660207 -0.056470357 -0.050788265 -0.10242979 0.4954214
-0.24475363 -0.028331036 0.01769592 -0.18745077 0.00476785 -0.059306234 -0.029961368 0.021948108
0.28124988 -0.086812764 0.2576708 -0.07388782 -0.131558 -0.14646663 -0.12564859 0.020139316
-0.0919535 -0.1811978 -0.031880923 -0.058108184 -0.13991684 -0.07795632 -0.27118018 0.034457233
0.0114402305 -0.11844457 -0.030142467 -0.09731554 -0.14744492 -0.14744882 -0.27920467 -0.17300154
0.5329531 0.08698764 -0.9268714 -0.118112355 -0.36912632 0.043851484 -0.15326248 -0.17752884
-0.23907886 -0.054103147 -0.30093446 0.03369526 0.0748397 0.08233973 -0.18817243 -0.3671937
-0.06506021 0.035672955 -0.04791469 -0.08309801 0.0086267805 0.05918824 -0.047894355 0.03449023
-0.13834766 0.03970362 -0.077824175 -0.19858064 0.044477716 -0.012787899 -0.120739825 -0.06586578
-0.12343832 -0.0095070945 -0.001824593 0.02577009 -0.16506597 -0.009892907 -0.18724035 -0.16664687
0.014948772 -0.023749352 -0.002802848 0.0004254947 -0.039315965 0.026028566 0.01077495 -0.043484602
0.0063660387 -0.069566965 -0.2844131 0.037851714 -0.29553866 0.005985127 -0.19081193 0.13296889
-0.19815975 0.01915036 -0.00055122375 0.04225672 -0.0027656166 -0.1988752 -0.10236302 -0.055004634
-0.17431088 0.2783842 -0.019877568 -0.015446214 0.04829872 -0.03018781 -0.11153544 -0.13048369
-0.055982456 -0.088217214 -0.16026671 -0.1621734 -0.16923155 -0.17974935 0.01857055 -0.08524234
-0.03278279 -0.25916025 0.03521031 -0.08984577 0.0072896266 -0.030875675 0.022530004 -0.036825404
-0.065401584 -0.22391099 -0.04406245 0.040852264 -0.06812018 0.02851546 0.037859727 0.29510644
-0.047508527 -0.1901262 0.007981619 0.55724764 -0.08554242 -0.16315605 -0.020144705 -0.08878985
-0.19594714 0.36502743 -0.08768597 -3.3361914 -0.029028632 -0.09632239 -0.16396677 -0.11749403
-0.0006099236 -0.062595874 -0.17252272 -0.22692564 0.04526188 -0.13095918 -0.0825131 -0.124980114
-0.09922655 -0.0054351785 0.62055266 -0.051318586 0.03320804 -0.03960689 0.015272642 -0.01063005
-0.11147473 0.030171223 -0.059911016 -0.2612364 0.044788208 0.0234532 -0.082281314 -0.14071023
-0.044979885 -0.044638723 0.03940381 0.07468798 -0.100414135 -0.06922087 -0.09055752 0.153261
0.55838096 0.04895901 -0.2141199 0.0032352987 -0.89059675 -0.14905742 0.016631242 -0.032645606
0.02021222 -0.114526026 0.019063175 -0.28633454 -0.118887186 -0.049114447 -0.046237085 -0.060721844
00000000: b4b7 20be f033 43bd 98a6 5bbc b569 38be
00000010: 12ad 90bd a07a 89be dd57 e3be 2593 813c
00000020: 911c 90bd 246a 89bd 0a08 b3bf 5d16 ad3d
00000030: 9dea 04bd fd5c 1a3e f9b8 c93d 5a47 c7bc
00000040: a8b0 13be 85d4 62bc 6da6 15be b525 ecbd
00000050: 94f3 30bc 00a9 923c de01 cebd 24ae 3cbd
00000060: a014 7dbd eda4 8bba 8fde 17be 6fd0 b5bd
00000070: 5661 d33d 049e 4dbe 3342 803b 8088 b73d
00000080: 8382 9fbf 5d75 40bd 207b 30be 8038 33be
00000090: e384 5dbd faac 9bbd ebef a9be 9f57 2fbe
000000a0: 8442 6c3e 4f76 4dbd 2f8c e3bd ab5d a8bd
000000b0: 1f93 c5bd c463 0abe fe46 d23d b616 283f
000000c0: 81f6 a73c 30d1 aa3d a4ea 8bbe 6882 cb3d
000000d0: b2cc 00be d38d 01bd f07b adbd 2538 b3bb
000000e0: 5482 78be 6ceb 97bc 02e0 9fbd 1180 88be
000000f0: 764d 67bd 5b07 50bd b6c6 d1bd e0a7 fd3e
00000100: b2a0 7abe 7d16 e8bc 09f7 903c 18f3 3fbe
00000110: a03b 9c3b 18eb 72bd 8b71 f5bc 85cc b33c
00000120: fcff 8f3e e4ca b1bd 6ded 833e 7f52 97bd
00000130: 24b7 06be 59fb 15be 06aa 00be 35fb a43c
00000140: 1e52 bcbd eb8b 39be 9295 02bd d902 6ebd
00000150: 5c46 0fbe 90a7 9fbd 21d8 8abe 0723 0d3d
00000160: ce6f 3b3c 1193 f2bd 56ed f6bc 5f4d c7bd
00000170: cdfb 16be d3fc 16be eaf3 8ebe 5127 31be
00000180: 9d6f 083f 9326 b23d 7247 6dbf e4e4 f1bd
00000190: 20fe bcbe 9d9d 333d d7f0 1cbe 1fca 35be
000001a0: 17d1 74be 439b 5dbd 1514 9abe 0a04 0a3d
000001b0: 8e45 993d bba1 a83d 46b0 40be d000 bcbe
000001c0: 4a3e 85bd ce1d 123d 3242 44bd 4a2f aabd
000001d0: 5757 0d3c 5e6f 723d df2c 44bd a145 0d3d
000001e0: 02ab 0dbe 43a0 223d 4862 9fbd b958 4bbe
000001f0: 442e 363d 5684 51bc 7146 f7bd a3e4 86bd
00000200: 3bcd fcbd a5c3 1bbc 2f27 efba cc1b d33c
00000210: 0e07 29be dc15 22bc efbb 3fbe 7aa5 2abe
00000220: b2eb 743c 008e c2bc fcaf 37bb ef14 df39
00000230: c709 21bd dc39 d53c 6a89 303c e91c 32bd
00000240: 349a d03b 2079 8ebd 989e 91be 660a 1b3d
00000250: d850 97be e21e c43b 3464 43be ff28 083e
00000260: 64ea 4abe 37e1 9c3c 0080 10ba 6215 2d3d
00000270: 593f 35bb f1a5 4bbe b4a3 d1bd 8a4c 61bd
00000280: 8d7e 32be 6088 8e3e 48d6 a2bc 1e12 7dbc
00000290: e1d4 453d 6d4c f7bc b16c e4bd 849d 05be
000002a0: dc4d 65bd 3aab b4bd f51c 24be c910 26be
000002b0: 094b 2dbe 3710 38be 4421 983c 8993 aebd
000002c0: 3f47 06bd a7b0 84be b038 103d 0f01 b8bd
000002d0: d2dd ee3b fcee fcbc d890 b83c 3cd6 16bd
000002e0: 44f1 85bd ec48 65be d47a 34bd b454 273d
000002f0: 9882 8bbd 4199 e93c cd12 1b3d 3118 973e
00000300: 4d98 42bd 71b0 42be 56c5 023c c8a7 0e3f
00000310: dd30 afbd 6112 27be 8206 a5bc 74d7 b5bd
00000320: 5ea6 48be e0e4 ba3e b494 b3bd 2984 55c0
00000330: 74cd edbc ac44 c5bd e8e6 27be b6a0 f0bd
00000340: 48e3 1fba 4432 80bd cca9 30be 325f 68be
00000350: 8564 393d 2a1a 06be a1fc a8bd 93f5 ffbd
00000360: 4a37 cbbd 9519 b2bb 8adc 1e3f 7033 52bd
00000370: 2705 083d d63a 22bd 1a3a 7a3c a929 2ebc
00000380: dd4c e4bd a429 f73c 4165 75bd c7c0 85be
00000390: d773 373d ed20 c03c 1b83 a8bd 5816 10be
000003a0: d43c 38bd 18d7 36bd e465 213d 03f6 983d
000003b0: eda5 cdbd acc3 8dbd 3976 b9bd 74f0 1c3e
000003c0: 0ef2 0e3f 3e89 483d 3f42 5bbe 4e07 543b
000003d0: 26fe 63bf 82a2 18be 3e3e 883c 66b7 05bd
000003e0: 1994 a53c 9f8c eabd 602a 9c3c 719a 92be
000003f0: 207b f3bd 3b2c 49bd 1963 3dbd 78b7 78bd

layer2.weight_sigma f4 [3, 256]
-0.13304456 -0.075855546 0.08207581 -0.08449365 0.047339328 0.014247984 0.006982066 -0.037961204
-0.034399502 -0.0031870648 -0.1297715 0.04542034 0.0812137 -0.05017565 0.06671733 -0.046232946
0.056866646 0.14461829 0.003719836 -0.1350711 -0.0085254405 0.049698785 0.0946197 -0.093519576
0.0064549404 -0.028700868 0.043150038 0.06019422 -0.10954894 -0.08298315 -0.014974241 -0.024156004
-0.013199322 -0.13349362 0.039898563 0.05578905 -0.015669845 -0.009267199 0.058494728 0.05425765
-0.087203756 0.054092076 -0.030818066 -0.035560016 0.061531205 -0.005970198 0.001718746 0.010956667
0.05993391 -0.0054886914 0.034999426 0.003416428 0.03686403 -0.02226077 -0.09143469 0.0059695565
0.005566453 -0.09398553 0.002266499 0.030899055 0.0010625 0.017994763 0.08127709 0.08789331
-0.015941124 0.18209419 -0.11945602 0.13060555 0.0010625 0.08577598 -0.012939874 0.0020290022
-0.25893554 0.10842266 0.119155034 -0.0007001682 0.043529868 0.12523285 -0.018537493 0.055675622
0.05885767 0.053869683 -0.10306925 -0.14058317 0.07771182 0.013568515 0.16223957 0.0051277047
-0.06015774 0.19989593 0.0040664077 -0.09604102 0.14232217 -0.046840284 0.020190109 -0.04561295
-0.016836891 0.13341652 -0.14276023 0.030235428 0.13000341 0.13806278 -0.09236439 -0.0027910578
-0.0137875145 0.027500719 0.0082404995 -0.014573554 0.057753894 -0.043218743 0.08332908 0.03393318
0.044786416 0.008200064 -0.1387268 -0.03660653 0.13051957 0.04432568 0.04218957 0.015901221
-0.013689236 0.009574279 0.03509088 0.04270963 0.0882271 0.022060344 0.09177214 0.13400866
-0.044051208 -0.022184897 -0.025421156 0.008700573 -0.14935352 -0.04200913 -0.08107983 0.007995872
0.09403582 0.0010625 0.076108836 -0.05859887 -0.040321525 -0.083573885 0.020983417 -0.015273165
-0.014066802 0.026554117 0.00032987635 -0.009736942 0.018688679 -0.06571871 0.100612864 0.029786134
-0.019762797 -0.14410365 0.0010625 0.008304004 0.025022881 -0.05381943 -0.2077146 -0.017813992
0.15921097 0.03224366 0.062195666 0.016278243 -0.050074607 0.026121952 0.010437073 0.042993553
0.01947068 0.23149621 0.11214771 0.015766062 0.06583797 0.14382379 -0.19360758 -0.10991706
0.028264204 0.029279497 0.08268588 -0.019281773 -0.18750103 0.04406873 0.04124338 -0.106838144
0.020014323 0.051909167 -0.0003371102 0.0010625 -0.17876594 -0.019023648 -0.087255806 -0.012682282
-0.063803755 0.039470732 -0.06269026 -0.047816977 0.14982195 0.09280494 -0.023583109 -0.03038383
0.06785478 0.057384674 -0.051519565 -0.060130447 0.0012845612 -0.13870381 -0.016238535 -0.16525324
0.10836581 0.04979293 -0.023452092 0.09954449 0.0038581674 0.061823893 -0.012010265 -0.10314906
0.016943319 -0.035644125 -0.058256906 -0.013458151 0.05934465 0.015474774 -0.11557511 -0.16888545
0.011956202 0.015622704 -0.027847394 0.13009508 -0.03919837 0.06458194 0.033350144 -0.025170935
0.11888622 -0.057180673 0.005924678 -0.016456673 -0.0066129123 -0.025689319 0.025343811 0.0015113993
0.00934732 0.0010625 0.04888983 -0.10304022 -0.09547405 -0.23836517 -0.031030552 0.055955213
-0.034573786 -0.07910516 0.015722966 -0.010565892 0.04458096 -0.057198856 0.11820581 0.0933572
00000000: d53c 08be 275a 9bbd 5d17 a83d 020b adbd
00000010: e2e6 413d 6070 693c d1c9 e43b 357d 1bbd
00000020: 7ee6 0cbd 13de 50bb d2e2 04be ae0a 3a3d
00000030: 5e53 a63d fb84 4dbd 18a3 883d c25e 3dbd
00000040: 00ed 683d d116 143e 7ec8 733b 1450 0abe
00000050: 4aae 0bbc f490 4b3d f9c7 c13d 3187 bfbd
00000060: f783 d33b 151e ebbc 18be 303d 378e 763d
00000070: 325b e0bd 12f3 a9bd 8556 75bc d0e2 c5bc
00000080: f841 58bc 8db2 08be ad6c 233d 0f83 643d
00000090: 0c5e 80bc 73d5 17bc 2b98 6f3d 453d 5e3d
000000a0: e297 b2bd a78f 5d3d 2b76 fcbc 61a7 11bd
000000b0: 2508 7c3d a7a1 c3bb 8c47 e13a 9883 333c
000000c0: 427d 753d 7bda b3bb 8f5b 0f3d 27e6 5f3b
000000d0: bdfe 163d 385c b6bc 1c42 bbbd 459c c33b
000000e0: cb66 b63b 7c7b c0bd 8b89 143b 0420 fd3c
000000f0: 9643 8b3a c169 933c 9a74 a63d 6801 b43d
00000100: f696 82bc e676 3a3e 5ca5 f4bd 76bd 053e
00000110: 9643 8b3a 51ab af3d c401 54bc 02f9 043b
00000120: 3393 84be b30c de3d 8e07 f43d 7e8b 37ba
00000130: 604c 323d 0a3d 003e f1db 97bc 1f0c 643d
00000140: bd14 713d 75a6 5c3d f915 d3bd 09f5 0fbe
00000150: 6027 9f3d 7a4e 5e3c 2122 263e 4e06 a83b
00000160: f667 76bd 85b1 4c3e 803f 853b 27b1 c4bd
00000170: e7bc 113e 99db 3fbd ba65 a53c a5d4 3abd
00000180: 85ed 89bc 579e 083e bd2f 12be 4ab0 f73c
00000190: 9d1f 053e 5460 0d3e 8b29 bdbd 2eea 36bb
000001a0: 07e5 61bc 3049 e13c 2903 073c eac5 6ebc
000001b0: 598f 6c3d 2306 31bd 70a8 aa3d 85fd 0a3d
000001c0: f671 373d 9059 063c 660e 0ebe bbf0 15bd
000001d0: eca6 053e d88e 353d f8ce 2c3d 4743 823c
000001e0: d148 60bc 70dd 1c3c 74bb 0f3d 4bf0 2e3d
000001f0: 69b0 b43d e5b7 b43c 08f3 bb3d 9139 093e
00000200: 0a6f 34bd 1abd b5bc 0740 d0bc d98c 0e3c
00000210: 21f0 18be c411 2cbd 2f0d a6bd 1e01 033c
00000220: da95 c03d 9643 8b3a f3de 9b3d 5e05 70bd
00000230: 2f28 25bd c928 abbd 6ae5 ab3c 4c3c 7abc
00000240: 7278 66bc 0588 d93c 41f3 ac39 b287 1fbc
00000250: 0019 993c 8897 86bd 1e0e ce3d 0d02 f43c
00000260: 97e5 a1bc e88f 13be 9643 8b3a 840d 083c
00000270: c9fc cc3c c371 5cbd 23b3 54be a6ee 91bc
00000280: 3308 233e ee11 043d e2c0 7e3d f359 853c
00000290: 081b 4dbd b4fd d53c 4200 2b3c 021a 303d
000002a0: fa80 9f3c 580d 6d3e b3ad e53d d427 813c
000002b0: 0fd6 863d 8b46 133e 1141 46be 321c e1bd
000002c0: 558a e73c 8edb ef3c 3757 a93d cff4 9dbc
000002d0: 4500 40be 6a81 343d d2ee 283d f5cd dabd
000002e0: 14f5 a33c b59e 543d 2abe b0b9 9643 8b3a
000002f0: 6b0e 37be 7bd7 9bbc 2cb3 b2bd 59c9 4fbc
00000300: 8bab 82bd 10ac 213d c063 80bd bcdb 43bd
00000310: ed6a 193e 8410 be3d 5d31 c1bc 83e7 f8bc
00000320: 72f7 8a3d 310c 6b3d 2e06 53bd 584b 76bd
00000330: b95e a83a 5f08 0ebe ad06 85bc 2538 29be
00000340: e5ee dd3d acf3 4b3d 9a1e c0bc fbdd cb3d
00000350: 4fd9 7c3b 0d3b 7d3d b4c6 44bc d03f d3bd
00000360: b7cc 8a3c 93ff 11bd cb9e 6ebd 947f 5cbc
00000370: 6013 733d e889 7d3c a5b2 ecbd 4ff0 2cbe
00000380: f2e3 433c 5ff6 7f3c 3820 e4bc a537 053e
00000390: 788e 20bd 8943 843d 299a 083d 4733 cebc
000003a0: 9e7a f33d 4836 6abd cd23 c23b 25d0 86bc
000003b0: 21b1 d8bb 6872 d2bc d39d cf3c 251a c63a
000003c0: 8025 193c 9643 8b3a b440 483d c006 d3bd
000003d0: e687 c3bd 0016 74be c933 febc 4b31 653d
000003e0: 3e9d 0dbd e301 a2bd 73cd 803c 901c 2dbc
000003f0: 869a 363d 5949 6abd e315 f23d 0f32 bf3d

layer2.bias_mu f4 [3]
1.5519247 1.0673879 1.1993475
00000000: 78a5 c63f 2ba0 883f 3884 993f

layer2.bias_sigma f4 [3]
0.06544586 -0.03331635 -0.05024956
00000000: 7b08 863d ba76 08bd 7cd2 4dbd
