Code Submission/DDQN_models/noisy-model1-snapshot-score-24.pth (torch, 33781 bytes, 8 tensors)

layer1.weight_mu f4 [256, 11]
00000000: 3cba 03bb 615b c9be 2277 173d 9783 ba3d
00000010: 283b ac3d 5386 393d 5196 81be 0905 8c3d
00000020: e912 943e 23ed 513f d7d6 1fbf 4769 c3bc
00000030: fd32 9a3e 5ea0 e4be 843f 22bd b12f 13bf
00000040: 0448 c2be 5991 7fbe d636 cfbe 18b5 ef3d
00000050: bbfd 2dbe 910f 4a3e 3265 a43d cd6a dcbd
00000060: 77cb 06bf 9a9e b6be 8115 aebd 2d0b 15bd
00000070: fd3c bbbd 065d 0fbe 9d74 893e e2f0 eb3d
00000080: a3d7 133e 04fe 8abe e8f5 12bf 10a7 dcbe
00000090: 3ca0 b3bd f046 9ebe 3424 83be 631b 4bbe
000000a0: 37d4 4e3e 44a6 a63f 436c 1d3d 96b9 cd3e
000000b0: d168 29be cb86 55bf 5590 5d3e 2304 47bf
000000c0: 1a9b b9bd 3dd2 a5be 0aca c5bd ccc5 d03c
000000d0: 506b b1be d433 93be 002c a13f 3366 953e
000000e0: 1dd5 e23c 1442 46bd daaa 4abe b90f cfbe
000000f0: c1cc 4bbe 284e 9cbc bc87 09bf f74e 99bf
00000100: c882 fd3a 80eb 6d3f 4067 e13d 34a8 02be
00000110: bfa1 93bc 7921 c23c 211c bebd e428 d03c
00000120: c108 913d 6d76 12bc eb11 36be 0564 cf3d
00000130: 7c95 8cbe 3214 42be cdae a9bd 4fc0 493d
00000140: 0950 e1be 9b9d 05bf 5645 1ebf f74a 4bbe
00000150: fd17 4ebe 018a b9bd 9d03 7bbe 979f efbe
00000160: 7d56 64bd f826 54be 2868 94be 1b22 2c3d
00000170: 9ac2 0abf be32 c0be 6ffd 4dbe 8701 b1be
00000180: 66d8 06bd b86d dcbe f0fa d33d 5505 9a3d
00000190: 9440 7ebd 3ccf 3abe fd10 92be b60e 44be
000001a0: 0450 40be fa5f 86be 1475 acbd 5781 94bc
000001b0: 74d0 be3d 1bfe 933d 5acb bebe f217 05bf
000001c0: 42ab 283f 9687 2b3f 9850 5abf fbf7 58bf
000001d0: 5ac6 36bf aae0 19bf bf5d 3abe 073b e1bd
000001e0: e790 09be 8cda 40be c6de 88be 2543 3fbe
000001f0: 7c2f a9bc 6b71 153e 7d1d 893c f808 52bd
00000200: e663 403c 5448 b2bd e9c4 7dbd 0320 84bd
00000210: f430 983d f2b5 893d 23a5 e2be 8e65 60be
00000220: 81a2 5cbe 09ac 01bf 29d6 16bf 1133 efbe
00000230: e973 c5be 071d b93d f124 0fbe eb05 e93e
00000240: 5ac6 8ebf f521 adbf 426b 763e e74c 1abf
00000250: 1640 f23e 80d5 bfbe 571b 60bd 7a29 4cbf
00000260: d7ad 053f 0bf6 86be eaaa 963e 5430 d83e
00000270: f195 c33e e179 173d abdf 43be 54d1 08be
00000280: d4cd b9bd 5747 8cbd dd60 6bbf cd4c dbbe
00000290: f880 a4bf 23ce b6be a6b4 98be bbcc 49be
000002a0: 7094 bdbe c868 853d 359a 7bbe f7cb 4cbd
000002b0: f436 88be c500 16bf 6e7a 103f 38ce f0be
000002c0: 99be 4a3e bbcd cb3d cc4c eabe 0c35 dabd
000002d0: cef6 c7bd 5986 0fbf 0579 d5be 3185 11bf
000002e0: a0f9 f4bc e93d 75bd e181 f53a 46cf a03d
000002f0: 2e2d 45be a02e 49be c6f2 05bf 1a47 9cbe
00000300: fbdf 30bc df3f 88be 2d85 68be 2a5f f5be
00000310: 8874 923d 0d37 b4bd 9ed6 26bf 5f08 abbd
00000320: 718a b4bd 9b35 403d d284 adbc 6f87 77be
00000330: 4571 0abe 3966 7abe e20b 6e3e 77d8 3d3c
00000340: a30b 8abe ecdf 683e 7689 c63e a762 3fbf
00000350: bdc2 f23e 7055 21bf d48e 8d3e beba 08bf
00000360: d88f 53be c8c0 2dbf bd75 c0bd 9049 47bc
00000370: 036c b73e 3af8 a63d 584e 1fbf c6fb a4be
00000380: 429b 49bb be17 41be 61a7 783c cac4 be3b
00000390: fb3c 9d3f 97d0 053d 44ab 9ebe 954d 99be
000003a0: e52d e4bd 4975 73be 8c56 9fbd e4fc 0abf
000003b0: 7ed8 07bf 28a5 00be 41a3 c8be 881b 87be
000003c0: 0df3 c4be c4b7 b3be 4b1c 5f3e 5b76 84be
000003d0: 6943 9abe b46f 91be 91cd 293d 62d9 b7be
000003e0: 0752 73be 11af 10bf e9f9 5c3c a797 273e
000003f0: ebd7 833e 7459 22be 7285 27be b3a3 a43d
-0.0020100018 -0.3932753 0.03697885 0.0910713 0.08409721 0.045294117 -0.25309995 0.06836898
0.28920677 0.82002467 -0.62437195 -0.023853911 0.30117026 -0.446536 -0.039611354 -0.57494646
-0.3794557 -0.2495779 -0.40471524 0.11704463 -0.16991322 0.197325 0.08027114 -0.10762558
-0.5265421 -0.35667878 -0.08500195 -0.03638761 -0.09142492 -0.1400033 0.2684678 0.11520554
0.14437728 -0.27146924 -0.57406473 -0.4309621 -0.08770797 -0.30913496 -0.25613558 -0.19834666
0.20198141 1.301949 0.038433325 0.40180653 -0.1654389 -0.834088 0.2163709 -0.7774069
-0.090627864 -0.32386962 -0.096576765 0.025484942 -0.34652185 -0.2875048 1.2591553 0.29179534
0.027689511 -0.04840286 -0.19791737 -0.40441683 -0.19902326 -0.019080237 -0.5372274 -1.1977223
0.0019341344 0.9293747 0.110060215 -0.12759477 -0.018021462 0.023697602 -0.09282709 0.025410123
0.07081748 -0.008939368 -0.17780273 0.10126499 -0.27457798 -0.18953016 -0.08285294 0.049255665
-0.44006374 -0.5219361 -0.6182455 -0.19852816 -0.20126338 -0.09059525 -0.24513097 -0.46801445
-0.055746544 -0.2071799 -0.28985715 0.042024713 -0.5420319 -0.37538713 -0.20116208 -0.34571478
-0.032921217 -0.4305246 0.10350597 0.07520548 -0.062073305 -0.18243116 -0.28528586 -0.19146237
-0.18780524 -0.262451 -0.084207684 -0.01812808 0.09317103 0.07226201 -0.3726452 -0.5198966
0.6588632 0.6700376 -0.85279226 -0.8475339 -0.7139641 -0.60108435 -0.18199824 -0.10997587
-0.13434182 -0.18833369 -0.26732463 -0.18677957 -0.020652525 0.14594047 0.016737694 -0.051278085
0.011742568 -0.08705202 -0.061955366 -0.06451418 0.07431212 0.067241564 -0.44266614 -0.2191374
-0.21546365 -0.5065313 -0.5892053 -0.46718648 -0.38564995 0.0903874 -0.13978936 0.45512328
-1.1154282 -1.3525988 0.24064353 -0.60273594 0.4731452 -0.37467575 -0.054713573 -0.7975079
0.52218384 -0.2635959 0.29427272 0.4222437 0.38200334 0.036981467 -0.19128291 -0.13361102
-0.09072462 -0.068495445 -0.91944677 -0.42832032 -1.2851858 -0.35704145 -0.29825324 -0.19707005
-0.3702731 0.06514126 -0.24570544 -0.049999204 -0.26604426 -0.58594924 0.5643681 -0.47032332
0.1979927 0.09951349 -0.45761716 -0.10654649 -0.09763871 -0.56064373 -0.41693893 -0.5684386
-0.029904187 -0.059873495 0.0018730724 0.07852034 -0.19255516 -0.19646692 -0.5232357 -0.30522996
-0.010795589 -0.2661123 -0.22707053 -0.47924167 0.07151133 -0.087995626 -0.6517123 -0.08351206
-0.08815468 0.046926122 -0.021181498 -0.24172758 -0.13519771 -0.24453057 0.2324672 0.011587254
-0.26962003 0.2274167 0.3877675 -0.74759907 0.474142 -0.6302099 0.27648032 -0.53409946
-0.20660341 -0.67872286 -0.09397457 -0.012163535 0.35824594 0.08152814 -0.6222892 -0.32223338
-0.0030762707 -0.18856713 0.015176625 0.005821799 1.2284235 0.03266963 -0.3099004 -0.29942003
-0.11141566 -0.2377521 -0.077801794 -0.5429213 -0.53064716 -0.12563002 -0.39187053 -0.26388192
-0.38466683 -0.3510114 0.21788137 -0.25871548 -0.30129555 -0.28405535 0.04145581 -0.35908037
-0.2376176 -0.5651713 0.013487318 0.16366445 0.2575067 -0.15854436 -0.16359499 0.08039036

layer1.weight_sigma f4 [256, 11]
00000000: 7e3e 0f3e 82cc a4be 27cc d83d da3b 0c3e
00000010: c578 b13b 0115 b5bc 1285 36bd 04b4 243e
00000020: ddfc 653e c431 6fbe 1e24 e8be b104 03bf
00000030: 00bc 863e ce94 b1be 97ac 43bd 6c03 9a3d
00000040: fe4c 04be 4a1e 16be 2dc5 673e 79c4 e13d
00000050: f708 9ebe 7b5a 37be b504 2e3e fda8 c2be
00000060: 2afa b83d 467b dd3d 8aa9 853d 1355 1abe
00000070: 9c88 13bd aeb9 a33e e473 b33d 1820 a0be
00000080: e722 eebd 8b90 213e f40f b33d 9d85 133d
00000090: fba2 cf3d f9ef ed3d 6f61 2ebe 0bb1 2c3e
000000a0: f583 113e 4485 903e 4031 4fbe 593f f33d
000000b0: f13a bc3c 827a 453e f99d 45bd 6657 57be
000000c0: 60d7 da3d 5c9d 033c 5c8e cebd c950 033e
000000d0: 706f 3fbe 4e1e 6ebe 5149 00be 3e3f 31be
000000e0: 25f0 26be 2311 efbd c04b 863e c4a2 303d
000000f0: 6d86 1e3c b2f3 223e 4c0b cf3d b4da 333c
00000100: bb8e 79ba 9fad 1fbd fa2a 91bd 8d16 87bc
00000110: 4dfc 8e3c 188e f03d f026 09bc f27f 8abd
00000120: 36e4 d63c dec3 9dbc 4aba 853c abbe a53c
00000130: fdba 053d 5aa3 7d3e c604 483e 045a 82bd
00000140: 43bb b83b 95e7 bb3d 456b 0fbe d414 973d
00000150: e8e2 ac3b bed7 0bbe 5a1d 1ebe 2f1a a1be
00000160: 4217 453d 2a30 eb3c 8d88 0b3b f4cd ccbc
00000170: 1b65 67bd d2c0 223e d62f c53d 1f5e 65bd
00000180: 94d2 acbd bc61 7cbd 1d30 9abc fdc8 343c
00000190: 6ef5 a73b 6ef5 a73b 6ef5 a73b 6ef5 a73b
000001a0: 6ef5 a73b 6ef5 a73b 6ef5 a73b ab3b dabc
000001b0: 3ce0 aa3b dc5a d7bc 8d7e 49be 6ef8 78be
000001c0: 4a7c 87bb e50f 8e3c bf9b 51bc 0c79 0c3d
000001d0: 472d e3bd acf0 ef3a ac09 a3bd bf4e 4f3e
000001e0: b85e 3d3d c4db 0bbc 6ef5 a73b 7db3 c6bc
000001f0: 0a36 81bb cd46 f93b fd43 ecbb 7a3f 0abd
00000200: dde0 153d 8e01 263c 80e1 f0bc a9d5 8abc
00000210: 4668 e53e 745a bbbe ac40 b6bd 9d52 033e
00000220: 5a8c 743e bdc1 13be 1f58 453e 7ff9 f1bc
00000230: acc4 eabb 7036 87be 548e 063d 27cf f9bc
00000240: eca3 6dbc 3e16 473d 4368 563d d8d7 b8bd
00000250: cefe 19bd 3dd0 45bd de31 21bd 7d0c 433e
00000260: 7887 6cbc 7e12 39bc 72ed c93d 1727 a23d
00000270: 7b2b fcbd 85b2 48bd bb58 743b d1a1 fb3a
00000280: 48b4 d3bd 45d8 c93c 929b 20be fb5f 013e
00000290: 4d50 d93c 8f44 863e 5942 8a3b 9f0b a0be
000002a0: aa0d 22be 2240 a2be 43f3 963d b173 97bc
000002b0: 0cc0 10be c47b dfbc 2988 f7bc ab95 22be
000002c0: 7a29 0dbf 5b1a e6be 7819 bc3d 6085 a13c
000002d0: 5b4d e33d 4a95 b0bd deab 1d3d fd77 e43c
000002e0: 47af 563d 161f a1be 9b69 f8be fffb ad3e
000002f0: f7d9 263e dba2 0abe c881 3bbd 2ed6 2ebd
00000300: 0d6f a3bc ee52 e03d b7d6 693d a079 283d
00000310: ce4d 52be 12ab 03be fb31 f4bc 0b90 043d
00000320: 0a26 0d3e 4a2b d23d e15b 9c3e c857 40be
00000330: 733f 383d d36b 8ebd 371b 5e3e c038 b03e
00000340: f6f7 5f3e adc5 183d 0f16 0cbe e953 1d3c
00000350: d005 43bd 4bb3 e5bc 6c5f 9c3d abf6 853c
00000360: 48a5 c43d 3911 233e 71cc c53d 8985 e6bc
00000370: f38b b03d 8149 c23e 3c1e 493e 38cc 053d
00000380: cb39 84bc fee8 9e3d e856 c93d dc07 813d
00000390: 2619 50bd 1491 873e 7634 05be 6aef aa3d
000003a0: 39cf 07bd d095 f5bd 7c2f c9bb 3ad9 f23d
000003b0: 6000 a53d 14ca 73be fcde fa3d 3582 78bd
000003c0: 16a6 e9bd 5a56 043b c89e f33e 9ee1 9b3d
000003d0: 5e61 0c3e 5e49 48bd 474a aebe 6691 4d3d
000003e0: 7460 0bbc e9aa b43c 7d57 22be 325a 70be
000003f0: e485 42be 8770 e13d ea74 683d f7a4 01be
0.13988683 -0.32187277 0.10585814 0.13694707 0.005416008 -0.022104742 -0.0445605 0.16084296
0.22459741 -0.23358828 -0.45340055 -0.51179034 0.26315308 -0.3468384 -0.047772016 0.07520184
-0.12919995 -0.14659992 0.2263381 0.11023802 -0.30866215 -0.1790561 0.16993983 -0.38019553
0.0903209 0.10814528 0.06526478 -0.15071516 -0.036018953 0.319776 0.08762339 -0.31274486
-0.11627751 0.15777795 0.08743277 0.036016095 0.10138508 0.11618037 -0.17029355 0.16864412
0.14210494 0.28226674 -0.20233631 0.11877317 0.022977324 0.19285014 -0.048246358 -0.21029434
0.10685611 0.008033123 -0.10085747 0.12823786 -0.18694854 -0.23253748 -0.12527968 -0.17309281
-0.16302545 -0.116731904 0.26229668 0.043123975 0.009675604 0.15913275 0.101095766 0.010977436
-0.00095198647 -0.038983937 -0.07088275 -0.016490245 0.01745429 0.11745852 -0.0083711 -0.06762685
0.026231866 -0.019258436 0.016324181 0.02023252 0.03264903 0.24769345 0.19533071 -0.06364825
0.0056375577 0.0917503 -0.14005764 0.073770195 0.005276073 -0.13656518 -0.15440884 -0.3146529
0.048117884 0.02870949 0.0021291107 -0.02500055 -0.056492906 0.15893868 0.096282646 -0.055997964
-0.08438602 -0.061616644 -0.01882177 0.011034247 0.005125693 0.005125693 0.005125693 0.005125693
0.005125693 0.005125693 0.005125693 -0.02663978 0.005214719 -0.026288442 -0.19677182 -0.24313518
-0.0041346895 0.017341563 -0.01279348 0.034295127 -0.1109262 0.0018305979 -0.07960829 0.20244883
0.04623291 -0.008536283 0.005125693 -0.024255509 -0.0039432095 0.007607317 -0.0072102533 -0.033751942
0.0365914 0.010132207 -0.029404402 -0.016947584 0.44806117 -0.36592448 -0.08899054 0.12824483
0.23881665 -0.14429374 0.19271897 -0.029537914 -0.0071645584 -0.2640872 0.03285058 -0.030494286
-0.014504414 0.048605196 0.052345525 -0.09025544 -0.037596516 -0.048294295 -0.039354198 0.19047733
-0.014436595 -0.011295913 0.09859742 0.07917612 -0.12312981 -0.048998374 0.0037284333 0.0019198005
-0.1033712 0.024639258 -0.15684345 0.1263427 0.026527548 0.2622418 0.004219335 -0.31258866
-0.15825525 -0.31689554 0.07370617 -0.018487783 -0.1413576 -0.027280696 -0.030216293 -0.15877406
-0.55141413 -0.44941983 0.09184545 0.019716918 0.11098739 -0.08622225 0.038493983 0.027889246
0.05241325 -0.3146903 -0.4851807 0.3398132 0.16294084 -0.13538687 -0.045778066 -0.042684726
-0.019950414 0.109533176 0.057089534 0.041131616 -0.20537493 -0.12858227 -0.029808989 0.032363933
0.13784042 0.10262163 0.30538848 -0.18783486 0.044982385 -0.069541596 0.21690069 0.34418297
0.21871933 0.037297893 -0.1368029 0.009602525 -0.047612965 -0.028039595 0.07635388 0.016352972
0.096018374 0.15924539 0.09658135 -0.028139846 0.08620443 0.37946704 0.1964044 0.03266546
-0.01614084 0.077592835 0.09831029 0.06300327 -0.050805233 0.26477873 -0.13008294 0.08346446
-0.033156607 -0.11991465 -0.006139694 0.11857839 0.08056712 -0.23807555 0.12249562 -0.06067105
-0.114086315 0.002019307 0.47582078 0.076113924 0.13709018 -0.048898093 -0.34041044 0.05018749
-0.008506883 0.022054153 -0.15853687 -0.23471907 -0.18996388 0.11007791 0.056752123 -0.12660585

layer1.bias_mu f4 [256]
00000000: 1f95 08bf 89a7 10bf 5af1 81be 03ea 0ebf
00000010: 1158 88be acad 2d3e d977 1ebf f32a 4abf
00000020: 82f4 c6be 3834 aebe 54a6 bb3e f744 8bbe
00000030: 62eb 09bf f13b 883e 62b6 123f b74f 15bf
00000040: c2d0 2cbf f932 f8be 009c 15bf f2f4 bc3e
00000050: 00c0 83be a424 51be 2d4d c7be 33bd aabe
00000060: 3703 f8be 1100 b6be 0b53 55be 16fb d2be
00000070: d4d3 3cbf 0d9c a9bd 2ee7 88be 0b3f babe
00000080: ec5b 89be 76a5 c1bd 3884 07bf f529 b3be
00000090: d9f0 5abe 91c6 203e 8c04 8dbe d371 c6be
000000a0: 3793 03bf b66f f83e b266 1bbd b466 903d
000000b0: a675 f2be f5da e5be 8eb6 bcbe f666 3a3f
000000c0: 0052 21bf a601 a0be cfcf f7be caa1 50be
000000d0: 7188 3ebe 31fe 12bf 4a7b 36be 230e 1abf
000000e0: aeb7 14bf 85e8 00bf 2e27 82be eea5 d9be
000000f0: 14bc 5bbe 7ffc 10be ef79 10bf 5f0c f23e
00000100: 66ca 1bbf 39fa a1be 74f7 b8be 9292 08bd
00000110: 1512 97be 60e1 d4bd cd6d bfbe f572 edbe
00000120: bc19 f6be 6506 18bf 53a0 e3be 1c1a a4be
00000130: 9c5b 34be 4b3c 19bf 8424 fb3d d8fa 2bbe
00000140: f6f5 97be 4111 55bd 3ffe 95be daa4 f7be
00000150: 74af f3be e170 95be 169d 20bf a7b4 b4be
00000160: ed7d a4be e7e9 263e 403b 00bf 723a 29bd
00000170: 861f 73be 9a22 b3be afee cabe 58a8 cdbe
00000180: 4c2f d93e b2e9 163f 65b8 e0bd 4321 b33e
00000190: 8cf0 9fbc 4f62 24bf 689b 33be 6d25 11bf
000001a0: 4e8c 38bd 7a6b 7ebe 5bce c73e 888f eb3e
000001b0: 12ce adbe 92f3 0cbe ef13 b43e 5d6a 64be
000001c0: 66df efbe 8c23 1fbf fd6e 1ebf 25c4 0ebe
000001d0: 3356 48be 8d52 12be 6536 18bf 5a7c f2be
000001e0: d9ad cbbe 5951 1fbf 6400 9cbe 578a 9cbe
000001f0: 225d 04bf e2f9 d7be 2d83 e5bd e862 32bf
00000200: 7fd7 0dbf bffe 7b3e d972 49be b56d f0be
00000210: 7015 88be c301 a7be aa38 a2be 94fe 52be
00000220: 85b3 1fbf 762a dcbd 2a7d f6be 553f 51be
00000230: c49e dcbe 8361 fd3d ed75 04bf 8fa6 f0bd
00000240: 1b30 d43e d26e 7d3e 327b a9bc 2216 98be
00000250: cbfa 0fbf 1336 62be 7e9f 8dbe 67a4 dbbe
00000260: 21a3 e9be aa2e b0be 91f0 3ebe 0629 a13e
00000270: fa96 be3e 565c e9be 58b5 8ebe 0336 d1bd
00000280: 5597 04bf 753b c8be 9fb2 0bbf 9eca 27bf
00000290: d1d7 873d 2fce 443f 89ae 91be 7896 debe
000002a0: 9937 43bf a442 6bbe 7139 3fbf 146f ddbe
000002b0: 55e1 4cbf 36ad 48bf 63e6 c8be 4c07 f8bd
000002c0: bbe9 c4be fe8e e1be 940f dcbe 23a5 97be
000002d0: 46d6 913e 87ca 37be 776c a2be b323 5dbe
000002e0: 50d0 e2be 9de0 60be 9168 24bf e6fa 7dbe
000002f0: 2978 96be 7c3a abbe ef78 b0be cc9f 333f
00000300: 6c29 f73e 150e 4abf dc27 1dbf b8e8 2a3e
00000310: 43bf 44be c60f d9be 0114 01bf a65f a1be
00000320: 319b 553e bf08 043f 17c1 03be feac 2bbf
00000330: bfe7 71be c0b7 e4be d698 cebe 1caa 05bf
00000340: f1f3 5dbe de8d d1be 3712 15bf 108d 86be
00000350: a3ad 233f 6555 21bf df61 46bf c794 38bf
00000360: 932a a43c 6334 b1be 9fe6 133f 35eb aebd
00000370: a576 0abe b784 2fbe e601 4e3e 6b50 99be
00000380: f87d 7cbe 5fed c9be b339 83be 02b6 3cbf
00000390: 6139 a9be 30c9 14bf f4c5 f9be 29cf 8c3e
000003a0: 9826 c2be b4c5 fcbe 4588 89be a9f5 b1bd
000003b0: 9e8b acbe 532f 23bf ffe0 dfbd 8311 88be
000003c0: f320 993e d245 3ebe 9e0b 28bf e17b 36be
000003d0: ddbe 02bf 07ef cbbe 5ebb 93be 1f64 72be
000003e0: a41c 69be f4d8 17be 1d34 8cbe ccb9 b1bd
000003f0: 6d81 d9be 3ab5 e0be e16d 06bf e4b3 053f
-0.5335254 -0.5650564 -0.2537945 -0.55825824 -0.2662969 0.16960782 -0.61901623 -0.78971785
-0.3885842 -0.34024215 0.36650336 -0.27201054 -0.5387479 0.26608232 0.57309544 -0.5832476
-0.6750604 -0.4847639 -0.5844116 0.36905628 -0.25732422 -0.20424134 -0.38926068 -0.33347473
-0.48439953 -0.35546926 -0.2083246 -0.41207188 -0.73760724 -0.082817174 -0.26738876 -0.36376223
-0.26827943 -0.09455387 -0.52936125 -0.34992948 -0.21380939 0.15700747 -0.27542531 -0.38758716
-0.5139651 0.4852273 -0.037939735 0.07050839 -0.47355384 -0.44893613 -0.36858028 0.72813356
-0.6301575 -0.31251258 -0.48400733 -0.20374218 -0.18606736 -0.57419115 -0.17820469 -0.6017782
-0.5809277 -0.50354797 -0.25420517 -0.42509407 -0.21458465 -0.1415882 -0.56436056 0.47275063
-0.6085571 -0.31636217 -0.36126292 -0.033342905 -0.29505983 -0.10394549 -0.3738846 -0.46376768
-0.4806651 -0.5938476 -0.44458255 -0.3205117 -0.17613071 -0.59857625 0.12262824 -0.16794908
-0.2967984 -0.052018408 -0.29295537 -0.4836796 -0.47594798 -0.29187682 -0.62739694 -0.35294077
-0.32127324 0.16300164 -0.5009041 -0.041315503 -0.23742494 -0.34987336 -0.39635226 -0.401675
0.42418897 0.5895034 -0.109726705 0.34986314 -0.019523881 -0.64212507 -0.17539752 -0.5669773
-0.04505568 -0.24845687 0.39024624 0.46007943 -0.33946282 -0.1376479 0.35171458 -0.223062
-0.46850127 -0.62163615 -0.61888105 -0.1394201 -0.19564132 -0.14289303 -0.59458 -0.47360498
-0.39781073 -0.622335 -0.30469048 -0.30574295 -0.5170461 -0.42182833 -0.112066604 -0.6968217
-0.55406946 0.24608897 -0.19672717 -0.469587 -0.26578856 -0.32618532 -0.31683856 -0.20604926
-0.623833 -0.10750286 -0.48142368 -0.20434316 -0.4308988 0.123721145 -0.5174244 -0.117505185
0.41442952 0.24749306 -0.020688627 -0.29704386 -0.56242055 -0.2209094 -0.27660745 -0.42898867
-0.4563227 -0.34410602 -0.18646456 0.3147661 0.3722456 -0.4557826 -0.2787273 -0.1021538
-0.51793414 -0.39107862 -0.5456943 -0.65543544 0.066329606 0.7687711 -0.28453472 -0.43474174
-0.7625671 -0.2297464 -0.74697024 -0.43248808 -0.8003133 -0.783893 -0.3923827 -0.12110767
-0.38459572 -0.44054407 -0.42980635 -0.29618177 0.2848379 -0.17948352 -0.31723377 -0.2159565
-0.44299555 -0.21960683 -0.64222056 -0.24802741 -0.2938855 -0.33443058 -0.34467265 0.70165706
0.4827379 -0.7892774 -0.61388946 0.16690338 -0.19213586 -0.42394847 -0.5042115 -0.31518286
0.20859982 0.51575845 -0.12866627 -0.6706084 -0.2362356 -0.4467144 -0.4035098 -0.5221269
-0.21675088 -0.4092855 -0.5823092 -0.26279497 0.63936824 -0.63020927 -0.7749309 -0.72102016
0.020039832 -0.3461028 0.57773775 -0.08540956 -0.13521822 -0.1714047 0.20117912 -0.29944167
-0.24657428 -0.39438912 -0.2562996 -0.7371522 -0.3305159 -0.5811949 -0.4878384 0.275018
-0.3792007 -0.49369586 -0.26861778 -0.08689434 -0.3370027 -0.63744086 -0.109315865 -0.2657586
0.2990795 -0.18581322 -0.65642726 -0.17820694 -0.51072484 -0.398308 -0.28853887 -0.23671006
-0.22764832 -0.14828855 -0.2738351 -0.08678016 -0.42481557 -0.43888265 -0.5251141 0.52227616

layer1.bias_sigma f4 [256]
00000000: 4ad7 273e 3613 3a3d e0b0 c93d 74b7 783d
00000010: f432 e73d 0d96 0bbd ed30 23bd b566 0a3d
00000020: defe 49bb 5c71 cabc 9fd4 ddbc f72b 043c
00000030: f8dc c3be f29a 6e3d 5f67 91bd ff3d 1bbd
00000040: dc31 a5be ec87 73bd d31a 0ebd 47c4 aa3d
00000050: a862 623e 99a5 80bc 234f 9cbe 1e37 f4bd
00000060: 13df a03c 8ecd 74be 6287 64be 4641 a7be
00000070: eba0 30bd bc54 cfbd 763b 253e b5da 063d
00000080: 20c0 d8bd 886b aa3e 9455 f3bc 9665 cd3c
00000090: 603f 4dbe cf90 febc 01f2 63bc 0144 0ebe
000000a0: 656c 813e de6d 1c3d 6f2a 503d 53f8 183c
000000b0: 7674 a13d 4bc5 733d 5d26 253e 4339 a93c
000000c0: eea5 b7bd e7b7 b6be 5930 a3bc 2a12 14bc
000000d0: b0c0 76bd fbec 943e 2de6 05be 42b9 3a3e
000000e0: 0f4b 90be 2bf8 4d3e 584e 3dbe e39c 5bbd
000000f0: 6ef5 a73b 4b44 ba3d 10c2 373d db8e 683c
00000100: 33e6 1b3e 4162 353e 6e1c 213d bef4 4bbd
00000110: 6ef5 a73b 0e22 24be 7436 11bc c7ef 26bd
00000120: 7e21 a7bd baa2 703e 46f0 0b3e 73cb 263d
00000130: a40a 303e 4a21 063d 53cc d0bd 4d9d baba
00000140: 591b 31bd 7d62 5d3c 36ae 02be 2b3d 80bc
00000150: 4438 f33d 2e31 233d 40d2 103e 9099 9a3d
00000160: ddeb 9d3d cfa7 4abd 7d64 133d f875 d73b
00000170: cde4 b53e e6a6 ea3a 96a1 99be 2c89 c5bc
00000180: f62b b53c 3341 fa3d bd11 383e fb6d cabc
00000190: d093 e0bd 7177 14bd e7ac a63e dc8d 83bb
000001a0: 386b bdbe 23f7 bd3c f4ba da3d 5282 543d
000001b0: d9dd aebb 2b18 8a3d 5d3c edbc 49a2 e2be
000001c0: 088f 39be e03b 65bd 65e5 bdbc ff11 bf3e
000001d0: 0be9 bd3d 3ab7 513e 34d8 6fbe dcdb 3b3c
000001e0: 748a 2b3e c026 79bd d251 18be 532a 8f3d
000001f0: e172 953d efe1 04bc 1cc7 883e ef57 1b3d
00000200: cc59 923d 4e0a 01bd 5bcc 563e ff14 86be
00000210: d291 c03c a94f dcbc faeb 733e ddab 023e
00000220: f3ce 7c3d 6ef5 a73b 91b0 27be d90d c93d
00000230: 8dff bb3d 0f9f eabc 5160 f83c 0b75 9b3e
00000240: 60e0 76bd 5b33 34bd d3fe 12be 57c1 7b3e
00000250: 5116 1abd b809 b1ba 6c33 183e a8bc dcbd
00000260: 6e83 a5bc 3cd5 abbd 6ef5 a73b 0ffe 47bd
00000270: c57e 17bd f09e f73d 8398 823c c626 6cbd
00000280: 213f 61bb 59fe 8fbd d267 233d dae3 25be
00000290: 4c21 813d 2cea 7f3c bd59 993d 4956 10bd
000002a0: 4d14 f5bc 47a5 0cbe ae89 c9be 4b8d 783e
000002b0: 85c6 acbb c036 b3bd c72c 19bd fd56 44bd
000002c0: 4da6 423e c954 a5bd 6e38 8a3e f70c 4a3d
000002d0: 0523 1c3e 59cf 7cbd 6a74 07bc e847 d0bc
000002e0: d14f f63c 60aa a6bc 5dac 21be 6ef5 a73b
000002f0: cb27 71be 049d ef3d c3bd b53d 7c23 2bba
00000300: 4c8d d8bb 8fa0 5abe 7e99 a0bd 36ca 813d
00000310: fbd5 32bd 3043 e63d 9937 633e 52de 4f3d
00000320: 04cc dbbd f4a9 14bd 623d 3fbc 216e 513c
00000330: f533 283e ffeb 3b3e d9fe 1d3d ecf8 62be
00000340: 76cf adbd d24e 35be 28e9 8dbe cf8a a73d
00000350: 061b 833d f123 0b3e 4330 0d3d bbb0 c93e
00000360: 2bd8 01be 3c02 40bd e1b1 973c f141 b23c
00000370: b9a5 97be 2c2a 9dbb 7fe8 703c cefd 20bd
00000380: 867e a9bc 1f6d 1c3d 371e 463d 8a0e 883e
00000390: c639 b23c adf6 803e ccbf 723d e697 313e
000003a0: e445 06be ef19 943e 723c 023d 5847 133c
000003b0: f44d 533e 594a edbd 23be db3d 5791 c2bb
000003c0: 833c d0bd 6ef5 a73b ac79 693e a7bb d2bd
000003d0: 2cb0 623e 0d6c ea3b 018e 7c3d c79f f03b
000003e0: 116b 993d 8a80 6e3d 9f76 64be 29cc 0c3e
000003f0: 0a80 0fbc daf7 98bc 9a21 ed3d 90b5 5d3d
0.1639072 0.045428477 0.09848189 0.06072183 0.112890154 -0.034078646 -0.03984158 0.033789355
-0.0030822079 -0.024712257 -0.027078925 0.008067123 -0.38254523 0.058253236 -0.070997946 -0.03790092
-0.32264602 -0.059455797 -0.03469355 0.08338218 0.22107947 -0.015703963 -0.30529127 -0.11924575
0.01963762 -0.23906538 -0.2231727 -0.32666987 -0.043122213 -0.10123584 0.16135964 0.03292342
-0.1058352 0.33285165 -0.029703893 0.025072854 -0.20043707 -0.03107491 -0.013912679 -0.13893129
0.2527801 0.038190715 0.050821718 0.009336549 0.07883541 0.059514325 0.16127916 0.020657187
-0.089671955 -0.3568718 -0.019920515 -0.009037534 -0.060242355 0.29087052 -0.13076086 0.18234733
-0.28182265 0.201142 -0.18486917 -0.053616416 0.005125693 0.09095057 0.044862807 0.014194216
0.15224533 0.17713262 0.039333753 -0.04979395 0.005125693 -0.16028616 -0.00886308 -0.040756013
-0.08160685 0.23499575 0.13665876 0.040721368 0.17191559 0.03274659 -0.10195222 -0.0014237553
-0.04323897 0.013512251 -0.12761769 -0.015654167 0.11875966 0.039841823 0.14142704 0.07548821
0.07711003 -0.04947644 0.035984505 0.0065753423 0.35526124 0.0017902523 -0.30006093 -0.02411326
0.022115689 0.12219467 0.17975517 -0.024710646 -0.10965693 -0.03624672 0.3255379 -0.0040147137
-0.36995864 0.023189133 0.1068019 0.051882096 -0.005336505 0.06742891 -0.028959448 -0.4426444
-0.18120968 -0.055965304 -0.023180673 0.37318417 0.09272965 0.20480052 -0.23422319 0.011465993
0.16752034 -0.06082797 -0.14874962 0.069904946 0.07297302 -0.008110507 0.26714408 0.037925657
0.07146034 -0.031503968 0.20976393 -0.26187894 0.023507033 -0.026893454 0.23820487 0.12760873
0.0617208 0.005125693 -0.16375948 0.09817094 0.09179602 -0.028640298 0.030319365 0.30362734
-0.060272574 -0.04399429 -0.1435502 0.24585472 -0.03761894 -0.0013506925 0.14863366 -0.10778171
-0.020204272 -0.083902806 0.005125693 -0.048826274 -0.03698613 0.12090862 0.015941864 -0.057654165
-0.0034369903 -0.07030935 0.039893933 -0.162002 0.06305179 0.015619796 0.07487819 -0.035238538
-0.029916907 -0.13734923 -0.39362854 0.24272649 -0.005272689 -0.08750677 -0.03739622 -0.04793452
0.19008751 -0.08072812 0.26996177 0.04932877 0.15247734 -0.06172118 -0.008267501 -0.025424913
0.030067356 -0.020344913 -0.15788408 0.005125693 -0.23550336 0.1169987 0.08874085 -0.000652842
-0.006608641 -0.2135031 -0.07841776 0.06337397 -0.0436611 0.11243284 0.22189178 0.05074913
-0.10732272 -0.036294892 -0.01167235 0.012782604 0.1642607 0.18351744 0.03857312 -0.22165269
-0.08486836 -0.17705849 -0.27716947 0.081807725 0.06401639 0.1358793 0.034469854 0.39392647
-0.12680118 -0.04687713 0.018517436 0.021759959 -0.29618624 -0.004796287 0.014703869 -0.039304547
-0.020690214 0.038190003 0.04836866 0.26573592 0.021756064 0.251882 0.059264943 0.17343101
-0.13112599 0.28926036 0.031795926 0.008989178 0.20635206 -0.11586446 0.10729625 -0.005937736
-0.10167792 0.005125693 0.2280032 -0.10289698 0.22137517 0.007153994 0.061658863 0.0073432657
0.074911244 0.058228053 -0.22310875 0.13749756 -0.008758554 -0.018672872 0.115786746 0.05412823

layer2.weight_mu f4 [3, 256]
00000000: cad3 23bc 8f96 e8bc 0ef5 6dbe c975 bcbe
00000010: d886 363e 41a6 8f3e e16d 9c3d dc79 883c
00000020: 3c41 8b3d c79d aabc 020a 9ebe cd79 ff3c
00000030: 77d8 d7bd 3259 eb3e 1469 cb3e 7257 abbd
00000040: 9555 0abe 60cb 8cbe 908e 81bd 8872 c73e
00000050: 31c2 8fbe 0553 2ebd 65cb 11be ffd9 01be
00000060: 6727 a13b 6369 b7be 086d f2bd 845d dfbe
00000070: 3030 e2bd 7eff 4c3c 7d6e d7bd 022d 25b8
00000080: 14e0 24be a003 78be ee4e a5bd c455 ecbd
00000090: 4d69 42bd c7cd 803e ca66 8abd 773b 4fbe
000000a0: 30c6 cabd 55fb 943e 621d 1dbe 89e1 443e
000000b0: 1152 20bf b524 41bd efa5 153e 5d3e ba3e
000000c0: 57a4 1abe bf14 a7bd 45a2 283c 4447 1f3d
000000d0: 429d a03c b177 72bd c8c9 3d3e 5011 09be
000000e0: 9f81 f8bd b9c8 22be 0120 dbbe 44b9 03be
000000f0: 764d 67bd ab69 003e 3f84 40bd a5b1 dd3e
00000100: 20d5 5ebe 3e6e 9d3d 22f1 82bf 5fb2 e03c
00000110: a03b 9c3b e986 eabd e781 6bbc d538 c73c
00000120: 0591 a43c 9ceb a3be 8188 70be 9102 03be
00000130: 926a eabe 736e 2ebe a7b2 c3bd 9a7f c5bc
00000140: 5e7d efbd ee0b 313d 28b3 3cbe 519b 98be
00000150: add3 80bd 8371 eebd ebe2 79be c45a 62be
00000160: 6f14 cebd 3d7e 0a3e 796b 94be 0126 763d
00000170: aee7 123d 800a 843b 951b 66be 611a a8bd
00000180: 1367 a03e a15f e73e 6e11 b4be 10b3 603e
00000190: 4cd1 113e ad88 48bd 8644 70be df6b 5abc
000001a0: 4e89 e4be 996a c23d 05da a63e c07a f03e
000001b0: e325 a2bd e8df eabd 74d0 1d3e f72f b3bd
000001c0: d75c 7dbf e0d7 13be c38c 0bbd c625 1fbe
000001d0: a7d5 85be 4c00 afbd 88b8 40be 117e fabd
000001e0: 9acd f73c 37d6 33be 7a83 96be 50dc ea3d
000001f0: ec1a 27be d3a7 b8be e7ca 20be b1eb 86be
00000200: 8e3e f0be e708 813e fb8d 8cbd 7569 18be
00000210: b822 3e3b a4f5 76b9 88c9 9bbe 5e79 0fbf
00000220: 54e4 3a3c 008e c2bc cd17 6fbd a8c6 393e
00000230: 131b 85be 5c63 3d3e 9e78 13bc b1bf 433e
00000240: 9e52 e93e 8452 3f3e bf92 40be 6878 f5bd
00000250: 2cb8 fa3d 91e4 cdbc 3a72 97bd a680 6fbe
00000260: 60e8 333d f083 803d 0080 10ba bb39 633e
00000270: 934e a13e 6e2b 5ebe a70d 9fbc 3b2c d03c
00000280: 6c86 123c 58f1 cb3e 3d2b 06bd 1d0d 4bbe
00000290: a298 803e ac6f b23e 040e 84be c6ee 9ebe
000002a0: 7233 cbbd 801d b5be 16e8 66bd 0c0b b4be
000002b0: 2ff1 7d3d 59f0 8ebd b127 f2bd 1f43 77bc
000002c0: c88d 01bc 403e dfbd 4a50 88be b661 ea3d
000002d0: 2b83 8e3e 83dd fcba 5cc6 c2be 76f0 08bd
000002e0: a590 e3bc 0a99 fcbe ee4e 9fbe b454 273d
000002f0: 29c9 8fbd b021 efbc f89a 3b3c c0c6 fc3e
00000300: de23 e23e cce5 75be 7fc2 c13d 9d02 bebd
00000310: 9ca5 9c3c 7723 56be 7659 0fbc 2169 76be
00000320: 82cc 203e ab85 063f dec0 d5bc 75c8 4d3d
00000330: 5efc 01be f24a f5bd ecfc d7bd ecbb 7bbe
00000340: ba55 b4bd 17ab b2bd a56f 09be b399 58be
00000350: 0145 893e 3ab4 16be 237d f5bd 5287 4bbe
00000360: 82ef 5dbd d981 51be 63bc aa3e 9ea6 e23c
00000370: ed21 5f3d ed53 38bd f0df e93d 7a8d 0ebe
00000380: 63c5 ee3d 26f3 aabd 47bd c6bc f00c 14be
00000390: 169c 0cbc 5546 37be 7328 b0be 28eb 79be
000003a0: 7f7f 37be 0c62 c7bc cdeb 39bc 500d c63c
000003b0: 3120 ffbd bcfb 1dbd 9c46 0ebf 45a0 d8bb
000003c0: 1ca8 343e 3e89 483d 46cb c1bd 5fc2 debe
000003d0: f366 d5be 995c b9bd d19f 80bb 2a03 003e
000003e0: 7a59 80be ba03 103e 79b3 afbe 55f8 04bd
000003f0: 3549 e93c 302e c53c fa57 e2bd 01c6 353e
-0.009999225 -0.028392104 -0.23238012 -0.36808613 0.17824876 0.2805653 0.07638145 0.01665967
0.06799552 -0.020827187 -0.3086701 0.031186009 -0.10539334 0.45966488 0.39728606 -0.08366288
-0.1350921 -0.27498913 -0.0632602 0.38954568 -0.28077844 -0.042559642 -0.14237745 -0.12680815
0.004918027 -0.3582259 -0.11837202 -0.43626034 -0.11044347 0.012512086 -0.10519121 -3.9380982e-05
-0.16101104 -0.24220133 -0.08071695 -0.11539796 -0.047463704 0.25156996 -0.06757887 -0.20237528
-0.099010825 0.29098 -0.1534324 0.1922666 -0.62625223 -0.047154147 0.1461408 0.36375704
-0.15101753 -0.08158254 0.010292594 0.038886324 0.019606236 -0.059196178 0.18534005 -0.1338551
-0.12134098 -0.15896882 -0.42797855 -0.12863642 -0.056470357 0.12540309 -0.04700112 0.43299595
-0.21760988 0.07687043 -1.0229838 0.027428804 0.00476785 -0.11451513 -0.014374233 0.024319092
0.020088682 -0.32015693 -0.23489572 -0.12793948 -0.45784432 -0.1703432 -0.095555596 -0.024108697
-0.11693834 0.043224268 -0.18427718 -0.29805997 -0.06290374 -0.116427444 -0.24402969 -0.22104937
-0.10062491 0.13524719 -0.28988245 0.060094837 0.03586548 0.004029572 -0.22471459 -0.082081564
0.3132864 0.45190147 -0.35169548 0.21943307 0.14239997 -0.04895847 -0.2346364 -0.013331383
-0.44636005 0.09492988 0.3258821 0.4696865 -0.079173826 -0.11468488 0.1541155 -0.08749383
-0.9896979 -0.14437819 -0.034069788 -0.15541753 -0.26139566 -0.085449785 -0.18820393 -0.122310765
0.030249406 -0.17562185 -0.29397184 0.114678025 -0.16318864 -0.3606554 -0.15702401 -0.26351693
-0.46922725 0.25202104 -0.06863018 -0.14883979 0.0029012393 -0.00023551896 -0.30427194 -0.56044567
0.011406977 -0.023749352 -0.058372308 0.18142188 -0.25997218 0.18494934 -0.009000925 0.19116093
0.45570844 0.18683821 -0.18805979 -0.11985856 0.12242159 -0.025133403 -0.07394834 -0.23388919
0.043922782 0.06275165 -0.00055122375 0.22189991 0.3150526 -0.21696255 -0.01941569 0.025411716
0.0089431815 0.39832568 -0.03275608 -0.19829221 0.2511645 0.34850824 -0.25791943 -0.31041545
-0.09921922 -0.3537407 -0.05637368 -0.35164678 0.06199759 -0.069794364 -0.11823977 -0.0150916865
-0.007907338 -0.10900545 -0.26623756 0.11444418 0.27834448 -0.001929209 -0.3804196 -0.033432446
-0.027778933 -0.4933551 -0.31114906 0.040852264 -0.0702079 -0.029190868 0.011450522 0.49370384
0.4416799 -0.24013442 0.09460925 -0.09277842 0.019121937 -0.20911966 -0.0087493565 -0.24063541
0.15703014 0.5254771 -0.026092943 0.05024 -0.12693927 -0.11977185 -0.10546288 -0.24583405
-0.088054135 -0.08724039 -0.13421495 -0.21152382 0.26810458 -0.14717188 -0.119867586 -0.1987584
-0.05418349 -0.20459689 0.33346853 0.02766734 0.054475714 -0.045001913 0.11419666 -0.13921157
0.11658742 -0.08347158 -0.024260176 -0.1445806 -0.008582136 -0.17897923 -0.3440586 -0.24406111
-0.1791973 -0.024338745 -0.011347723 0.02417627 -0.12457312 -0.03857015 -0.5557649 -0.0066109025
0.17642254 0.04895901 -0.094625995 -0.43507668 -0.41680107 -0.09050865 -0.0039253016 0.12501207
-0.25068265 0.14063922 -0.34316614 -0.03246339 0.02847729 0.024069875 -0.110519364 0.17751314

layer2.weight_sigma f4 [3, 256]
00000000: f9b4 d4bd 0b83 d83d 417f a73b c9ce f3bd
00000010: ce59 95bd c663 893c 3924 793d cf59 6f3d
00000020: fc6b 3e3d e684 fbbc 31f3 9d3d bef6 533d
00000030: 970c bd3d a3c7 42bd 8765 3f3a 1cf3 7bbd
00000040: bf45 26bc 047a b43d 2cef 833b b31a 823d
00000050: 9b77 db3d 3dcf 8cba be67 4bbe f52a 0a3e
00000060: f231 da3c 684c 91bd 9839 503e 9e57 b73d
00000070: e227 d4bd 8ead 843d 0211 343d 666e b3bd
00000080: a9b9 2abc d0a5 e9bd 0065 8b3d 9bbf 6cb9
00000090: 97d3 9a3d 15ec 55ba fc33 6dbd ba1d 6cbd
000000a0: d03f fcbd 6d64 733d 1682 c43d c73f b3bc
000000b0: 21b2 62bc 887c a23d 94a7 cf3d 80a9 48bd
000000c0: cd3c e1bd 1e1e 6139 b3bb 9fbc 87b3 273d
000000d0: f769 253d ad14 c6bc 9b66 acbd 2388 b03d
000000e0: c22f 6dbd c49f 47bd 2434 833d ef02 563d
000000f0: 9643 8b3a 00fd 20bd 6b03 003d ec66 07bc
00000100: 294e f1bd 4ef4 2cbd 5e5d 483e 303f 963d
00000110: 9643 8b3a e276 9e3d d308 e03b 8e08 013c
00000120: e30b 1bbd 9fe3 ad3d 9265 f1bd 9329 07be
00000130: bf28 14bd 6601 283e c79c d2bd fad8 5f3d
00000140: 9c3a acbd e066 8ebb 5590 d73c ed8f 69bd
00000150: a3fc 943c 3b96 0c3c b594 063e bfc5 8f3c
00000160: 6dfe 41bd 8df2 063d 09db 8fbd a506 283c
00000170: 30c0 db3d d748 3c3d 5ef4 4f3e 7850 153c
00000180: 0365 083b b458 fbbd be7a c83d 869c 613c
00000190: 6bc9 f23c dcd4 793d 6964 46bc 4cda 50bc
000001a0: bbbe 2ebc 2575 85bd e0d9 b3bd b07e 4cbc
000001b0: d8ba 2c3d 0af2 133e ce59 8b3d 383f 783d
000001c0: 7234 413d eea1 46bd 348b 893b b7c2 64be
000001d0: 3e00 d13d 4774 e5bd 989b f93d d68d ccbd
000001e0: 7c25 7e3d f27b 0639 c508 2e3e ae83 343d
000001f0: 69ff 7c3d 2533 b3bc abdc 7d3d d827 b03b
00000200: d419 b3bd 6829 b5bb b953 06be a66e b0bb
00000210: 5d4e b3bc ac72 993b 8358 f8bd de1d a93d
00000220: 1da0 c53d 9643 8b3a e533 c4bb 5567 79bd
00000230: 43d0 ce3d f323 91bd 204b 2c3b d08c 1fbe
00000240: 2598 debc 2e6f 00bd 3db8 533d bfc9 b43c
00000250: 40b1 de3d 7217 3ebd 9661 193e 3c44 77bb
00000260: 8427 7e3d 74a6 163d 9643 8b3a 84fc e8bc
00000270: 89ad 11bd 89ad debd 65fa c6bb a320 c5bb
00000280: c803 01bd 69be 4dbd e482 103e e17b 943d
00000290: 2a2b 233e f5b4 773c dc22 033e 745f f4bd
000002a0: 44de b23d 8115 433e dc21 0cbd 885b 983d
000002b0: 6e79 cfbd 552e 02bd f0c4 433b 6f9a 65bd
000002c0: 1ca0 ec3d 7c8a c43c 3e46 2e3e 1833 6d3d
000002d0: 40e2 16bd 9a40 0fbe a6f6 d13c 147e 2d3c
000002e0: cd32 c63c 3339 99bc 6b67 afbc 9643 8b3a
000002f0: 732a b9bc 895d 113d e6eb 0cbc fd62 b9bc
00000300: 222a 0b3d 7900 f53d 52b0 3a3c 2106 f03d
00000310: 4caf 81bd b76e b4bd 9880 f53c a1f5 683d
00000320: 6b19 2fbb b9f0 f0bc 6931 d33d 1f65 ff3d
00000330: f363 1fbe 0163 64bd fa2e 41bd 1d37 82bd
00000340: ea8e 7f3c c032 0e3e 1dbc ce3c 687f 313e
00000350: 4911 4d3d 35b9 96bd bf02 053e 1f92 abbd
00000360: e414 15bc 9c25 bdbb 986d 1bbd 21ce fabc
00000370: b6d2 66be 452f b03d 15d5 ab3d 7544 14be
00000380: 4558 26bd 6d53 b23d 348b 8f3d be5d 103e
00000390: 1985 c03c 075f 8d3d 63fd e73d 4196 c4bc
000003a0: ab9e 1fbe e57d af3d 9230 4c3c f383 88bc
000003b0: c425 abbd 45f7 563d aa31 383d 2c05 a33c
000003c0: 2cf4 57be 9643 8b3a b2a8 b33c 57ea f3bd
000003d0: 1bc8 04be 000f 883d 073d 55bc 838c 88bd
000003e0: 8b2c c6bc 01d3 3e3d 4028 9fbd 12a5 0fbc
000003f0: 6885 2bbc a779 6fbd 7d8a f23d 4b91 983c
-0.1038608 0.105718695 0.0051116054 -0.119046755 -0.072925195 0.016771208 0.06082556 0.058435258
0.0464897 -0.03070302 0.07712401 0.051748984 0.09230917 -0.04755367 0.00073012005 -0.061511144
-0.010148465 0.08812335 0.0040263142 0.06352749 0.10716172 -0.0010742914 -0.19863793 0.1349295
0.026635144 -0.070946515 0.2033447 0.089522585 -0.103591695 0.064784154 0.043961532 -0.08761291
-0.010420241 -0.11408579 0.068063736 -0.00022578092 0.07559889 -0.0008160484 -0.057910904 -0.057645537
-0.12316859 0.059421945 0.095951244 -0.021880997 -0.013836415 0.07933909 0.10139385 -0.048989773
-0.10997925 0.00021468892 -0.019498682 0.040942695 0.04038426 -0.02417978 -0.08418008 0.08619716
-0.057906874 -0.04873635 0.064064294 0.05224889 0.0010625 -0.03930378 0.03125326 -0.008264285
-0.11782486 -0.042225175 0.19566867 0.07336271 0.0010625 0.07737519 0.0068369894 0.007875575
-0.037853133 0.08490681 -0.11786951 -0.13199453 -0.03617167 0.16406783 -0.10283809 0.054650284
-0.08409616 -0.0043457597 0.02631394 -0.057022024 0.018186873 0.00858074 0.13142665 0.017550347
-0.04736178 0.03294616 -0.070241995 0.01025549 0.10730016 0.045967903 0.20308062 0.0091134235
0.002081216 -0.12272778 0.09789036 0.013770228 0.02963706 0.060994014 -0.012108901 -0.0127473585
-0.010665591 -0.06516484 -0.08781791 -0.0124813765 0.042170376 0.144478 0.06804238 0.060607165
0.047169156 -0.048494272 0.0041975025 -0.22339903 0.10205124 -0.11203819 0.1218788 -0.099879906
0.062047467 0.00012825409 0.16995533 0.044070892 0.061767016 -0.021874974 0.061978023 0.0053758435
-0.08745161 -0.0055286177 -0.13117875 -0.005384284 -0.021887952 0.0046828594 -0.12126257 0.0825765
0.0964968 0.0010625 -0.0059876316 -0.06088956 0.100983165 -0.07086935 0.0026289895 -0.1558106
-0.027172158 -0.03135603 0.051689375 0.022068856 0.108736515 -0.046409078 0.14978632 -0.003772988
0.062049404 0.036779836 0.0010625 -0.028440721 -0.035565887 -0.10872943 -0.00607233 -0.0060158535
-0.031497747 -0.050230417 0.14112431 0.072501905 0.15934435 0.015118827 0.12806267 -0.11932269
0.087338 0.19051172 -0.03421198 0.07439333 -0.10130583 -0.031782467 0.0029872023 -0.056055482
0.11553976 0.023991816 0.17018983 0.057910055 -0.036836863 -0.13989487 0.025630306 0.010589141
0.024194146 -0.018704033 -0.021411618 0.0010625 -0.02260325 0.035489593 -0.008601164 -0.02263021
0.033975728 0.11962981 0.011394577 0.11719919 -0.06332263 -0.0881018 0.029968545 0.056874875
-0.002671803 -0.02941166 0.103121586 0.12470459 -0.15565471 -0.05575848 -0.04716394 -0.06358168
0.015598038 0.13886547 0.025236184 0.17333758 0.050065313 -0.07359544 0.12989329 -0.0837748
-0.009099219 -0.0057723057 -0.037946314 -0.030615868 -0.22541317 0.08602766 0.083902515 -0.1447924
-0.040611524 0.087073185 0.07008973 0.1409826 0.023500966 0.06902891 0.113276266 -0.023997428
-0.15587871 0.08568934 0.012462752 -0.01666448 -0.083568126 0.05248191 0.04496924 0.019899927
-0.21089238 0.0010625 0.021931026 -0.11909931 -0.12966959 0.06643486 -0.013015038 -0.066674255
-0.024191162 0.046587948 -0.07771349 -0.008767383 -0.010468818 -0.058465626 0.11842821 0.018623969

layer2.bias_mu f4 [3]
00000000: 6c1c 263f 7c3c 6e3e 9335 693e
0.6488712 0.2326526 0.22774343

layer2.bias_sigma f4 [3]
00000000: 699e 743c fcf2 40bd dfdf 94bc
0.014930346 -0.047106728 -0.018173156
