Code Submission/DDQN_models/prb-model2-snapshot-score-8.pth (torch, 17239 bytes, 4 tensors)

linear1.weight f4 [256, 11]
0	0xbe563913	-0.2092021
1	0xbe5ff0c5	-0.2186919
2	0xbef051b1	-0.46937326
3	0x3db90afc	0.09035298
4	0x3e9211ee	0.28529304
5	0x3e7c15f3	0.24617748
6	0xbe047c94	-0.12938148
7	0xbe587b42	-0.21140769
8	0x3f17d87b	0.593147
9	0x3f328307	0.6973118
10	0x3e9a639b	0.30154118
11	0x3dfedfbb	0.12445017
12	0x3e5a02e7	0.2129017
13	0xbf2fa11f	-0.68605226
14	0x3ed75c8b	0.42062792
15	0xbe31481f	-0.17312668
16	0xbe636bda	-0.22209111
17	0xbf08714d	-0.53297883
18	0xbe6d3232	-0.23163679
19	0xbf3026c2	-0.6880914
20	0xbf008a24	-0.50210786
21	0x3ebdf757	0.37102768
22	0x3eaee817	0.34161445
23	0x3e4d464b	0.20046346
24	0xbf4795fb	-0.7796323
25	0x3e9cc104	0.3061601
26	0xbe35abce	-0.1774132
27	0xbbf9399e	-0.0076057455
28	0xbc6287ba	-0.013826305
29	0x3d7b49bb	0.06134961
30	0xbf2a7d9b	-0.6659791
31	0xbf179657	-0.59213775
32	0x3e7f1a82	0.24912456
33	0x3de3c0d2	0.11120762
34	0xbdd64c14	-0.104637295
35	0xbeb056d9	-0.3444126
36	0xbe19af3c	-0.15008253
37	0xbd8ea440	-0.06964922
38	0x3e899e67	0.26878664
39	0xbe64b3a1	-0.22334148
40	0x3e060b7c	0.13090318
41	0xbe4ff493	-0.20308141
42	0xbc840dc1	-0.01611984
43	0xbdaf009b	-0.08545037
44	0xbe349832	-0.17636183
45	0xbd7f092d	-0.06226461
46	0x3e0f9923	0.14023261
47	0x3e0837d9	0.13302554
48	0xbe183dcb	-0.14867322
49	0x3b5b7521	0.0033486562
50	0xbe76ed95	-0.24114068
51	0x3da3dea6	0.08001451
52	0xbd6f43ff	-0.058414456
53	0xbeae1d14	-0.3400656
54	0xbeecf1ab	-0.46278128
55	0xbe80e27e	-0.251728
56	0x3d6e497c	0.05817555
57	0xbe641947	-0.22275268
58	0x3d2b13d8	0.04176697
59	0xbe901ec8	-0.28148484
60	0x3d20a17f	0.039216515
61	0x3e10e6ed	0.14150591
62	0xbe2816fb	-0.16415016
63	0x3ee5eb0e	0.44905895
64	0xbec7142e	-0.38882583
65	0x3e6b1ecc	0.22960967
66	0xbd2192d1	-0.039446656
67	0xbe98296c	-0.29719102
68	0x3de218ff	0.11039924
69	0xbf1ad9c9	-0.60488564
70	0xbe3c0b81	-0.18363763
71	0xbea32633	-0.3186508
72	0x3e04462f	0.12917398
73	0xbd9425f6	-0.07233803
74	0xbe5e3caf	-0.21702836
75	0x3e6a4c53	0.22880678
76	0x3f2fd000	0.6867676
77	0xbf4a685c	-0.7906549
78	0x3d7b2a1a	0.061319448
79	0xbf2554bd	-0.64582425
80	0xbe683c65	-0.22679289
81	0x3e8049ff	0.25056455
82	0x3df200fa	0.118165925
83	0xbb36ad58	-0.0027874317
84	0x3dc1abdd	0.094566084
85	0xbee68e9a	-0.4503067
86	0x3e96def7	0.29466984
87	0x3f025c93	0.5092251
88	0xbf0ecc08	-0.55780077
89	0x3eeab5ed	0.45841923
90	0x3e9f8662	0.31157213
91	0xbecc74f1	-0.3993297
92	0x3d32eb8e	0.043681674
93	0xbd5ddc48	-0.054165155
94	0xbe201633	-0.15633468
95	0xbe5bf5da	-0.21480504
96	0x3ec0c580	0.3765068
97	0xbd944688	-0.07240015
98	0xbeda28f1	-0.4260936
99	0xbe535356	-0.20637259
100	0x3f0bbdfe	0.5458678
101	0xbe535b9d	-0.20640416
102	0x3f01a910	0.50648594
103	0x3c8a5872	0.016887877
104	0xbd939f36	-0.072081015
105	0xbe5ed33b	-0.21760266
106	0x3e73d39f	0.23811196
107	0xbeb728bc	-0.35773265
108	0xbed1a5bf	-0.40946767
109	0xbf14f766	-0.5819
110	0x3de5747f	0.112038605
111	0xbf2d766d	-0.6775883
112	0x3e52dfa0	0.20593119
113	0x3e1ffee7	0.15624581
114	0x3bb5fec9	0.0055540544
115	0xbd4f287a	-0.05057571
116	0xbe037d02	-0.12840655
117	0xbdeb214d	-0.11480961
118	0x3ecb2f60	0.39684582
119	0xbed49e00	-0.41526794
120	0x3ec66c26	0.38754386
121	0xbdf27327	-0.1183837
122	0xbda99221	-0.08279825
123	0x3e58d7a4	0.2117601
124	0x3d9be143	0.07611325
125	0xbca4c6db	-0.020114353
126	0xbcae1940	-0.021252275
127	0xbe93148a	-0.28726608
128	0xbdbd26b6	-0.09235899
129	0x3e3ead03	0.18620686
130	0xbe92bf18	-0.28661418
131	0xbe36dabf	-0.17856883
132	0xbea7d8a6	-0.32782477
133	0xbe717928	-0.23581374
134	0x3d5cb048	0.053879052
135	0xbc559301	-0.013035537
136	0x3e192fd3	0.1495965
137	0x3c67576f	0.014119967
138	0x3e0125fb	0.12612145
139	0xbe0a9173	-0.13532047
140	0xbefc16c4	-0.4923612
141	0x3d82f793	0.06394877
142	0xbec79342	-0.38979536
143	0xbde91cbc	-0.11382434
144	0xbe3a64b9	-0.18202485
145	0xbeb39f32	-0.35082394
146	0xbdbbe42c	-0.0917438
147	0xbc5ea182	-0.013588311
148	0xbf010160	-0.50392723
149	0xbeb7fcf4	-0.35935175
150	0xbec034ca	-0.37540275
151	0x3e4dc599	0.20094909
152	0xbe1c0195	-0.15234978
153	0x3de0f9d5	0.10985152
154	0xbf1a178d	-0.60192186
155	0x3e0afd2a	0.13573137
156	0x3daf17f4	0.085494906
157	0xbe55410b	-0.20825593
158	0xbe9a4cff	-0.30136868
159	0xbcb6b763	-0.022304242
160	0x3e4888a6	0.19583377
161	0x3e3dad2a	0.18523088
162	0xbe764a73	-0.24051838
163	0x3f2100f4	0.6289208
164	0x3f010ebb	0.504131
165	0xbed1bad2	-0.40962845
166	0x3ee0db48	0.43917298
167	0x3f06d0d3	0.5266239
168	0x3c85b9b5	0.016323904
169	0xbda34243	-0.07971623
170	0x3d3eeabd	0.046610583
171	0x3e0358f5	0.12826903
172	0x3ea80d72	0.32822758
173	0x3e145b2a	0.14487901
174	0xbefa3708	-0.4887011
175	0xbf00f868	-0.5037904
176	0xbe6063ed	-0.21913119
177	0x3d0ddd41	0.034634832
178	0x3df74e3c	0.12075469
179	0xbe4920b0	-0.19641376
180	0xbedfa79e	-0.4368257
181	0xbd8b21c6	-0.06793551
182	0xbdc8c4eb	-0.09803184
183	0xbdee1eb8	-0.11626953
184	0x3eb027e5	0.34405437
185	0x3eaea9c0	0.34113884
186	0xbf017be3	-0.5057966
187	0x3e9a4d79	0.30137232
188	0xbf0cacbe	-0.54951084
189	0x3dd61c7c	0.10454652
190	0xbda3dbab	-0.08000883
191	0xbe9c0a90	-0.3047681
192	0xbd7e7ffc	-0.062133774
193	0xbd39caed	-0.04535954
194	0xbde202ac	-0.11035666
195	0x3e60d296	0.21955332
196	0xbf084c08	-0.53241014
197	0x3f19c415	0.6006482
198	0xbe2cafc9	-0.16863932
199	0xbe16b1a0	-0.14716196
200	0xbf10d6e8	-0.5657792
201	0x3e6459d4	0.22299892
202	0xbe04ece9	-0.12980999
203	0xbe30c44b	-0.1726238
204	0xbd71cef2	-0.05903525
205	0xbc336bdf	-0.010951011
206	0xbf08592d	-0.5326107
207	0xbe8aeee9	-0.271354
208	0x3f033c7a	0.51264155
209	0xbe07daf7	-0.13267122
210	0xbe871b8c	-0.26388204
211	0x3d6db5b9	0.058034632
212	0xbe80f8de	-0.2518987
213	0xbe908b4c	-0.28231275
214	0xbe474b83	-0.19462399
215	0x3dbcd9eb	0.09221252
216	0x3e016149	0.12634768
217	0x3f1b56a6	0.6067909
218	0xbf7531d1	-0.9577914
219	0xbf03ca53	-0.514806
220	0x3d84c939	0.06483693
221	0x3e44e4ba	0.19227877
222	0xbe29ce61	-0.16582634
223	0xbed43781	-0.41448596
224	0x3de9f79c	0.11424181
225	0xbeec85a9	-0.46195725
226	0xbe26a340	-0.16273212
227	0xbe34e84c	-0.17666739
228	0xbf13b7fc	-0.5770261
229	0xbdcf4f47	-0.10122543
230	0x3ee4a2dd	0.44655505
231	0xbf365706	-0.7122654
232	0xbc0558b7	-0.008138827
233	0xbed1d037	-0.40979168
234	0x3c23db7a	0.010001058
235	0x3e1d2aaa	0.15348306
236	0xbe5414ea	-0.20711103
237	0xbe2968de	-0.1654391
238	0x3d9d56eb	0.07682594
239	0x3eacef28	0.33776212
240	0x3f2e4ebe	0.680889
241	0xbf6bdc11	-0.9213267
242	0x3a21f557	0.0006178221
243	0x3d462fd4	0.048385456
244	0xbc9f453f	-0.019442199
245	0x3e03c56e	0.12868282
246	0xbe658b22	-0.22416356
247	0xbe9e6fd5	-0.30944696
248	0xbe8b37aa	-0.27190906
249	0xbd00a914	-0.031411245
250	0x3f0fee26	0.5622276
251	0x3f1eac34	0.6198151
252	0x3ee3505d	0.4439725
253	0xbd8a6f2c	-0.067594856
254	0xbf0cad9a	-0.54952395
255	0xbdff7359	-0.12473173

linear1.bias f4 [256]
0	0xbdc277a4	-0.09495476
1	0x3e81432f	0.2524657
2	0x3ec287cf	0.3799424
3	0xbe27e7c8	-0.16397011
4	0x3dbd2f6e	0.09237562
5	0xbe9bb5af	-0.3041205
6	0xbe3f19d4	-0.18662196
7	0xbdca7c4f	-0.09886991
8	0x3d9dfe70	0.07714546
9	0xbd3c0571	-0.045903627
10	0xbe0a560e	-0.1350939
11	0xbed4ab67	-0.4153702
12	0xbed61f57	-0.41820785
13	0xbe69a45e	-0.22816607
14	0xbea5a3f5	-0.32351652
15	0xbe5d10b6	-0.21588406
16	0x3bd3a9c6	0.0064594476
17	0xbeb5bf96	-0.3549773
18	0xbd2c861d	-0.042120088
19	0x3d83fe25	0.064449586
20	0xbe1ae3a7	-0.15125905
21	0xbe5a3b02	-0.21311572
22	0xbe987b18	-0.29781413
23	0xbe8ae884	-0.2713052
24	0xbee65856	-0.4498927
25	0xbdfef932	-0.12449874
26	0xbe0c3c94	-0.13694984
27	0xbe7d5ef5	-0.24743254
28	0xbe29be04	-0.16576391
29	0xbee99883	-0.4562417
30	0xbdd10ab8	-0.102071226
31	0xbe5ddede	-0.21667048
32	0xbec0ff15	-0.37694612
33	0xbe91a422	-0.28445536
34	0xbecc589f	-0.39911363
35	0xbec180e6	-0.37793654
36	0xbeab0733	-0.3340393
37	0xbe4a74ce	-0.1977112
38	0x3ccb6248	0.024827138
39	0xbe97b045	-0.2962667
40	0xbece1cfa	-0.40256482
41	0xbe8e3ce4	-0.2778083
42	0x3d433ac7	0.047663476
43	0xbe226475	-0.15858634
44	0x3c0a6072	0.008445846
45	0x3e34dd12	0.17662457
46	0xbe2fb2e5	-0.17158087
47	0xbe99e377	-0.30056354
48	0x3e8be629	0.27324036
49	0xbe62dc93	-0.22154455
50	0xbe828846	-0.25494593
51	0xbd76f417	-0.060291376
52	0xbecf7b71	-0.40523866
53	0xbec6e3b8	-0.3884561
54	0xbe28cba1	-0.16483928
55	0x3e3bed1f	0.18352173
56	0xbec74f3e	-0.38927644
57	0xbec55e91	-0.3854871
58	0xbe3e7a28	-0.18601286
59	0x3cdc7274	0.026910044
60	0xbe35e9db	-0.1776499
61	0xbf2883c0	-0.65826035
62	0xbeb3396a	-0.3500474
63	0xbda378ce	-0.07982026
64	0xbe3b91ef	-0.18317388
65	0xbe82c38e	-0.2553982
66	0xbe439925	-0.19101389
67	0xbe910327	-0.28322718
68	0xbece6a40	-0.40315437
69	0xbecb975f	-0.39763924
70	0xbe98a6a5	-0.2981464
71	0xbe33ade3	-0.17546801
72	0xbe31fe72	-0.1738222
73	0xbf031ddb	-0.5121743
74	0xbe7ab100	-0.24481583
75	0xbe89d5f5	-0.2692105
76	0xbde4358b	-0.11143025
77	0xbe4a1e42	-0.19738105
78	0xbea99623	-0.33122358
79	0xbdcfeef4	-0.101529986
80	0x3c173bc0	0.009230554
81	0xbdb82e52	-0.0899321
82	0xbe95f1d6	-0.2928607
83	0xbe6ed66b	-0.23323981
84	0xbe3c6581	-0.18398096
85	0xbd9d0594	-0.076670796
86	0xbe55e863	-0.2088943
87	0x3ceafe4e	0.028685715
88	0xbd991122	-0.07473971
89	0xbee7b2b6	-0.45253533
90	0xbe534b62	-0.20634225
91	0xbe869b1f	-0.26290223
92	0xbe4698c1	-0.19394208
93	0x3d561fce	0.052276425
94	0x3e32b13e	0.17450425
95	0xbe199d46	-0.15001401
96	0x3d9ca432	0.07648505
97	0xbe5711db	-0.21002905
98	0xbe0b7429	-0.1361853
99	0xbeba8edb	-0.36437115
100	0xbea3fa48	-0.32026887
101	0xbe134d55	-0.14384969
102	0xbe0ad13f	-0.13556384
103	0x3e47f773	0.19527988
104	0xbe19751a	-0.14986077
105	0x3e8e04e3	0.27738103
106	0xbe08f4ce	-0.13374636
107	0xbe177999	-0.1479248
108	0xbe99e65a	-0.30058557
109	0xbe61830b	-0.22022645
110	0xbe05a8f4	-0.13052732
111	0xbea81e7e	-0.32835764
112	0xbe92481f	-0.2857065
113	0xbea69e67	-0.32542726
114	0xbeba6966	-0.36408538
115	0xbe88bc1c	-0.26706016
116	0xbe4ec9c1	-0.2019415
117	0xbe9116f1	-0.28337815
118	0xbe0a7f31	-0.13525082
119	0x3c2814e1	0.010258884
120	0xbf3052c1	-0.6887627
121	0xbeee963d	-0.46598998
122	0xbed41294	-0.41420424
123	0xbe21e6e8	-0.1581074
124	0xbf05fd1c	-0.5233934
125	0xbe7bb74a	-0.24581638
126	0xbee494b5	-0.44644704
127	0xbf0bba9e	-0.5458163
128	0xbe252c20	-0.16130114
129	0xbed0fb3d	-0.4081668
130	0xbeee5081	-0.46545795
131	0x3e187a91	0.14890505
132	0xbeb93fc2	-0.36181456
133	0xbe8a502e	-0.27014297
134	0xbc4e27af	-0.0125827035
135	0xbe4d0c90	-0.20024323
136	0xbe84215d	-0.25806704
137	0xbaaabd08	-0.0013026306
138	0xbe67a431	-0.22621228
139	0xbe321f8e	-0.1739485
140	0xbddab8bd	-0.10679767
141	0xbde16e67	-0.11007386
142	0xbdd1abfd	-0.10237882
143	0xbeacca65	-0.33748165
144	0xbd92a58a	-0.0716048
145	0xbe27dda5	-0.16393144
146	0x3e55e5f5	0.20888503
147	0xbe94afad	-0.2904028
148	0xbe2800ea	-0.16406599
149	0xbba194e0	-0.0049310774
150	0x3db7f9f2	0.0898322
151	0xbed719cf	-0.42011878
152	0xbdaabd3f	-0.08336877
153	0xbeaef0ad	-0.34167996
154	0xbe53e10c	-0.20691317
155	0xbdf35cab	-0.118829094
156	0xbdc4358f	-0.09580528
157	0x3e8b5d4b	0.27219614
158	0xbede6730	-0.434381
159	0xbea53887	-0.3226969
160	0xbcc607d1	-0.024173649
161	0xbdb7a230	-0.08966482
162	0xbda47dd2	-0.08031811
163	0xbd8420cb	-0.06451567
164	0x3cf9dcd5	0.030500809
165	0xbe1ca690	-0.15297914
166	0x3e10e8c8	0.14151299
167	0xbe333e43	-0.1750422
168	0xbe7f1493	-0.24910192
169	0xbe1a4f34	-0.15069276
170	0xbf0a4042	-0.540043
171	0x3e1662a3	0.14686064
172	0xbe770fcc	-0.2412712
173	0xbe1efa77	-0.15525232
174	0xbd344ec2	-0.04402042
175	0xbe9024a1	-0.28152946
176	0xbc8cab95	-0.01717166
177	0xbee7ffd4	-0.4531237
178	0x3ba7e4e3	0.005123721
179	0xbe7683d2	-0.24073723
180	0xbe25d6f2	-0.16195276
181	0xbe2a885c	-0.1665358
182	0xbe10960f	-0.14119743
183	0xbeda0087	-0.42578527
184	0xbc2f4420	-0.010697395
185	0xbd560b8d	-0.05225711
186	0xbebba041	-0.36645702
187	0xbed99763	-0.4249831
188	0xbee1f678	-0.44133353
189	0xbd868cb2	-0.06569804
190	0xbe941c33	-0.28927764
191	0xbe9745fa	-0.29545575
192	0xbe22ad67	-0.1588646
193	0xbde3eac3	-0.111287616
194	0xbecf5402	-0.4049378
195	0xbcd8fd03	-0.026487833
196	0xbe9c469c	-0.3052262
197	0xbf3770bd	-0.716564
198	0xbdee0d6b	-0.11623653
199	0xbe4ea560	-0.20180273
200	0x3ced647e	0.028978582
201	0xbe238d1c	-0.15971798
202	0xbe8b4bf1	-0.27206376
203	0xbbc43e53	-0.005988875
204	0x3d818d10	0.06325734
205	0xbe9d3c9d	-0.30710307
206	0xbee26e0f	-0.44224593
207	0xbdfebd86	-0.124384925
208	0x3ec9a8d0	0.39386606
209	0x3e0f07a3	0.13967757
210	0xbdf3c66b	-0.119030796
211	0xbca1c013	-0.019744908
212	0xbe6517cb	-0.22372358
213	0xbe0f462f	-0.13991617
214	0xbe721244	-0.2363978
215	0xbe903301	-0.28163913
216	0xbe464228	-0.19361174
217	0xbe22ba94	-0.15891486
218	0xbda61f71	-0.08111466
219	0xbd189374	-0.037249997
220	0xbe699f8f	-0.22814773
221	0x3d20204e	0.03909331
222	0xbda851b0	-0.08218706
223	0xbeabc2b5	-0.33546987
224	0xbebf71df	-0.37391564
225	0xbf055cbf	-0.52094644
226	0xbec7aba9	-0.38998154
227	0xbe8122ff	-0.25222012
228	0xbe82d661	-0.25554183
229	0xbbd47562	-0.0064837197
230	0xbe6338d1	-0.22189642
231	0xbe82d91f	-0.25556275
232	0xbdc7757d	-0.09739206
233	0xbebe7035	-0.37194982
234	0xbe7c61cd	-0.24646683
235	0xbe250689	-0.16115774
236	0xbe40fa1c	-0.18845409
237	0x3dfd41e5	0.12366084
238	0xbebeab57	-0.37240097
239	0xbf3e66fd	-0.743759
240	0xbeb923fa	-0.3616026
241	0xbe27e380	-0.16395378
242	0xbed695f9	-0.41911295
243	0xbe985e0c	-0.29759252
244	0xbe564d8c	-0.2092802
245	0xbe48ad3e	-0.19597337
246	0xbe6272f2	-0.2211416
247	0xbe5a2052	-0.21301392
248	0xbe193cfc	-0.1496467
249	0xbc422fcd	-0.011852217
250	0xbe44bcef	-0.19212697
251	0xbe2d73c7	-0.16938697
252	0xbe983f2d	-0.297357
253	0xbe52dbe7	-0.20591699
254	0x3eaa0ce1	0.3321295
255	0xbe98312a	-0.2972501

linear2.weight f4 [3, 256]
0	0xbe47e5c7	-0.19521247
1	0x3ea5b7b7	0.32366726
2	0x3eb5a275	0.35475507
3	0xbdc199f6	-0.09453194
4	0xbca9c5fd	-0.020724291
5	0xbd4ee05d	-0.05050694
6	0xbe3671fd	-0.1781692
7	0xbe01c1d5	-0.12671597
8	0x3eb6117f	0.35560223
9	0x3e114ae6	0.14188728
10	0xbdf045da	-0.11732073
11	0x3e631dac	0.22179288
12	0x3d638dc5	0.055555124
13	0xbd071fa0	-0.032989144
14	0xbf335917	-0.70057815
15	0x3e389626	0.18026027
16	0xbb77f9ad	-0.0037838027
17	0xbe10d06b	-0.14142005
18	0x3ca1ff9b	0.019775202
19	0xbe881c79	-0.26584223
20	0x3ca88020	0.020568907
21	0xbd248697	-0.040167417
22	0xbef16463	-0.471469
23	0xbdbad3ce	-0.0912243
24	0x3f017992	0.50576127
25	0xbd2d7036	-0.04234334
26	0x3d572ab6	0.052530967
27	0xbe926031	-0.28589013
28	0xbe8df213	-0.2772375
29	0x3def044d	0.11670742
30	0x3e012369	0.12611164
31	0x39244000	0.000156641
32	0xbd8e4751	-0.06947196
33	0xbe8b3ed1	-0.27196363
34	0xbebfa8ee	-0.3743357
35	0xbf8724c7	-1.0558099
36	0xbe4c1bac	-0.19932431
37	0x3f939956	1.153117
38	0x3ef36cdf	0.47544
39	0xbef24217	-0.47316048
40	0xbde75331	-0.112951644
41	0xbd00aa59	-0.031412456
42	0xbc68421a	-0.014175916
43	0xbd48f9fa	-0.04906652
44	0xbe853fa2	-0.2602511
45	0x3ecce99b	0.40021977
46	0x3d0b9002	0.034072883
47	0xbca6f0d6	-0.020378511
48	0x3ebd1919	0.3693321
49	0x3dc96d54	0.09835306
50	0xba710180	-0.0009193644
51	0x3e0822a9	0.13294472
52	0xbe8d41d4	-0.27589285
53	0xbd4158a2	-0.047203667
54	0x3da89603	0.082317375
55	0x3ea35077	0.31897327
56	0xbdd58e9e	-0.10427593
57	0xbeaddcee	-0.33957618
58	0xbda9bfd6	-0.08288543
59	0x3ebfe826	0.37481803
60	0xbd37523a	-0.04475615
61	0xbf2ae40a	-0.6675421
62	0xbe368f69	-0.17828144
63	0xbe2a05a7	-0.16603719
64	0xbf28c2b7	-0.6592211
65	0xbdb1b27f	-0.086766236
66	0xbdeced38	-0.115686834
67	0x3d367c1c	0.044551954
68	0xbf62770c	-0.884629
69	0xbdf92df1	-0.12166966
70	0xbdfba462	-0.12287213
71	0x3d85f61d	0.06541083
72	0xbccddb9f	-0.025129138
73	0x3e0295b1	0.12752415
74	0xbde64751	-0.11244071
75	0xbcf3729d	-0.029717738
76	0x3d6d5e8f	0.057951506
77	0xbcb72485	-0.022356281
78	0xbe5ff926	-0.21872386
79	0x3c86f7f8	0.016475663
80	0x3e5b4ebc	0.21416754
81	0xbcfb5a88	-0.030682817
82	0xbe531231	-0.20612408
83	0xbdfecb3e	-0.12441109
84	0x3ccf1bcb	0.025281807
85	0xbc115190	-0.008869544
86	0x3d3b1a84	0.045679584
87	0xbea4b825	-0.3217174
88	0x3d3116f8	0.043234795
89	0x3f4c7d39	0.79878575
90	0x3e6d3cc8	0.23167717
91	0x3bbfabba	0.005849329
92	0xbef5ecb7	-0.48032162
93	0x3deedad3	0.11662831
94	0x3e4d954f	0.20076488
95	0xbcb0bece	-0.021575358
96	0x3eb27909	0.34857967
97	0xbdde9dfc	-0.10869977
98	0xbdc8af27	-0.09799033
99	0xbeda6bef	-0.42660472
100	0xbec02418	-0.37527537
101	0xbd658864	-0.056038275
102	0xbd7626e2	-0.060095675
103	0xbe6b8dab	-0.23003261
104	0xbd92fb3f	-0.07176828
105	0x3e9babd5	0.30404535
106	0xbdaf0bc8	-0.08547169
107	0xbd4e6f65	-0.050399203
108	0xbf697aa0	-0.91202736
109	0x3d8a47d7	0.067519836
110	0xbe0d87dc	-0.13821357
111	0xbdad9af0	-0.084768176
112	0x3bf2eac9	0.0074132425
113	0xbeaa6996	-0.3328368
114	0xbe5e7344	-0.21723658
115	0x3f01c4aa	0.5069071
116	0xbd04d12e	-0.03242605
117	0xbddb4d47	-0.10708099
118	0xbe3f8271	-0.18702103
119	0x3e0360e6	0.12829933
120	0xbf276c44	-0.65399575
121	0xbf0107da	-0.50402606
122	0x3b51dc65	0.0032022235
123	0xbe7fd163	-0.24982218
124	0xbda03dd5	-0.078242935
125	0xbee2fb04	-0.44332135
126	0xbdb145e7	-0.08655911
127	0xbd2bb27e	-0.04191827
128	0xbef5b55f	-0.47989938
129	0xbd62c9d7	-0.05536827
130	0x3e0df944	0.13864619
131	0x3c0608ac	0.0081807785
132	0x3d11594c	0.03548555
133	0xbeef56a7	-0.46745798
134	0x3e84d6f4	0.25945246
135	0x3d65974c	0.05605249
136	0x3bce5648	0.0062969066
137	0x3eaa0e40	0.33213997
138	0x3ce0c8b0	0.027439445
139	0xbd95f84e	-0.07322751
140	0x3e05506a	0.13018957
141	0xbd7e34c2	-0.062062033
142	0xbdb420c9	-0.08795316
143	0x3e2b0cf8	0.16704166
144	0x3b924f10	0.0044649914
145	0xbd78d673	-0.06075139
146	0x3de0878b	0.10963353
147	0x3cff839e	0.03119069
148	0xbca2c25b	-0.019868067
149	0x3e94db80	0.29073715
150	0x3ea375ab	0.3192571
151	0xbe72211a	-0.2364544
152	0xbf19fca5	-0.6015113
153	0xbee3dd94	-0.44504988
154	0x3e73c78f	0.23806594
155	0x3dee5298	0.11636847
156	0xbe95d6b5	-0.2926537
157	0x3dc570d7	0.09640663
158	0xbdeba70f	-0.11506473
159	0x3d3c436d	0.04596274
160	0xbebe2a78	-0.37141776
161	0xbe880023	-0.26562604
162	0xbd559d8b	-0.052152198
163	0xbbadd351	-0.005304732
164	0xbd5d7536	-0.05406686
165	0x3db64658	0.08900136
166	0x3f008803	0.5020754
167	0x3e713701	0.23556139
168	0xbec9921b	-0.39369282
169	0x3c86f793	0.016475474
170	0x3e933351	0.2875009
171	0xbe978c28	-0.29599118
172	0x3d3c9b84	0.04604675
173	0x3ce2de38	0.027693853
174	0xbe259b5c	-0.16172546
175	0xbcc2fec3	-0.02380312
176	0x3d85361f	0.065044634
177	0xbe21b0d7	-0.15790115
178	0x3e9a0aa3	0.3008624
179	0xbd159e08	-0.036527663
180	0xbd25865a	-0.04041133
181	0xbd2ff504	-0.042958274
182	0x3e2fc4f4	0.17164975
183	0x3efcbe73	0.4936405
184	0xbe41c53b	-0.18922894
185	0x3d9a1bd3	0.07524838
186	0xbeadcb5e	-0.3394422
187	0xbf4a23e0	-0.7896099
188	0xbef1cb85	-0.47225586
189	0xbd0f84c8	-0.03503874
190	0x3c89ace7	0.01680608
191	0x3d3d0068	0.046142966
192	0xbd3414f5	-0.0439653
193	0xbe03fbc4	-0.1288901
194	0xbc96d03a	-0.018409837
195	0xbc17fadf	-0.009276121
196	0x3c964c37	0.018346889
197	0xbf58b472	-0.8465034
198	0x3dcaa2d8	0.09894341
199	0x3d87be00	0.066280365
200	0xbe514591	-0.20436694
201	0xbe92f006	-0.28698748
202	0xbe8c509f	-0.2740526
203	0x3e32572a	0.17416063
204	0x3e6e30fa	0.2326087
205	0xbca04f46	-0.01956905
206	0xbc1b1c77	-0.009467236
207	0xbeb847fb	-0.35992417
208	0x3efecba9	0.49764755
209	0xbe66c0d8	-0.22534502
210	0xbca33696	-0.01992349
211	0xbcf73f88	-0.030181661
212	0xbecdcf92	-0.40197426
213	0xbc1fea64	-0.009760473
214	0x3bb3248e	0.005467004
215	0xbeea2b52	-0.45736176
216	0xbd8b2a59	-0.067951865
217	0x3d71b6ef	0.05901235
218	0xbda5a3f5	-0.08087913
219	0xbead9b26	-0.3390743
220	0x3f2b5d68	0.669394
221	0x3f1dfb28	0.6171136
222	0x3d179abc	0.0370128
223	0xbecc61f6	-0.39918488
224	0x3d86fa9b	0.06590768
225	0xbe8c9607	-0.27458212
226	0xbe93f1dc	-0.28895462
227	0xbd84b271	-0.064793475
228	0x3cdd0f4a	0.02698483
229	0xbf0774b0	-0.52912426
230	0x3d88b588	0.06675249
231	0xbd584450	-0.052799523
232	0x3e5cc32a	0.21558824
233	0xbea0ce98	-0.3140762
234	0xbe7ff9b6	-0.24997601
235	0xbec7d3d9	-0.39028814
236	0xbe2ae806	-0.16690072
237	0x3e6bf97a	0.23044387
238	0xbe2eb4e9	-0.17061199
239	0xbf49d5cd	-0.7884186
240	0x3f4b3c6d	0.7938908
241	0xbed06817	-0.40704414
242	0xbbb4073f	-0.005494028
243	0x3c886dbc	0.016653888
244	0xbd799edc	-0.060942516
245	0xbec706cf	-0.38872382
246	0xbcbcb571	-0.023035737
247	0x3d0ea708	0.034827262
248	0xbeaa5a75	-0.33272138
249	0x3f0e7437	0.5564608
250	0x3de5955a	0.11210127
251	0xbe5d1ef3	-0.21593837
252	0x3e21af66	0.15789565
253	0x3e2189d3	0.15775232
254	0x3ebc68ea	0.36798793
255	0x3d3cbfd3	0.046081375

linear2.bias f4 [3]
0	0x3e0a3c07	0.13499461
1	0xbe43febc	-0.19140142
2	0xbc70d3d8	-0.014698945
